…
I0426 18:15:27.060191  9555 net.cpp:294] The NetState phase (0) differed from the phase (1) specified by a rule in layer accuracy
I0426 18:15:27.061025  9555 net.cpp:51] Initializing net from parameters: 
name: "ResNet-50"
state {
  phase: TRAIN
  level: 0
  stage: ""
}
layer {
  name: "data"
  type: "ImageData"
  top: "data"
  top: "label"
  include {
    phase: TRAIN
  }
  transform_param {
    mean_value: 296
    mean_value: 103
    mean_value: 108
  }
  image_data_param {
    source: "/home/msucheck/data/train/list_caffe.txt"
    batch_size: 8
    new_height: 159
    new_width: 240
  }
}
layer {
  name: "conv1"
  type: "Convolution"
  bottom: "data"
  top: "conv1"
  convolution_param {
    num_output: 64
    bias_term: true
    pad: 3
    kernel_size: 7
    stride: 2
    weight_filler {
      type: "msra"
    }
  }
}
layer {
  name: "bn_conv1"
  type: "BatchNorm"
  bottom: "conv1"
  top: "conv1"
  batch_norm_param {
    use_global_stats: false
  }
}
layer {
  name: "scale_conv1"
  type: "Scale"
  bottom: "conv1"
  top: "conv1"
  scale_param {
    bias_term: true
  }
}
layer {
  name: "conv1_relu"
  type: "ReLU"
  bottom: "conv1"
  top: "conv1"
}
layer {
  name: "pool1"
  type: "Pooling"
  bottom: "conv1"
  top: "pool1"
  pooling_param {
    pool: MAX
    kernel_size: 3
    stride: 2
  }
}
layer {
  name: "res2a_branch1"
  type: "Convolution"
  bottom: "pool1"
  top: "res2a_branch1"
  convolution_param {
    num_output: 256
    bias_term: false
    pad: 0
    kernel_size: 1
    stride: 1
    weight_filler {
      type: "msra"
    }
  }
}
layer {
  name: "bn2a_branch1"
  type: "BatchNorm"
  bottom: "res2a_branch1"
  top: "res2a_branch1"
  batch_norm_param {
    use_global_stats: false
  }
}
layer {
  name: "scale2a_branch1"
  type: "Scale"
  bottom: "res2a_branch1"
  top: "res2a_branch1"
  scale_param {
    bias_term: true
  }
}
layer {
  name: "res2a_branch2a"
  type: "Convolution"
  bottom: "pool1"
  top: "res2a_branch2a"
  convolution_param {
    num_output: 64
    bias_term: false
    pad: 0
    kernel_size: 1
    stride: 1
    weight_filler {
      type: "msra"
    }
  }
}
layer {
  name: "bn2a_branch2a"
  type: "BatchNorm"
  bottom: "res2a_branch2a"
  top: "res2a_branch2a"
  batch_norm_param {
    use_global_stats: false
  }
}
layer {
  name: "scale2a_branch2a"
  type: "Scale"
  bottom: "res2a_branch2a"
  top: "res2a_branch2a"
  scale_param {
    bias_term: true
  }
}
layer {
  name: "res2a_branch2a_relu"
  type: "ReLU"
  bottom: "res2a_branch2a"
  top: "res2a_branch2a"
}
layer {
  name: "res2a_branch2b"
  type: "Convolution"
  bottom: "res2a_branch2a"
  top: "res2a_branch2b"
  convolution_param {
    num_output: 64
    bias_term: false
    pad: 1
    kernel_size: 3
    stride: 1
    weight_filler {
      type: "msra"
    }
  }
}
layer {
  name: "bn2a_branch2b"
  type: "BatchNorm"
  bottom: "res2a_branch2b"
  top: "res2a_branch2b"
  batch_norm_param {
    use_global_stats: false
  }
}
layer {
  name: "scale2a_branch2b"
  type: "Scale"
  bottom: "res2a_branch2b"
  top: "res2a_branch2b"
  scale_param {
    bias_term: true
  }
}
layer {
  name: "res2a_branch2b_relu"
  type: "ReLU"
  bottom: "res2a_branch2b"
  top: "res2a_branch2b"
}
layer {
  name: "res2a_branch2c"
  type: "Convolution"
  bottom: "res2a_branch2b"
  top: "res2a_branch2c"
  convolution_param {
    num_output: 256
    bias_term: false
    pad: 0
    kernel_size: 1
    stride: 1
    weight_filler {
      type: "msra"
    }
  }
}
layer {
  name: "bn2a_branch2c"
  type: "BatchNorm"
  bottom: "res2a_branch2c"
  top: "res2a_branch2c"
  batch_norm_param {
    use_global_stats: false
  }
}
layer {
  name: "scale2a_branch2c"
  type: "Scale"
  bottom: "res2a_branch2c"
  top: "res2a_branch2c"
  scale_param {
    bias_term: true
  }
}
layer {
  name: "res2a"
  type: "Eltwise"
  bottom: "res2a_branch1"
  bottom: "res2a_branch2c"
  top: "res2a"
  eltwise_param {
    operation: SUM
  }
}
layer {
  name: "res2a_relu"
  type: "ReLU"
  bottom: "res2a"
  top: "res2a"
}
layer {
  name: "res2b_branch2a"
  type: "Convolution"
  bottom: "res2a"
  top: "res2b_branch2a"
  convolution_param {
    num_output: 64
    bias_term: false
    pad: 0
    kernel_size: 1
    stride: 1
    weight_filler {
      type: "msra"
    }
  }
}
layer {
  name: "bn2b_branch2a"
  type: "BatchNorm"
  bottom: "res2b_branch2a"
  top: "res2b_branch2a"
  batch_norm_param {
    use_global_stats: false
  }
}
layer {
  name: "scale2b_branch2a"
  type: "Scale"
  bottom: "res2b_branch2a"
  top: "res2b_branch2a"
  scale_param {
    bias_term: true
  }
}
layer {
  name: "res2b_branch2a_relu"
  type: "ReLU"
  bottom: "res2b_branch2a"
  top: "res2b_branch2a"
}
layer {
  name: "res2b_branch2b"
  type: "Convolution"
  bottom: "res2b_branch2a"
  top: "res2b_branch2b"
  convolution_param {
    num_output: 64
    bias_term: false
    pad: 1
    kernel_size: 3
    stride: 1
    weight_filler {
      type: "msra"
    }
  }
}
layer {
  name: "bn2b_branch2b"
  type: "BatchNorm"
  bottom: "res2b_branch2b"
  top: "res2b_branch2b"
  batch_norm_param {
    use_global_stats: false
  }
}
layer {
  name: "scale2b_branch2b"
  type: "Scale"
  bottom: "res2b_branch2b"
  top: "res2b_branch2b"
  scale_param {
    bias_term: true
  }
}
layer {
  name: "res2b_branch2b_relu"
  type: "ReLU"
  bottom: "res2b_branch2b"
  top: "res2b_branch2b"
}
layer {
  name: "res2b_branch2c"
  type: "Convolution"
  bottom: "res2b_branch2b"
  top: "res2b_branch2c"
  convolution_param {
    num_output: 256
    bias_term: false
    pad: 0
    kernel_size: 1
    stride: 1
    weight_filler {
      type: "msra"
    }
  }
}
layer {
  name: "bn2b_branch2c"
  type: "BatchNorm"
  bottom: "res2b_branch2c"
  top: "res2b_branch2c"
  batch_norm_param {
    use_global_stats: false
  }
}
layer {
  name: "scale2b_branch2c"
  type: "Scale"
  bottom: "res2b_branch2c"
  top: "res2b_branch2c"
  scale_param {
    bias_term: true
  }
}
layer {
  name: "res2b"
  type: "Eltwise"
  bottom: "res2a"
  bottom: "res2b_branch2c"
  top: "res2b"
  eltwise_param {
    operation: SUM
  }
}
layer {
  name: "res2b_relu"
  type: "ReLU"
  bottom: "res2b"
  top: "res2b"
}
layer {
  name: "res2c_branch2a"
  type: "Convolution"
  bottom: "res2b"
  top: "res2c_branch2a"
  convolution_param {
    num_output: 64
    bias_term: false
    pad: 0
    kernel_size: 1
    stride: 1
    weight_filler {
      type: "msra"
    }
  }
}
layer {
  name: "bn2c_branch2a"
  type: "BatchNorm"
  bottom: "res2c_branch2a"
  top: "res2c_branch2a"
  batch_norm_param {
    use_global_stats: false
  }
}
layer {
  name: "scale2c_branch2a"
  type: "Scale"
  bottom: "res2c_branch2a"
  top: "res2c_branch2a"
  scale_param {
    bias_term: true
  }
}
layer {
  name: "res2c_branch2a_relu"
  type: "ReLU"
  bottom: "res2c_branch2a"
  top: "res2c_branch2a"
}
layer {
  name: "res2c_branch2b"
  type: "Convolution"
  bottom: "res2c_branch2a"
  top: "res2c_branch2b"
  convolution_param {
    num_output: 64
    bias_term: false
    pad: 1
    kernel_size: 3
    stride: 1
    weight_filler {
      type: "msra"
    }
  }
}
layer {
  name: "bn2c_branch2b"
  type: "BatchNorm"
  bottom: "res2c_branch2b"
  top: "res2c_branch2b"
  batch_norm_param {
    use_global_stats: false
  }
}
layer {
  name: "scale2c_branch2b"
  type: "Scale"
  bottom: "res2c_branch2b"
  top: "res2c_branch2b"
  scale_param {
    bias_term: true
  }
}
layer {
  name: "res2c_branch2b_relu"
  type: "ReLU"
  bottom: "res2c_branch2b"
  top: "res2c_branch2b"
}
layer {
  name: "res2c_branch2c"
  type: "Convolution"
  bottom: "res2c_branch2b"
  top: "res2c_branch2c"
  convolution_param {
    num_output: 256
    bias_term: false
    pad: 0
    kernel_size: 1
    stride: 1
    weight_filler {
      type: "msra"
    }
  }
}
layer {
  name: "bn2c_branch2c"
  type: "BatchNorm"
  bottom: "res2c_branch2c"
  top: "res2c_branch2c"
  batch_norm_param {
    use_global_stats: false
  }
}
layer {
  name: "scale2c_branch2c"
  type: "Scale"
  bottom: "res2c_branch2c"
  top: "res2c_branch2c"
  scale_param {
    bias_term: true
  }
}
layer {
  name: "res2c"
  type: "Eltwise"
  bottom: "res2b"
  bottom: "res2c_branch2c"
  top: "res2c"
  eltwise_param {
    operation: SUM
  }
}
layer {
  name: "res2c_relu"
  type: "ReLU"
  bottom: "res2c"
  top: "res2c"
}
layer {
  name: "res3a_branch1"
  type: "Convolution"
  bottom: "res2c"
  top: "res3a_branch1"
  convolution_param {
    num_output: 512
    bias_term: false
    pad: 0
    kernel_size: 1
    stride: 2
    weight_filler {
      type: "msra"
    }
  }
}
layer {
  name: "bn3a_branch1"
  type: "BatchNorm"
  bottom: "res3a_branch1"
  top: "res3a_branch1"
  batch_norm_param {
    use_global_stats: false
  }
}
layer {
  name: "scale3a_branch1"
  type: "Scale"
  bottom: "res3a_branch1"
  top: "res3a_branch1"
  scale_param {
    bias_term: true
  }
}
layer {
  name: "res3a_branch2a"
  type: "Convolution"
  bottom: "res2c"
  top: "res3a_branch2a"
  convolution_param {
    num_output: 128
    bias_term: false
    pad: 0
    kernel_size: 1
    stride: 2
    weight_filler {
      type: "msra"
    }
  }
}
layer {
  name: "bn3a_branch2a"
  type: "BatchNorm"
  bottom: "res3a_branch2a"
  top: "res3a_branch2a"
  batch_norm_param {
    use_global_stats: false
  }
}
layer {
  name: "scale3a_branch2a"
  type: "Scale"
  bottom: "res3a_branch2a"
  top: "res3a_branch2a"
  scale_param {
    bias_term: true
  }
}
layer {
  name: "res3a_branch2a_relu"
  type: "ReLU"
  bottom: "res3a_branch2a"
  top: "res3a_branch2a"
}
layer {
  name: "res3a_branch2b"
  type: "Convolution"
  bottom: "res3a_branch2a"
  top: "res3a_branch2b"
  convolution_param {
    num_output: 128
    bias_term: false
    pad: 1
    kernel_size: 3
    stride: 1
    weight_filler {
      type: "msra"
    }
  }
}
layer {
  name: "bn3a_branch2b"
  type: "BatchNorm"
  bottom: "res3a_branch2b"
  top: "res3a_branch2b"
  batch_norm_param {
    use_global_stats: false
  }
}
layer {
  name: "scale3a_branch2b"
  type: "Scale"
  bottom: "res3a_branch2b"
  top: "res3a_branch2b"
  scale_param {
    bias_term: true
  }
}
layer {
  name: "res3a_branch2b_relu"
  type: "ReLU"
  bottom: "res3a_branch2b"
  top: "res3a_branch2b"
}
layer {
  name: "res3a_branch2c"
  type: "Convolution"
  bottom: "res3a_branch2b"
  top: "res3a_branch2c"
  convolution_param {
    num_output: 512
    bias_term: false
    pad: 0
    kernel_size: 1
    stride: 1
    weight_filler {
      type: "msra"
    }
  }
}
layer {
  name: "bn3a_branch2c"
  type: "BatchNorm"
  bottom: "res3a_branch2c"
  top: "res3a_branch2c"
  batch_norm_param {
    use_global_stats: false
  }
}
layer {
  name: "scale3a_branch2c"
  type: "Scale"
  bottom: "res3a_branch2c"
  top: "res3a_branch2c"
  scale_param {
    bias_term: true
  }
}
layer {
  name: "res3a"
  type: "Eltwise"
  bottom: "res3a_branch1"
  bottom: "res3a_branch2c"
  top: "res3a"
  eltwise_param {
    operation: SUM
  }
}
layer {
  name: "res3a_relu"
  type: "ReLU"
  bottom: "res3a"
  top: "res3a"
}
layer {
  name: "res3b_branch2a"
  type: "Convolution"
  bottom: "res3a"
  top: "res3b_branch2a"
  convolution_param {
    num_output: 128
    bias_term: false
    pad: 0
    kernel_size: 1
    stride: 1
    weight_filler {
      type: "msra"
    }
  }
}
layer {
  name: "bn3b_branch2a"
  type: "BatchNorm"
  bottom: "res3b_branch2a"
  top: "res3b_branch2a"
  batch_norm_param {
    use_global_stats: false
  }
}
layer {
  name: "scale3b_branch2a"
  type: "Scale"
  bottom: "res3b_branch2a"
  top: "res3b_branch2a"
  scale_param {
    bias_term: true
  }
}
layer {
  name: "res3b_branch2a_relu"
  type: "ReLU"
  bottom: "res3b_branch2a"
  top: "res3b_branch2a"
}
layer {
  name: "res3b_branch2b"
  type: "Convolution"
  bottom: "res3b_branch2a"
  top: "res3b_branch2b"
  convolution_param {
    num_output: 128
    bias_term: false
    pad: 1
    kernel_size: 3
    stride: 1
    weight_filler {
      type: "msra"
    }
  }
}
layer {
  name: "bn3b_branch2b"
  type: "BatchNorm"
  bottom: "res3b_branch2b"
  top: "res3b_branch2b"
  batch_norm_param {
    use_global_stats: false
  }
}
layer {
  name: "scale3b_branch2b"
  type: "Scale"
  bottom: "res3b_branch2b"
  top: "res3b_branch2b"
  scale_param {
    bias_term: true
  }
}
layer {
  name: "res3b_branch2b_relu"
  type: "ReLU"
  bottom: "res3b_branch2b"
  top: "res3b_branch2b"
}
layer {
  name: "res3b_branch2c"
  type: "Convolution"
  bottom: "res3b_branch2b"
  top: "res3b_branch2c"
  convolution_param {
    num_output: 512
    bias_term: false
    pad: 0
    kernel_size: 1
    stride: 1
    weight_filler {
      type: "msra"
    }
  }
}
layer {
  name: "bn3b_branch2c"
  type: "BatchNorm"
  bottom: "res3b_branch2c"
  top: "res3b_branch2c"
  batch_norm_param {
    use_global_stats: false
  }
}
layer {
  name: "scale3b_branch2c"
  type: "Scale"
  bottom: "res3b_branch2c"
  top: "res3b_branch2c"
  scale_param {
    bias_term: true
  }
}
layer {
  name: "res3b"
  type: "Eltwise"
  bottom: "res3a"
  bottom: "res3b_branch2c"
  top: "res3b"
  eltwise_param {
    operation: SUM
  }
}
layer {
  name: "res3b_relu"
  type: "ReLU"
  bottom: "res3b"
  top: "res3b"
}
layer {
  name: "res3c_branch2a"
  type: "Convolution"
  bottom: "res3b"
  top: "res3c_branch2a"
  convolution_param {
    num_output: 128
    bias_term: false
    pad: 0
    kernel_size: 1
    stride: 1
    weight_filler {
      type: "msra"
    }
  }
}
layer {
  name: "bn3c_branch2a"
  type: "BatchNorm"
  bottom: "res3c_branch2a"
  top: "res3c_branch2a"
  batch_norm_param {
    use_global_stats: false
  }
}
layer {
  name: "scale3c_branch2a"
  type: "Scale"
  bottom: "res3c_branch2a"
  top: "res3c_branch2a"
  scale_param {
    bias_term: true
  }
}
layer {
  name: "res3c_branch2a_relu"
  type: "ReLU"
  bottom: "res3c_branch2a"
  top: "res3c_branch2a"
}
layer {
  name: "res3c_branch2b"
  type: "Convolution"
  bottom: "res3c_branch2a"
  top: "res3c_branch2b"
  convolution_param {
    num_output: 128
    bias_term: false
    pad: 1
    kernel_size: 3
    stride: 1
    weight_filler {
      type: "msra"
    }
  }
}
layer {
  name: "bn3c_branch2b"
  type: "BatchNorm"
  bottom: "res3c_branch2b"
  top: "res3c_branch2b"
  batch_norm_param {
    use_global_stats: false
  }
}
layer {
  name: "scale3c_branch2b"
  type: "Scale"
  bottom: "res3c_branch2b"
  top: "res3c_branch2b"
  scale_param {
    bias_term: true
  }
}
layer {
  name: "res3c_branch2b_relu"
  type: "ReLU"
  bottom: "res3c_branch2b"
  top: "res3c_branch2b"
}
layer {
  name: "res3c_branch2c"
  type: "Convolution"
  bottom: "res3c_branch2b"
  top: "res3c_branch2c"
  convolution_param {
    num_output: 512
    bias_term: false
    pad: 0
    kernel_size: 1
    stride: 1
    weight_filler {
      type: "msra"
    }
  }
}
layer {
  name: "bn3c_branch2c"
  type: "BatchNorm"
  bottom: "res3c_branch2c"
  top: "res3c_branch2c"
  batch_norm_param {
    use_global_stats: false
  }
}
layer {
  name: "scale3c_branch2c"
  type: "Scale"
  bottom: "res3c_branch2c"
  top: "res3c_branch2c"
  scale_param {
    bias_term: true
  }
}
layer {
  name: "res3c"
  type: "Eltwise"
  bottom: "res3b"
  bottom: "res3c_branch2c"
  top: "res3c"
  eltwise_param {
    operation: SUM
  }
}
layer {
  name: "res3c_relu"
  type: "ReLU"
  bottom: "res3c"
  top: "res3c"
}
layer {
  name: "res3d_branch2a"
  type: "Convolution"
  bottom: "res3c"
  top: "res3d_branch2a"
  convolution_param {
    num_output: 128
    bias_term: false
    pad: 0
    kernel_size: 1
    stride: 1
    weight_filler {
      type: "msra"
    }
  }
}
layer {
  name: "bn3d_branch2a"
  type: "BatchNorm"
  bottom: "res3d_branch2a"
  top: "res3d_branch2a"
  batch_norm_param {
    use_global_stats: false
  }
}
layer {
  name: "scale3d_branch2a"
  type: "Scale"
  bottom: "res3d_branch2a"
  top: "res3d_branch2a"
  scale_param {
    bias_term: true
  }
}
layer {
  name: "res3d_branch2a_relu"
  type: "ReLU"
  bottom: "res3d_branch2a"
  top: "res3d_branch2a"
}
layer {
  name: "res3d_branch2b"
  type: "Convolution"
  bottom: "res3d_branch2a"
  top: "res3d_branch2b"
  convolution_param {
    num_output: 128
    bias_term: false
    pad: 1
    kernel_size: 3
    stride: 1
    weight_filler {
      type: "msra"
    }
  }
}
layer {
  name: "bn3d_branch2b"
  type: "BatchNorm"
  bottom: "res3d_branch2b"
  top: "res3d_branch2b"
  batch_norm_param {
    use_global_stats: false
  }
}
layer {
  name: "scale3d_branch2b"
  type: "Scale"
  bottom: "res3d_branch2b"
  top: "res3d_branch2b"
  scale_param {
    bias_term: true
  }
}
layer {
  name: "res3d_branch2b_relu"
  type: "ReLU"
  bottom: "res3d_branch2b"
  top: "res3d_branch2b"
}
layer {
  name: "res3d_branch2c"
  type: "Convolution"
  bottom: "res3d_branch2b"
  top: "res3d_branch2c"
  convolution_param {
    num_output: 512
    bias_term: false
    pad: 0
    kernel_size: 1
    stride: 1
    weight_filler {
      type: "msra"
    }
  }
}
layer {
  name: "bn3d_branch2c"
  type: "BatchNorm"
  bottom: "res3d_branch2c"
  top: "res3d_branch2c"
  batch_norm_param {
    use_global_stats: false
  }
}
layer {
  name: "scale3d_branch2c"
  type: "Scale"
  bottom: "res3d_branch2c"
  top: "res3d_branch2c"
  scale_param {
    bias_term: true
  }
}
layer {
  name: "res3d"
  type: "Eltwise"
  bottom: "res3c"
  bottom: "res3d_branch2c"
  top: "res3d"
  eltwise_param {
    operation: SUM
  }
}
layer {
  name: "res3d_relu"
  type: "ReLU"
  bottom: "res3d"
  top: "res3d"
}
layer {
  name: "res4a_branch1"
  type: "Convolution"
  bottom: "res3d"
  top: "res4a_branch1"
  convolution_param {
    num_output: 1024
    bias_term: false
    pad: 0
    kernel_size: 1
    stride: 2
    weight_filler {
      type: "msra"
    }
  }
}
layer {
  name: "bn4a_branch1"
  type: "BatchNorm"
  bottom: "res4a_branch1"
  top: "res4a_branch1"
  batch_norm_param {
    use_global_stats: false
  }
}
layer {
  name: "scale4a_branch1"
  type: "Scale"
  bottom: "res4a_branch1"
  top: "res4a_branch1"
  scale_param {
    bias_term: true
  }
}
layer {
  name: "res4a_branch2a"
  type: "Convolution"
  bottom: "res3d"
  top: "res4a_branch2a"
  convolution_param {
    num_output: 256
    bias_term: false
    pad: 0
    kernel_size: 1
    stride: 2
    weight_filler {
      type: "msra"
    }
  }
}
layer {
  name: "bn4a_branch2a"
  type: "BatchNorm"
  bottom: "res4a_branch2a"
  top: "res4a_branch2a"
  batch_norm_param {
    use_global_stats: false
  }
}
layer {
  name: "scale4a_branch2a"
  type: "Scale"
  bottom: "res4a_branch2a"
  top: "res4a_branch2a"
  scale_param {
    bias_term: true
  }
}
layer {
  name: "res4a_branch2a_relu"
  type: "ReLU"
  bottom: "res4a_branch2a"
  top: "res4a_branch2a"
}
layer {
  name: "res4a_branch2b"
  type: "Convolution"
  bottom: "res4a_branch2a"
  top: "res4a_branch2b"
  convolution_param {
    num_output: 256
    bias_term: false
    pad: 1
    kernel_size: 3
    stride: 1
    weight_filler {
      type: "msra"
    }
  }
}
layer {
  name: "bn4a_branch2b"
  type: "BatchNorm"
  bottom: "res4a_branch2b"
  top: "res4a_branch2b"
  batch_norm_param {
    use_global_stats: false
  }
}
layer {
  name: "scale4a_branch2b"
  type: "Scale"
  bottom: "res4a_branch2b"
  top: "res4a_branch2b"
  scale_param {
    bias_term: true
  }
}
layer {
  name: "res4a_branch2b_relu"
  type: "ReLU"
  bottom: "res4a_branch2b"
  top: "res4a_branch2b"
}
layer {
  name: "res4a_branch2c"
  type: "Convolution"
  bottom: "res4a_branch2b"
  top: "res4a_branch2c"
  convolution_param {
    num_output: 1024
    bias_term: false
    pad: 0
    kernel_size: 1
    stride: 1
    weight_filler {
      type: "msra"
    }
  }
}
layer {
  name: "bn4a_branch2c"
  type: "BatchNorm"
  bottom: "res4a_branch2c"
  top: "res4a_branch2c"
  batch_norm_param {
    use_global_stats: false
  }
}
layer {
  name: "scale4a_branch2c"
  type: "Scale"
  bottom: "res4a_branch2c"
  top: "res4a_branch2c"
  scale_param {
    bias_term: true
  }
}
layer {
  name: "res4a"
  type: "Eltwise"
  bottom: "res4a_branch1"
  bottom: "res4a_branch2c"
  top: "res4a"
  eltwise_param {
    operation: SUM
  }
}
layer {
  name: "res4a_relu"
  type: "ReLU"
  bottom: "res4a"
  top: "res4a"
}
layer {
  name: "res4b_branch2a"
  type: "Convolution"
  bottom: "res4a"
  top: "res4b_branch2a"
  convolution_param {
    num_output: 256
    bias_term: false
    pad: 0
    kernel_size: 1
    stride: 1
    weight_filler {
      type: "msra"
    }
  }
}
layer {
  name: "bn4b_branch2a"
  type: "BatchNorm"
  bottom: "res4b_branch2a"
  top: "res4b_branch2a"
  batch_norm_param {
    use_global_stats: false
  }
}
layer {
  name: "scale4b_branch2a"
  type: "Scale"
  bottom: "res4b_branch2a"
  top: "res4b_branch2a"
  scale_param {
    bias_term: true
  }
}
layer {
  name: "res4b_branch2a_relu"
  type: "ReLU"
  bottom: "res4b_branch2a"
  top: "res4b_branch2a"
}
layer {
  name: "res4b_branch2b"
  type: "Convolution"
  bottom: "res4b_branch2a"
  top: "res4b_branch2b"
  convolution_param {
    num_output: 256
    bias_term: false
    pad: 1
    kernel_size: 3
    stride: 1
    weight_filler {
      type: "msra"
    }
  }
}
layer {
  name: "bn4b_branch2b"
  type: "BatchNorm"
  bottom: "res4b_branch2b"
  top: "res4b_branch2b"
  batch_norm_param {
    use_global_stats: false
  }
}
layer {
  name: "scale4b_branch2b"
  type: "Scale"
  bottom: "res4b_branch2b"
  top: "res4b_branch2b"
  scale_param {
    bias_term: true
  }
}
layer {
  name: "res4b_branch2b_relu"
  type: "ReLU"
  bottom: "res4b_branch2b"
  top: "res4b_branch2b"
}
layer {
  name: "res4b_branch2c"
  type: "Convolution"
  bottom: "res4b_branch2b"
  top: "res4b_branch2c"
  convolution_param {
    num_output: 1024
    bias_term: false
    pad: 0
    kernel_size: 1
    stride: 1
    weight_filler {
      type: "msra"
    }
  }
}
layer {
  name: "bn4b_branch2c"
  type: "BatchNorm"
  bottom: "res4b_branch2c"
  top: "res4b_branch2c"
  batch_norm_param {
    use_global_stats: false
  }
}
layer {
  name: "scale4b_branch2c"
  type: "Scale"
  bottom: "res4b_branch2c"
  top: "res4b_branch2c"
  scale_param {
    bias_term: true
  }
}
layer {
  name: "res4b"
  type: "Eltwise"
  bottom: "res4a"
  bottom: "res4b_branch2c"
  top: "res4b"
  eltwise_param {
    operation: SUM
  }
}
layer {
  name: "res4b_relu"
  type: "ReLU"
  bottom: "res4b"
  top: "res4b"
}
layer {
  name: "res4c_branch2a"
  type: "Convolution"
  bottom: "res4b"
  top: "res4c_branch2a"
  convolution_param {
    num_output: 256
    bias_term: false
    pad: 0
    kernel_size: 1
    stride: 1
    weight_filler {
      type: "msra"
    }
  }
}
layer {
  name: "bn4c_branch2a"
  type: "BatchNorm"
  bottom: "res4c_branch2a"
  top: "res4c_branch2a"
  batch_norm_param {
    use_global_stats: false
  }
}
layer {
  name: "scale4c_branch2a"
  type: "Scale"
  bottom: "res4c_branch2a"
  top: "res4c_branch2a"
  scale_param {
    bias_term: true
  }
}
layer {
  name: "res4c_branch2a_relu"
  type: "ReLU"
  bottom: "res4c_branch2a"
  top: "res4c_branch2a"
}
layer {
  name: "res4c_branch2b"
  type: "Convolution"
  bottom: "res4c_branch2a"
  top: "res4c_branch2b"
  convolution_param {
    num_output: 256
    bias_term: false
    pad: 1
    kernel_size: 3
    stride: 1
    weight_filler {
      type: "msra"
    }
  }
}
layer {
  name: "bn4c_branch2b"
  type: "BatchNorm"
  bottom: "res4c_branch2b"
  top: "res4c_branch2b"
  batch_norm_param {
    use_global_stats: false
  }
}
layer {
  name: "scale4c_branch2b"
  type: "Scale"
  bottom: "res4c_branch2b"
  top: "res4c_branch2b"
  scale_param {
    bias_term: true
  }
}
layer {
  name: "res4c_branch2b_relu"
  type: "ReLU"
  bottom: "res4c_branch2b"
  top: "res4c_branch2b"
}
layer {
  name: "res4c_branch2c"
  type: "Convolution"
  bottom: "res4c_branch2b"
  top: "res4c_branch2c"
  convolution_param {
    num_output: 1024
    bias_term: false
    pad: 0
    kernel_size: 1
    stride: 1
    weight_filler {
      type: "msra"
    }
  }
}
layer {
  name: "bn4c_branch2c"
  type: "BatchNorm"
  bottom: "res4c_branch2c"
  top: "res4c_branch2c"
  batch_norm_param {
    use_global_stats: false
  }
}
layer {
  name: "scale4c_branch2c"
  type: "Scale"
  bottom: "res4c_branch2c"
  top: "res4c_branch2c"
  scale_param {
    bias_term: true
  }
}
layer {
  name: "res4c"
  type: "Eltwise"
  bottom: "res4b"
  bottom: "res4c_branch2c"
  top: "res4c"
  eltwise_param {
    operation: SUM
  }
}
layer {
  name: "res4c_relu"
  type: "ReLU"
  bottom: "res4c"
  top: "res4c"
}
layer {
  name: "res4d_branch2a"
  type: "Convolution"
  bottom: "res4c"
  top: "res4d_branch2a"
  convolution_param {
    num_output: 256
    bias_term: false
    pad: 0
    kernel_size: 1
    stride: 1
    weight_filler {
      type: "msra"
    }
  }
}
layer {
  name: "bn4d_branch2a"
  type: "BatchNorm"
  bottom: "res4d_branch2a"
  top: "res4d_branch2a"
  batch_norm_param {
    use_global_stats: false
  }
}
layer {
  name: "scale4d_branch2a"
  type: "Scale"
  bottom: "res4d_branch2a"
  top: "res4d_branch2a"
  scale_param {
    bias_term: true
  }
}
layer {
  name: "res4d_branch2a_relu"
  type: "ReLU"
  bottom: "res4d_branch2a"
  top: "res4d_branch2a"
}
layer {
  name: "res4d_branch2b"
  type: "Convolution"
  bottom: "res4d_branch2a"
  top: "res4d_branch2b"
  convolution_param {
    num_output: 256
    bias_term: false
    pad: 1
    kernel_size: 3
    stride: 1
    weight_filler {
      type: "msra"
    }
  }
}
layer {
  name: "bn4d_branch2b"
  type: "BatchNorm"
  bottom: "res4d_branch2b"
  top: "res4d_branch2b"
  batch_norm_param {
    use_global_stats: false
  }
}
layer {
  name: "scale4d_branch2b"
  type: "Scale"
  bottom: "res4d_branch2b"
  top: "res4d_branch2b"
  scale_param {
    bias_term: true
  }
}
layer {
  name: "res4d_branch2b_relu"
  type: "ReLU"
  bottom: "res4d_branch2b"
  top: "res4d_branch2b"
}
layer {
  name: "res4d_branch2c"
  type: "Convolution"
  bottom: "res4d_branch2b"
  top: "res4d_branch2c"
  convolution_param {
    num_output: 1024
    bias_term: false
    pad: 0
    kernel_size: 1
    stride: 1
    weight_filler {
      type: "msra"
    }
  }
}
layer {
  name: "bn4d_branch2c"
  type: "BatchNorm"
  bottom: "res4d_branch2c"
  top: "res4d_branch2c"
  batch_norm_param {
    use_global_stats: false
  }
}
layer {
  name: "scale4d_branch2c"
  type: "Scale"
  bottom: "res4d_branch2c"
  top: "res4d_branch2c"
  scale_param {
    bias_term: true
  }
}
layer {
  name: "res4d"
  type: "Eltwise"
  bottom: "res4c"
  bottom: "res4d_branch2c"
  top: "res4d"
  eltwise_param {
    operation: SUM
  }
}
layer {
  name: "res4d_relu"
  type: "ReLU"
  bottom: "res4d"
  top: "res4d"
}
layer {
  name: "res4e_branch2a"
  type: "Convolution"
  bottom: "res4d"
  top: "res4e_branch2a"
  convolution_param {
    num_output: 256
    bias_term: false
    pad: 0
    kernel_size: 1
    stride: 1
    weight_filler {
      type: "msra"
    }
  }
}
layer {
  name: "bn4e_branch2a"
  type: "BatchNorm"
  bottom: "res4e_branch2a"
  top: "res4e_branch2a"
  batch_norm_param {
    use_global_stats: false
  }
}
layer {
  name: "scale4e_branch2a"
  type: "Scale"
  bottom: "res4e_branch2a"
  top: "res4e_branch2a"
  scale_param {
    bias_term: true
  }
}
layer {
  name: "res4e_branch2a_relu"
  type: "ReLU"
  bottom: "res4e_branch2a"
  top: "res4e_branch2a"
}
layer {
  name: "res4e_branch2b"
  type: "Convolution"
  bottom: "res4e_branch2a"
  top: "res4e_branch2b"
  convolution_param {
    num_output: 256
    bias_term: false
    pad: 1
    kernel_size: 3
    stride: 1
    weight_filler {
      type: "msra"
    }
  }
}
layer {
  name: "bn4e_branch2b"
  type: "BatchNorm"
  bottom: "res4e_branch2b"
  top: "res4e_branch2b"
  batch_norm_param {
    use_global_stats: false
  }
}
layer {
  name: "scale4e_branch2b"
  type: "Scale"
  bottom: "res4e_branch2b"
  top: "res4e_branch2b"
  scale_param {
    bias_term: true
  }
}
layer {
  name: "res4e_branch2b_relu"
  type: "ReLU"
  bottom: "res4e_branch2b"
  top: "res4e_branch2b"
}
layer {
  name: "res4e_branch2c"
  type: "Convolution"
  bottom: "res4e_branch2b"
  top: "res4e_branch2c"
  convolution_param {
    num_output: 1024
    bias_term: false
    pad: 0
    kernel_size: 1
    stride: 1
    weight_filler {
      type: "msra"
    }
  }
}
layer {
  name: "bn4e_branch2c"
  type: "BatchNorm"
  bottom: "res4e_branch2c"
  top: "res4e_branch2c"
  batch_norm_param {
    use_global_stats: false
  }
}
layer {
  name: "scale4e_branch2c"
  type: "Scale"
  bottom: "res4e_branch2c"
  top: "res4e_branch2c"
  scale_param {
    bias_term: true
  }
}
layer {
  name: "res4e"
  type: "Eltwise"
  bottom: "res4d"
  bottom: "res4e_branch2c"
  top: "res4e"
  eltwise_param {
    operation: SUM
  }
}
layer {
  name: "res4e_relu"
  type: "ReLU"
  bottom: "res4e"
  top: "res4e"
}
layer {
  name: "res4f_branch2a"
  type: "Convolution"
  bottom: "res4e"
  top: "res4f_branch2a"
  convolution_param {
    num_output: 256
    bias_term: false
    pad: 0
    kernel_size: 1
    stride: 1
    weight_filler {
      type: "msra"
    }
  }
}
layer {
  name: "bn4f_branch2a"
  type: "BatchNorm"
  bottom: "res4f_branch2a"
  top: "res4f_branch2a"
  batch_norm_param {
    use_global_stats: false
  }
}
layer {
  name: "scale4f_branch2a"
  type: "Scale"
  bottom: "res4f_branch2a"
  top: "res4f_branch2a"
  scale_param {
    bias_term: true
  }
}
layer {
  name: "res4f_branch2a_relu"
  type: "ReLU"
  bottom: "res4f_branch2a"
  top: "res4f_branch2a"
}
layer {
  name: "res4f_branch2b"
  type: "Convolution"
  bottom: "res4f_branch2a"
  top: "res4f_branch2b"
  convolution_param {
    num_output: 256
    bias_term: false
    pad: 1
    kernel_size: 3
    stride: 1
    weight_filler {
      type: "msra"
    }
  }
}
layer {
  name: "bn4f_branch2b"
  type: "BatchNorm"
  bottom: "res4f_branch2b"
  top: "res4f_branch2b"
  batch_norm_param {
    use_global_stats: false
  }
}
layer {
  name: "scale4f_branch2b"
  type: "Scale"
  bottom: "res4f_branch2b"
  top: "res4f_branch2b"
  scale_param {
    bias_term: true
  }
}
layer {
  name: "res4f_branch2b_relu"
  type: "ReLU"
  bottom: "res4f_branch2b"
  top: "res4f_branch2b"
}
layer {
  name: "res4f_branch2c"
  type: "Convolution"
  bottom: "res4f_branch2b"
  top: "res4f_branch2c"
  convolution_param {
    num_output: 1024
    bias_term: false
    pad: 0
    kernel_size: 1
    stride: 1
    weight_filler {
      type: "msra"
    }
  }
}
layer {
  name: "bn4f_branch2c"
  type: "Ba
I0426 18:15:27.061965  9555 layer_factory.hpp:77] Creating layer data
I0426 18:15:27.062011  9555 net.cpp:84] Creating Layer data
I0426 18:15:27.062021  9555 net.cpp:380] data -> data
I0426 18:15:27.062053  9555 net.cpp:380] data -> label
I0426 18:15:27.062074  9555 image_data_layer.cpp:38] Opening file /home/msucheck/data/train/list_caffe.txt
I0426 18:15:27.347506  9555 image_data_layer.cpp:63] A total of 513382 images.
I0426 18:15:27.352188  9555 image_data_layer.cpp:90] output data size: 8,3,159,240
I0426 18:15:27.383409  9555 net.cpp:122] Setting up data
I0426 18:15:27.383448  9555 net.cpp:129] Top shape: 8 3 159 240 (915840)
I0426 18:15:27.383456  9555 net.cpp:129] Top shape: 8 (8)
I0426 18:15:27.383462  9555 net.cpp:137] Memory required for data: 3663392
I0426 18:15:27.383472  9555 layer_factory.hpp:77] Creating layer conv1
I0426 18:15:27.383497  9555 net.cpp:84] Creating Layer conv1
I0426 18:15:27.383507  9555 net.cpp:406] conv1 <- data
I0426 18:15:27.383524  9555 net.cpp:380] conv1 -> conv1
I0426 18:15:27.941788  9555 net.cpp:122] Setting up conv1
I0426 18:15:27.941882  9555 net.cpp:129] Top shape: 8 64 80 120 (4915200)
I0426 18:15:27.941890  9555 net.cpp:137] Memory required for data: 23324192
I0426 18:15:27.941944  9555 layer_factory.hpp:77] Creating layer bn_conv1
I0426 18:15:27.941973  9555 net.cpp:84] Creating Layer bn_conv1
I0426 18:15:27.941983  9555 net.cpp:406] bn_conv1 <- conv1
I0426 18:15:27.941997  9555 net.cpp:367] bn_conv1 -> conv1 (in-place)
I0426 18:15:27.942281  9555 net.cpp:122] Setting up bn_conv1
I0426 18:15:27.942289  9555 net.cpp:129] Top shape: 8 64 80 120 (4915200)
I0426 18:15:27.942296  9555 net.cpp:137] Memory required for data: 42984992
I0426 18:15:27.942312  9555 layer_factory.hpp:77] Creating layer scale_conv1
I0426 18:15:27.942327  9555 net.cpp:84] Creating Layer scale_conv1
I0426 18:15:27.942333  9555 net.cpp:406] scale_conv1 <- conv1
I0426 18:15:27.942369  9555 net.cpp:367] scale_conv1 -> conv1 (in-place)
I0426 18:15:27.942458  9555 layer_factory.hpp:77] Creating layer scale_conv1
I0426 18:15:27.942652  9555 net.cpp:122] Setting up scale_conv1
I0426 18:15:27.942661  9555 net.cpp:129] Top shape: 8 64 80 120 (4915200)
I0426 18:15:27.942665  9555 net.cpp:137] Memory required for data: 62645792
I0426 18:15:27.942675  9555 layer_factory.hpp:77] Creating layer conv1_relu
I0426 18:15:27.942687  9555 net.cpp:84] Creating Layer conv1_relu
I0426 18:15:27.942692  9555 net.cpp:406] conv1_relu <- conv1
I0426 18:15:27.942701  9555 net.cpp:367] conv1_relu -> conv1 (in-place)
I0426 18:15:27.942929  9555 net.cpp:122] Setting up conv1_relu
I0426 18:15:27.942939  9555 net.cpp:129] Top shape: 8 64 80 120 (4915200)
I0426 18:15:27.942945  9555 net.cpp:137] Memory required for data: 82306592
I0426 18:15:27.942950  9555 layer_factory.hpp:77] Creating layer pool1
I0426 18:15:27.942962  9555 net.cpp:84] Creating Layer pool1
I0426 18:15:27.942968  9555 net.cpp:406] pool1 <- conv1
I0426 18:15:27.942975  9555 net.cpp:380] pool1 -> pool1
I0426 18:15:27.943040  9555 net.cpp:122] Setting up pool1
I0426 18:15:27.943048  9555 net.cpp:129] Top shape: 8 64 40 60 (1228800)
I0426 18:15:27.943054  9555 net.cpp:137] Memory required for data: 87221792
I0426 18:15:27.943060  9555 layer_factory.hpp:77] Creating layer pool1_pool1_0_split
I0426 18:15:27.943070  9555 net.cpp:84] Creating Layer pool1_pool1_0_split
I0426 18:15:27.943075  9555 net.cpp:406] pool1_pool1_0_split <- pool1
I0426 18:15:27.943084  9555 net.cpp:380] pool1_pool1_0_split -> pool1_pool1_0_split_0
I0426 18:15:27.943096  9555 net.cpp:380] pool1_pool1_0_split -> pool1_pool1_0_split_1
I0426 18:15:27.943137  9555 net.cpp:122] Setting up pool1_pool1_0_split
I0426 18:15:27.943145  9555 net.cpp:129] Top shape: 8 64 40 60 (1228800)
I0426 18:15:27.943152  9555 net.cpp:129] Top shape: 8 64 40 60 (1228800)
I0426 18:15:27.943158  9555 net.cpp:137] Memory required for data: 97052192
I0426 18:15:27.943163  9555 layer_factory.hpp:77] Creating layer res2a_branch1
I0426 18:15:27.943177  9555 net.cpp:84] Creating Layer res2a_branch1
I0426 18:15:27.943183  9555 net.cpp:406] res2a_branch1 <- pool1_pool1_0_split_0
I0426 18:15:27.943193  9555 net.cpp:380] res2a_branch1 -> res2a_branch1
I0426 18:15:27.944936  9555 net.cpp:122] Setting up res2a_branch1
I0426 18:15:27.944952  9555 net.cpp:129] Top shape: 8 256 40 60 (4915200)
I0426 18:15:27.944959  9555 net.cpp:137] Memory required for data: 116712992
I0426 18:15:27.944968  9555 layer_factory.hpp:77] Creating layer bn2a_branch1
I0426 18:15:27.944981  9555 net.cpp:84] Creating Layer bn2a_branch1
I0426 18:15:27.944988  9555 net.cpp:406] bn2a_branch1 <- res2a_branch1
I0426 18:15:27.944998  9555 net.cpp:367] bn2a_branch1 -> res2a_branch1 (in-place)
I0426 18:15:27.947032  9555 net.cpp:122] Setting up bn2a_branch1
I0426 18:15:27.947060  9555 net.cpp:129] Top shape: 8 256 40 60 (4915200)
I0426 18:15:27.947067  9555 net.cpp:137] Memory required for data: 136373792
I0426 18:15:27.947090  9555 layer_factory.hpp:77] Creating layer scale2a_branch1
I0426 18:15:27.947103  9555 net.cpp:84] Creating Layer scale2a_branch1
I0426 18:15:27.947110  9555 net.cpp:406] scale2a_branch1 <- res2a_branch1
I0426 18:15:27.947120  9555 net.cpp:367] scale2a_branch1 -> res2a_branch1 (in-place)
I0426 18:15:27.947172  9555 layer_factory.hpp:77] Creating layer scale2a_branch1
I0426 18:15:27.947311  9555 net.cpp:122] Setting up scale2a_branch1
I0426 18:15:27.947319  9555 net.cpp:129] Top shape: 8 256 40 60 (4915200)
I0426 18:15:27.947325  9555 net.cpp:137] Memory required for data: 156034592
I0426 18:15:27.947335  9555 layer_factory.hpp:77] Creating layer res2a_branch2a
I0426 18:15:27.947348  9555 net.cpp:84] Creating Layer res2a_branch2a
I0426 18:15:27.947353  9555 net.cpp:406] res2a_branch2a <- pool1_pool1_0_split_1
I0426 18:15:27.947362  9555 net.cpp:380] res2a_branch2a -> res2a_branch2a
I0426 18:15:27.949370  9555 net.cpp:122] Setting up res2a_branch2a
I0426 18:15:27.949388  9555 net.cpp:129] Top shape: 8 64 40 60 (1228800)
I0426 18:15:27.949414  9555 net.cpp:137] Memory required for data: 160949792
I0426 18:15:27.949440  9555 layer_factory.hpp:77] Creating layer bn2a_branch2a
I0426 18:15:27.949453  9555 net.cpp:84] Creating Layer bn2a_branch2a
I0426 18:15:27.949460  9555 net.cpp:406] bn2a_branch2a <- res2a_branch2a
I0426 18:15:27.949470  9555 net.cpp:367] bn2a_branch2a -> res2a_branch2a (in-place)
I0426 18:15:27.949708  9555 net.cpp:122] Setting up bn2a_branch2a
I0426 18:15:27.949717  9555 net.cpp:129] Top shape: 8 64 40 60 (1228800)
I0426 18:15:27.949722  9555 net.cpp:137] Memory required for data: 165864992
I0426 18:15:27.949736  9555 layer_factory.hpp:77] Creating layer scale2a_branch2a
I0426 18:15:27.949744  9555 net.cpp:84] Creating Layer scale2a_branch2a
I0426 18:15:27.949750  9555 net.cpp:406] scale2a_branch2a <- res2a_branch2a
I0426 18:15:27.949759  9555 net.cpp:367] scale2a_branch2a -> res2a_branch2a (in-place)
I0426 18:15:27.949801  9555 layer_factory.hpp:77] Creating layer scale2a_branch2a
I0426 18:15:27.949944  9555 net.cpp:122] Setting up scale2a_branch2a
I0426 18:15:27.949952  9555 net.cpp:129] Top shape: 8 64 40 60 (1228800)
I0426 18:15:27.949959  9555 net.cpp:137] Memory required for data: 170780192
I0426 18:15:27.949967  9555 layer_factory.hpp:77] Creating layer res2a_branch2a_relu
I0426 18:15:27.949977  9555 net.cpp:84] Creating Layer res2a_branch2a_relu
I0426 18:15:27.949983  9555 net.cpp:406] res2a_branch2a_relu <- res2a_branch2a
I0426 18:15:27.949991  9555 net.cpp:367] res2a_branch2a_relu -> res2a_branch2a (in-place)
I0426 18:15:27.950215  9555 net.cpp:122] Setting up res2a_branch2a_relu
I0426 18:15:27.950224  9555 net.cpp:129] Top shape: 8 64 40 60 (1228800)
I0426 18:15:27.950229  9555 net.cpp:137] Memory required for data: 175695392
I0426 18:15:27.950235  9555 layer_factory.hpp:77] Creating layer res2a_branch2b
I0426 18:15:27.950247  9555 net.cpp:84] Creating Layer res2a_branch2b
I0426 18:15:27.950253  9555 net.cpp:406] res2a_branch2b <- res2a_branch2a
I0426 18:15:27.950263  9555 net.cpp:380] res2a_branch2b -> res2a_branch2b
I0426 18:15:27.954953  9555 net.cpp:122] Setting up res2a_branch2b
I0426 18:15:27.955021  9555 net.cpp:129] Top shape: 8 64 40 60 (1228800)
I0426 18:15:27.955029  9555 net.cpp:137] Memory required for data: 180610592
I0426 18:15:27.955049  9555 layer_factory.hpp:77] Creating layer bn2a_branch2b
I0426 18:15:27.955071  9555 net.cpp:84] Creating Layer bn2a_branch2b
I0426 18:15:27.955080  9555 net.cpp:406] bn2a_branch2b <- res2a_branch2b
I0426 18:15:27.955097  9555 net.cpp:367] bn2a_branch2b -> res2a_branch2b (in-place)
I0426 18:15:27.955402  9555 net.cpp:122] Setting up bn2a_branch2b
I0426 18:15:27.955413  9555 net.cpp:129] Top shape: 8 64 40 60 (1228800)
I0426 18:15:27.955420  9555 net.cpp:137] Memory required for data: 185525792
I0426 18:15:27.955430  9555 layer_factory.hpp:77] Creating layer scale2a_branch2b
I0426 18:15:27.955449  9555 net.cpp:84] Creating Layer scale2a_branch2b
I0426 18:15:27.955456  9555 net.cpp:406] scale2a_branch2b <- res2a_branch2b
I0426 18:15:27.955463  9555 net.cpp:367] scale2a_branch2b -> res2a_branch2b (in-place)
I0426 18:15:27.955524  9555 layer_factory.hpp:77] Creating layer scale2a_branch2b
I0426 18:15:27.955685  9555 net.cpp:122] Setting up scale2a_branch2b
I0426 18:15:27.955693  9555 net.cpp:129] Top shape: 8 64 40 60 (1228800)
I0426 18:15:27.955699  9555 net.cpp:137] Memory required for data: 190440992
I0426 18:15:27.955742  9555 layer_factory.hpp:77] Creating layer res2a_branch2b_relu
I0426 18:15:27.955754  9555 net.cpp:84] Creating Layer res2a_branch2b_relu
I0426 18:15:27.955761  9555 net.cpp:406] res2a_branch2b_relu <- res2a_branch2b
I0426 18:15:27.955770  9555 net.cpp:367] res2a_branch2b_relu -> res2a_branch2b (in-place)
I0426 18:15:27.956527  9555 net.cpp:122] Setting up res2a_branch2b_relu
I0426 18:15:27.956538  9555 net.cpp:129] Top shape: 8 64 40 60 (1228800)
I0426 18:15:27.956545  9555 net.cpp:137] Memory required for data: 195356192
I0426 18:15:27.956552  9555 layer_factory.hpp:77] Creating layer res2a_branch2c
I0426 18:15:27.956565  9555 net.cpp:84] Creating Layer res2a_branch2c
I0426 18:15:27.956596  9555 net.cpp:406] res2a_branch2c <- res2a_branch2b
I0426 18:15:27.956607  9555 net.cpp:380] res2a_branch2c -> res2a_branch2c
I0426 18:15:27.957774  9555 net.cpp:122] Setting up res2a_branch2c
I0426 18:15:27.957784  9555 net.cpp:129] Top shape: 8 256 40 60 (4915200)
I0426 18:15:27.957790  9555 net.cpp:137] Memory required for data: 215016992
I0426 18:15:27.957798  9555 layer_factory.hpp:77] Creating layer bn2a_branch2c
I0426 18:15:27.957806  9555 net.cpp:84] Creating Layer bn2a_branch2c
I0426 18:15:27.957811  9555 net.cpp:406] bn2a_branch2c <- res2a_branch2c
I0426 18:15:27.957821  9555 net.cpp:367] bn2a_branch2c -> res2a_branch2c (in-place)
I0426 18:15:27.958066  9555 net.cpp:122] Setting up bn2a_branch2c
I0426 18:15:27.958075  9555 net.cpp:129] Top shape: 8 256 40 60 (4915200)
I0426 18:15:27.958079  9555 net.cpp:137] Memory required for data: 234677792
I0426 18:15:27.958089  9555 layer_factory.hpp:77] Creating layer scale2a_branch2c
I0426 18:15:27.958097  9555 net.cpp:84] Creating Layer scale2a_branch2c
I0426 18:15:27.958103  9555 net.cpp:406] scale2a_branch2c <- res2a_branch2c
I0426 18:15:27.958111  9555 net.cpp:367] scale2a_branch2c -> res2a_branch2c (in-place)
I0426 18:15:27.958156  9555 layer_factory.hpp:77] Creating layer scale2a_branch2c
I0426 18:15:27.958297  9555 net.cpp:122] Setting up scale2a_branch2c
I0426 18:15:27.958303  9555 net.cpp:129] Top shape: 8 256 40 60 (4915200)
I0426 18:15:27.958309  9555 net.cpp:137] Memory required for data: 254338592
I0426 18:15:27.958317  9555 layer_factory.hpp:77] Creating layer res2a
I0426 18:15:27.958331  9555 net.cpp:84] Creating Layer res2a
I0426 18:15:27.958343  9555 net.cpp:406] res2a <- res2a_branch1
I0426 18:15:27.958350  9555 net.cpp:406] res2a <- res2a_branch2c
I0426 18:15:27.958358  9555 net.cpp:380] res2a -> res2a
I0426 18:15:27.958392  9555 net.cpp:122] Setting up res2a
I0426 18:15:27.958400  9555 net.cpp:129] Top shape: 8 256 40 60 (4915200)
I0426 18:15:27.958406  9555 net.cpp:137] Memory required for data: 273999392
I0426 18:15:27.958411  9555 layer_factory.hpp:77] Creating layer res2a_relu
I0426 18:15:27.958420  9555 net.cpp:84] Creating Layer res2a_relu
I0426 18:15:27.958425  9555 net.cpp:406] res2a_relu <- res2a
I0426 18:15:27.958432  9555 net.cpp:367] res2a_relu -> res2a (in-place)
I0426 18:15:27.959306  9555 net.cpp:122] Setting up res2a_relu
I0426 18:15:27.959317  9555 net.cpp:129] Top shape: 8 256 40 60 (4915200)
I0426 18:15:27.959323  9555 net.cpp:137] Memory required for data: 293660192
I0426 18:15:27.959329  9555 layer_factory.hpp:77] Creating layer res2a_res2a_relu_0_split
I0426 18:15:27.959338  9555 net.cpp:84] Creating Layer res2a_res2a_relu_0_split
I0426 18:15:27.959344  9555 net.cpp:406] res2a_res2a_relu_0_split <- res2a
I0426 18:15:27.959357  9555 net.cpp:380] res2a_res2a_relu_0_split -> res2a_res2a_relu_0_split_0
I0426 18:15:27.959367  9555 net.cpp:380] res2a_res2a_relu_0_split -> res2a_res2a_relu_0_split_1
I0426 18:15:27.959414  9555 net.cpp:122] Setting up res2a_res2a_relu_0_split
I0426 18:15:27.959421  9555 net.cpp:129] Top shape: 8 256 40 60 (4915200)
I0426 18:15:27.959429  9555 net.cpp:129] Top shape: 8 256 40 60 (4915200)
I0426 18:15:27.959434  9555 net.cpp:137] Memory required for data: 332981792
I0426 18:15:27.959439  9555 layer_factory.hpp:77] Creating layer res2b_branch2a
I0426 18:15:27.959450  9555 net.cpp:84] Creating Layer res2b_branch2a
I0426 18:15:27.959456  9555 net.cpp:406] res2b_branch2a <- res2a_res2a_relu_0_split_0
I0426 18:15:27.959465  9555 net.cpp:380] res2b_branch2a -> res2b_branch2a
I0426 18:15:27.961205  9555 net.cpp:122] Setting up res2b_branch2a
I0426 18:15:27.961218  9555 net.cpp:129] Top shape: 8 64 40 60 (1228800)
I0426 18:15:27.961225  9555 net.cpp:137] Memory required for data: 337896992
I0426 18:15:27.961233  9555 layer_factory.hpp:77] Creating layer bn2b_branch2a
I0426 18:15:27.961246  9555 net.cpp:84] Creating Layer bn2b_branch2a
I0426 18:15:27.961252  9555 net.cpp:406] bn2b_branch2a <- res2b_branch2a
I0426 18:15:27.961259  9555 net.cpp:367] bn2b_branch2a -> res2b_branch2a (in-place)
I0426 18:15:27.961544  9555 net.cpp:122] Setting up bn2b_branch2a
I0426 18:15:27.961552  9555 net.cpp:129] Top shape: 8 64 40 60 (1228800)
I0426 18:15:27.961558  9555 net.cpp:137] Memory required for data: 342812192
I0426 18:15:27.961582  9555 layer_factory.hpp:77] Creating layer scale2b_branch2a
I0426 18:15:27.961594  9555 net.cpp:84] Creating Layer scale2b_branch2a
I0426 18:15:27.961601  9555 net.cpp:406] scale2b_branch2a <- res2b_branch2a
I0426 18:15:27.961611  9555 net.cpp:367] scale2b_branch2a -> res2b_branch2a (in-place)
I0426 18:15:27.961658  9555 layer_factory.hpp:77] Creating layer scale2b_branch2a
I0426 18:15:27.961813  9555 net.cpp:122] Setting up scale2b_branch2a
I0426 18:15:27.961822  9555 net.cpp:129] Top shape: 8 64 40 60 (1228800)
I0426 18:15:27.961827  9555 net.cpp:137] Memory required for data: 347727392
I0426 18:15:27.961835  9555 layer_factory.hpp:77] Creating layer res2b_branch2a_relu
I0426 18:15:27.961846  9555 net.cpp:84] Creating Layer res2b_branch2a_relu
I0426 18:15:27.961851  9555 net.cpp:406] res2b_branch2a_relu <- res2b_branch2a
I0426 18:15:27.961861  9555 net.cpp:367] res2b_branch2a_relu -> res2b_branch2a (in-place)
I0426 18:15:27.962074  9555 net.cpp:122] Setting up res2b_branch2a_relu
I0426 18:15:27.962082  9555 net.cpp:129] Top shape: 8 64 40 60 (1228800)
I0426 18:15:27.962087  9555 net.cpp:137] Memory required for data: 352642592
I0426 18:15:27.962093  9555 layer_factory.hpp:77] Creating layer res2b_branch2b
I0426 18:15:27.962105  9555 net.cpp:84] Creating Layer res2b_branch2b
I0426 18:15:27.962110  9555 net.cpp:406] res2b_branch2b <- res2b_branch2a
I0426 18:15:27.962123  9555 net.cpp:380] res2b_branch2b -> res2b_branch2b
I0426 18:15:27.964187  9555 net.cpp:122] Setting up res2b_branch2b
I0426 18:15:27.964205  9555 net.cpp:129] Top shape: 8 64 40 60 (1228800)
I0426 18:15:27.964210  9555 net.cpp:137] Memory required for data: 357557792
I0426 18:15:27.964220  9555 layer_factory.hpp:77] Creating layer bn2b_branch2b
I0426 18:15:27.964228  9555 net.cpp:84] Creating Layer bn2b_branch2b
I0426 18:15:27.964234  9555 net.cpp:406] bn2b_branch2b <- res2b_branch2b
I0426 18:15:27.964246  9555 net.cpp:367] bn2b_branch2b -> res2b_branch2b (in-place)
I0426 18:15:27.964509  9555 net.cpp:122] Setting up bn2b_branch2b
I0426 18:15:27.964515  9555 net.cpp:129] Top shape: 8 64 40 60 (1228800)
I0426 18:15:27.964521  9555 net.cpp:137] Memory required for data: 362472992
I0426 18:15:27.964530  9555 layer_factory.hpp:77] Creating layer scale2b_branch2b
I0426 18:15:27.964539  9555 net.cpp:84] Creating Layer scale2b_branch2b
I0426 18:15:27.964545  9555 net.cpp:406] scale2b_branch2b <- res2b_branch2b
I0426 18:15:27.964553  9555 net.cpp:367] scale2b_branch2b -> res2b_branch2b (in-place)
I0426 18:15:27.964597  9555 layer_factory.hpp:77] Creating layer scale2b_branch2b
I0426 18:15:27.964759  9555 net.cpp:122] Setting up scale2b_branch2b
I0426 18:15:27.964767  9555 net.cpp:129] Top shape: 8 64 40 60 (1228800)
I0426 18:15:27.964772  9555 net.cpp:137] Memory required for data: 367388192
I0426 18:15:27.964781  9555 layer_factory.hpp:77] Creating layer res2b_branch2b_relu
I0426 18:15:27.964789  9555 net.cpp:84] Creating Layer res2b_branch2b_relu
I0426 18:15:27.964795  9555 net.cpp:406] res2b_branch2b_relu <- res2b_branch2b
I0426 18:15:27.964807  9555 net.cpp:367] res2b_branch2b_relu -> res2b_branch2b (in-place)
I0426 18:15:27.965025  9555 net.cpp:122] Setting up res2b_branch2b_relu
I0426 18:15:27.965034  9555 net.cpp:129] Top shape: 8 64 40 60 (1228800)
I0426 18:15:27.965040  9555 net.cpp:137] Memory required for data: 372303392
I0426 18:15:27.965045  9555 layer_factory.hpp:77] Creating layer res2b_branch2c
I0426 18:15:27.965073  9555 net.cpp:84] Creating Layer res2b_branch2c
I0426 18:15:27.965080  9555 net.cpp:406] res2b_branch2c <- res2b_branch2b
I0426 18:15:27.965088  9555 net.cpp:380] res2b_branch2c -> res2b_branch2c
I0426 18:15:27.966881  9555 net.cpp:122] Setting up res2b_branch2c
I0426 18:15:27.966900  9555 net.cpp:129] Top shape: 8 256 40 60 (4915200)
I0426 18:15:27.966907  9555 net.cpp:137] Memory required for data: 391964192
I0426 18:15:27.966944  9555 layer_factory.hpp:77] Creating layer bn2b_branch2c
I0426 18:15:27.966955  9555 net.cpp:84] Creating Layer bn2b_branch2c
I0426 18:15:27.966962  9555 net.cpp:406] bn2b_branch2c <- res2b_branch2c
I0426 18:15:27.966974  9555 net.cpp:367] bn2b_branch2c -> res2b_branch2c (in-place)
I0426 18:15:27.967236  9555 net.cpp:122] Setting up bn2b_branch2c
I0426 18:15:27.967243  9555 net.cpp:129] Top shape: 8 256 40 60 (4915200)
I0426 18:15:27.967249  9555 net.cpp:137] Memory required for data: 411624992
I0426 18:15:27.967259  9555 layer_factory.hpp:77] Creating layer scale2b_branch2c
I0426 18:15:27.967267  9555 net.cpp:84] Creating Layer scale2b_branch2c
I0426 18:15:27.967272  9555 net.cpp:406] scale2b_branch2c <- res2b_branch2c
I0426 18:15:27.967279  9555 net.cpp:367] scale2b_branch2c -> res2b_branch2c (in-place)
I0426 18:15:27.967325  9555 layer_factory.hpp:77] Creating layer scale2b_branch2c
I0426 18:15:27.967466  9555 net.cpp:122] Setting up scale2b_branch2c
I0426 18:15:27.967474  9555 net.cpp:129] Top shape: 8 256 40 60 (4915200)
I0426 18:15:27.967479  9555 net.cpp:137] Memory required for data: 431285792
I0426 18:15:27.967488  9555 layer_factory.hpp:77] Creating layer res2b
I0426 18:15:27.967497  9555 net.cpp:84] Creating Layer res2b
I0426 18:15:27.967504  9555 net.cpp:406] res2b <- res2a_res2a_relu_0_split_1
I0426 18:15:27.967510  9555 net.cpp:406] res2b <- res2b_branch2c
I0426 18:15:27.967520  9555 net.cpp:380] res2b -> res2b
I0426 18:15:27.967555  9555 net.cpp:122] Setting up res2b
I0426 18:15:27.967562  9555 net.cpp:129] Top shape: 8 256 40 60 (4915200)
I0426 18:15:27.967568  9555 net.cpp:137] Memory required for data: 450946592
I0426 18:15:27.967573  9555 layer_factory.hpp:77] Creating layer res2b_relu
I0426 18:15:27.967581  9555 net.cpp:84] Creating Layer res2b_relu
I0426 18:15:27.967586  9555 net.cpp:406] res2b_relu <- res2b
I0426 18:15:27.967593  9555 net.cpp:367] res2b_relu -> res2b (in-place)
I0426 18:15:27.967851  9555 net.cpp:122] Setting up res2b_relu
I0426 18:15:27.967861  9555 net.cpp:129] Top shape: 8 256 40 60 (4915200)
I0426 18:15:27.967866  9555 net.cpp:137] Memory required for data: 470607392
I0426 18:15:27.967872  9555 layer_factory.hpp:77] Creating layer res2b_res2b_relu_0_split
I0426 18:15:27.967880  9555 net.cpp:84] Creating Layer res2b_res2b_relu_0_split
I0426 18:15:27.967890  9555 net.cpp:406] res2b_res2b_relu_0_split <- res2b
I0426 18:15:27.967896  9555 net.cpp:380] res2b_res2b_relu_0_split -> res2b_res2b_relu_0_split_0
I0426 18:15:27.967906  9555 net.cpp:380] res2b_res2b_relu_0_split -> res2b_res2b_relu_0_split_1
I0426 18:15:27.967953  9555 net.cpp:122] Setting up res2b_res2b_relu_0_split
I0426 18:15:27.967962  9555 net.cpp:129] Top shape: 8 256 40 60 (4915200)
I0426 18:15:27.967968  9555 net.cpp:129] Top shape: 8 256 40 60 (4915200)
I0426 18:15:27.967974  9555 net.cpp:137] Memory required for data: 509928992
I0426 18:15:27.967979  9555 layer_factory.hpp:77] Creating layer res2c_branch2a
I0426 18:15:27.967993  9555 net.cpp:84] Creating Layer res2c_branch2a
I0426 18:15:27.967998  9555 net.cpp:406] res2c_branch2a <- res2b_res2b_relu_0_split_0
I0426 18:15:27.968008  9555 net.cpp:380] res2c_branch2a -> res2c_branch2a
I0426 18:15:27.969797  9555 net.cpp:122] Setting up res2c_branch2a
I0426 18:15:27.969811  9555 net.cpp:129] Top shape: 8 64 40 60 (1228800)
I0426 18:15:27.969817  9555 net.cpp:137] Memory required for data: 514844192
I0426 18:15:27.969825  9555 layer_factory.hpp:77] Creating layer bn2c_branch2a
I0426 18:15:27.969836  9555 net.cpp:84] Creating Layer bn2c_branch2a
I0426 18:15:27.969842  9555 net.cpp:406] bn2c_branch2a <- res2c_branch2a
I0426 18:15:27.969851  9555 net.cpp:367] bn2c_branch2a -> res2c_branch2a (in-place)
I0426 18:15:27.970127  9555 net.cpp:122] Setting up bn2c_branch2a
I0426 18:15:27.970135  9555 net.cpp:129] Top shape: 8 64 40 60 (1228800)
I0426 18:15:27.970140  9555 net.cpp:137] Memory required for data: 519759392
I0426 18:15:27.970150  9555 layer_factory.hpp:77] Creating layer scale2c_branch2a
I0426 18:15:27.970168  9555 net.cpp:84] Creating Layer scale2c_branch2a
I0426 18:15:27.970185  9555 net.cpp:406] scale2c_branch2a <- res2c_branch2a
I0426 18:15:27.970192  9555 net.cpp:367] scale2c_branch2a -> res2c_branch2a (in-place)
I0426 18:15:27.970239  9555 layer_factory.hpp:77] Creating layer scale2c_branch2a
I0426 18:15:27.970398  9555 net.cpp:122] Setting up scale2c_branch2a
I0426 18:15:27.970407  9555 net.cpp:129] Top shape: 8 64 40 60 (1228800)
I0426 18:15:27.970412  9555 net.cpp:137] Memory required for data: 524674592
I0426 18:15:27.970420  9555 layer_factory.hpp:77] Creating layer res2c_branch2a_relu
I0426 18:15:27.970430  9555 net.cpp:84] Creating Layer res2c_branch2a_relu
I0426 18:15:27.970437  9555 net.cpp:406] res2c_branch2a_relu <- res2c_branch2a
I0426 18:15:27.970443  9555 net.cpp:367] res2c_branch2a_relu -> res2c_branch2a (in-place)
I0426 18:15:27.970659  9555 net.cpp:122] Setting up res2c_branch2a_relu
I0426 18:15:27.970667  9555 net.cpp:129] Top shape: 8 64 40 60 (1228800)
I0426 18:15:27.970674  9555 net.cpp:137] Memory required for data: 529589792
I0426 18:15:27.970679  9555 layer_factory.hpp:77] Creating layer res2c_branch2b
I0426 18:15:27.970690  9555 net.cpp:84] Creating Layer res2c_branch2b
I0426 18:15:27.970696  9555 net.cpp:406] res2c_branch2b <- res2c_branch2a
I0426 18:15:27.970705  9555 net.cpp:380] res2c_branch2b -> res2c_branch2b
I0426 18:15:27.973346  9555 net.cpp:122] Setting up res2c_branch2b
I0426 18:15:27.973366  9555 net.cpp:129] Top shape: 8 64 40 60 (1228800)
I0426 18:15:27.973372  9555 net.cpp:137] Memory required for data: 534504992
I0426 18:15:27.973381  9555 layer_factory.hpp:77] Creating layer bn2c_branch2b
I0426 18:15:27.973390  9555 net.cpp:84] Creating Layer bn2c_branch2b
I0426 18:15:27.973397  9555 net.cpp:406] bn2c_branch2b <- res2c_branch2b
I0426 18:15:27.973407  9555 net.cpp:367] bn2c_branch2b -> res2c_branch2b (in-place)
I0426 18:15:27.973683  9555 net.cpp:122] Setting up bn2c_branch2b
I0426 18:15:27.973693  9555 net.cpp:129] Top shape: 8 64 40 60 (1228800)
I0426 18:15:27.973700  9555 net.cpp:137] Memory required for data: 539420192
I0426 18:15:27.973709  9555 layer_factory.hpp:77] Creating layer scale2c_branch2b
I0426 18:15:27.973717  9555 net.cpp:84] Creating Layer scale2c_branch2b
I0426 18:15:27.973723  9555 net.cpp:406] scale2c_branch2b <- res2c_branch2b
I0426 18:15:27.973731  9555 net.cpp:367] scale2c_branch2b -> res2c_branch2b (in-place)
I0426 18:15:27.973784  9555 layer_factory.hpp:77] Creating layer scale2c_branch2b
I0426 18:15:27.973943  9555 net.cpp:122] Setting up scale2c_branch2b
I0426 18:15:27.973951  9555 net.cpp:129] Top shape: 8 64 40 60 (1228800)
I0426 18:15:27.973956  9555 net.cpp:137] Memory required for data: 544335392
I0426 18:15:27.973964  9555 layer_factory.hpp:77] Creating layer res2c_branch2b_relu
I0426 18:15:27.973973  9555 net.cpp:84] Creating Layer res2c_branch2b_relu
I0426 18:15:27.973978  9555 net.cpp:406] res2c_branch2b_relu <- res2c_branch2b
I0426 18:15:27.973989  9555 net.cpp:367] res2c_branch2b_relu -> res2c_branch2b (in-place)
I0426 18:15:27.974747  9555 net.cpp:122] Setting up res2c_branch2b_relu
I0426 18:15:27.974758  9555 net.cpp:129] Top shape: 8 64 40 60 (1228800)
I0426 18:15:27.974764  9555 net.cpp:137] Memory required for data: 549250592
I0426 18:15:27.974771  9555 layer_factory.hpp:77] Creating layer res2c_branch2c
I0426 18:15:27.974786  9555 net.cpp:84] Creating Layer res2c_branch2c
I0426 18:15:27.974792  9555 net.cpp:406] res2c_branch2c <- res2c_branch2b
I0426 18:15:27.974803  9555 net.cpp:380] res2c_branch2c -> res2c_branch2c
I0426 18:15:27.976037  9555 net.cpp:122] Setting up res2c_branch2c
I0426 18:15:27.976049  9555 net.cpp:129] Top shape: 8 256 40 60 (4915200)
I0426 18:15:27.976055  9555 net.cpp:137] Memory required for data: 568911392
I0426 18:15:27.976063  9555 layer_factory.hpp:77] Creating layer bn2c_branch2c
I0426 18:15:27.976073  9555 net.cpp:84] Creating Layer bn2c_branch2c
I0426 18:15:27.976078  9555 net.cpp:406] bn2c_branch2c <- res2c_branch2c
I0426 18:15:27.976089  9555 net.cpp:367] bn2c_branch2c -> res2c_branch2c (in-place)
I0426 18:15:27.976363  9555 net.cpp:122] Setting up bn2c_branch2c
I0426 18:15:27.976390  9555 net.cpp:129] Top shape: 8 256 40 60 (4915200)
I0426 18:15:27.976395  9555 net.cpp:137] Memory required for data: 588572192
I0426 18:15:27.976435  9555 layer_factory.hpp:77] Creating layer scale2c_branch2c
I0426 18:15:27.976445  9555 net.cpp:84] Creating Layer scale2c_branch2c
I0426 18:15:27.976450  9555 net.cpp:406] scale2c_branch2c <- res2c_branch2c
I0426 18:15:27.976461  9555 net.cpp:367] scale2c_branch2c -> res2c_branch2c (in-place)
I0426 18:15:27.976513  9555 layer_factory.hpp:77] Creating layer scale2c_branch2c
I0426 18:15:27.976666  9555 net.cpp:122] Setting up scale2c_branch2c
I0426 18:15:27.976675  9555 net.cpp:129] Top shape: 8 256 40 60 (4915200)
I0426 18:15:27.976680  9555 net.cpp:137] Memory required for data: 608232992
I0426 18:15:27.976688  9555 layer_factory.hpp:77] Creating layer res2c
I0426 18:15:27.976701  9555 net.cpp:84] Creating Layer res2c
I0426 18:15:27.976706  9555 net.cpp:406] res2c <- res2b_res2b_relu_0_split_1
I0426 18:15:27.976713  9555 net.cpp:406] res2c <- res2c_branch2c
I0426 18:15:27.976722  9555 net.cpp:380] res2c -> res2c
I0426 18:15:27.976752  9555 net.cpp:122] Setting up res2c
I0426 18:15:27.976759  9555 net.cpp:129] Top shape: 8 256 40 60 (4915200)
I0426 18:15:27.976764  9555 net.cpp:137] Memory required for data: 627893792
I0426 18:15:27.976770  9555 layer_factory.hpp:77] Creating layer res2c_relu
I0426 18:15:27.976778  9555 net.cpp:84] Creating Layer res2c_relu
I0426 18:15:27.976783  9555 net.cpp:406] res2c_relu <- res2c
I0426 18:15:27.976791  9555 net.cpp:367] res2c_relu -> res2c (in-place)
I0426 18:15:27.977655  9555 net.cpp:122] Setting up res2c_relu
I0426 18:15:27.977669  9555 net.cpp:129] Top shape: 8 256 40 60 (4915200)
I0426 18:15:27.977674  9555 net.cpp:137] Memory required for data: 647554592
I0426 18:15:27.977679  9555 layer_factory.hpp:77] Creating layer res2c_res2c_relu_0_split
I0426 18:15:27.977691  9555 net.cpp:84] Creating Layer res2c_res2c_relu_0_split
I0426 18:15:27.977697  9555 net.cpp:406] res2c_res2c_relu_0_split <- res2c
I0426 18:15:27.977705  9555 net.cpp:380] res2c_res2c_relu_0_split -> res2c_res2c_relu_0_split_0
I0426 18:15:27.977720  9555 net.cpp:380] res2c_res2c_relu_0_split -> res2c_res2c_relu_0_split_1
I0426 18:15:27.977767  9555 net.cpp:122] Setting up res2c_res2c_relu_0_split
I0426 18:15:27.977776  9555 net.cpp:129] Top shape: 8 256 40 60 (4915200)
I0426 18:15:27.977782  9555 net.cpp:129] Top shape: 8 256 40 60 (4915200)
I0426 18:15:27.977787  9555 net.cpp:137] Memory required for data: 686876192
I0426 18:15:27.977793  9555 layer_factory.hpp:77] Creating layer res3a_branch1
I0426 18:15:27.977807  9555 net.cpp:84] Creating Layer res3a_branch1
I0426 18:15:27.977813  9555 net.cpp:406] res3a_branch1 <- res2c_res2c_relu_0_split_0
I0426 18:15:27.977823  9555 net.cpp:380] res3a_branch1 -> res3a_branch1
I0426 18:15:27.984129  9555 net.cpp:122] Setting up res3a_branch1
I0426 18:15:27.984176  9555 net.cpp:129] Top shape: 8 512 20 30 (2457600)
I0426 18:15:27.984184  9555 net.cpp:137] Memory required for data: 696706592
I0426 18:15:27.984197  9555 layer_factory.hpp:77] Creating layer bn3a_branch1
I0426 18:15:27.984213  9555 net.cpp:84] Creating Layer bn3a_branch1
I0426 18:15:27.984222  9555 net.cpp:406] bn3a_branch1 <- res3a_branch1
I0426 18:15:27.984236  9555 net.cpp:367] bn3a_branch1 -> res3a_branch1 (in-place)
I0426 18:15:27.986387  9555 net.cpp:122] Setting up bn3a_branch1
I0426 18:15:27.986439  9555 net.cpp:129] Top shape: 8 512 20 30 (2457600)
I0426 18:15:27.986445  9555 net.cpp:137] Memory required for data: 706536992
I0426 18:15:27.986466  9555 layer_factory.hpp:77] Creating layer scale3a_branch1
I0426 18:15:27.986486  9555 net.cpp:84] Creating Layer scale3a_branch1
I0426 18:15:27.986495  9555 net.cpp:406] scale3a_branch1 <- res3a_branch1
I0426 18:15:27.986508  9555 net.cpp:367] scale3a_branch1 -> res3a_branch1 (in-place)
I0426 18:15:27.986593  9555 layer_factory.hpp:77] Creating layer scale3a_branch1
I0426 18:15:27.986744  9555 net.cpp:122] Setting up scale3a_branch1
I0426 18:15:27.986764  9555 net.cpp:129] Top shape: 8 512 20 30 (2457600)
I0426 18:15:27.986788  9555 net.cpp:137] Memory required for data: 716367392
I0426 18:15:27.986798  9555 layer_factory.hpp:77] Creating layer res3a_branch2a
I0426 18:15:27.986814  9555 net.cpp:84] Creating Layer res3a_branch2a
I0426 18:15:27.986820  9555 net.cpp:406] res3a_branch2a <- res2c_res2c_relu_0_split_1
I0426 18:15:27.986834  9555 net.cpp:380] res3a_branch2a -> res3a_branch2a
I0426 18:15:27.989138  9555 net.cpp:122] Setting up res3a_branch2a
I0426 18:15:27.989161  9555 net.cpp:129] Top shape: 8 128 20 30 (614400)
I0426 18:15:27.989167  9555 net.cpp:137] Memory required for data: 718824992
I0426 18:15:27.989176  9555 layer_factory.hpp:77] Creating layer bn3a_branch2a
I0426 18:15:27.989189  9555 net.cpp:84] Creating Layer bn3a_branch2a
I0426 18:15:27.989195  9555 net.cpp:406] bn3a_branch2a <- res3a_branch2a
I0426 18:15:27.989207  9555 net.cpp:367] bn3a_branch2a -> res3a_branch2a (in-place)
I0426 18:15:27.989470  9555 net.cpp:122] Setting up bn3a_branch2a
I0426 18:15:27.989478  9555 net.cpp:129] Top shape: 8 128 20 30 (614400)
I0426 18:15:27.989483  9555 net.cpp:137] Memory required for data: 721282592
I0426 18:15:27.989495  9555 layer_factory.hpp:77] Creating layer scale3a_branch2a
I0426 18:15:27.989506  9555 net.cpp:84] Creating Layer scale3a_branch2a
I0426 18:15:27.989511  9555 net.cpp:406] scale3a_branch2a <- res3a_branch2a
I0426 18:15:27.989518  9555 net.cpp:367] scale3a_branch2a -> res3a_branch2a (in-place)
I0426 18:15:27.989567  9555 layer_factory.hpp:77] Creating layer scale3a_branch2a
I0426 18:15:27.989714  9555 net.cpp:122] Setting up scale3a_branch2a
I0426 18:15:27.989722  9555 net.cpp:129] Top shape: 8 128 20 30 (614400)
I0426 18:15:27.989727  9555 net.cpp:137] Memory required for data: 723740192
I0426 18:15:27.989737  9555 layer_factory.hpp:77] Creating layer res3a_branch2a_relu
I0426 18:15:27.989745  9555 net.cpp:84] Creating Layer res3a_branch2a_relu
I0426 18:15:27.989751  9555 net.cpp:406] res3a_branch2a_relu <- res3a_branch2a
I0426 18:15:27.989763  9555 net.cpp:367] res3a_branch2a_relu -> res3a_branch2a (in-place)
I0426 18:15:27.989994  9555 net.cpp:122] Setting up res3a_branch2a_relu
I0426 18:15:27.990002  9555 net.cpp:129] Top shape: 8 128 20 30 (614400)
I0426 18:15:27.990007  9555 net.cpp:137] Memory required for data: 726197792
I0426 18:15:27.990013  9555 layer_factory.hpp:77] Creating layer res3a_branch2b
I0426 18:15:27.990027  9555 net.cpp:84] Creating Layer res3a_branch2b
I0426 18:15:27.990033  9555 net.cpp:406] res3a_branch2b <- res3a_branch2a
I0426 18:15:27.990044  9555 net.cpp:380] res3a_branch2b -> res3a_branch2b
I0426 18:15:27.994993  9555 net.cpp:122] Setting up res3a_branch2b
I0426 18:15:27.995034  9555 net.cpp:129] Top shape: 8 128 20 30 (614400)
I0426 18:15:27.995041  9555 net.cpp:137] Memory required for data: 728655392
I0426 18:15:27.995052  9555 layer_factory.hpp:77] Creating layer bn3a_branch2b
I0426 18:15:27.995067  9555 net.cpp:84] Creating Layer bn3a_branch2b
I0426 18:15:27.995075  9555 net.cpp:406] bn3a_branch2b <- res3a_branch2b
I0426 18:15:27.995090  9555 net.cpp:367] bn3a_branch2b -> res3a_branch2b (in-place)
I0426 18:15:27.995365  9555 net.cpp:122] Setting up bn3a_branch2b
I0426 18:15:27.995373  9555 net.cpp:129] Top shape: 8 128 20 30 (614400)
I0426 18:15:27.995379  9555 net.cpp:137] Memory required for data: 731112992
I0426 18:15:27.995390  9555 layer_factory.hpp:77] Creating layer scale3a_branch2b
I0426 18:15:27.995403  9555 net.cpp:84] Creating Layer scale3a_branch2b
I0426 18:15:27.995409  9555 net.cpp:406] scale3a_branch2b <- res3a_branch2b
I0426 18:15:27.995416  9555 net.cpp:367] scale3a_branch2b -> res3a_branch2b (in-place)
I0426 18:15:27.995471  9555 layer_factory.hpp:77] Creating layer scale3a_branch2b
I0426 18:15:27.995618  9555 net.cpp:122] Setting up scale3a_branch2b
I0426 18:15:27.995626  9555 net.cpp:129] Top shape: 8 128 20 30 (614400)
I0426 18:15:27.995631  9555 net.cpp:137] Memory required for data: 733570592
I0426 18:15:27.995640  9555 layer_factory.hpp:77] Creating layer res3a_branch2b_relu
I0426 18:15:27.995661  9555 net.cpp:84] Creating Layer res3a_branch2b_relu
I0426 18:15:27.995679  9555 net.cpp:406] res3a_branch2b_relu <- res3a_branch2b
I0426 18:15:27.995689  9555 net.cpp:367] res3a_branch2b_relu -> res3a_branch2b (in-place)
I0426 18:15:27.995923  9555 net.cpp:122] Setting up res3a_branch2b_relu
I0426 18:15:27.995932  9555 net.cpp:129] Top shape: 8 128 20 30 (614400)
I0426 18:15:27.995939  9555 net.cpp:137] Memory required for data: 736028192
I0426 18:15:27.995944  9555 layer_factory.hpp:77] Creating layer res3a_branch2c
I0426 18:15:27.995959  9555 net.cpp:84] Creating Layer res3a_branch2c
I0426 18:15:27.995965  9555 net.cpp:406] res3a_branch2c <- res3a_branch2b
I0426 18:15:27.995975  9555 net.cpp:380] res3a_branch2c -> res3a_branch2c
I0426 18:15:27.998556  9555 net.cpp:122] Setting up res3a_branch2c
I0426 18:15:27.998577  9555 net.cpp:129] Top shape: 8 512 20 30 (2457600)
I0426 18:15:27.998584  9555 net.cpp:137] Memory required for data: 745858592
I0426 18:15:27.998595  9555 layer_factory.hpp:77] Creating layer bn3a_branch2c
I0426 18:15:27.998642  9555 net.cpp:84] Creating Layer bn3a_branch2c
I0426 18:15:27.998651  9555 net.cpp:406] bn3a_branch2c <- res3a_branch2c
I0426 18:15:27.998659  9555 net.cpp:367] bn3a_branch2c -> res3a_branch2c (in-place)
I0426 18:15:27.998932  9555 net.cpp:122] Setting up bn3a_branch2c
I0426 18:15:27.998940  9555 net.cpp:129] Top shape: 8 512 20 30 (2457600)
I0426 18:15:27.998945  9555 net.cpp:137] Memory required for data: 755688992
I0426 18:15:27.998956  9555 layer_factory.hpp:77] Creating layer scale3a_branch2c
I0426 18:15:27.998965  9555 net.cpp:84] Creating Layer scale3a_branch2c
I0426 18:15:27.998970  9555 net.cpp:406] scale3a_branch2c <- res3a_branch2c
I0426 18:15:27.998980  9555 net.cpp:367] scale3a_branch2c -> res3a_branch2c (in-place)
I0426 18:15:27.999029  9555 layer_factory.hpp:77] Creating layer scale3a_branch2c
I0426 18:15:27.999176  9555 net.cpp:122] Setting up scale3a_branch2c
I0426 18:15:27.999186  9555 net.cpp:129] Top shape: 8 512 20 30 (2457600)
I0426 18:15:27.999192  9555 net.cpp:137] Memory required for data: 765519392
I0426 18:15:27.999200  9555 layer_factory.hpp:77] Creating layer res3a
I0426 18:15:27.999209  9555 net.cpp:84] Creating Layer res3a
I0426 18:15:27.999215  9555 net.cpp:406] res3a <- res3a_branch1
I0426 18:15:27.999222  9555 net.cpp:406] res3a <- res3a_branch2c
I0426 18:15:27.999230  9555 net.cpp:380] res3a -> res3a
I0426 18:15:27.999263  9555 net.cpp:122] Setting up res3a
I0426 18:15:27.999269  9555 net.cpp:129] Top shape: 8 512 20 30 (2457600)
I0426 18:15:27.999275  9555 net.cpp:137] Memory required for data: 775349792
I0426 18:15:27.999280  9555 layer_factory.hpp:77] Creating layer res3a_relu
I0426 18:15:27.999289  9555 net.cpp:84] Creating Layer res3a_relu
I0426 18:15:27.999294  9555 net.cpp:406] res3a_relu <- res3a
I0426 18:15:27.999303  9555 net.cpp:367] res3a_relu -> res3a (in-place)
I0426 18:15:27.999539  9555 net.cpp:122] Setting up res3a_relu
I0426 18:15:27.999547  9555 net.cpp:129] Top shape: 8 512 20 30 (2457600)
I0426 18:15:27.999552  9555 net.cpp:137] Memory required for data: 785180192
I0426 18:15:27.999558  9555 layer_factory.hpp:77] Creating layer res3a_res3a_relu_0_split
I0426 18:15:27.999569  9555 net.cpp:84] Creating Layer res3a_res3a_relu_0_split
I0426 18:15:27.999574  9555 net.cpp:406] res3a_res3a_relu_0_split <- res3a
I0426 18:15:27.999583  9555 net.cpp:380] res3a_res3a_relu_0_split -> res3a_res3a_relu_0_split_0
I0426 18:15:27.999591  9555 net.cpp:380] res3a_res3a_relu_0_split -> res3a_res3a_relu_0_split_1
I0426 18:15:27.999641  9555 net.cpp:122] Setting up res3a_res3a_relu_0_split
I0426 18:15:27.999649  9555 net.cpp:129] Top shape: 8 512 20 30 (2457600)
I0426 18:15:27.999655  9555 net.cpp:129] Top shape: 8 512 20 30 (2457600)
I0426 18:15:27.999660  9555 net.cpp:137] Memory required for data: 804840992
I0426 18:15:27.999665  9555 layer_factory.hpp:77] Creating layer res3b_branch2a
I0426 18:15:27.999677  9555 net.cpp:84] Creating Layer res3b_branch2a
I0426 18:15:27.999682  9555 net.cpp:406] res3b_branch2a <- res3a_res3a_relu_0_split_0
I0426 18:15:27.999718  9555 net.cpp:380] res3b_branch2a -> res3b_branch2a
I0426 18:15:28.002153  9555 net.cpp:122] Setting up res3b_branch2a
I0426 18:15:28.002176  9555 net.cpp:129] Top shape: 8 128 20 30 (614400)
I0426 18:15:28.002182  9555 net.cpp:137] Memory required for data: 807298592
I0426 18:15:28.002192  9555 layer_factory.hpp:77] Creating layer bn3b_branch2a
I0426 18:15:28.002202  9555 net.cpp:84] Creating Layer bn3b_branch2a
I0426 18:15:28.002208  9555 net.cpp:406] bn3b_branch2a <- res3b_branch2a
I0426 18:15:28.002219  9555 net.cpp:367] bn3b_branch2a -> res3b_branch2a (in-place)
I0426 18:15:28.002495  9555 net.cpp:122] Setting up bn3b_branch2a
I0426 18:15:28.002502  9555 net.cpp:129] Top shape: 8 128 20 30 (614400)
I0426 18:15:28.002508  9555 net.cpp:137] Memory required for data: 809756192
I0426 18:15:28.002518  9555 layer_factory.hpp:77] Creating layer scale3b_branch2a
I0426 18:15:28.002526  9555 net.cpp:84] Creating Layer scale3b_branch2a
I0426 18:15:28.002532  9555 net.cpp:406] scale3b_branch2a <- res3b_branch2a
I0426 18:15:28.002539  9555 net.cpp:367] scale3b_branch2a -> res3b_branch2a (in-place)
I0426 18:15:28.002593  9555 layer_factory.hpp:77] Creating layer scale3b_branch2a
I0426 18:15:28.002743  9555 net.cpp:122] Setting up scale3b_branch2a
I0426 18:15:28.002750  9555 net.cpp:129] Top shape: 8 128 20 30 (614400)
I0426 18:15:28.002756  9555 net.cpp:137] Memory required for data: 812213792
I0426 18:15:28.002764  9555 layer_factory.hpp:77] Creating layer res3b_branch2a_relu
I0426 18:15:28.002774  9555 net.cpp:84] Creating Layer res3b_branch2a_relu
I0426 18:15:28.002779  9555 net.cpp:406] res3b_branch2a_relu <- res3b_branch2a
I0426 18:15:28.002789  9555 net.cpp:367] res3b_branch2a_relu -> res3b_branch2a (in-place)
I0426 18:15:28.003016  9555 net.cpp:122] Setting up res3b_branch2a_relu
I0426 18:15:28.003024  9555 net.cpp:129] Top shape: 8 128 20 30 (614400)
I0426 18:15:28.003031  9555 net.cpp:137] Memory required for data: 814671392
I0426 18:15:28.003036  9555 layer_factory.hpp:77] Creating layer res3b_branch2b
I0426 18:15:28.003048  9555 net.cpp:84] Creating Layer res3b_branch2b
I0426 18:15:28.003053  9555 net.cpp:406] res3b_branch2b <- res3b_branch2a
I0426 18:15:28.003064  9555 net.cpp:380] res3b_branch2b -> res3b_branch2b
I0426 18:15:28.007093  9555 net.cpp:122] Setting up res3b_branch2b
I0426 18:15:28.007118  9555 net.cpp:129] Top shape: 8 128 20 30 (614400)
I0426 18:15:28.007124  9555 net.cpp:137] Memory required for data: 817128992
I0426 18:15:28.007134  9555 layer_factory.hpp:77] Creating layer bn3b_branch2b
I0426 18:15:28.007145  9555 net.cpp:84] Creating Layer bn3b_branch2b
I0426 18:15:28.007153  9555 net.cpp:406] bn3b_branch2b <- res3b_branch2b
I0426 18:15:28.007164  9555 net.cpp:367] bn3b_branch2b -> res3b_branch2b (in-place)
I0426 18:15:28.007436  9555 net.cpp:122] Setting up bn3b_branch2b
I0426 18:15:28.007443  9555 net.cpp:129] Top shape: 8 128 20 30 (614400)
I0426 18:15:28.007449  9555 net.cpp:137] Memory required for data: 819586592
I0426 18:15:28.007460  9555 layer_factory.hpp:77] Creating layer scale3b_branch2b
I0426 18:15:28.007472  9555 net.cpp:84] Creating Layer scale3b_branch2b
I0426 18:15:28.007477  9555 net.cpp:406] scale3b_branch2b <- res3b_branch2b
I0426 18:15:28.007485  9555 net.cpp:367] scale3b_branch2b -> res3b_branch2b (in-place)
I0426 18:15:28.007537  9555 layer_factory.hpp:77] Creating layer scale3b_branch2b
I0426 18:15:28.007683  9555 net.cpp:122] Setting up scale3b_branch2b
I0426 18:15:28.007690  9555 net.cpp:129] Top shape: 8 128 20 30 (614400)
I0426 18:15:28.007696  9555 net.cpp:137] Memory required for data: 822044192
I0426 18:15:28.007704  9555 layer_factory.hpp:77] Creating layer res3b_branch2b_relu
I0426 18:15:28.007720  9555 net.cpp:84] Creating Layer res3b_branch2b_relu
I0426 18:15:28.007727  9555 net.cpp:406] res3b_branch2b_relu <- res3b_branch2b
I0426 18:15:28.007735  9555 net.cpp:367] res3b_branch2b_relu -> res3b_branch2b (in-place)
I0426 18:15:28.007967  9555 net.cpp:122] Setting up res3b_branch2b_relu
I0426 18:15:28.007988  9555 net.cpp:129] Top shape: 8 128 20 30 (614400)
I0426 18:15:28.008007  9555 net.cpp:137] Memory required for data: 824501792
I0426 18:15:28.008013  9555 layer_factory.hpp:77] Creating layer res3b_branch2c
I0426 18:15:28.008024  9555 net.cpp:84] Creating Layer res3b_branch2c
I0426 18:15:28.008030  9555 net.cpp:406] res3b_branch2c <- res3b_branch2b
I0426 18:15:28.008038  9555 net.cpp:380] res3b_branch2c -> res3b_branch2c
I0426 18:15:28.010551  9555 net.cpp:122] Setting up res3b_branch2c
I0426 18:15:28.010574  9555 net.cpp:129] Top shape: 8 512 20 30 (2457600)
I0426 18:15:28.010581  9555 net.cpp:137] Memory required for data: 834332192
I0426 18:15:28.010591  9555 layer_factory.hpp:77] Creating layer bn3b_branch2c
I0426 18:15:28.010601  9555 net.cpp:84] Creating Layer bn3b_branch2c
I0426 18:15:28.010607  9555 net.cpp:406] bn3b_branch2c <- res3b_branch2c
I0426 18:15:28.010620  9555 net.cpp:367] bn3b_branch2c -> res3b_branch2c (in-place)
I0426 18:15:28.010891  9555 net.cpp:122] Setting up bn3b_branch2c
I0426 18:15:28.010900  9555 net.cpp:129] Top shape: 8 512 20 30 (2457600)
I0426 18:15:28.010905  9555 net.cpp:137] Memory required for data: 844162592
I0426 18:15:28.010915  9555 layer_factory.hpp:77] Creating layer scale3b_branch2c
I0426 18:15:28.010928  9555 net.cpp:84] Creating Layer scale3b_branch2c
I0426 18:15:28.010934  9555 net.cpp:406] scale3b_branch2c <- res3b_branch2c
I0426 18:15:28.010941  9555 net.cpp:367] scale3b_branch2c -> res3b_branch2c (in-place)
I0426 18:15:28.010993  9555 layer_factory.hpp:77] Creating layer scale3b_branch2c
I0426 18:15:28.011143  9555 net.cpp:122] Setting up scale3b_branch2c
I0426 18:15:28.011152  9555 net.cpp:129] Top shape: 8 512 20 30 (2457600)
I0426 18:15:28.011157  9555 net.cpp:137] Memory required for data: 853992992
I0426 18:15:28.011165  9555 layer_factory.hpp:77] Creating layer res3b
I0426 18:15:28.011174  9555 net.cpp:84] Creating Layer res3b
I0426 18:15:28.011180  9555 net.cpp:406] res3b <- res3a_res3a_relu_0_split_1
I0426 18:15:28.011188  9555 net.cpp:406] res3b <- res3b_branch2c
I0426 18:15:28.011198  9555 net.cpp:380] res3b -> res3b
I0426 18:15:28.011229  9555 net.cpp:122] Setting up res3b
I0426 18:15:28.011240  9555 net.cpp:129] Top shape: 8 512 20 30 (2457600)
I0426 18:15:28.011245  9555 net.cpp:137] Memory required for data: 863823392
I0426 18:15:28.011250  9555 layer_factory.hpp:77] Creating layer res3b_relu
I0426 18:15:28.011260  9555 net.cpp:84] Creating Layer res3b_relu
I0426 18:15:28.011265  9555 net.cpp:406] res3b_relu <- res3b
I0426 18:15:28.011272  9555 net.cpp:367] res3b_relu -> res3b (in-place)
I0426 18:15:28.012104  9555 net.cpp:122] Setting up res3b_relu
I0426 18:15:28.012120  9555 net.cpp:129] Top shape: 8 512 20 30 (2457600)
I0426 18:15:28.012126  9555 net.cpp:137] Memory required for data: 873653792
I0426 18:15:28.012132  9555 layer_factory.hpp:77] Creating layer res3b_res3b_relu_0_split
I0426 18:15:28.012141  9555 net.cpp:84] Creating Layer res3b_res3b_relu_0_split
I0426 18:15:28.012147  9555 net.cpp:406] res3b_res3b_relu_0_split <- res3b
I0426 18:15:28.012159  9555 net.cpp:380] res3b_res3b_relu_0_split -> res3b_res3b_relu_0_split_0
I0426 18:15:28.012171  9555 net.cpp:380] res3b_res3b_relu_0_split -> res3b_res3b_relu_0_split_1
I0426 18:15:28.012222  9555 net.cpp:122] Setting up res3b_res3b_relu_0_split
I0426 18:15:28.012233  9555 net.cpp:129] Top shape: 8 512 20 30 (2457600)
I0426 18:15:28.012240  9555 net.cpp:129] Top shape: 8 512 20 30 (2457600)
I0426 18:15:28.012245  9555 net.cpp:137] Memory required for data: 893314592
I0426 18:15:28.012250  9555 layer_factory.hpp:77] Creating layer res3c_branch2a
I0426 18:15:28.012262  9555 net.cpp:84] Creating Layer res3c_branch2a
I0426 18:15:28.012269  9555 net.cpp:406] res3c_branch2a <- res3b_res3b_relu_0_split_0
I0426 18:15:28.012281  9555 net.cpp:380] res3c_branch2a -> res3c_branch2a
I0426 18:15:28.014962  9555 net.cpp:122] Setting up res3c_branch2a
I0426 18:15:28.014984  9555 net.cpp:129] Top shape: 8 128 20 30 (614400)
I0426 18:15:28.014991  9555 net.cpp:137] Memory required for data: 895772192
I0426 18:15:28.015018  9555 layer_factory.hpp:77] Creating layer bn3c_branch2a
I0426 18:15:28.015049  9555 net.cpp:84] Creating Layer bn3c_branch2a
I0426 18:15:28.015056  9555 net.cpp:406] bn3c_branch2a <- res3c_branch2a
I0426 18:15:28.015066  9555 net.cpp:367] bn3c_branch2a -> res3c_branch2a (in-place)
I0426 18:15:28.015357  9555 net.cpp:122] Setting up bn3c_branch2a
I0426 18:15:28.015365  9555 net.cpp:129] Top shape: 8 128 20 30 (614400)
I0426 18:15:28.015372  9555 net.cpp:137] Memory required for data: 898229792
I0426 18:15:28.015382  9555 layer_factory.hpp:77] Creating layer scale3c_branch2a
I0426 18:15:28.015390  9555 net.cpp:84] Creating Layer scale3c_branch2a
I0426 18:15:28.015396  9555 net.cpp:406] scale3c_branch2a <- res3c_branch2a
I0426 18:15:28.015408  9555 net.cpp:367] scale3c_branch2a -> res3c_branch2a (in-place)
I0426 18:15:28.015457  9555 layer_factory.hpp:77] Creating layer scale3c_branch2a
I0426 18:15:28.015607  9555 net.cpp:122] Setting up scale3c_branch2a
I0426 18:15:28.015614  9555 net.cpp:129] Top shape: 8 128 20 30 (614400)
I0426 18:15:28.015620  9555 net.cpp:137] Memory required for data: 900687392
I0426 18:15:28.015628  9555 layer_factory.hpp:77] Creating layer res3c_branch2a_relu
I0426 18:15:28.015640  9555 net.cpp:84] Creating Layer res3c_branch2a_relu
I0426 18:15:28.015645  9555 net.cpp:406] res3c_branch2a_relu <- res3c_branch2a
I0426 18:15:28.015652  9555 net.cpp:367] res3c_branch2a_relu -> res3c_branch2a (in-place)
I0426 18:15:28.015965  9555 net.cpp:122] Setting up res3c_branch2a_relu
I0426 18:15:28.015979  9555 net.cpp:129] Top shape: 8 128 20 30 (614400)
I0426 18:15:28.015985  9555 net.cpp:137] Memory required for data: 903144992
I0426 18:15:28.015990  9555 layer_factory.hpp:77] Creating layer res3c_branch2b
I0426 18:15:28.016003  9555 net.cpp:84] Creating Layer res3c_branch2b
I0426 18:15:28.016010  9555 net.cpp:406] res3c_branch2b <- res3c_branch2a
I0426 18:15:28.016017  9555 net.cpp:380] res3c_branch2b -> res3c_branch2b
I0426 18:15:28.022301  9555 net.cpp:122] Setting up res3c_branch2b
I0426 18:15:28.022351  9555 net.cpp:129] Top shape: 8 128 20 30 (614400)
I0426 18:15:28.022357  9555 net.cpp:137] Memory required for data: 905602592
I0426 18:15:28.022372  9555 layer_factory.hpp:77] Creating layer bn3c_branch2b
I0426 18:15:28.022389  9555 net.cpp:84] Creating Layer bn3c_branch2b
I0426 18:15:28.022398  9555 net.cpp:406] bn3c_branch2b <- res3c_branch2b
I0426 18:15:28.022409  9555 net.cpp:367] bn3c_branch2b -> res3c_branch2b (in-place)
I0426 18:15:28.022711  9555 net.cpp:122] Setting up bn3c_branch2b
I0426 18:15:28.022718  9555 net.cpp:129] Top shape: 8 128 20 30 (614400)
I0426 18:15:28.022723  9555 net.cpp:137] Memory required for data: 908060192
I0426 18:15:28.022734  9555 layer_factory.hpp:77] Creating layer scale3c_branch2b
I0426 18:15:28.022745  9555 net.cpp:84] Creating Layer scale3c_branch2b
I0426 18:15:28.022752  9555 net.cpp:406] scale3c_branch2b <- res3c_branch2b
I0426 18:15:28.022761  9555 net.cpp:367] scale3c_branch2b -> res3c_branch2b (in-place)
I0426 18:15:28.022824  9555 layer_factory.hpp:77] Creating layer scale3c_branch2b
I0426 18:15:28.022981  9555 net.cpp:122] Setting up scale3c_branch2b
I0426 18:15:28.022994  9555 net.cpp:129] Top shape: 8 128 20 30 (614400)
I0426 18:15:28.023000  9555 net.cpp:137] Memory required for data: 910517792
I0426 18:15:28.023008  9555 layer_factory.hpp:77] Creating layer res3c_branch2b_relu
I0426 18:15:28.023020  9555 net.cpp:84] Creating Layer res3c_branch2b_relu
I0426 18:15:28.023025  9555 net.cpp:406] res3c_branch2b_relu <- res3c_branch2b
I0426 18:15:28.023032  9555 net.cpp:367] res3c_branch2b_relu -> res3c_branch2b (in-place)
I0426 18:15:28.023283  9555 net.cpp:122] Setting up res3c_branch2b_relu
I0426 18:15:28.023293  9555 net.cpp:129] Top shape: 8 128 20 30 (614400)
I0426 18:15:28.023298  9555 net.cpp:137] Memory required for data: 912975392
I0426 18:15:28.023303  9555 layer_factory.hpp:77] Creating layer res3c_branch2c
I0426 18:15:28.023321  9555 net.cpp:84] Creating Layer res3c_branch2c
I0426 18:15:28.023326  9555 net.cpp:406] res3c_branch2c <- res3c_branch2b
I0426 18:15:28.023351  9555 net.cpp:380] res3c_branch2c -> res3c_branch2c
I0426 18:15:28.026036  9555 net.cpp:122] Setting up res3c_branch2c
I0426 18:15:28.026059  9555 net.cpp:129] Top shape: 8 512 20 30 (2457600)
I0426 18:15:28.026067  9555 net.cpp:137] Memory required for data: 922805792
I0426 18:15:28.026077  9555 layer_factory.hpp:77] Creating layer bn3c_branch2c
I0426 18:15:28.026093  9555 net.cpp:84] Creating Layer bn3c_branch2c
I0426 18:15:28.026099  9555 net.cpp:406] bn3c_branch2c <- res3c_branch2c
I0426 18:15:28.026113  9555 net.cpp:367] bn3c_branch2c -> res3c_branch2c (in-place)
I0426 18:15:28.026398  9555 net.cpp:122] Setting up bn3c_branch2c
I0426 18:15:28.026406  9555 net.cpp:129] Top shape: 8 512 20 30 (2457600)
I0426 18:15:28.026412  9555 net.cpp:137] Memory required for data: 932636192
I0426 18:15:28.026422  9555 layer_factory.hpp:77] Creating layer scale3c_branch2c
I0426 18:15:28.026432  9555 net.cpp:84] Creating Layer scale3c_branch2c
I0426 18:15:28.026439  9555 net.cpp:406] scale3c_branch2c <- res3c_branch2c
I0426 18:15:28.026448  9555 net.cpp:367] scale3c_branch2c -> res3c_branch2c (in-place)
I0426 18:15:28.026499  9555 layer_factory.hpp:77] Creating layer scale3c_branch2c
I0426 18:15:28.026654  9555 net.cpp:122] Setting up scale3c_branch2c
I0426 18:15:28.026665  9555 net.cpp:129] Top shape: 8 512 20 30 (2457600)
I0426 18:15:28.026670  9555 net.cpp:137] Memory required for data: 942466592
I0426 18:15:28.026679  9555 layer_factory.hpp:77] Creating layer res3c
I0426 18:15:28.026690  9555 net.cpp:84] Creating Layer res3c
I0426 18:15:28.026695  9555 net.cpp:406] res3c <- res3b_res3b_relu_0_split_1
I0426 18:15:28.026702  9555 net.cpp:406] res3c <- res3c_branch2c
I0426 18:15:28.026710  9555 net.cpp:380] res3c -> res3c
I0426 18:15:28.026743  9555 net.cpp:122] Setting up res3c
I0426 18:15:28.026751  9555 net.cpp:129] Top shape: 8 512 20 30 (2457600)
I0426 18:15:28.026757  9555 net.cpp:137] Memory required for data: 952296992
I0426 18:15:28.026762  9555 layer_factory.hpp:77] Creating layer res3c_relu
I0426 18:15:28.026774  9555 net.cpp:84] Creating Layer res3c_relu
I0426 18:15:28.026779  9555 net.cpp:406] res3c_relu <- res3c
I0426 18:15:28.026787  9555 net.cpp:367] res3c_relu -> res3c (in-place)
I0426 18:15:28.027009  9555 net.cpp:122] Setting up res3c_relu
I0426 18:15:28.027021  9555 net.cpp:129] Top shape: 8 512 20 30 (2457600)
I0426 18:15:28.027026  9555 net.cpp:137] Memory required for data: 962127392
I0426 18:15:28.027032  9555 layer_factory.hpp:77] Creating layer res3c_res3c_relu_0_split
I0426 18:15:28.027040  9555 net.cpp:84] Creating Layer res3c_res3c_relu_0_split
I0426 18:15:28.027046  9555 net.cpp:406] res3c_res3c_relu_0_split <- res3c
I0426 18:15:28.027055  9555 net.cpp:380] res3c_res3c_relu_0_split -> res3c_res3c_relu_0_split_0
I0426 18:15:28.027066  9555 net.cpp:380] res3c_res3c_relu_0_split -> res3c_res3c_relu_0_split_1
I0426 18:15:28.027115  9555 net.cpp:122] Setting up res3c_res3c_relu_0_split
I0426 18:15:28.027123  9555 net.cpp:129] Top shape: 8 512 20 30 (2457600)
I0426 18:15:28.027130  9555 net.cpp:129] Top shape: 8 512 20 30 (2457600)
I0426 18:15:28.027135  9555 net.cpp:137] Memory required for data: 981788192
I0426 18:15:28.027142  9555 layer_factory.hpp:77] Creating layer res3d_branch2a
I0426 18:15:28.027154  9555 net.cpp:84] Creating Layer res3d_branch2a
I0426 18:15:28.027160  9555 net.cpp:406] res3d_branch2a <- res3c_res3c_relu_0_split_0
I0426 18:15:28.027174  9555 net.cpp:380] res3d_branch2a -> res3d_branch2a
I0426 18:15:28.032061  9555 net.cpp:122] Setting up res3d_branch2a
I0426 18:15:28.032115  9555 net.cpp:129] Top shape: 8 128 20 30 (614400)
I0426 18:15:28.032122  9555 net.cpp:137] Memory required for data: 984245792
I0426 18:15:28.032140  9555 layer_factory.hpp:77] Creating layer bn3d_branch2a
I0426 18:15:28.032157  9555 net.cpp:84] Creating Layer bn3d_branch2a
I0426 18:15:28.032168  9555 net.cpp:406] bn3d_branch2a <- res3d_branch2a
I0426 18:15:28.032184  9555 net.cpp:367] bn3d_branch2a -> res3d_branch2a (in-place)
I0426 18:15:28.032495  9555 net.cpp:122] Setting up bn3d_branch2a
I0426 18:15:28.032519  9555 net.cpp:129] Top shape: 8 128 20 30 (614400)
I0426 18:15:28.032544  9555 net.cpp:137] Memory required for data: 986703392
I0426 18:15:28.032611  9555 layer_factory.hpp:77] Creating layer scale3d_branch2a
I0426 18:15:28.032625  9555 net.cpp:84] Creating Layer scale3d_branch2a
I0426 18:15:28.032631  9555 net.cpp:406] scale3d_branch2a <- res3d_branch2a
I0426 18:15:28.032639  9555 net.cpp:367] scale3d_branch2a -> res3d_branch2a (in-place)
I0426 18:15:28.032706  9555 layer_factory.hpp:77] Creating layer scale3d_branch2a
I0426 18:15:28.032866  9555 net.cpp:122] Setting up scale3d_branch2a
I0426 18:15:28.032874  9555 net.cpp:129] Top shape: 8 128 20 30 (614400)
I0426 18:15:28.032879  9555 net.cpp:137] Memory required for data: 989160992
I0426 18:15:28.032888  9555 layer_factory.hpp:77] Creating layer res3d_branch2a_relu
I0426 18:15:28.032898  9555 net.cpp:84] Creating Layer res3d_branch2a_relu
I0426 18:15:28.032904  9555 net.cpp:406] res3d_branch2a_relu <- res3d_branch2a
I0426 18:15:28.032917  9555 net.cpp:367] res3d_branch2a_relu -> res3d_branch2a (in-place)
I0426 18:15:28.033172  9555 net.cpp:122] Setting up res3d_branch2a_relu
I0426 18:15:28.033181  9555 net.cpp:129] Top shape: 8 128 20 30 (614400)
I0426 18:15:28.033187  9555 net.cpp:137] Memory required for data: 991618592
I0426 18:15:28.033192  9555 layer_factory.hpp:77] Creating layer res3d_branch2b
I0426 18:15:28.033210  9555 net.cpp:84] Creating Layer res3d_branch2b
I0426 18:15:28.033215  9555 net.cpp:406] res3d_branch2b <- res3d_branch2a
I0426 18:15:28.033227  9555 net.cpp:380] res3d_branch2b -> res3d_branch2b
I0426 18:15:28.037726  9555 net.cpp:122] Setting up res3d_branch2b
I0426 18:15:28.037761  9555 net.cpp:129] Top shape: 8 128 20 30 (614400)
I0426 18:15:28.037766  9555 net.cpp:137] Memory required for data: 994076192
I0426 18:15:28.037780  9555 layer_factory.hpp:77] Creating layer bn3d_branch2b
I0426 18:15:28.037796  9555 net.cpp:84] Creating Layer bn3d_branch2b
I0426 18:15:28.037803  9555 net.cpp:406] bn3d_branch2b <- res3d_branch2b
I0426 18:15:28.037813  9555 net.cpp:367] bn3d_branch2b -> res3d_branch2b (in-place)
I0426 18:15:28.038116  9555 net.cpp:122] Setting up bn3d_branch2b
I0426 18:15:28.038125  9555 net.cpp:129] Top shape: 8 128 20 30 (614400)
I0426 18:15:28.038130  9555 net.cpp:137] Memory required for data: 996533792
I0426 18:15:28.038141  9555 layer_factory.hpp:77] Creating layer scale3d_branch2b
I0426 18:15:28.038151  9555 net.cpp:84] Creating Layer scale3d_branch2b
I0426 18:15:28.038156  9555 net.cpp:406] scale3d_branch2b <- res3d_branch2b
I0426 18:15:28.038166  9555 net.cpp:367] scale3d_branch2b -> res3d_branch2b (in-place)
I0426 18:15:28.038219  9555 layer_factory.hpp:77] Creating layer scale3d_branch2b
I0426 18:15:28.038378  9555 net.cpp:122] Setting up scale3d_branch2b
I0426 18:15:28.038385  9555 net.cpp:129] Top shape: 8 128 20 30 (614400)
I0426 18:15:28.038390  9555 net.cpp:137] Memory required for data: 998991392
I0426 18:15:28.038398  9555 layer_factory.hpp:77] Creating layer res3d_branch2b_relu
I0426 18:15:28.038411  9555 net.cpp:84] Creating Layer res3d_branch2b_relu
I0426 18:15:28.038417  9555 net.cpp:406] res3d_branch2b_relu <- res3d_branch2b
I0426 18:15:28.038424  9555 net.cpp:367] res3d_branch2b_relu -> res3d_branch2b (in-place)
I0426 18:15:28.038669  9555 net.cpp:122] Setting up res3d_branch2b_relu
I0426 18:15:28.038681  9555 net.cpp:129] Top shape: 8 128 20 30 (614400)
I0426 18:15:28.038687  9555 net.cpp:137] Memory required for data: 1001448992
I0426 18:15:28.038693  9555 layer_factory.hpp:77] Creating layer res3d_branch2c
I0426 18:15:28.038705  9555 net.cpp:84] Creating Layer res3d_branch2c
I0426 18:15:28.038710  9555 net.cpp:406] res3d_branch2c <- res3d_branch2b
I0426 18:15:28.038722  9555 net.cpp:380] res3d_branch2c -> res3d_branch2c
I0426 18:15:28.041359  9555 net.cpp:122] Setting up res3d_branch2c
I0426 18:15:28.041389  9555 net.cpp:129] Top shape: 8 512 20 30 (2457600)
I0426 18:15:28.041396  9555 net.cpp:137] Memory required for data: 1011279392
I0426 18:15:28.041407  9555 layer_factory.hpp:77] Creating layer bn3d_branch2c
I0426 18:15:28.041458  9555 net.cpp:84] Creating Layer bn3d_branch2c
I0426 18:15:28.041466  9555 net.cpp:406] bn3d_branch2c <- res3d_branch2c
I0426 18:15:28.041476  9555 net.cpp:367] bn3d_branch2c -> res3d_branch2c (in-place)
I0426 18:15:28.041775  9555 net.cpp:122] Setting up bn3d_branch2c
I0426 18:15:28.041784  9555 net.cpp:129] Top shape: 8 512 20 30 (2457600)
I0426 18:15:28.041790  9555 net.cpp:137] Memory required for data: 1021109792
I0426 18:15:28.041800  9555 layer_factory.hpp:77] Creating layer scale3d_branch2c
I0426 18:15:28.041810  9555 net.cpp:84] Creating Layer scale3d_branch2c
I0426 18:15:28.041815  9555 net.cpp:406] scale3d_branch2c <- res3d_branch2c
I0426 18:15:28.041826  9555 net.cpp:367] scale3d_branch2c -> res3d_branch2c (in-place)
I0426 18:15:28.041880  9555 layer_factory.hpp:77] Creating layer scale3d_branch2c
I0426 18:15:28.042040  9555 net.cpp:122] Setting up scale3d_branch2c
I0426 18:15:28.042052  9555 net.cpp:129] Top shape: 8 512 20 30 (2457600)
I0426 18:15:28.042057  9555 net.cpp:137] Memory required for data: 1030940192
I0426 18:15:28.042067  9555 layer_factory.hpp:77] Creating layer res3d
I0426 18:15:28.042076  9555 net.cpp:84] Creating Layer res3d
I0426 18:15:28.042083  9555 net.cpp:406] res3d <- res3c_res3c_relu_0_split_1
I0426 18:15:28.042090  9555 net.cpp:406] res3d <- res3d_branch2c
I0426 18:15:28.042099  9555 net.cpp:380] res3d -> res3d
I0426 18:15:28.042136  9555 net.cpp:122] Setting up res3d
I0426 18:15:28.042145  9555 net.cpp:129] Top shape: 8 512 20 30 (2457600)
I0426 18:15:28.042150  9555 net.cpp:137] Memory required for data: 1040770592
I0426 18:15:28.042155  9555 layer_factory.hpp:77] Creating layer res3d_relu
I0426 18:15:28.042165  9555 net.cpp:84] Creating Layer res3d_relu
I0426 18:15:28.042171  9555 net.cpp:406] res3d_relu <- res3d
I0426 18:15:28.042181  9555 net.cpp:367] res3d_relu -> res3d (in-place)
I0426 18:15:28.043045  9555 net.cpp:122] Setting up res3d_relu
I0426 18:15:28.043056  9555 net.cpp:129] Top shape: 8 512 20 30 (2457600)
I0426 18:15:28.043062  9555 net.cpp:137] Memory required for data: 1050600992
I0426 18:15:28.043068  9555 layer_factory.hpp:77] Creating layer res3d_res3d_relu_0_split
I0426 18:15:28.043079  9555 net.cpp:84] Creating Layer res3d_res3d_relu_0_split
I0426 18:15:28.043085  9555 net.cpp:406] res3d_res3d_relu_0_split <- res3d
I0426 18:15:28.043094  9555 net.cpp:380] res3d_res3d_relu_0_split -> res3d_res3d_relu_0_split_0
I0426 18:15:28.043103  9555 net.cpp:380] res3d_res3d_relu_0_split -> res3d_res3d_relu_0_split_1
I0426 18:15:28.043157  9555 net.cpp:122] Setting up res3d_res3d_relu_0_split
I0426 18:15:28.043165  9555 net.cpp:129] Top shape: 8 512 20 30 (2457600)
I0426 18:15:28.043172  9555 net.cpp:129] Top shape: 8 512 20 30 (2457600)
I0426 18:15:28.043177  9555 net.cpp:137] Memory required for data: 1070261792
I0426 18:15:28.043182  9555 layer_factory.hpp:77] Creating layer res4a_branch1
I0426 18:15:28.043197  9555 net.cpp:84] Creating Layer res4a_branch1
I0426 18:15:28.043203  9555 net.cpp:406] res4a_branch1 <- res3d_res3d_relu_0_split_0
I0426 18:15:28.043213  9555 net.cpp:380] res4a_branch1 -> res4a_branch1
I0426 18:15:28.054298  9555 net.cpp:122] Setting up res4a_branch1
I0426 18:15:28.054378  9555 net.cpp:129] Top shape: 8 1024 10 15 (1228800)
I0426 18:15:28.054384  9555 net.cpp:137] Memory required for data: 1075176992
I0426 18:15:28.054404  9555 layer_factory.hpp:77] Creating layer bn4a_branch1
I0426 18:15:28.054425  9555 net.cpp:84] Creating Layer bn4a_branch1
I0426 18:15:28.054433  9555 net.cpp:406] bn4a_branch1 <- res4a_branch1
I0426 18:15:28.054450  9555 net.cpp:367] bn4a_branch1 -> res4a_branch1 (in-place)
I0426 18:15:28.054769  9555 net.cpp:122] Setting up bn4a_branch1
I0426 18:15:28.054776  9555 net.cpp:129] Top shape: 8 1024 10 15 (1228800)
I0426 18:15:28.054782  9555 net.cpp:137] Memory required for data: 1080092192
I0426 18:15:28.054793  9555 layer_factory.hpp:77] Creating layer scale4a_branch1
I0426 18:15:28.054806  9555 net.cpp:84] Creating Layer scale4a_branch1
I0426 18:15:28.054811  9555 net.cpp:406] scale4a_branch1 <- res4a_branch1
I0426 18:15:28.054843  9555 net.cpp:367] scale4a_branch1 -> res4a_branch1 (in-place)
I0426 18:15:28.054898  9555 layer_factory.hpp:77] Creating layer scale4a_branch1
I0426 18:15:28.055057  9555 net.cpp:122] Setting up scale4a_branch1
I0426 18:15:28.055063  9555 net.cpp:129] Top shape: 8 1024 10 15 (1228800)
I0426 18:15:28.055069  9555 net.cpp:137] Memory required for data: 1085007392
I0426 18:15:28.055078  9555 layer_factory.hpp:77] Creating layer res4a_branch2a
I0426 18:15:28.055090  9555 net.cpp:84] Creating Layer res4a_branch2a
I0426 18:15:28.055096  9555 net.cpp:406] res4a_branch2a <- res3d_res3d_relu_0_split_1
I0426 18:15:28.055105  9555 net.cpp:380] res4a_branch2a -> res4a_branch2a
I0426 18:15:28.057916  9555 net.cpp:122] Setting up res4a_branch2a
I0426 18:15:28.057934  9555 net.cpp:129] Top shape: 8 256 10 15 (307200)
I0426 18:15:28.057940  9555 net.cpp:137] Memory required for data: 1086236192
I0426 18:15:28.057948  9555 layer_factory.hpp:77] Creating layer bn4a_branch2a
I0426 18:15:28.057958  9555 net.cpp:84] Creating Layer bn4a_branch2a
I0426 18:15:28.057965  9555 net.cpp:406] bn4a_branch2a <- res4a_branch2a
I0426 18:15:28.057976  9555 net.cpp:367] bn4a_branch2a -> res4a_branch2a (in-place)
I0426 18:15:28.058264  9555 net.cpp:122] Setting up bn4a_branch2a
I0426 18:15:28.058272  9555 net.cpp:129] Top shape: 8 256 10 15 (307200)
I0426 18:15:28.058279  9555 net.cpp:137] Memory required for data: 1087464992
I0426 18:15:28.058289  9555 layer_factory.hpp:77] Creating layer scale4a_branch2a
I0426 18:15:28.058296  9555 net.cpp:84] Creating Layer scale4a_branch2a
I0426 18:15:28.058302  9555 net.cpp:406] scale4a_branch2a <- res4a_branch2a
I0426 18:15:28.058310  9555 net.cpp:367] scale4a_branch2a -> res4a_branch2a (in-place)
I0426 18:15:28.058362  9555 layer_factory.hpp:77] Creating layer scale4a_branch2a
I0426 18:15:28.058516  9555 net.cpp:122] Setting up scale4a_branch2a
I0426 18:15:28.058523  9555 net.cpp:129] Top shape: 8 256 10 15 (307200)
I0426 18:15:28.058529  9555 net.cpp:137] Memory required for data: 1088693792
I0426 18:15:28.058538  9555 layer_factory.hpp:77] Creating layer res4a_branch2a_relu
I0426 18:15:28.058547  9555 net.cpp:84] Creating Layer res4a_branch2a_relu
I0426 18:15:28.058552  9555 net.cpp:406] res4a_branch2a_relu <- res4a_branch2a
I0426 18:15:28.058562  9555 net.cpp:367] res4a_branch2a_relu -> res4a_branch2a (in-place)
I0426 18:15:28.059646  9555 net.cpp:122] Setting up res4a_branch2a_relu
I0426 18:15:28.059662  9555 net.cpp:129] Top shape: 8 256 10 15 (307200)
I0426 18:15:28.059669  9555 net.cpp:137] Memory required for data: 1089922592
I0426 18:15:28.059674  9555 layer_factory.hpp:77] Creating layer res4a_branch2b
I0426 18:15:28.059690  9555 net.cpp:84] Creating Layer res4a_branch2b
I0426 18:15:28.059696  9555 net.cpp:406] res4a_branch2b <- res4a_branch2a
I0426 18:15:28.059718  9555 net.cpp:380] res4a_branch2b -> res4a_branch2b
I0426 18:15:28.071899  9555 net.cpp:122] Setting up res4a_branch2b
I0426 18:15:28.071950  9555 net.cpp:129] Top shape: 8 256 10 15 (307200)
I0426 18:15:28.071957  9555 net.cpp:137] Memory required for data: 1091151392
I0426 18:15:28.071972  9555 layer_factory.hpp:77] Creating layer bn4a_branch2b
I0426 18:15:28.071990  9555 net.cpp:84] Creating Layer bn4a_branch2b
I0426 18:15:28.072000  9555 net.cpp:406] bn4a_branch2b <- res4a_branch2b
I0426 18:15:28.072011  9555 net.cpp:367] bn4a_branch2b -> res4a_branch2b (in-place)
I0426 18:15:28.072309  9555 net.cpp:122] Setting up bn4a_branch2b
I0426 18:15:28.072319  9555 net.cpp:129] Top shape: 8 256 10 15 (307200)
I0426 18:15:28.072324  9555 net.cpp:137] Memory required for data: 1092380192
I0426 18:15:28.072335  9555 layer_factory.hpp:77] Creating layer scale4a_branch2b
I0426 18:15:28.072348  9555 net.cpp:84] Creating Layer scale4a_branch2b
I0426 18:15:28.072355  9555 net.cpp:406] scale4a_branch2b <- res4a_branch2b
I0426 18:15:28.072362  9555 net.cpp:367] scale4a_branch2b -> res4a_branch2b (in-place)
I0426 18:15:28.072422  9555 layer_factory.hpp:77] Creating layer scale4a_branch2b
I0426 18:15:28.072599  9555 net.cpp:122] Setting up scale4a_branch2b
I0426 18:15:28.072620  9555 net.cpp:129] Top shape: 8 256 10 15 (307200)
I0426 18:15:28.072625  9555 net.cpp:137] Memory required for data: 1093608992
I0426 18:15:28.072634  9555 layer_factory.hpp:77] Creating layer res4a_branch2b_relu
I0426 18:15:28.072643  9555 net.cpp:84] Creating Layer res4a_branch2b_relu
I0426 18:15:28.072649  9555 net.cpp:406] res4a_branch2b_relu <- res4a_branch2b
I0426 18:15:28.072657  9555 net.cpp:367] res4a_branch2b_relu -> res4a_branch2b (in-place)
I0426 18:15:28.072896  9555 net.cpp:122] Setting up res4a_branch2b_relu
I0426 18:15:28.072906  9555 net.cpp:129] Top shape: 8 256 10 15 (307200)
I0426 18:15:28.072911  9555 net.cpp:137] Memory required for data: 1094837792
I0426 18:15:28.072916  9555 layer_factory.hpp:77] Creating layer res4a_branch2c
I0426 18:15:28.072931  9555 net.cpp:84] Creating Layer res4a_branch2c
I0426 18:15:28.072937  9555 net.cpp:406] res4a_branch2c <- res4a_branch2b
I0426 18:15:28.072948  9555 net.cpp:380] res4a_branch2c -> res4a_branch2c
I0426 18:15:28.080518  9555 net.cpp:122] Setting up res4a_branch2c
I0426 18:15:28.080593  9555 net.cpp:129] Top shape: 8 1024 10 15 (1228800)
I0426 18:15:28.080600  9555 net.cpp:137] Memory required for data: 1099752992
I0426 18:15:28.080624  9555 layer_factory.hpp:77] Creating layer bn4a_branch2c
I0426 18:15:28.080647  9555 net.cpp:84] Creating Layer bn4a_branch2c
I0426 18:15:28.080659  9555 net.cpp:406] bn4a_branch2c <- res4a_branch2c
I0426 18:15:28.080678  9555 net.cpp:367] bn4a_branch2c -> res4a_branch2c (in-place)
I0426 18:15:28.081027  9555 net.cpp:122] Setting up bn4a_branch2c
I0426 18:15:28.081035  9555 net.cpp:129] Top shape: 8 1024 10 15 (1228800)
I0426 18:15:28.081042  9555 net.cpp:137] Memory required for data: 1104668192
I0426 18:15:28.081054  9555 layer_factory.hpp:77] Creating layer scale4a_branch2c
I0426 18:15:28.081066  9555 net.cpp:84] Creating Layer scale4a_branch2c
I0426 18:15:28.081073  9555 net.cpp:406] scale4a_branch2c <- res4a_branch2c
I0426 18:15:28.081079  9555 net.cpp:367] scale4a_branch2c -> res4a_branch2c (in-place)
I0426 18:15:28.081142  9555 layer_factory.hpp:77] Creating layer scale4a_branch2c
I0426 18:15:28.081320  9555 net.cpp:122] Setting up scale4a_branch2c
I0426 18:15:28.081327  9555 net.cpp:129] Top shape: 8 1024 10 15 (1228800)
I0426 18:15:28.081333  9555 net.cpp:137] Memory required for data: 1109583392
I0426 18:15:28.081342  9555 layer_factory.hpp:77] Creating layer res4a
I0426 18:15:28.081353  9555 net.cpp:84] Creating Layer res4a
I0426 18:15:28.081359  9555 net.cpp:406] res4a <- res4a_branch1
I0426 18:15:28.081367  9555 net.cpp:406] res4a <- res4a_branch2c
I0426 18:15:28.081379  9555 net.cpp:380] res4a -> res4a
I0426 18:15:28.081414  9555 net.cpp:122] Setting up res4a
I0426 18:15:28.081423  9555 net.cpp:129] Top shape: 8 1024 10 15 (1228800)
I0426 18:15:28.081428  9555 net.cpp:137] Memory required for data: 1114498592
I0426 18:15:28.081434  9555 layer_factory.hpp:77] Creating layer res4a_relu
I0426 18:15:28.081445  9555 net.cpp:84] Creating Layer res4a_relu
I0426 18:15:28.081451  9555 net.cpp:406] res4a_relu <- res4a
I0426 18:15:28.081459  9555 net.cpp:367] res4a_relu -> res4a (in-place)
I0426 18:15:28.081704  9555 net.cpp:122] Setting up res4a_relu
I0426 18:15:28.081714  9555 net.cpp:129] Top shape: 8 1024 10 15 (1228800)
I0426 18:15:28.081720  9555 net.cpp:137] Memory required for data: 1119413792
I0426 18:15:28.081727  9555 layer_factory.hpp:77] Creating layer res4a_res4a_relu_0_split
I0426 18:15:28.081735  9555 net.cpp:84] Creating Layer res4a_res4a_relu_0_split
I0426 18:15:28.081742  9555 net.cpp:406] res4a_res4a_relu_0_split <- res4a
I0426 18:15:28.081754  9555 net.cpp:380] res4a_res4a_relu_0_split -> res4a_res4a_relu_0_split_0
I0426 18:15:28.081765  9555 net.cpp:380] res4a_res4a_relu_0_split -> res4a_res4a_relu_0_split_1
I0426 18:15:28.081820  9555 net.cpp:122] Setting up res4a_res4a_relu_0_split
I0426 18:15:28.081828  9555 net.cpp:129] Top shape: 8 1024 10 15 (1228800)
I0426 18:15:28.081835  9555 net.cpp:129] Top shape: 8 1024 10 15 (1228800)
I0426 18:15:28.081857  9555 net.cpp:137] Memory required for data: 1129244192
I0426 18:15:28.081882  9555 layer_factory.hpp:77] Creating layer res4b_branch2a
I0426 18:15:28.081969  9555 net.cpp:84] Creating Layer res4b_branch2a
I0426 18:15:28.081974  9555 net.cpp:406] res4b_branch2a <- res4a_res4a_relu_0_split_0
I0426 18:15:28.081982  9555 net.cpp:380] res4b_branch2a -> res4b_branch2a
I0426 18:15:28.087919  9555 net.cpp:122] Setting up res4b_branch2a
I0426 18:15:28.087965  9555 net.cpp:129] Top shape: 8 256 10 15 (307200)
I0426 18:15:28.087970  9555 net.cpp:137] Memory required for data: 1130472992
I0426 18:15:28.087985  9555 layer_factory.hpp:77] Creating layer bn4b_branch2a
I0426 18:15:28.088002  9555 net.cpp:84] Creating Layer bn4b_branch2a
I0426 18:15:28.088011  9555 net.cpp:406] bn4b_branch2a <- res4b_branch2a
I0426 18:15:28.088021  9555 net.cpp:367] bn4b_branch2a -> res4b_branch2a (in-place)
I0426 18:15:28.088325  9555 net.cpp:122] Setting up bn4b_branch2a
I0426 18:15:28.088335  9555 net.cpp:129] Top shape: 8 256 10 15 (307200)
I0426 18:15:28.088340  9555 net.cpp:137] Memory required for data: 1131701792
I0426 18:15:28.088351  9555 layer_factory.hpp:77] Creating layer scale4b_branch2a
I0426 18:15:28.088359  9555 net.cpp:84] Creating Layer scale4b_branch2a
I0426 18:15:28.088366  9555 net.cpp:406] scale4b_branch2a <- res4b_branch2a
I0426 18:15:28.088372  9555 net.cpp:367] scale4b_branch2a -> res4b_branch2a (in-place)
I0426 18:15:28.088430  9555 layer_factory.hpp:77] Creating layer scale4b_branch2a
I0426 18:15:28.088595  9555 net.cpp:122] Setting up scale4b_branch2a
I0426 18:15:28.088603  9555 net.cpp:129] Top shape: 8 256 10 15 (307200)
I0426 18:15:28.088609  9555 net.cpp:137] Memory required for data: 1132930592
I0426 18:15:28.088618  9555 layer_factory.hpp:77] Creating layer res4b_branch2a_relu
I0426 18:15:28.088629  9555 net.cpp:84] Creating Layer res4b_branch2a_relu
I0426 18:15:28.088635  9555 net.cpp:406] res4b_branch2a_relu <- res4b_branch2a
I0426 18:15:28.088642  9555 net.cpp:367] res4b_branch2a_relu -> res4b_branch2a (in-place)
I0426 18:15:28.088873  9555 net.cpp:122] Setting up res4b_branch2a_relu
I0426 18:15:28.088882  9555 net.cpp:129] Top shape: 8 256 10 15 (307200)
I0426 18:15:28.088888  9555 net.cpp:137] Memory required for data: 1134159392
I0426 18:15:28.088893  9555 layer_factory.hpp:77] Creating layer res4b_branch2b
I0426 18:15:28.088907  9555 net.cpp:84] Creating Layer res4b_branch2b
I0426 18:15:28.088917  9555 net.cpp:406] res4b_branch2b <- res4b_branch2a
I0426 18:15:28.088924  9555 net.cpp:380] res4b_branch2b -> res4b_branch2b
I0426 18:15:28.102005  9555 net.cpp:122] Setting up res4b_branch2b
I0426 18:15:28.102085  9555 net.cpp:129] Top shape: 8 256 10 15 (307200)
I0426 18:15:28.102093  9555 net.cpp:137] Memory required for data: 1135388192
I0426 18:15:28.102114  9555 layer_factory.hpp:77] Creating layer bn4b_branch2b
I0426 18:15:28.102136  9555 net.cpp:84] Creating Layer bn4b_branch2b
I0426 18:15:28.102149  9555 net.cpp:406] bn4b_branch2b <- res4b_branch2b
I0426 18:15:28.102164  9555 net.cpp:367] bn4b_branch2b -> res4b_branch2b (in-place)
I0426 18:15:28.102499  9555 net.cpp:122] Setting up bn4b_branch2b
I0426 18:15:28.102509  9555 net.cpp:129] Top shape: 8 256 10 15 (307200)
I0426 18:15:28.102514  9555 net.cpp:137] Memory required for data: 1136616992
I0426 18:15:28.102525  9555 layer_factory.hpp:77] Creating layer scale4b_branch2b
I0426 18:15:28.102537  9555 net.cpp:84] Creating Layer scale4b_branch2b
I0426 18:15:28.102543  9555 net.cpp:406] scale4b_branch2b <- res4b_branch2b
I0426 18:15:28.102555  9555 net.cpp:367] scale4b_branch2b -> res4b_branch2b (in-place)
I0426 18:15:28.102627  9555 layer_factory.hpp:77] Creating layer scale4b_branch2b
I0426 18:15:28.102790  9555 net.cpp:122] Setting up scale4b_branch2b
I0426 18:15:28.102802  9555 net.cpp:129] Top shape: 8 256 10 15 (307200)
I0426 18:15:28.102807  9555 net.cpp:137] Memory required for data: 1137845792
I0426 18:15:28.102816  9555 layer_factory.hpp:77] Creating layer res4b_branch2b_relu
I0426 18:15:28.102825  9555 net.cpp:84] Creating Layer res4b_branch2b_relu
I0426 18:15:28.102850  9555 net.cpp:406] res4b_branch2b_relu <- res4b_branch2b
I0426 18:15:28.102875  9555 net.cpp:367] res4b_branch2b_relu -> res4b_branch2b (in-place)
I0426 18:15:28.103122  9555 net.cpp:122] Setting up res4b_branch2b_relu
I0426 18:15:28.103133  9555 net.cpp:129] Top shape: 8 256 10 15 (307200)
I0426 18:15:28.103139  9555 net.cpp:137] Memory required for data: 1139074592
I0426 18:15:28.103145  9555 layer_factory.hpp:77] Creating layer res4b_branch2c
I0426 18:15:28.103159  9555 net.cpp:84] Creating Layer res4b_branch2c
I0426 18:15:28.103165  9555 net.cpp:406] res4b_branch2c <- res4b_branch2b
I0426 18:15:28.103173  9555 net.cpp:380] res4b_branch2c -> res4b_branch2c
I0426 18:15:28.110219  9555 net.cpp:122] Setting up res4b_branch2c
I0426 18:15:28.110282  9555 net.cpp:129] Top shape: 8 1024 10 15 (1228800)
I0426 18:15:28.110290  9555 net.cpp:137] Memory required for data: 1143989792
I0426 18:15:28.110306  9555 layer_factory.hpp:77] Creating layer bn4b_branch2c
I0426 18:15:28.110322  9555 net.cpp:84] Creating Layer bn4b_branch2c
I0426 18:15:28.110332  9555 net.cpp:406] bn4b_branch2c <- res4b_branch2c
I0426 18:15:28.110343  9555 net.cpp:367] bn4b_branch2c -> res4b_branch2c (in-place)
I0426 18:15:28.110666  9555 net.cpp:122] Setting up bn4b_branch2c
I0426 18:15:28.110673  9555 net.cpp:129] Top shape: 8 1024 10 15 (1228800)
I0426 18:15:28.110678  9555 net.cpp:137] Memory required for data: 1148904992
I0426 18:15:28.110690  9555 layer_factory.hpp:77] Creating layer scale4b_branch2c
I0426 18:15:28.110700  9555 net.cpp:84] Creating Layer scale4b_branch2c
I0426 18:15:28.110707  9555 net.cpp:406] scale4b_branch2c <- res4b_branch2c
I0426 18:15:28.110713  9555 net.cpp:367] scale4b_branch2c -> res4b_branch2c (in-place)
I0426 18:15:28.110774  9555 layer_factory.hpp:77] Creating layer scale4b_branch2c
I0426 18:15:28.110947  9555 net.cpp:122] Setting up scale4b_branch2c
I0426 18:15:28.110955  9555 net.cpp:129] Top shape: 8 1024 10 15 (1228800)
I0426 18:15:28.110960  9555 net.cpp:137] Memory required for data: 1153820192
I0426 18:15:28.110968  9555 layer_factory.hpp:77] Creating layer res4b
I0426 18:15:28.110981  9555 net.cpp:84] Creating Layer res4b
I0426 18:15:28.110987  9555 net.cpp:406] res4b <- res4a_res4a_relu_0_split_1
I0426 18:15:28.110994  9555 net.cpp:406] res4b <- res4b_branch2c
I0426 18:15:28.111006  9555 net.cpp:380] res4b -> res4b
I0426 18:15:28.111038  9555 net.cpp:122] Setting up res4b
I0426 18:15:28.111045  9555 net.cpp:129] Top shape: 8 1024 10 15 (1228800)
I0426 18:15:28.111050  9555 net.cpp:137] Memory required for data: 1158735392
I0426 18:15:28.111057  9555 layer_factory.hpp:77] Creating layer res4b_relu
I0426 18:15:28.111064  9555 net.cpp:84] Creating Layer res4b_relu
I0426 18:15:28.111070  9555 net.cpp:406] res4b_relu <- res4b
I0426 18:15:28.111079  9555 net.cpp:367] res4b_relu -> res4b (in-place)
I0426 18:15:28.111999  9555 net.cpp:122] Setting up res4b_relu
I0426 18:15:28.112015  9555 net.cpp:129] Top shape: 8 1024 10 15 (1228800)
I0426 18:15:28.112023  9555 net.cpp:137] Memory required for data: 1163650592
I0426 18:15:28.112030  9555 layer_factory.hpp:77] Creating layer res4b_res4b_relu_0_split
I0426 18:15:28.112040  9555 net.cpp:84] Creating Layer res4b_res4b_relu_0_split
I0426 18:15:28.112046  9555 net.cpp:406] res4b_res4b_relu_0_split <- res4b
I0426 18:15:28.112054  9555 net.cpp:380] res4b_res4b_relu_0_split -> res4b_res4b_relu_0_split_0
I0426 18:15:28.112066  9555 net.cpp:380] res4b_res4b_relu_0_split -> res4b_res4b_relu_0_split_1
I0426 18:15:28.112124  9555 net.cpp:122] Setting up res4b_res4b_relu_0_split
I0426 18:15:28.112133  9555 net.cpp:129] Top shape: 8 1024 10 15 (1228800)
I0426 18:15:28.112139  9555 net.cpp:129] Top shape: 8 1024 10 15 (1228800)
I0426 18:15:28.112145  9555 net.cpp:137] Memory required for data: 1173480992
I0426 18:15:28.112150  9555 layer_factory.hpp:77] Creating layer res4c_branch2a
I0426 18:15:28.112169  9555 net.cpp:84] Creating Layer res4c_branch2a
I0426 18:15:28.112174  9555 net.cpp:406] res4c_branch2a <- res4b_res4b_relu_0_split_0
I0426 18:15:28.112203  9555 net.cpp:380] res4c_branch2a -> res4c_branch2a
I0426 18:15:28.117105  9555 net.cpp:122] Setting up res4c_branch2a
I0426 18:15:28.117144  9555 net.cpp:129] Top shape: 8 256 10 15 (307200)
I0426 18:15:28.117151  9555 net.cpp:137] Memory required for data: 1174709792
I0426 18:15:28.117167  9555 layer_factory.hpp:77] Creating layer bn4c_branch2a
I0426 18:15:28.117183  9555 net.cpp:84] Creating Layer bn4c_branch2a
I0426 18:15:28.117192  9555 net.cpp:406] bn4c_branch2a <- res4c_branch2a
I0426 18:15:28.117207  9555 net.cpp:367] bn4c_branch2a -> res4c_branch2a (in-place)
I0426 18:15:28.117523  9555 net.cpp:122] Setting up bn4c_branch2a
I0426 18:15:28.117532  9555 net.cpp:129] Top shape: 8 256 10 15 (307200)
I0426 18:15:28.117537  9555 net.cpp:137] Memory required for data: 1175938592
I0426 18:15:28.117548  9555 layer_factory.hpp:77] Creating layer scale4c_branch2a
I0426 18:15:28.117559  9555 net.cpp:84] Creating Layer scale4c_branch2a
I0426 18:15:28.117565  9555 net.cpp:406] scale4c_branch2a <- res4c_branch2a
I0426 18:15:28.117573  9555 net.cpp:367] scale4c_branch2a -> res4c_branch2a (in-place)
I0426 18:15:28.117631  9555 layer_factory.hpp:77] Creating layer scale4c_branch2a
I0426 18:15:28.117795  9555 net.cpp:122] Setting up scale4c_branch2a
I0426 18:15:28.117804  9555 net.cpp:129] Top shape: 8 256 10 15 (307200)
I0426 18:15:28.117808  9555 net.cpp:137] Memory required for data: 1177167392
I0426 18:15:28.117816  9555 layer_factory.hpp:77] Creating layer res4c_branch2a_relu
I0426 18:15:28.117825  9555 net.cpp:84] Creating Layer res4c_branch2a_relu
I0426 18:15:28.117830  9555 net.cpp:406] res4c_branch2a_relu <- res4c_branch2a
I0426 18:15:28.117841  9555 net.cpp:367] res4c_branch2a_relu -> res4c_branch2a (in-place)
I0426 18:15:28.118960  9555 net.cpp:122] Setting up res4c_branch2a_relu
I0426 18:15:28.118975  9555 net.cpp:129] Top shape: 8 256 10 15 (307200)
I0426 18:15:28.118980  9555 net.cpp:137] Memory required for data: 1178396192
I0426 18:15:28.118986  9555 layer_factory.hpp:77] Creating layer res4c_branch2b
I0426 18:15:28.119002  9555 net.cpp:84] Creating Layer res4c_branch2b
I0426 18:15:28.119009  9555 net.cpp:406] res4c_branch2b <- res4c_branch2a
I0426 18:15:28.119025  9555 net.cpp:380] res4c_branch2b -> res4c_branch2b
I0426 18:15:28.131187  9555 net.cpp:122] Setting up res4c_branch2b
I0426 18:15:28.131250  9555 net.cpp:129] Top shape: 8 256 10 15 (307200)
I0426 18:15:28.131258  9555 net.cpp:137] Memory required for data: 1179624992
I0426 18:15:28.131276  9555 layer_factory.hpp:77] Creating layer bn4c_branch2b
I0426 18:15:28.131299  9555 net.cpp:84] Creating Layer bn4c_branch2b
I0426 18:15:28.131309  9555 net.cpp:406] bn4c_branch2b <- res4c_branch2b
I0426 18:15:28.131321  9555 net.cpp:367] bn4c_branch2b -> res4c_branch2b (in-place)
I0426 18:15:28.131642  9555 net.cpp:122] Setting up bn4c_branch2b
I0426 18:15:28.131650  9555 net.cpp:129] Top shape: 8 256 10 15 (307200)
I0426 18:15:28.131655  9555 net.cpp:137] Memory required for data: 1180853792
I0426 18:15:28.131666  9555 layer_factory.hpp:77] Creating layer scale4c_branch2b
I0426 18:15:28.131675  9555 net.cpp:84] Creating Layer scale4c_branch2b
I0426 18:15:28.131681  9555 net.cpp:406] scale4c_branch2b <- res4c_branch2b
I0426 18:15:28.131691  9555 net.cpp:367] scale4c_branch2b -> res4c_branch2b (in-place)
I0426 18:15:28.131763  9555 layer_factory.hpp:77] Creating layer scale4c_branch2b
I0426 18:15:28.131927  9555 net.cpp:122] Setting up scale4c_branch2b
I0426 18:15:28.131937  9555 net.cpp:129] Top shape: 8 256 10 15 (307200)
I0426 18:15:28.131942  9555 net.cpp:137] Memory required for data: 1182082592
I0426 18:15:28.131950  9555 layer_factory.hpp:77] Creating layer res4c_branch2b_relu
I0426 18:15:28.131959  9555 net.cpp:84] Creating Layer res4c_branch2b_relu
I0426 18:15:28.131965  9555 net.cpp:406] res4c_branch2b_relu <- res4c_branch2b
I0426 18:15:28.131973  9555 net.cpp:367] res4c_branch2b_relu -> res4c_branch2b (in-place)
I0426 18:15:28.132221  9555 net.cpp:122] Setting up res4c_branch2b_relu
I0426 18:15:28.132231  9555 net.cpp:129] Top shape: 8 256 10 15 (307200)
I0426 18:15:28.132249  9555 net.cpp:137] Memory required for data: 1183311392
I0426 18:15:28.132269  9555 layer_factory.hpp:77] Creating layer res4c_branch2c
I0426 18:15:28.132285  9555 net.cpp:84] Creating Layer res4c_branch2c
I0426 18:15:28.132292  9555 net.cpp:406] res4c_branch2c <- res4c_branch2b
I0426 18:15:28.132300  9555 net.cpp:380] res4c_branch2c -> res4c_branch2c
I0426 18:15:28.139442  9555 net.cpp:122] Setting up res4c_branch2c
I0426 18:15:28.139480  9555 net.cpp:129] Top shape: 8 1024 10 15 (1228800)
I0426 18:15:28.139487  9555 net.cpp:137] Memory required for data: 1188226592
I0426 18:15:28.139498  9555 layer_factory.hpp:77] Creating layer bn4c_branch2c
I0426 18:15:28.139511  9555 net.cpp:84] Creating Layer bn4c_branch2c
I0426 18:15:28.139519  9555 net.cpp:406] bn4c_branch2c <- res4c_branch2c
I0426 18:15:28.139530  9555 net.cpp:367] bn4c_branch2c -> res4c_branch2c (in-place)
I0426 18:15:28.139842  9555 net.cpp:122] Setting up bn4c_branch2c
I0426 18:15:28.139852  9555 net.cpp:129] Top shape: 8 1024 10 15 (1228800)
I0426 18:15:28.139856  9555 net.cpp:137] Memory required for data: 1193141792
I0426 18:15:28.139868  9555 layer_factory.hpp:77] Creating layer scale4c_branch2c
I0426 18:15:28.139875  9555 net.cpp:84] Creating Layer scale4c_branch2c
I0426 18:15:28.139881  9555 net.cpp:406] scale4c_branch2c <- res4c_branch2c
I0426 18:15:28.139889  9555 net.cpp:367] scale4c_branch2c -> res4c_branch2c (in-place)
I0426 18:15:28.139938  9555 layer_factory.hpp:77] Creating layer scale4c_branch2c
I0426 18:15:28.140097  9555 net.cpp:122] Setting up scale4c_branch2c
I0426 18:15:28.140105  9555 net.cpp:129] Top shape: 8 1024 10 15 (1228800)
I0426 18:15:28.140110  9555 net.cpp:137] Memory required for data: 1198056992
I0426 18:15:28.140118  9555 layer_factory.hpp:77] Creating layer res4c
I0426 18:15:28.140127  9555 net.cpp:84] Creating Layer res4c
I0426 18:15:28.140133  9555 net.cpp:406] res4c <- res4b_res4b_relu_0_split_1
I0426 18:15:28.140141  9555 net.cpp:406] res4c <- res4c_branch2c
I0426 18:15:28.140151  9555 net.cpp:380] res4c -> res4c
I0426 18:15:28.140180  9555 net.cpp:122] Setting up res4c
I0426 18:15:28.140188  9555 net.cpp:129] Top shape: 8 1024 10 15 (1228800)
I0426 18:15:28.140193  9555 net.cpp:137] Memory required for data: 1202972192
I0426 18:15:28.140198  9555 layer_factory.hpp:77] Creating layer res4c_relu
I0426 18:15:28.140209  9555 net.cpp:84] Creating Layer res4c_relu
I0426 18:15:28.140214  9555 net.cpp:406] res4c_relu <- res4c
I0426 18:15:28.140221  9555 net.cpp:367] res4c_relu -> res4c (in-place)
I0426 18:15:28.140440  9555 net.cpp:122] Setting up res4c_relu
I0426 18:15:28.140449  9555 net.cpp:129] Top shape: 8 1024 10 15 (1228800)
I0426 18:15:28.140455  9555 net.cpp:137] Memory required for data: 1207887392
I0426 18:15:28.140460  9555 layer_factory.hpp:77] Creating layer res4c_res4c_relu_0_split
I0426 18:15:28.140470  9555 net.cpp:84] Creating Layer res4c_res4c_relu_0_split
I0426 18:15:28.140475  9555 net.cpp:406] res4c_res4c_relu_0_split <- res4c
I0426 18:15:28.140482  9555 net.cpp:380] res4c_res4c_relu_0_split -> res4c_res4c_relu_0_split_0
I0426 18:15:28.140493  9555 net.cpp:380] res4c_res4c_relu_0_split -> res4c_res4c_relu_0_split_1
I0426 18:15:28.140543  9555 net.cpp:122] Setting up res4c_res4c_relu_0_split
I0426 18:15:28.140552  9555 net.cpp:129] Top shape: 8 1024 10 15 (1228800)
I0426 18:15:28.140558  9555 net.cpp:129] Top shape: 8 1024 10 15 (1228800)
I0426 18:15:28.140563  9555 net.cpp:137] Memory required for data: 1217717792
I0426 18:15:28.140568  9555 layer_factory.hpp:77] Creating layer res4d_branch2a
I0426 18:15:28.140580  9555 net.cpp:84] Creating Layer res4d_branch2a
I0426 18:15:28.140586  9555 net.cpp:406] res4d_branch2a <- res4c_res4c_relu_0_split_0
I0426 18:15:28.140599  9555 net.cpp:380] res4d_branch2a -> res4d_branch2a
I0426 18:15:28.145891  9555 net.cpp:122] Setting up res4d_branch2a
I0426 18:15:28.145917  9555 net.cpp:129] Top shape: 8 256 10 15 (307200)
I0426 18:15:28.145923  9555 net.cpp:137] Memory required for data: 1218946592
I0426 18:15:28.145936  9555 layer_factory.hpp:77] Creating layer bn4d_branch2a
I0426 18:15:28.145965  9555 net.cpp:84] Creating Layer bn4d_branch2a
I0426 18:15:28.145973  9555 net.cpp:406] bn4d_branch2a <- res4d_branch2a
I0426 18:15:28.145985  9555 net.cpp:367] bn4d_branch2a -> res4d_branch2a (in-place)
I0426 18:15:28.146277  9555 net.cpp:122] Setting up bn4d_branch2a
I0426 18:15:28.146286  9555 net.cpp:129] Top shape: 8 256 10 15 (307200)
I0426 18:15:28.146291  9555 net.cpp:137] Memory required for data: 1220175392
I0426 18:15:28.146301  9555 layer_factory.hpp:77] Creating layer scale4d_branch2a
I0426 18:15:28.146308  9555 net.cpp:84] Creating Layer scale4d_branch2a
I0426 18:15:28.146314  9555 net.cpp:406] scale4d_branch2a <- res4d_branch2a
I0426 18:15:28.146322  9555 net.cpp:367] scale4d_branch2a -> res4d_branch2a (in-place)
I0426 18:15:28.146374  9555 layer_factory.hpp:77] Creating layer scale4d_branch2a
I0426 18:15:28.146530  9555 net.cpp:122] Setting up scale4d_branch2a
I0426 18:15:28.146538  9555 net.cpp:129] Top shape: 8 256 10 15 (307200)
I0426 18:15:28.146543  9555 net.cpp:137] Memory required for data: 1221404192
I0426 18:15:28.146551  9555 layer_factory.hpp:77] Creating layer res4d_branch2a_relu
I0426 18:15:28.146559  9555 net.cpp:84] Creating Layer res4d_branch2a_relu
I0426 18:15:28.146564  9555 net.cpp:406] res4d_branch2a_relu <- res4d_branch2a
I0426 18:15:28.146574  9555 net.cpp:367] res4d_branch2a_relu -> res4d_branch2a (in-place)
I0426 18:15:28.146800  9555 net.cpp:122] Setting up res4d_branch2a_relu
I0426 18:15:28.146808  9555 net.cpp:129] Top shape: 8 256 10 15 (307200)
I0426 18:15:28.146813  9555 net.cpp:137] Memory required for data: 1222632992
I0426 18:15:28.146819  9555 layer_factory.hpp:77] Creating layer res4d_branch2b
I0426 18:15:28.146833  9555 net.cpp:84] Creating Layer res4d_branch2b
I0426 18:15:28.146838  9555 net.cpp:406] res4d_branch2b <- res4d_branch2a
I0426 18:15:28.146849  9555 net.cpp:380] res4d_branch2b -> res4d_branch2b
I0426 18:15:28.159413  9555 net.cpp:122] Setting up res4d_branch2b
I0426 18:15:28.159466  9555 net.cpp:129] Top shape: 8 256 10 15 (307200)
I0426 18:15:28.159473  9555 net.cpp:137] Memory required for data: 1223861792
I0426 18:15:28.159487  9555 layer_factory.hpp:77] Creating layer bn4d_branch2b
I0426 18:15:28.159502  9555 net.cpp:84] Creating Layer bn4d_branch2b
I0426 18:15:28.159509  9555 net.cpp:406] bn4d_branch2b <- res4d_branch2b
I0426 18:15:28.159523  9555 net.cpp:367] bn4d_branch2b -> res4d_branch2b (in-place)
I0426 18:15:28.159878  9555 net.cpp:122] Setting up bn4d_branch2b
I0426 18:15:28.159888  9555 net.cpp:129] Top shape: 8 256 10 15 (307200)
I0426 18:15:28.159894  9555 net.cpp:137] Memory required for data: 1225090592
I0426 18:15:28.159905  9555 layer_factory.hpp:77] Creating layer scale4d_branch2b
I0426 18:15:28.159914  9555 net.cpp:84] Creating Layer scale4d_branch2b
I0426 18:15:28.159920  9555 net.cpp:406] scale4d_branch2b <- res4d_branch2b
I0426 18:15:28.159929  9555 net.cpp:367] scale4d_branch2b -> res4d_branch2b (in-place)
I0426 18:15:28.159993  9555 layer_factory.hpp:77] Creating layer scale4d_branch2b
I0426 18:15:28.160164  9555 net.cpp:122] Setting up scale4d_branch2b
I0426 18:15:28.160171  9555 net.cpp:129] Top shape: 8 256 10 15 (307200)
I0426 18:15:28.160177  9555 net.cpp:137] Memory required for data: 1226319392
I0426 18:15:28.160185  9555 layer_factory.hpp:77] Creating layer res4d_branch2b_relu
I0426 18:15:28.160194  9555 net.cpp:84] Creating Layer res4d_branch2b_relu
I0426 18:15:28.160200  9555 net.cpp:406] res4d_branch2b_relu <- res4d_branch2b
I0426 18:15:28.160209  9555 net.cpp:367] res4d_branch2b_relu -> res4d_branch2b (in-place)
I0426 18:15:28.160457  9555 net.cpp:122] Setting up res4d_branch2b_relu
I0426 18:15:28.160466  9555 net.cpp:129] Top shape: 8 256 10 15 (307200)
I0426 18:15:28.160472  9555 net.cpp:137] Memory required for data: 1227548192
I0426 18:15:28.160477  9555 layer_factory.hpp:77] Creating layer res4d_branch2c
I0426 18:15:28.160491  9555 net.cpp:84] Creating Layer res4d_branch2c
I0426 18:15:28.160496  9555 net.cpp:406] res4d_branch2c <- res4d_branch2b
I0426 18:15:28.160521  9555 net.cpp:380] res4d_branch2c -> res4d_branch2c
I0426 18:15:28.168143  9555 net.cpp:122] Setting up res4d_branch2c
I0426 18:15:28.168211  9555 net.cpp:129] Top shape: 8 1024 10 15 (1228800)
I0426 18:15:28.168218  9555 net.cpp:137] Memory required for data: 1232463392
I0426 18:15:28.168238  9555 layer_factory.hpp:77] Creating layer bn4d_branch2c
I0426 18:15:28.168265  9555 net.cpp:84] Creating Layer bn4d_branch2c
I0426 18:15:28.168277  9555 net.cpp:406] bn4d_branch2c <- res4d_branch2c
I0426 18:15:28.168289  9555 net.cpp:367] bn4d_branch2c -> res4d_branch2c (in-place)
I0426 18:15:28.168629  9555 net.cpp:122] Setting up bn4d_branch2c
I0426 18:15:28.168637  9555 net.cpp:129] Top shape: 8 1024 10 15 (1228800)
I0426 18:15:28.168643  9555 net.cpp:137] Memory required for data: 1237378592
I0426 18:15:28.168653  9555 layer_factory.hpp:77] Creating layer scale4d_branch2c
I0426 18:15:28.168668  9555 net.cpp:84] Creating Layer scale4d_branch2c
I0426 18:15:28.168673  9555 net.cpp:406] scale4d_branch2c <- res4d_branch2c
I0426 18:15:28.168681  9555 net.cpp:367] scale4d_branch2c -> res4d_branch2c (in-place)
I0426 18:15:28.168745  9555 layer_factory.hpp:77] Creating layer scale4d_branch2c
I0426 18:15:28.168922  9555 net.cpp:122] Setting up scale4d_branch2c
I0426 18:15:28.168931  9555 net.cpp:129] Top shape: 8 1024 10 15 (1228800)
I0426 18:15:28.168936  9555 net.cpp:137] Memory required for data: 1242293792
I0426 18:15:28.168944  9555 layer_factory.hpp:77] Creating layer res4d
I0426 18:15:28.168954  9555 net.cpp:84] Creating Layer res4d
I0426 18:15:28.168962  9555 net.cpp:406] res4d <- res4c_res4c_relu_0_split_1
I0426 18:15:28.168968  9555 net.cpp:406] res4d <- res4d_branch2c
I0426 18:15:28.168979  9555 net.cpp:380] res4d -> res4d
I0426 18:15:28.169016  9555 net.cpp:122] Setting up res4d
I0426 18:15:28.169024  9555 net.cpp:129] Top shape: 8 1024 10 15 (1228800)
I0426 18:15:28.169029  9555 net.cpp:137] Memory required for data: 1247208992
I0426 18:15:28.169035  9555 layer_factory.hpp:77] Creating layer res4d_relu
I0426 18:15:28.169044  9555 net.cpp:84] Creating Layer res4d_relu
I0426 18:15:28.169050  9555 net.cpp:406] res4d_relu <- res4d
I0426 18:15:28.169057  9555 net.cpp:367] res4d_relu -> res4d (in-place)
I0426 18:15:28.169983  9555 net.cpp:122] Setting up res4d_relu
I0426 18:15:28.169996  9555 net.cpp:129] Top shape: 8 1024 10 15 (1228800)
I0426 18:15:28.170002  9555 net.cpp:137] Memory required for data: 1252124192
I0426 18:15:28.170008  9555 layer_factory.hpp:77] Creating layer res4d_res4d_relu_0_split
I0426 18:15:28.170017  9555 net.cpp:84] Creating Layer res4d_res4d_relu_0_split
I0426 18:15:28.170023  9555 net.cpp:406] res4d_res4d_relu_0_split <- res4d
I0426 18:15:28.170034  9555 net.cpp:380] res4d_res4d_relu_0_split -> res4d_res4d_relu_0_split_0
I0426 18:15:28.170045  9555 net.cpp:380] res4d_res4d_relu_0_split -> res4d_res4d_relu_0_split_1
I0426 18:15:28.170102  9555 net.cpp:122] Setting up res4d_res4d_relu_0_split
I0426 18:15:28.170110  9555 net.cpp:129] Top shape: 8 1024 10 15 (1228800)
I0426 18:15:28.170119  9555 net.cpp:129] Top shape: 8 1024 10 15 (1228800)
I0426 18:15:28.170123  9555 net.cpp:137] Memory required for data: 1261954592
I0426 18:15:28.170130  9555 layer_factory.hpp:77] Creating layer res4e_branch2a
I0426 18:15:28.170145  9555 net.cpp:84] Creating Layer res4e_branch2a
I0426 18:15:28.170150  9555 net.cpp:406] res4e_branch2a <- res4d_res4d_relu_0_split_0
I0426 18:15:28.170159  9555 net.cpp:380] res4e_branch2a -> res4e_branch2a
I0426 18:15:28.174994  9555 net.cpp:122] Setting up res4e_branch2a
I0426 18:15:28.175027  9555 net.cpp:129] Top shape: 8 256 10 15 (307200)
I0426 18:15:28.175034  9555 net.cpp:137] Memory required for data: 1263183392
I0426 18:15:28.175046  9555 layer_factory.hpp:77] Creating layer bn4e_branch2a
I0426 18:15:28.175063  9555 net.cpp:84] Creating Layer bn4e_branch2a
I0426 18:15:28.175071  9555 net.cpp:406] bn4e_branch2a <- res4e_branch2a
I0426 18:15:28.175081  9555 net.cpp:367] bn4e_branch2a -> res4e_branch2a (in-place)
I0426 18:15:28.175390  9555 net.cpp:122] Setting up bn4e_branch2a
I0426 18:15:28.175411  9555 net.cpp:129] Top shape: 8 256 10 15 (307200)
I0426 18:15:28.175431  9555 net.cpp:137] Memory required for data: 1264412192
I0426 18:15:28.175442  9555 layer_factory.hpp:77] Creating layer scale4e_branch2a
I0426 18:15:28.175456  9555 net.cpp:84] Creating Layer scale4e_branch2a
I0426 18:15:28.175462  9555 net.cpp:406] scale4e_branch2a <- res4e_branch2a
I0426 18:15:28.175468  9555 net.cpp:367] scale4e_branch2a -> res4e_branch2a (in-place)
I0426 18:15:28.175531  9555 layer_factory.hpp:77] Creating layer scale4e_branch2a
I0426 18:15:28.175699  9555 net.cpp:122] Setting up scale4e_branch2a
I0426 18:15:28.175707  9555 net.cpp:129] Top shape: 8 256 10 15 (307200)
I0426 18:15:28.175722  9555 net.cpp:137] Memory required for data: 1265640992
I0426 18:15:28.175730  9555 layer_factory.hpp:77] Creating layer res4e_branch2a_relu
I0426 18:15:28.175740  9555 net.cpp:84] Creating Layer res4e_branch2a_relu
I0426 18:15:28.175745  9555 net.cpp:406] res4e_branch2a_relu <- res4e_branch2a
I0426 18:15:28.175755  9555 net.cpp:367] res4e_branch2a_relu -> res4e_branch2a (in-place)
I0426 18:15:28.176892  9555 net.cpp:122] Setting up res4e_branch2a_relu
I0426 18:15:28.176908  9555 net.cpp:129] Top shape: 8 256 10 15 (307200)
I0426 18:15:28.176913  9555 net.cpp:137] Memory required for data: 1266869792
I0426 18:15:28.176919  9555 layer_factory.hpp:77] Creating layer res4e_branch2b
I0426 18:15:28.176939  9555 net.cpp:84] Creating Layer res4e_branch2b
I0426 18:15:28.176944  9555 net.cpp:406] res4e_branch2b <- res4e_branch2a
I0426 18:15:28.176956  9555 net.cpp:380] res4e_branch2b -> res4e_branch2b
I0426 18:15:28.190186  9555 net.cpp:122] Setting up res4e_branch2b
I0426 18:15:28.190255  9555 net.cpp:129] Top shape: 8 256 10 15 (307200)
I0426 18:15:28.190263  9555 net.cpp:137] Memory required for data: 1268098592
I0426 18:15:28.190281  9555 layer_factory.hpp:77] Creating layer bn4e_branch2b
I0426 18:15:28.190304  9555 net.cpp:84] Creating Layer bn4e_branch2b
I0426 18:15:28.190316  9555 net.cpp:406] bn4e_branch2b <- res4e_branch2b
I0426 18:15:28.190330  9555 net.cpp:367] bn4e_branch2b -> res4e_branch2b (in-place)
I0426 18:15:28.190673  9555 net.cpp:122] Setting up bn4e_branch2b
I0426 18:15:28.190681  9555 net.cpp:129] Top shape: 8 256 10 15 (307200)
I0426 18:15:28.190687  9555 net.cpp:137] Memory required for data: 1269327392
I0426 18:15:28.190699  9555 layer_factory.hpp:77] Creating layer scale4e_branch2b
I0426 18:15:28.190711  9555 net.cpp:84] Creating Layer scale4e_branch2b
I0426 18:15:28.190717  9555 net.cpp:406] scale4e_branch2b <- res4e_branch2b
I0426 18:15:28.190728  9555 net.cpp:367] scale4e_branch2b -> res4e_branch2b (in-place)
I0426 18:15:28.190799  9555 layer_factory.hpp:77] Creating layer scale4e_branch2b
I0426 18:15:28.190979  9555 net.cpp:122] Setting up scale4e_branch2b
I0426 18:15:28.190987  9555 net.cpp:129] Top shape: 8 256 10 15 (307200)
I0426 18:15:28.190994  9555 net.cpp:137] Memory required for data: 1270556192
I0426 18:15:28.191001  9555 layer_factory.hpp:77] Creating layer res4e_branch2b_relu
I0426 18:15:28.191015  9555 net.cpp:84] Creating Layer res4e_branch2b_relu
I0426 18:15:28.191021  9555 net.cpp:406] res4e_branch2b_relu <- res4e_branch2b
I0426 18:15:28.191028  9555 net.cpp:367] res4e_branch2b_relu -> res4e_branch2b (in-place)
I0426 18:15:28.191280  9555 net.cpp:122] Setting up res4e_branch2b_relu
I0426 18:15:28.191293  9555 net.cpp:129] Top shape: 8 256 10 15 (307200)
I0426 18:15:28.191298  9555 net.cpp:137] Memory required for data: 1271784992
I0426 18:15:28.191304  9555 layer_factory.hpp:77] Creating layer res4e_branch2c
I0426 18:15:28.191316  9555 net.cpp:84] Creating Layer res4e_branch2c
I0426 18:15:28.191323  9555 net.cpp:406] res4e_branch2c <- res4e_branch2b
I0426 18:15:28.191334  9555 net.cpp:380] res4e_branch2c -> res4e_branch2c
I0426 18:15:28.199132  9555 net.cpp:122] Setting up res4e_branch2c
I0426 18:15:28.199213  9555 net.cpp:129] Top shape: 8 1024 10 15 (1228800)
I0426 18:15:28.199224  9555 net.cpp:137] Memory required for data: 1276700192
I0426 18:15:28.199245  9555 layer_factory.hpp:77] Creating layer bn4e_branch2c
I0426 18:15:28.199302  9555 net.cpp:84] Creating Layer bn4e_branch2c
I0426 18:15:28.199313  9555 net.cpp:406] bn4e_branch2c <- res4e_branch2c
I0426 18:15:28.199327  9555 net.cpp:367] bn4e_branch2c -> res4e_branch2c (in-place)
I0426 18:15:28.199677  9555 net.cpp:122] Setting up bn4e_branch2c
I0426 18:15:28.199686  9555 net.cpp:129] Top shape: 8 1024 10 15 (1228800)
I0426 18:15:28.199692  9555 net.cpp:137] Memory required for data: 1281615392
I0426 18:15:28.199705  9555 layer_factory.hpp:77] Creating layer scale4e_branch2c
I0426 18:15:28.199736  9555 net.cpp:84] Creating Layer scale4e_branch2c
I0426 18:15:28.199743  9555 net.cpp:406] scale4e_branch2c <- res4e_branch2c
I0426 18:15:28.199749  9555 net.cpp:367] scale4e_branch2c -> res4e_branch2c (in-place)
I0426 18:15:28.199815  9555 layer_factory.hpp:77] Creating layer scale4e_branch2c
I0426 18:15:28.199993  9555 net.cpp:122] Setting up scale4e_branch2c
I0426 18:15:28.200001  9555 net.cpp:129] Top shape: 8 1024 10 15 (1228800)
I0426 18:15:28.200007  9555 net.cpp:137] Memory required for data: 1286530592
I0426 18:15:28.200016  9555 layer_factory.hpp:77] Creating layer res4e
I0426 18:15:28.200028  9555 net.cpp:84] Creating Layer res4e
I0426 18:15:28.200034  9555 net.cpp:406] res4e <- res4d_res4d_relu_0_split_1
I0426 18:15:28.200042  9555 net.cpp:406] res4e <- res4e_branch2c
I0426 18:15:28.200050  9555 net.cpp:380] res4e -> res4e
I0426 18:15:28.200088  9555 net.cpp:122] Setting up res4e
I0426 18:15:28.200094  9555 net.cpp:129] Top shape: 8 1024 10 15 (1228800)
I0426 18:15:28.200100  9555 net.cpp:137] Memory required for data: 1291445792
I0426 18:15:28.200105  9555 layer_factory.hpp:77] Creating layer res4e_relu
I0426 18:15:28.200114  9555 net.cpp:84] Creating Layer res4e_relu
I0426 18:15:28.200120  9555 net.cpp:406] res4e_relu <- res4e
I0426 18:15:28.200129  9555 net.cpp:367] res4e_relu -> res4e (in-place)
I0426 18:15:28.200369  9555 net.cpp:122] Setting up res4e_relu
I0426 18:15:28.200378  9555 net.cpp:129] Top shape: 8 1024 10 15 (1228800)
I0426 18:15:28.200383  9555 net.cpp:137] Memory required for data: 1296360992
I0426 18:15:28.200389  9555 layer_factory.hpp:77] Creating layer res4e_res4e_relu_0_split
I0426 18:15:28.200403  9555 net.cpp:84] Creating Layer res4e_res4e_relu_0_split
I0426 18:15:28.200409  9555 net.cpp:406] res4e_res4e_relu_0_split <- res4e
I0426 18:15:28.200417  9555 net.cpp:380] res4e_res4e_relu_0_split -> res4e_res4e_relu_0_split_0
I0426 18:15:28.200435  9555 net.cpp:380] res4e_res4e_relu_0_split -> res4e_res4e_relu_0_split_1
I0426 18:15:28.200490  9555 net.cpp:122] Setting up res4e_res4e_relu_0_split
I0426 18:15:28.200498  9555 net.cpp:129] Top shape: 8 1024 10 15 (1228800)
I0426 18:15:28.200505  9555 net.cpp:129] Top shape: 8 1024 10 15 (1228800)
I0426 18:15:28.200510  9555 net.cpp:137] Memory required for data: 1306191392
I0426 18:15:28.200515  9555 layer_factory.hpp:77] Creating layer res4f_branch2a
I0426 18:15:28.200529  9555 net.cpp:84] Creating Layer res4f_branch2a
I0426 18:15:28.200536  9555 net.cpp:406] res4f_branch2a <- res4e_res4e_relu_0_split_0
I0426 18:15:28.200546  9555 net.cpp:380] res4f_branch2a -> res4f_branch2a
I0426 18:15:28.206059  9555 net.cpp:122] Setting up res4f_branch2a
I0426 18:15:28.206084  9555 net.cpp:129] Top shape: 8 256 10 15 (307200)
I0426 18:15:28.206091  9555 net.cpp:137] Memory required for data: 1307420192
I0426 18:15:28.206102  9555 layer_factory.hpp:77] Creating layer bn4f_branch2a
I0426 18:15:28.206112  9555 net.cpp:84] Creating Layer bn4f_branch2a
I0426 18:15:28.206120  9555 net.cpp:406] bn4f_branch2a <- res4f_branch2a
I0426 18:15:28.206130  9555 net.cpp:367] bn4f_branch2a -> res4f_branch2a (in-place)
I0426 18:15:28.206437  9555 net.cpp:122] Setting up bn4f_branch2a
I0426 18:15:28.206445  9555 net.cpp:129] Top shape: 8 256 10 15 (307200)
I0426 18:15:28.206450  9555 net.cpp:137] Memory required for data: 1308648992
I0426 18:15:28.206460  9555 layer_factory.hpp:77] Creating layer scale4f_branch2a
I0426 18:15:28.206470  9555 net.cpp:84] Creating Layer scale4f_branch2a
I0426 18:15:28.206483  9555 net.cpp:406] scale4f_branch2a <- res4f_branch2a
I0426 18:15:28.206502  9555 net.cpp:367] scale4f_branch2a -> res4f_branch2a (in-place)
I0426 18:15:28.206564  9555 layer_factory.hpp:77] Creating layer scale4f_branch2a
I0426 18:15:28.206729  9555 net.cpp:122] Setting up scale4f_branch2a
I0426 18:15:28.206737  9555 net.cpp:129] Top shape: 8 256 10 15 (307200)
I0426 18:15:28.206743  9555 net.cpp:137] Memory required for data: 1309877792
I0426 18:15:28.206751  9555 layer_factory.hpp:77] Creating layer res4f_branch2a_relu
I0426 18:15:28.206763  9555 net.cpp:84] Creating Layer res4f_branch2a_relu
I0426 18:15:28.206768  9555 net.cpp:406] res4f_branch2a_relu <- res4f_branch2a
I0426 18:15:28.206775  9555 net.cpp:367] res4f_branch2a_relu -> res4f_branch2a (in-place)
I0426 18:15:28.207000  9555 net.cpp:122] Setting up res4f_branch2a_relu
I0426 18:15:28.207010  9555 net.cpp:129] Top shape: 8 256 10 15 (307200)
I0426 18:15:28.207015  9555 net.cpp:137] Memory required for data: 1311106592
I0426 18:15:28.207020  9555 layer_factory.hpp:77] Creating layer res4f_branch2b
I0426 18:15:28.207036  9555 net.cpp:84] Creating Layer res4f_branch2b
I0426 18:15:28.207041  9555 net.cpp:406] res4f_branch2b <- res4f_branch2a
I0426 18:15:28.207048  9555 net.cpp:380] res4f_branch2b -> res4f_branch2b
I0426 18:15:28.219106  9555 net.cpp:122] Setting up res4f_branch2b
I0426 18:15:28.219179  9555 net.cpp:129] Top shape: 8 256 10 15 (307200)
I0426 18:15:28.219187  9555 net.cpp:137] Memory required for data: 1312335392
I0426 18:15:28.219204  9555 layer_factory.hpp:77] Creating layer bn4f_branch2b
I0426 18:15:28.219223  9555 net.cpp:84] Creating Layer bn4f_branch2b
I0426 18:15:28.219235  9555 net.cpp:406] bn4f_branch2b <- res4f_branch2b
I0426 18:15:28.219252  9555 net.cpp:367] bn4f_branch2b -> res4f_branch2b (in-place)
I0426 18:15:28.219594  9555 net.cpp:122] Setting up bn4f_branch2b
I0426 18:15:28.219602  9555 net.cpp:129] Top shape: 8 256 10 15 (307200)
I0426 18:15:28.219607  9555 net.cpp:137] Memory required for data: 1313564192
I0426 18:15:28.219619  9555 layer_factory.hpp:77] Creating layer scale4f_branch2b
I0426 18:15:28.219630  9555 net.cpp:84] Creating Layer scale4f_branch2b
I0426 18:15:28.219636  9555 net.cpp:406] scale4f_branch2b <- res4f_branch2b
I0426 18:15:28.219645  9555 net.cpp:367] scale4f_branch2b -> res4f_branch2b (in-place)
I0426 18:15:28.219748  9555 layer_factory.hpp:77] Creating layer scale4f_branch2b
I0426 18:15:28.219936  9555 net.cpp:122] Setting up scale4f_branch2b
I0426 18:15:28.219944  9555 net.cpp:129] Top shape: 8 256 10 15 (307200)
I0426 18:15:28.219950  9555 net.cpp:137] Memory required for data: 1314792992
I0426 18:15:28.219959  9555 layer_factory.hpp:77] Creating layer res4f_branch2b_relu
I0426 18:15:28.219969  9555 net.cpp:84] Creating Layer res4f_branch2b_relu
I0426 18:15:28.219975  9555 net.cpp:406] res4f_branch2b_relu <- res4f_branch2b
I0426 18:15:28.219985  9555 net.cpp:367] res4f_branch2b_relu -> res4f_branch2b (in-place)
I0426 18:15:28.220230  9555 net.cpp:122] Setting up res4f_branch2b_relu
I0426 18:15:28.220239  9555 net.cpp:129] Top shape: 8 256 10 15 (307200)
I0426 18:15:28.220244  9555 net.cpp:137] Memory required for data: 1316021792
I0426 18:15:28.220250  9555 layer_factory.hpp:77] Creating layer res4f_branch2c
I0426 18:15:28.220264  9555 net.cpp:84] Creating Layer res4f_branch2c
I0426 18:15:28.220270  9555 net.cpp:406] res4f_branch2c <- res4f_branch2b
I0426 18:15:28.220279  9555 net.cpp:380] res4f_branch2c -> res4f_branch2c
I0426 18:15:28.227849  9555 net.cpp:122] Setting up res4f_branch2c
I0426 18:15:28.227916  9555 net.cpp:129] Top shape: 8 1024 10 15 (1228800)
I0426 18:15:28.227922  9555 net.cpp:137] Memory required for data: 1320936992
I0426 18:15:28.227941  9555 layer_factory.hpp:77] Creating layer bn4f_branch2c
I0426 18:15:28.227958  9555 net.cpp:84] Creating Layer bn4f_branch2c
I0426 18:15:28.227969  9555 net.cpp:406] bn4f_branch2c <- res4f_branch2c
I0426 18:15:28.227987  9555 net.cpp:367] bn4f_branch2c -> res4f_branch2c (in-place)
I0426 18:15:28.228333  9555 net.cpp:122] Setting up bn4f_branch2c
I0426 18:15:28.228358  9555 net.cpp:129] Top shape: 8 1024 10 15 (1228800)
I0426 18:15:28.228379  9555 net.cpp:137] Memory required for data: 1325852192
I0426 18:15:28.228474  9555 layer_factory.hpp:77] Creating layer scale4f_branch2c
I0426 18:15:28.228485  9555 net.cpp:84] Creating Layer scale4f_branch2c
I0426 18:15:28.228490  9555 net.cpp:406] scale4f_branch2c <- res4f_branch2c
I0426 18:15:28.228498  9555 net.cpp:367] scale4f_branch2c -> res4f_branch2c (in-place)
I0426 18:15:28.228562  9555 layer_factory.hpp:77] Creating layer scale4f_branch2c
I0426 18:15:28.228742  9555 net.cpp:122] Setting up scale4f_branch2c
I0426 18:15:28.228750  9555 net.cpp:129] Top shape: 8 1024 10 15 (1228800)
I0426 18:15:28.228756  9555 net.cpp:137] Memory required for data: 1330767392
I0426 18:15:28.228765  9555 layer_factory.hpp:77] Creating layer res4f
I0426 18:15:28.228775  9555 net.cpp:84] Creating Layer res4f
I0426 18:15:28.228780  9555 net.cpp:406] res4f <- res4e_res4e_relu_0_split_1
I0426 18:15:28.228788  9555 net.cpp:406] res4f <- res4f_branch2c
I0426 18:15:28.228798  9555 net.cpp:380] res4f -> res4f
I0426 18:15:28.228835  9555 net.cpp:122] Setting up res4f
I0426 18:15:28.228842  9555 net.cpp:129] Top shape: 8 1024 10 15 (1228800)
I0426 18:15:28.228847  9555 net.cpp:137] Memory required for data: 1335682592
I0426 18:15:28.228853  9555 layer_factory.hpp:77] Creating layer res4f_relu
I0426 18:15:28.228862  9555 net.cpp:84] Creating Layer res4f_relu
I0426 18:15:28.228868  9555 net.cpp:406] res4f_relu <- res4f
I0426 18:15:28.228874  9555 net.cpp:367] res4f_relu -> res4f (in-place)
I0426 18:15:28.229809  9555 net.cpp:122] Setting up res4f_relu
I0426 18:15:28.229825  9555 net.cpp:129] Top shape: 8 1024 10 15 (1228800)
I0426 18:15:28.229830  9555 net.cpp:137] Memory required for data: 1340597792
I0426 18:15:28.229836  9555 layer_factory.hpp:77] Creating layer res4f_res4f_relu_0_split
I0426 18:15:28.229846  9555 net.cpp:84] Creating Layer res4f_res4f_relu_0_split
I0426 18:15:28.229851  9555 net.cpp:406] res4f_res4f_relu_0_split <- res4f
I0426 18:15:28.229863  9555 net.cpp:380] res4f_res4f_relu_0_split -> res4f_res4f_relu_0_split_0
I0426 18:15:28.229873  9555 net.cpp:380] res4f_res4f_relu_0_split -> res4f_res4f_relu_0_split_1
I0426 18:15:28.229936  9555 net.cpp:122] Setting up res4f_res4f_relu_0_split
I0426 18:15:28.229944  9555 net.cpp:129] Top shape: 8 1024 10 15 (1228800)
I0426 18:15:28.229951  9555 net.cpp:129] Top shape: 8 1024 10 15 (1228800)
I0426 18:15:28.229956  9555 net.cpp:137] Memory required for data: 1350428192
I0426 18:15:28.229961  9555 layer_factory.hpp:77] Creating layer res5a_branch1
I0426 18:15:28.229975  9555 net.cpp:84] Creating Layer res5a_branch1
I0426 18:15:28.229981  9555 net.cpp:406] res5a_branch1 <- res4f_res4f_relu_0_split_0
I0426 18:15:28.229990  9555 net.cpp:380] res5a_branch1 -> res5a_branch1
I0426 18:15:28.266091  9555 net.cpp:122] Setting up res5a_branch1
I0426 18:15:28.266147  9555 net.cpp:129] Top shape: 8 2048 5 8 (655360)
I0426 18:15:28.266154  9555 net.cpp:137] Memory required for data: 1353049632
I0426 18:15:28.266167  9555 layer_factory.hpp:77] Creating layer bn5a_branch1
I0426 18:15:28.266185  9555 net.cpp:84] Creating Layer bn5a_branch1
I0426 18:15:28.266194  9555 net.cpp:406] bn5a_branch1 <- res5a_branch1
I0426 18:15:28.266208  9555 net.cpp:367] bn5a_branch1 -> res5a_branch1 (in-place)
I0426 18:15:28.266559  9555 net.cpp:122] Setting up bn5a_branch1
I0426 18:15:28.266567  9555 net.cpp:129] Top shape: 8 2048 5 8 (655360)
I0426 18:15:28.266573  9555 net.cpp:137] Memory required for data: 1355671072
I0426 18:15:28.266585  9555 layer_factory.hpp:77] Creating layer scale5a_branch1
I0426 18:15:28.266598  9555 net.cpp:84] Creating Layer scale5a_branch1
I0426 18:15:28.266604  9555 net.cpp:406] scale5a_branch1 <- res5a_branch1
I0426 18:15:28.266611  9555 net.cpp:367] scale5a_branch1 -> res5a_branch1 (in-place)
I0426 18:15:28.266671  9555 layer_factory.hpp:77] Creating layer scale5a_branch1
I0426 18:15:28.266863  9555 net.cpp:122] Setting up scale5a_branch1
I0426 18:15:28.266871  9555 net.cpp:129] Top shape: 8 2048 5 8 (655360)
I0426 18:15:28.266891  9555 net.cpp:137] Memory required for data: 1358292512
I0426 18:15:28.266914  9555 layer_factory.hpp:77] Creating layer res5a_branch2a
I0426 18:15:28.266932  9555 net.cpp:84] Creating Layer res5a_branch2a
I0426 18:15:28.266937  9555 net.cpp:406] res5a_branch2a <- res4f_res4f_relu_0_split_1
I0426 18:15:28.266947  9555 net.cpp:380] res5a_branch2a -> res5a_branch2a
I0426 18:15:28.278137  9555 net.cpp:122] Setting up res5a_branch2a
I0426 18:15:28.278198  9555 net.cpp:129] Top shape: 8 512 5 8 (163840)
I0426 18:15:28.278204  9555 net.cpp:137] Memory required for data: 1358947872
I0426 18:15:28.278223  9555 layer_factory.hpp:77] Creating layer bn5a_branch2a
I0426 18:15:28.278241  9555 net.cpp:84] Creating Layer bn5a_branch2a
I0426 18:15:28.278250  9555 net.cpp:406] bn5a_branch2a <- res5a_branch2a
I0426 18:15:28.278264  9555 net.cpp:367] bn5a_branch2a -> res5a_branch2a (in-place)
I0426 18:15:28.278614  9555 net.cpp:122] Setting up bn5a_branch2a
I0426 18:15:28.278623  9555 net.cpp:129] Top shape: 8 512 5 8 (163840)
I0426 18:15:28.278630  9555 net.cpp:137] Memory required for data: 1359603232
I0426 18:15:28.278640  9555 layer_factory.hpp:77] Creating layer scale5a_branch2a
I0426 18:15:28.278651  9555 net.cpp:84] Creating Layer scale5a_branch2a
I0426 18:15:28.278657  9555 net.cpp:406] scale5a_branch2a <- res5a_branch2a
I0426 18:15:28.278664  9555 net.cpp:367] scale5a_branch2a -> res5a_branch2a (in-place)
I0426 18:15:28.278725  9555 layer_factory.hpp:77] Creating layer scale5a_branch2a
I0426 18:15:28.278908  9555 net.cpp:122] Setting up scale5a_branch2a
I0426 18:15:28.278914  9555 net.cpp:129] Top shape: 8 512 5 8 (163840)
I0426 18:15:28.278920  9555 net.cpp:137] Memory required for data: 1360258592
I0426 18:15:28.278928  9555 layer_factory.hpp:77] Creating layer res5a_branch2a_relu
I0426 18:15:28.278939  9555 net.cpp:84] Creating Layer res5a_branch2a_relu
I0426 18:15:28.278945  9555 net.cpp:406] res5a_branch2a_relu <- res5a_branch2a
I0426 18:15:28.278952  9555 net.cpp:367] res5a_branch2a_relu -> res5a_branch2a (in-place)
I0426 18:15:28.279907  9555 net.cpp:122] Setting up res5a_branch2a_relu
I0426 18:15:28.279923  9555 net.cpp:129] Top shape: 8 512 5 8 (163840)
I0426 18:15:28.279929  9555 net.cpp:137] Memory required for data: 1360913952
I0426 18:15:28.279937  9555 layer_factory.hpp:77] Creating layer res5a_branch2b
I0426 18:15:28.279947  9555 net.cpp:84] Creating Layer res5a_branch2b
I0426 18:15:28.279954  9555 net.cpp:406] res5a_branch2b <- res5a_branch2a
I0426 18:15:28.279966  9555 net.cpp:380] res5a_branch2b -> res5a_branch2b
I0426 18:15:28.321202  9555 net.cpp:122] Setting up res5a_branch2b
I0426 18:15:28.321279  9555 net.cpp:129] Top shape: 8 512 5 8 (163840)
I0426 18:15:28.321285  9555 net.cpp:137] Memory required for data: 1361569312
I0426 18:15:28.321306  9555 layer_factory.hpp:77] Creating layer bn5a_branch2b
I0426 18:15:28.321328  9555 net.cpp:84] Creating Layer bn5a_branch2b
I0426 18:15:28.321341  9555 net.cpp:406] bn5a_branch2b <- res5a_branch2b
I0426 18:15:28.321353  9555 net.cpp:367] bn5a_branch2b -> res5a_branch2b (in-place)
I0426 18:15:28.321718  9555 net.cpp:122] Setting up bn5a_branch2b
I0426 18:15:28.321727  9555 net.cpp:129] Top shape: 8 512 5 8 (163840)
I0426 18:15:28.321732  9555 net.cpp:137] Memory required for data: 1362224672
I0426 18:15:28.321744  9555 layer_factory.hpp:77] Creating layer scale5a_branch2b
I0426 18:15:28.321755  9555 net.cpp:84] Creating Layer scale5a_branch2b
I0426 18:15:28.321760  9555 net.cpp:406] scale5a_branch2b <- res5a_branch2b
I0426 18:15:28.321772  9555 net.cpp:367] scale5a_branch2b -> res5a_branch2b (in-place)
I0426 18:15:28.321832  9555 layer_factory.hpp:77] Creating layer scale5a_branch2b
I0426 18:15:28.322021  9555 net.cpp:122] Setting up scale5a_branch2b
I0426 18:15:28.322028  9555 net.cpp:129] Top shape: 8 512 5 8 (163840)
I0426 18:15:28.322034  9555 net.cpp:137] Memory required for data: 1362880032
I0426 18:15:28.322043  9555 layer_factory.hpp:77] Creating layer res5a_branch2b_relu
I0426 18:15:28.322057  9555 net.cpp:84] Creating Layer res5a_branch2b_relu
I0426 18:15:28.322098  9555 net.cpp:406] res5a_branch2b_relu <- res5a_branch2b
I0426 18:15:28.322105  9555 net.cpp:367] res5a_branch2b_relu -> res5a_branch2b (in-place)
I0426 18:15:28.322358  9555 net.cpp:122] Setting up res5a_branch2b_relu
I0426 18:15:28.322369  9555 net.cpp:129] Top shape: 8 512 5 8 (163840)
I0426 18:15:28.322376  9555 net.cpp:137] Memory required for data: 1363535392
I0426 18:15:28.322381  9555 layer_factory.hpp:77] Creating layer res5a_branch2c
I0426 18:15:28.322392  9555 net.cpp:84] Creating Layer res5a_branch2c
I0426 18:15:28.322398  9555 net.cpp:406] res5a_branch2c <- res5a_branch2b
I0426 18:15:28.322409  9555 net.cpp:380] res5a_branch2c -> res5a_branch2c
I0426 18:15:28.342319  9555 net.cpp:122] Setting up res5a_branch2c
I0426 18:15:28.342407  9555 net.cpp:129] Top shape: 8 2048 5 8 (655360)
I0426 18:15:28.342414  9555 net.cpp:137] Memory required for data: 1366156832
I0426 18:15:28.342437  9555 layer_factory.hpp:77] Creating layer bn5a_branch2c
I0426 18:15:28.342468  9555 net.cpp:84] Creating Layer bn5a_branch2c
I0426 18:15:28.342479  9555 net.cpp:406] bn5a_branch2c <- res5a_branch2c
I0426 18:15:28.342495  9555 net.cpp:367] bn5a_branch2c -> res5a_branch2c (in-place)
I0426 18:15:28.342874  9555 net.cpp:122] Setting up bn5a_branch2c
I0426 18:15:28.342886  9555 net.cpp:129] Top shape: 8 2048 5 8 (655360)
I0426 18:15:28.342891  9555 net.cpp:137] Memory required for data: 1368778272
I0426 18:15:28.342905  9555 layer_factory.hpp:77] Creating layer scale5a_branch2c
I0426 18:15:28.342916  9555 net.cpp:84] Creating Layer scale5a_branch2c
I0426 18:15:28.342921  9555 net.cpp:406] scale5a_branch2c <- res5a_branch2c
I0426 18:15:28.342929  9555 net.cpp:367] scale5a_branch2c -> res5a_branch2c (in-place)
I0426 18:15:28.343005  9555 layer_factory.hpp:77] Creating layer scale5a_branch2c
I0426 18:15:28.343207  9555 net.cpp:122] Setting up scale5a_branch2c
I0426 18:15:28.343215  9555 net.cpp:129] Top shape: 8 2048 5 8 (655360)
I0426 18:15:28.343221  9555 net.cpp:137] Memory required for data: 1371399712
I0426 18:15:28.343230  9555 layer_factory.hpp:77] Creating layer res5a
I0426 18:15:28.343245  9555 net.cpp:84] Creating Layer res5a
I0426 18:15:28.343251  9555 net.cpp:406] res5a <- res5a_branch1
I0426 18:15:28.343258  9555 net.cpp:406] res5a <- res5a_branch2c
I0426 18:15:28.343267  9555 net.cpp:380] res5a -> res5a
I0426 18:15:28.343308  9555 net.cpp:122] Setting up res5a
I0426 18:15:28.343317  9555 net.cpp:129] Top shape: 8 2048 5 8 (655360)
I0426 18:15:28.343322  9555 net.cpp:137] Memory required for data: 1374021152
I0426 18:15:28.343328  9555 layer_factory.hpp:77] Creating layer res5a_relu
I0426 18:15:28.343338  9555 net.cpp:84] Creating Layer res5a_relu
I0426 18:15:28.343345  9555 net.cpp:406] res5a_relu <- res5a
I0426 18:15:28.343355  9555 net.cpp:367] res5a_relu -> res5a (in-place)
I0426 18:15:28.343600  9555 net.cpp:122] Setting up res5a_relu
I0426 18:15:28.343608  9555 net.cpp:129] Top shape: 8 2048 5 8 (655360)
I0426 18:15:28.343614  9555 net.cpp:137] Memory required for data: 1376642592
I0426 18:15:28.343621  9555 layer_factory.hpp:77] Creating layer res5a_res5a_relu_0_split
I0426 18:15:28.343632  9555 net.cpp:84] Creating Layer res5a_res5a_relu_0_split
…
I0426 18:15:28.803993  9555 net.cpp:137] Memory required for data: 150985932
I0426 18:15:28.803998  9555 layer_factory.hpp:77] Creating layer res4c_res4c_relu_0_split
I0426 18:15:28.804010  9555 net.cpp:84] Creating Layer res4c_res4c_relu_0_split
I0426 18:15:28.804015  9555 net.cpp:406] res4c_res4c_relu_0_split <- res4c
I0426 18:15:28.804023  9555 net.cpp:380] res4c_res4c_relu_0_split -> res4c_res4c_relu_0_split_0
I0426 18:15:28.804033  9555 net.cpp:380] res4c_res4c_relu_0_split -> res4c_res4c_relu_0_split_1
I0426 18:15:28.804100  9555 net.cpp:122] Setting up res4c_res4c_relu_0_split
I0426 18:15:28.804108  9555 net.cpp:129] Top shape: 1 1024 10 15 (153600)
I0426 18:15:28.804116  9555 net.cpp:129] Top shape: 1 1024 10 15 (153600)
I0426 18:15:28.804121  9555 net.cpp:137] Memory required for data: 152214732
I0426 18:15:28.804126  9555 layer_factory.hpp:77] Creating layer res4d_branch2a
I0426 18:15:28.804142  9555 net.cpp:84] Creating Layer res4d_branch2a
I0426 18:15:28.804147  9555 net.cpp:406] res4d_branch2a <- res4c_res4c_relu_0_split_0
I0426 18:15:28.804158  9555 net.cpp:380] res4d_branch2a -> res4d_branch2a
I0426 18:15:28.810303  9555 net.cpp:122] Setting up res4d_branch2a
I0426 18:15:28.810354  9555 net.cpp:129] Top shape: 1 256 10 15 (38400)
I0426 18:15:28.810361  9555 net.cpp:137] Memory required for data: 152368332
I0426 18:15:28.810374  9555 layer_factory.hpp:77] Creating layer bn4d_branch2a
I0426 18:15:28.810390  9555 net.cpp:84] Creating Layer bn4d_branch2a
I0426 18:15:28.810400  9555 net.cpp:406] bn4d_branch2a <- res4d_branch2a
I0426 18:15:28.810413  9555 net.cpp:367] bn4d_branch2a -> res4d_branch2a (in-place)
I0426 18:15:28.810806  9555 net.cpp:122] Setting up bn4d_branch2a
I0426 18:15:28.810814  9555 net.cpp:129] Top shape: 1 256 10 15 (38400)
I0426 18:15:28.810820  9555 net.cpp:137] Memory required for data: 152521932
I0426 18:15:28.810832  9555 layer_factory.hpp:77] Creating layer scale4d_branch2a
I0426 18:15:28.810847  9555 net.cpp:84] Creating Layer scale4d_branch2a
I0426 18:15:28.810854  9555 net.cpp:406] scale4d_branch2a <- res4d_branch2a
I0426 18:15:28.810876  9555 net.cpp:367] scale4d_branch2a -> res4d_branch2a (in-place)
I0426 18:15:28.810964  9555 layer_factory.hpp:77] Creating layer scale4d_branch2a
I0426 18:15:28.811179  9555 net.cpp:122] Setting up scale4d_branch2a
I0426 18:15:28.811187  9555 net.cpp:129] Top shape: 1 256 10 15 (38400)
I0426 18:15:28.811192  9555 net.cpp:137] Memory required for data: 152675532
I0426 18:15:28.811202  9555 layer_factory.hpp:77] Creating layer res4d_branch2a_relu
I0426 18:15:28.811209  9555 net.cpp:84] Creating Layer res4d_branch2a_relu
I0426 18:15:28.811215  9555 net.cpp:406] res4d_branch2a_relu <- res4d_branch2a
I0426 18:15:28.811225  9555 net.cpp:367] res4d_branch2a_relu -> res4d_branch2a (in-place)
I0426 18:15:28.811481  9555 net.cpp:122] Setting up res4d_branch2a_relu
I0426 18:15:28.811491  9555 net.cpp:129] Top shape: 1 256 10 15 (38400)
I0426 18:15:28.811496  9555 net.cpp:137] Memory required for data: 152829132
I0426 18:15:28.811501  9555 layer_factory.hpp:77] Creating layer res4d_branch2b
I0426 18:15:28.811517  9555 net.cpp:84] Creating Layer res4d_branch2b
I0426 18:15:28.811523  9555 net.cpp:406] res4d_branch2b <- res4d_branch2a
I0426 18:15:28.811535  9555 net.cpp:380] res4d_branch2b -> res4d_branch2b
I0426 18:15:28.824862  9555 net.cpp:122] Setting up res4d_branch2b
I0426 18:15:28.824920  9555 net.cpp:129] Top shape: 1 256 10 15 (38400)
I0426 18:15:28.824928  9555 net.cpp:137] Memory required for data: 152982732
I0426 18:15:28.824942  9555 layer_factory.hpp:77] Creating layer bn4d_branch2b
I0426 18:15:28.824959  9555 net.cpp:84] Creating Layer bn4d_branch2b
I0426 18:15:28.824970  9555 net.cpp:406] bn4d_branch2b <- res4d_branch2b
I0426 18:15:28.824985  9555 net.cpp:367] bn4d_branch2b -> res4d_branch2b (in-place)
I0426 18:15:28.825379  9555 net.cpp:122] Setting up bn4d_branch2b
I0426 18:15:28.825387  9555 net.cpp:129] Top shape: 1 256 10 15 (38400)
I0426 18:15:28.825392  9555 net.cpp:137] Memory required for data: 153136332
I0426 18:15:28.825403  9555 layer_factory.hpp:77] Creating layer scale4d_branch2b
I0426 18:15:28.825415  9555 net.cpp:84] Creating Layer scale4d_branch2b
I0426 18:15:28.825423  9555 net.cpp:406] scale4d_branch2b <- res4d_branch2b
I0426 18:15:28.825429  9555 net.cpp:367] scale4d_branch2b -> res4d_branch2b (in-place)
I0426 18:15:28.825500  9555 layer_factory.hpp:77] Creating layer scale4d_branch2b
I0426 18:15:28.825712  9555 net.cpp:122] Setting up scale4d_branch2b
I0426 18:15:28.825719  9555 net.cpp:129] Top shape: 1 256 10 15 (38400)
I0426 18:15:28.825726  9555 net.cpp:137] Memory required for data: 153289932
I0426 18:15:28.825733  9555 layer_factory.hpp:77] Creating layer res4d_branch2b_relu
I0426 18:15:28.825742  9555 net.cpp:84] Creating Layer res4d_branch2b_relu
I0426 18:15:28.825748  9555 net.cpp:406] res4d_branch2b_relu <- res4d_branch2b
I0426 18:15:28.825762  9555 net.cpp:367] res4d_branch2b_relu -> res4d_branch2b (in-place)
I0426 18:15:28.826050  9555 net.cpp:122] Setting up res4d_branch2b_relu
I0426 18:15:28.826059  9555 net.cpp:129] Top shape: 1 256 10 15 (38400)
I0426 18:15:28.826066  9555 net.cpp:137] Memory required for data: 153443532
I0426 18:15:28.826071  9555 layer_factory.hpp:77] Creating layer res4d_branch2c
I0426 18:15:28.826086  9555 net.cpp:84] Creating Layer res4d_branch2c
I0426 18:15:28.826092  9555 net.cpp:406] res4d_branch2c <- res4d_branch2b
I0426 18:15:28.826103  9555 net.cpp:380] res4d_branch2c -> res4d_branch2c
I0426 18:15:28.833947  9555 net.cpp:122] Setting up res4d_branch2c
I0426 18:15:28.833998  9555 net.cpp:129] Top shape: 1 1024 10 15 (153600)
I0426 18:15:28.834004  9555 net.cpp:137] Memory required for data: 154057932
I0426 18:15:28.834018  9555 layer_factory.hpp:77] Creating layer bn4d_branch2c
I0426 18:15:28.834033  9555 net.cpp:84] Creating Layer bn4d_branch2c
I0426 18:15:28.834043  9555 net.cpp:406] bn4d_branch2c <- res4d_branch2c
I0426 18:15:28.834056  9555 net.cpp:367] bn4d_branch2c -> res4d_branch2c (in-place)
I0426 18:15:28.834460  9555 net.cpp:122] Setting up bn4d_branch2c
I0426 18:15:28.834467  9555 net.cpp:129] Top shape: 1 1024 10 15 (153600)
I0426 18:15:28.834484  9555 net.cpp:137] Memory required for data: 154672332
I0426 18:15:28.834509  9555 layer_factory.hpp:77] Creating layer scale4d_branch2c
I0426 18:15:28.834519  9555 net.cpp:84] Creating Layer scale4d_branch2c
I0426 18:15:28.834525  9555 net.cpp:406] scale4d_branch2c <- res4d_branch2c
I0426 18:15:28.834532  9555 net.cpp:367] scale4d_branch2c -> res4d_branch2c (in-place)
I0426 18:15:28.834596  9555 layer_factory.hpp:77] Creating layer scale4d_branch2c
I0426 18:15:28.834813  9555 net.cpp:122] Setting up scale4d_branch2c
I0426 18:15:28.834821  9555 net.cpp:129] Top shape: 1 1024 10 15 (153600)
I0426 18:15:28.834826  9555 net.cpp:137] Memory required for data: 155286732
I0426 18:15:28.834836  9555 layer_factory.hpp:77] Creating layer res4d
I0426 18:15:28.834844  9555 net.cpp:84] Creating Layer res4d
I0426 18:15:28.834852  9555 net.cpp:406] res4d <- res4c_res4c_relu_0_split_1
I0426 18:15:28.834861  9555 net.cpp:406] res4d <- res4d_branch2c
I0426 18:15:28.834868  9555 net.cpp:380] res4d -> res4d
I0426 18:15:28.834909  9555 net.cpp:122] Setting up res4d
I0426 18:15:28.834920  9555 net.cpp:129] Top shape: 1 1024 10 15 (153600)
I0426 18:15:28.834925  9555 net.cpp:137] Memory required for data: 155901132
I0426 18:15:28.834931  9555 layer_factory.hpp:77] Creating layer res4d_relu
I0426 18:15:28.834939  9555 net.cpp:84] Creating Layer res4d_relu
I0426 18:15:28.834945  9555 net.cpp:406] res4d_relu <- res4d
I0426 18:15:28.834952  9555 net.cpp:367] res4d_relu -> res4d (in-place)
I0426 18:15:28.835924  9555 net.cpp:122] Setting up res4d_relu
I0426 18:15:28.835938  9555 net.cpp:129] Top shape: 1 1024 10 15 (153600)
I0426 18:15:28.835944  9555 net.cpp:137] Memory required for data: 156515532
I0426 18:15:28.835950  9555 layer_factory.hpp:77] Creating layer res4d_res4d_relu_0_split
I0426 18:15:28.835959  9555 net.cpp:84] Creating Layer res4d_res4d_relu_0_split
I0426 18:15:28.835965  9555 net.cpp:406] res4d_res4d_relu_0_split <- res4d
I0426 18:15:28.835976  9555 net.cpp:380] res4d_res4d_relu_0_split -> res4d_res4d_relu_0_split_0
I0426 18:15:28.835986  9555 net.cpp:380] res4d_res4d_relu_0_split -> res4d_res4d_relu_0_split_1
I0426 18:15:28.836055  9555 net.cpp:122] Setting up res4d_res4d_relu_0_split
I0426 18:15:28.836062  9555 net.cpp:129] Top shape: 1 1024 10 15 (153600)
I0426 18:15:28.836069  9555 net.cpp:129] Top shape: 1 1024 10 15 (153600)
I0426 18:15:28.836074  9555 net.cpp:137] Memory required for data: 157744332
I0426 18:15:28.836081  9555 layer_factory.hpp:77] Creating layer res4e_branch2a
I0426 18:15:28.836097  9555 net.cpp:84] Creating Layer res4e_branch2a
I0426 18:15:28.836103  9555 net.cpp:406] res4e_branch2a <- res4d_res4d_relu_0_split_0
I0426 18:15:28.836112  9555 net.cpp:380] res4e_branch2a -> res4e_branch2a
I0426 18:15:28.841938  9555 net.cpp:122] Setting up res4e_branch2a
I0426 18:15:28.841979  9555 net.cpp:129] Top shape: 1 256 10 15 (38400)
I0426 18:15:28.841986  9555 net.cpp:137] Memory required for data: 157897932
I0426 18:15:28.842000  9555 layer_factory.hpp:77] Creating layer bn4e_branch2a
I0426 18:15:28.842015  9555 net.cpp:84] Creating Layer bn4e_branch2a
I0426 18:15:28.842023  9555 net.cpp:406] bn4e_branch2a <- res4e_branch2a
I0426 18:15:28.842033  9555 net.cpp:367] bn4e_branch2a -> res4e_branch2a (in-place)
I0426 18:15:28.842427  9555 net.cpp:122] Setting up bn4e_branch2a
I0426 18:15:28.842434  9555 net.cpp:129] Top shape: 1 256 10 15 (38400)
I0426 18:15:28.842439  9555 net.cpp:137] Memory required for data: 158051532
I0426 18:15:28.842450  9555 layer_factory.hpp:77] Creating layer scale4e_branch2a
I0426 18:15:28.842463  9555 net.cpp:84] Creating Layer scale4e_branch2a
I0426 18:15:28.842468  9555 net.cpp:406] scale4e_branch2a <- res4e_branch2a
I0426 18:15:28.842475  9555 net.cpp:367] scale4e_branch2a -> res4e_branch2a (in-place)
I0426 18:15:28.842542  9555 layer_factory.hpp:77] Creating layer scale4e_branch2a
I0426 18:15:28.842761  9555 net.cpp:122] Setting up scale4e_branch2a
I0426 18:15:28.842769  9555 net.cpp:129] Top shape: 1 256 10 15 (38400)
I0426 18:15:28.842787  9555 net.cpp:137] Memory required for data: 158205132
I0426 18:15:28.842808  9555 layer_factory.hpp:77] Creating layer res4e_branch2a_relu
I0426 18:15:28.842818  9555 net.cpp:84] Creating Layer res4e_branch2a_relu
I0426 18:15:28.842823  9555 net.cpp:406] res4e_branch2a_relu <- res4e_branch2a
I0426 18:15:28.842833  9555 net.cpp:367] res4e_branch2a_relu -> res4e_branch2a (in-place)
I0426 18:15:28.843083  9555 net.cpp:122] Setting up res4e_branch2a_relu
I0426 18:15:28.843092  9555 net.cpp:129] Top shape: 1 256 10 15 (38400)
I0426 18:15:28.843098  9555 net.cpp:137] Memory required for data: 158358732
I0426 18:15:28.843103  9555 layer_factory.hpp:77] Creating layer res4e_branch2b
I0426 18:15:28.843116  9555 net.cpp:84] Creating Layer res4e_branch2b
I0426 18:15:28.843122  9555 net.cpp:406] res4e_branch2b <- res4e_branch2a
I0426 18:15:28.843132  9555 net.cpp:380] res4e_branch2b -> res4e_branch2b
I0426 18:15:28.855839  9555 net.cpp:122] Setting up res4e_branch2b
I0426 18:15:28.855904  9555 net.cpp:129] Top shape: 1 256 10 15 (38400)
I0426 18:15:28.855911  9555 net.cpp:137] Memory required for data: 158512332
I0426 18:15:28.855929  9555 layer_factory.hpp:77] Creating layer bn4e_branch2b
I0426 18:15:28.855948  9555 net.cpp:84] Creating Layer bn4e_branch2b
I0426 18:15:28.855965  9555 net.cpp:406] bn4e_branch2b <- res4e_branch2b
I0426 18:15:28.855978  9555 net.cpp:367] bn4e_branch2b -> res4e_branch2b (in-place)
I0426 18:15:28.856387  9555 net.cpp:122] Setting up bn4e_branch2b
I0426 18:15:28.856395  9555 net.cpp:129] Top shape: 1 256 10 15 (38400)
I0426 18:15:28.856401  9555 net.cpp:137] Memory required for data: 158665932
I0426 18:15:28.856415  9555 layer_factory.hpp:77] Creating layer scale4e_branch2b
I0426 18:15:28.856428  9555 net.cpp:84] Creating Layer scale4e_branch2b
I0426 18:15:28.856434  9555 net.cpp:406] scale4e_branch2b <- res4e_branch2b
I0426 18:15:28.856441  9555 net.cpp:367] scale4e_branch2b -> res4e_branch2b (in-place)
I0426 18:15:28.856513  9555 layer_factory.hpp:77] Creating layer scale4e_branch2b
I0426 18:15:28.856734  9555 net.cpp:122] Setting up scale4e_branch2b
I0426 18:15:28.856742  9555 net.cpp:129] Top shape: 1 256 10 15 (38400)
I0426 18:15:28.856747  9555 net.cpp:137] Memory required for data: 158819532
I0426 18:15:28.856756  9555 layer_factory.hpp:77] Creating layer res4e_branch2b_relu
I0426 18:15:28.856766  9555 net.cpp:84] Creating Layer res4e_branch2b_relu
I0426 18:15:28.856772  9555 net.cpp:406] res4e_branch2b_relu <- res4e_branch2b
I0426 18:15:28.856783  9555 net.cpp:367] res4e_branch2b_relu -> res4e_branch2b (in-place)
I0426 18:15:28.857699  9555 net.cpp:122] Setting up res4e_branch2b_relu
I0426 18:15:28.857712  9555 net.cpp:129] Top shape: 1 256 10 15 (38400)
I0426 18:15:28.857718  9555 net.cpp:137] Memory required for data: 158973132
I0426 18:15:28.857725  9555 layer_factory.hpp:77] Creating layer res4e_branch2c
I0426 18:15:28.857743  9555 net.cpp:84] Creating Layer res4e_branch2c
I0426 18:15:28.857749  9555 net.cpp:406] res4e_branch2c <- res4e_branch2b
I0426 18:15:28.857760  9555 net.cpp:380] res4e_branch2c -> res4e_branch2c
I0426 18:15:28.865648  9555 net.cpp:122] Setting up res4e_branch2c
I0426 18:15:28.865703  9555 net.cpp:129] Top shape: 1 1024 10 15 (153600)
I0426 18:15:28.865710  9555 net.cpp:137] Memory required for data: 159587532
I0426 18:15:28.865726  9555 layer_factory.hpp:77] Creating layer bn4e_branch2c
I0426 18:15:28.865746  9555 net.cpp:84] Creating Layer bn4e_branch2c
I0426 18:15:28.865756  9555 net.cpp:406] bn4e_branch2c <- res4e_branch2c
I0426 18:15:28.865767  9555 net.cpp:367] bn4e_branch2c -> res4e_branch2c (in-place)
I0426 18:15:28.866190  9555 net.cpp:122] Setting up bn4e_branch2c
I0426 18:15:28.866201  9555 net.cpp:129] Top shape: 1 1024 10 15 (153600)
I0426 18:15:28.866207  9555 net.cpp:137] Memory required for data: 160201932
I0426 18:15:28.866219  9555 layer_factory.hpp:77] Creating layer scale4e_branch2c
I0426 18:15:28.866227  9555 net.cpp:84] Creating Layer scale4e_branch2c
I0426 18:15:28.866233  9555 net.cpp:406] scale4e_branch2c <- res4e_branch2c
I0426 18:15:28.866252  9555 net.cpp:367] scale4e_branch2c -> res4e_branch2c (in-place)
I0426 18:15:28.866330  9555 layer_factory.hpp:77] Creating layer scale4e_branch2c
I0426 18:15:28.866549  9555 net.cpp:122] Setting up scale4e_branch2c
I0426 18:15:28.866557  9555 net.cpp:129] Top shape: 1 1024 10 15 (153600)
I0426 18:15:28.866562  9555 net.cpp:137] Memory required for data: 160816332
I0426 18:15:28.866570  9555 layer_factory.hpp:77] Creating layer res4e
I0426 18:15:28.866582  9555 net.cpp:84] Creating Layer res4e
I0426 18:15:28.866588  9555 net.cpp:406] res4e <- res4d_res4d_relu_0_split_1
I0426 18:15:28.866595  9555 net.cpp:406] res4e <- res4e_branch2c
I0426 18:15:28.866603  9555 net.cpp:380] res4e -> res4e
I0426 18:15:28.866646  9555 net.cpp:122] Setting up res4e
I0426 18:15:28.866653  9555 net.cpp:129] Top shape: 1 1024 10 15 (153600)
I0426 18:15:28.866658  9555 net.cpp:137] Memory required for data: 161430732
I0426 18:15:28.866663  9555 layer_factory.hpp:77] Creating layer res4e_relu
I0426 18:15:28.866672  9555 net.cpp:84] Creating Layer res4e_relu
I0426 18:15:28.866677  9555 net.cpp:406] res4e_relu <- res4e
I0426 18:15:28.866686  9555 net.cpp:367] res4e_relu -> res4e (in-place)
I0426 18:15:28.866931  9555 net.cpp:122] Setting up res4e_relu
I0426 18:15:28.866941  9555 net.cpp:129] Top shape: 1 1024 10 15 (153600)
I0426 18:15:28.866946  9555 net.cpp:137] Memory required for data: 162045132
I0426 18:15:28.866952  9555 layer_factory.hpp:77] Creating layer res4e_res4e_relu_0_split
I0426 18:15:28.866961  9555 net.cpp:84] Creating Layer res4e_res4e_relu_0_split
I0426 18:15:28.866966  9555 net.cpp:406] res4e_res4e_relu_0_split <- res4e
I0426 18:15:28.866976  9555 net.cpp:380] res4e_res4e_relu_0_split -> res4e_res4e_relu_0_split_0
I0426 18:15:28.866986  9555 net.cpp:380] res4e_res4e_relu_0_split -> res4e_res4e_relu_0_split_1
I0426 18:15:28.867054  9555 net.cpp:122] Setting up res4e_res4e_relu_0_split
I0426 18:15:28.867063  9555 net.cpp:129] Top shape: 1 1024 10 15 (153600)
I0426 18:15:28.867069  9555 net.cpp:129] Top shape: 1 1024 10 15 (153600)
I0426 18:15:28.867074  9555 net.cpp:137] Memory required for data: 163273932
I0426 18:15:28.867080  9555 layer_factory.hpp:77] Creating layer res4f_branch2a
I0426 18:15:28.867094  9555 net.cpp:84] Creating Layer res4f_branch2a
I0426 18:15:28.867100  9555 net.cpp:406] res4f_branch2a <- res4e_res4e_relu_0_split_0
I0426 18:15:28.867110  9555 net.cpp:380] res4f_branch2a -> res4f_branch2a
I0426 18:15:28.873276  9555 net.cpp:122] Setting up res4f_branch2a
I0426 18:15:28.873332  9555 net.cpp:129] Top shape: 1 256 10 15 (38400)
I0426 18:15:28.873337  9555 net.cpp:137] Memory required for data: 163427532
I0426 18:15:28.873353  9555 layer_factory.hpp:77] Creating layer bn4f_branch2a
I0426 18:15:28.873373  9555 net.cpp:84] Creating Layer bn4f_branch2a
I0426 18:15:28.873383  9555 net.cpp:406] bn4f_branch2a <- res4f_branch2a
I0426 18:15:28.873394  9555 net.cpp:367] bn4f_branch2a -> res4f_branch2a (in-place)
I0426 18:15:28.873805  9555 net.cpp:122] Setting up bn4f_branch2a
I0426 18:15:28.873818  9555 net.cpp:129] Top shape: 1 256 10 15 (38400)
I0426 18:15:28.873824  9555 net.cpp:137] Memory required for data: 163581132
I0426 18:15:28.873836  9555 layer_factory.hpp:77] Creating layer scale4f_branch2a
I0426 18:15:28.873847  9555 net.cpp:84] Creating Layer scale4f_branch2a
I0426 18:15:28.873852  9555 net.cpp:406] scale4f_branch2a <- res4f_branch2a
I0426 18:15:28.873860  9555 net.cpp:367] scale4f_branch2a -> res4f_branch2a (in-place)
I0426 18:15:28.873931  9555 layer_factory.hpp:77] Creating layer scale4f_branch2a
I0426 18:15:28.874152  9555 net.cpp:122] Setting up scale4f_branch2a
I0426 18:15:28.874161  9555 net.cpp:129] Top shape: 1 256 10 15 (38400)
I0426 18:15:28.874166  9555 net.cpp:137] Memory required for data: 163734732
I0426 18:15:28.874176  9555 layer_factory.hpp:77] Creating layer res4f_branch2a_relu
I0426 18:15:28.874187  9555 net.cpp:84] Creating Layer res4f_branch2a_relu
I0426 18:15:28.874193  9555 net.cpp:406] res4f_branch2a_relu <- res4f_branch2a
I0426 18:15:28.874202  9555 net.cpp:367] res4f_branch2a_relu -> res4f_branch2a (in-place)
I0426 18:15:28.874485  9555 net.cpp:122] Setting up res4f_branch2a_relu
I0426 18:15:28.874493  9555 net.cpp:129] Top shape: 1 256 10 15 (38400)
I0426 18:15:28.874498  9555 net.cpp:137] Memory required for data: 163888332
I0426 18:15:28.874505  9555 layer_factory.hpp:77] Creating layer res4f_branch2b
I0426 18:15:28.874521  9555 net.cpp:84] Creating Layer res4f_branch2b
I0426 18:15:28.874527  9555 net.cpp:406] res4f_branch2b <- res4f_branch2a
I0426 18:15:28.874536  9555 net.cpp:380] res4f_branch2b -> res4f_branch2b
I0426 18:15:28.887795  9555 net.cpp:122] Setting up res4f_branch2b
I0426 18:15:28.887856  9555 net.cpp:129] Top shape: 1 256 10 15 (38400)
I0426 18:15:28.887862  9555 net.cpp:137] Memory required for data: 164041932
I0426 18:15:28.887879  9555 layer_factory.hpp:77] Creating layer bn4f_branch2b
I0426 18:15:28.887897  9555 net.cpp:84] Creating Layer bn4f_branch2b
I0426 18:15:28.887907  9555 net.cpp:406] bn4f_branch2b <- res4f_branch2b
I0426 18:15:28.887920  9555 net.cpp:367] bn4f_branch2b -> res4f_branch2b (in-place)
I0426 18:15:28.888330  9555 net.cpp:122] Setting up bn4f_branch2b
I0426 18:15:28.888339  9555 net.cpp:129] Top shape: 1 256 10 15 (38400)
I0426 18:15:28.888345  9555 net.cpp:137] Memory required for data: 164195532
I0426 18:15:28.888356  9555 layer_factory.hpp:77] Creating layer scale4f_branch2b
I0426 18:15:28.888365  9555 net.cpp:84] Creating Layer scale4f_branch2b
I0426 18:15:28.888372  9555 net.cpp:406] scale4f_branch2b <- res4f_branch2b
I0426 18:15:28.888380  9555 net.cpp:367] scale4f_branch2b -> res4f_branch2b (in-place)
I0426 18:15:28.888451  9555 layer_factory.hpp:77] Creating layer scale4f_branch2b
I0426 18:15:28.888667  9555 net.cpp:122] Setting up scale4f_branch2b
I0426 18:15:28.888675  9555 net.cpp:129] Top shape: 1 256 10 15 (38400)
I0426 18:15:28.888680  9555 net.cpp:137] Memory required for data: 164349132
I0426 18:15:28.888689  9555 layer_factory.hpp:77] Creating layer res4f_branch2b_relu
I0426 18:15:28.888700  9555 net.cpp:84] Creating Layer res4f_branch2b_relu
I0426 18:15:28.888706  9555 net.cpp:406] res4f_branch2b_relu <- res4f_branch2b
I0426 18:15:28.888715  9555 net.cpp:367] res4f_branch2b_relu -> res4f_branch2b (in-place)
I0426 18:15:28.888985  9555 net.cpp:122] Setting up res4f_branch2b_relu
I0426 18:15:28.888994  9555 net.cpp:129] Top shape: 1 256 10 15 (38400)
I0426 18:15:28.889000  9555 net.cpp:137] Memory required for data: 164502732
I0426 18:15:28.889006  9555 layer_factory.hpp:77] Creating layer res4f_branch2c
I0426 18:15:28.889021  9555 net.cpp:84] Creating Layer res4f_branch2c
I0426 18:15:28.889027  9555 net.cpp:406] res4f_branch2c <- res4f_branch2b
I0426 18:15:28.889036  9555 net.cpp:380] res4f_branch2c -> res4f_branch2c
I0426 18:15:28.896824  9555 net.cpp:122] Setting up res4f_branch2c
I0426 18:15:28.896890  9555 net.cpp:129] Top shape: 1 1024 10 15 (153600)
I0426 18:15:28.896896  9555 net.cpp:137] Memory required for data: 165117132
I0426 18:15:28.896913  9555 layer_factory.hpp:77] Creating layer bn4f_branch2c
I0426 18:15:28.896929  9555 net.cpp:84] Creating Layer bn4f_branch2c
I0426 18:15:28.896939  9555 net.cpp:406] bn4f_branch2c <- res4f_branch2c
I0426 18:15:28.896955  9555 net.cpp:367] bn4f_branch2c -> res4f_branch2c (in-place)
I0426 18:15:28.897372  9555 net.cpp:122] Setting up bn4f_branch2c
I0426 18:15:28.897379  9555 net.cpp:129] Top shape: 1 1024 10 15 (153600)
I0426 18:15:28.897385  9555 net.cpp:137] Memory required for data: 165731532
I0426 18:15:28.897483  9555 layer_factory.hpp:77] Creating layer scale4f_branch2c
I0426 18:15:28.897495  9555 net.cpp:84] Creating Layer scale4f_branch2c
I0426 18:15:28.897501  9555 net.cpp:406] scale4f_branch2c <- res4f_branch2c
I0426 18:15:28.897509  9555 net.cpp:367] scale4f_branch2c -> res4f_branch2c (in-place)
I0426 18:15:28.897575  9555 layer_factory.hpp:77] Creating layer scale4f_branch2c
I0426 18:15:28.897801  9555 net.cpp:122] Setting up scale4f_branch2c
I0426 18:15:28.897809  9555 net.cpp:129] Top shape: 1 1024 10 15 (153600)
I0426 18:15:28.897814  9555 net.cpp:137] Memory required for data: 166345932
I0426 18:15:28.897838  9555 layer_factory.hpp:77] Creating layer res4f
I0426 18:15:28.897864  9555 net.cpp:84] Creating Layer res4f
I0426 18:15:28.897871  9555 net.cpp:406] res4f <- res4e_res4e_relu_0_split_1
I0426 18:15:28.897878  9555 net.cpp:406] res4f <- res4f_branch2c
I0426 18:15:28.897889  9555 net.cpp:380] res4f -> res4f
I0426 18:15:28.897929  9555 net.cpp:122] Setting up res4f
I0426 18:15:28.897939  9555 net.cpp:129] Top shape: 1 1024 10 15 (153600)
I0426 18:15:28.897945  9555 net.cpp:137] Memory required for data: 166960332
I0426 18:15:28.897950  9555 layer_factory.hpp:77] Creating layer res4f_relu
I0426 18:15:28.897959  9555 net.cpp:84] Creating Layer res4f_relu
I0426 18:15:28.897965  9555 net.cpp:406] res4f_relu <- res4f
I0426 18:15:28.897972  9555 net.cpp:367] res4f_relu -> res4f (in-place)
I0426 18:15:28.899085  9555 net.cpp:122] Setting up res4f_relu
I0426 18:15:28.899101  9555 net.cpp:129] Top shape: 1 1024 10 15 (153600)
I0426 18:15:28.899106  9555 net.cpp:137] Memory required for data: 167574732
I0426 18:15:28.899112  9555 layer_factory.hpp:77] Creating layer res4f_res4f_relu_0_split
I0426 18:15:28.899122  9555 net.cpp:84] Creating Layer res4f_res4f_relu_0_split
I0426 18:15:28.899128  9555 net.cpp:406] res4f_res4f_relu_0_split <- res4f
I0426 18:15:28.899139  9555 net.cpp:380] res4f_res4f_relu_0_split -> res4f_res4f_relu_0_split_0
I0426 18:15:28.899150  9555 net.cpp:380] res4f_res4f_relu_0_split -> res4f_res4f_relu_0_split_1
I0426 18:15:28.899220  9555 net.cpp:122] Setting up res4f_res4f_relu_0_split
I0426 18:15:28.899230  9555 net.cpp:129] Top shape: 1 1024 10 15 (153600)
I0426 18:15:28.899238  9555 net.cpp:129] Top shape: 1 1024 10 15 (153600)
I0426 18:15:28.899243  9555 net.cpp:137] Memory required for data: 168803532
I0426 18:15:28.899250  9555 layer_factory.hpp:77] Creating layer res5a_branch1
I0426 18:15:28.899263  9555 net.cpp:84] Creating Layer res5a_branch1
I0426 18:15:28.899268  9555 net.cpp:406] res5a_branch1 <- res4f_res4f_relu_0_split_0
I0426 18:15:28.899281  9555 net.cpp:380] res5a_branch1 -> res5a_branch1
I0426 18:15:28.937891  9555 net.cpp:122] Setting up res5a_branch1
I0426 18:15:28.937952  9555 net.cpp:129] Top shape: 1 2048 5 8 (81920)
I0426 18:15:28.937958  9555 net.cpp:137] Memory required for data: 169131212
I0426 18:15:28.937975  9555 layer_factory.hpp:77] Creating layer bn5a_branch1
I0426 18:15:28.937995  9555 net.cpp:84] Creating Layer bn5a_branch1
I0426 18:15:28.938006  9555 net.cpp:406] bn5a_branch1 <- res5a_branch1
I0426 18:15:28.938019  9555 net.cpp:367] bn5a_branch1 -> res5a_branch1 (in-place)
I0426 18:15:28.938460  9555 net.cpp:122] Setting up bn5a_branch1
I0426 18:15:28.938472  9555 net.cpp:129] Top shape: 1 2048 5 8 (81920)
I0426 18:15:28.938477  9555 net.cpp:137] Memory required for data: 169458892
I0426 18:15:28.938488  9555 layer_factory.hpp:77] Creating layer scale5a_branch1
I0426 18:15:28.938498  9555 net.cpp:84] Creating Layer scale5a_branch1
I0426 18:15:28.938504  9555 net.cpp:406] scale5a_branch1 <- res5a_branch1
I0426 18:15:28.938513  9555 net.cpp:367] scale5a_branch1 -> res5a_branch1 (in-place)
I0426 18:15:28.938580  9555 layer_factory.hpp:77] Creating layer scale5a_branch1
I0426 18:15:28.938809  9555 net.cpp:122] Setting up scale5a_branch1
I0426 18:15:28.938817  9555 net.cpp:129] Top shape: 1 2048 5 8 (81920)
I0426 18:15:28.938823  9555 net.cpp:137] Memory required for data: 169786572
I0426 18:15:28.938832  9555 layer_factory.hpp:77] Creating layer res5a_branch2a
I0426 18:15:28.938848  9555 net.cpp:84] Creating Layer res5a_branch2a
I0426 18:15:28.938854  9555 net.cpp:406] res5a_branch2a <- res4f_res4f_relu_0_split_1
I0426 18:15:28.938868  9555 net.cpp:380] res5a_branch2a -> res5a_branch2a
I0426 18:15:28.949138  9555 net.cpp:122] Setting up res5a_branch2a
I0426 18:15:28.949192  9555 net.cpp:129] Top shape: 1 512 5 8 (20480)
I0426 18:15:28.949198  9555 net.cpp:137] Memory required for data: 169868492
I0426 18:15:28.949213  9555 layer_factory.hpp:77] Creating layer bn5a_branch2a
I0426 18:15:28.949229  9555 net.cpp:84] Creating Layer bn5a_branch2a
I0426 18:15:28.949249  9555 net.cpp:406] bn5a_branch2a <- res5a_branch2a
I0426 18:15:28.949275  9555 net.cpp:367] bn5a_branch2a -> res5a_branch2a (in-place)
I0426 18:15:28.949697  9555 net.cpp:122] Setting up bn5a_branch2a
I0426 18:15:28.949705  9555 net.cpp:129] Top shape: 1 512 5 8 (20480)
I0426 18:15:28.949710  9555 net.cpp:137] Memory required for data: 169950412
I0426 18:15:28.949722  9555 layer_factory.hpp:77] Creating layer scale5a_branch2a
I0426 18:15:28.949730  9555 net.cpp:84] Creating Layer scale5a_branch2a
I0426 18:15:28.949736  9555 net.cpp:406] scale5a_branch2a <- res5a_branch2a
I0426 18:15:28.949743  9555 net.cpp:367] scale5a_branch2a -> res5a_branch2a (in-place)
I0426 18:15:28.949807  9555 layer_factory.hpp:77] Creating layer scale5a_branch2a
I0426 18:15:28.950031  9555 net.cpp:122] Setting up scale5a_branch2a
I0426 18:15:28.950038  9555 net.cpp:129] Top shape: 1 512 5 8 (20480)
I0426 18:15:28.950043  9555 net.cpp:137] Memory required for data: 170032332
I0426 18:15:28.950052  9555 layer_factory.hpp:77] Creating layer res5a_branch2a_relu
I0426 18:15:28.950063  9555 net.cpp:84] Creating Layer res5a_branch2a_relu
I0426 18:15:28.950068  9555 net.cpp:406] res5a_branch2a_relu <- res5a_branch2a
I0426 18:15:28.950076  9555 net.cpp:367] res5a_branch2a_relu -> res5a_branch2a (in-place)
I0426 18:15:28.951267  9555 net.cpp:122] Setting up res5a_branch2a_relu
I0426 18:15:28.951282  9555 net.cpp:129] Top shape: 1 512 5 8 (20480)
I0426 18:15:28.951287  9555 net.cpp:137] Memory required for data: 170114252
I0426 18:15:28.951293  9555 layer_factory.hpp:77] Creating layer res5a_branch2b
I0426 18:15:28.951304  9555 net.cpp:84] Creating Layer res5a_branch2b
I0426 18:15:28.951311  9555 net.cpp:406] res5a_branch2b <- res5a_branch2a
I0426 18:15:28.951323  9555 net.cpp:380] res5a_branch2b -> res5a_branch2b
I0426 18:15:28.992691  9555 net.cpp:122] Setting up res5a_branch2b
I0426 18:15:28.992748  9555 net.cpp:129] Top shape: 1 512 5 8 (20480)
I0426 18:15:28.992754  9555 net.cpp:137] Memory required for data: 170196172
I0426 18:15:28.992771  9555 layer_factory.hpp:77] Creating layer bn5a_branch2b
I0426 18:15:28.992791  9555 net.cpp:84] Creating Layer bn5a_branch2b
I0426 18:15:28.992802  9555 net.cpp:406] bn5a_branch2b <- res5a_branch2b
I0426 18:15:28.992815  9555 net.cpp:367] bn5a_branch2b -> res5a_branch2b (in-place)
I0426 18:15:28.993255  9555 net.cpp:122] Setting up bn5a_branch2b
I0426 18:15:28.993264  9555 net.cpp:129] Top shape: 1 512 5 8 (20480)
I0426 18:15:28.993270  9555 net.cpp:137] Memory required for data: 170278092
I0426 18:15:28.993281  9555 layer_factory.hpp:77] Creating layer scale5a_branch2b
I0426 18:15:28.993293  9555 net.cpp:84] Creating Layer scale5a_branch2b
I0426 18:15:28.993299  9555 net.cpp:406] scale5a_branch2b <- res5a_branch2b
I0426 18:15:28.993309  9555 net.cpp:367] scale5a_branch2b -> res5a_branch2b (in-place)
I0426 18:15:28.993372  9555 layer_factory.hpp:77] Creating layer scale5a_branch2b
I0426 18:15:28.993597  9555 net.cpp:122] Setting up scale5a_branch2b
I0426 18:15:28.993605  9555 net.cpp:129] Top shape: 1 512 5 8 (20480)
I0426 18:15:28.993610  9555 net.cpp:137] Memory required for data: 170360012
I0426 18:15:28.993619  9555 layer_factory.hpp:77] Creating layer res5a_branch2b_relu
I0426 18:15:28.993631  9555 net.cpp:84] Creating Layer res5a_branch2b_relu
I0426 18:15:28.993638  9555 net.cpp:406] res5a_branch2b_relu <- res5a_branch2b
I0426 18:15:28.993644  9555 net.cpp:367] res5a_branch2b_relu -> res5a_branch2b (in-place)
I0426 18:15:28.993917  9555 net.cpp:122] Setting up res5a_branch2b_relu
I0426 18:15:28.993929  9555 net.cpp:129] Top shape: 1 512 5 8 (20480)
I0426 18:15:28.993937  9555 net.cpp:137] Memory required for data: 170441932
I0426 18:15:28.993942  9555 layer_factory.hpp:77] Creating layer res5a_branch2c
I0426 18:15:28.993954  9555 net.cpp:84] Creating Layer res5a_branch2c
I0426 18:15:28.993960  9555 net.cpp:406] res5a_branch2c <- res5a_branch2b
I0426 18:15:28.993971  9555 net.cpp:380] res5a_branch2c -> res5a_branch2c
I0426 18:15:29.014176  9555 net.cpp:122] Setting up res5a_branch2c
I0426 18:15:29.014252  9555 net.cpp:129] Top shape: 1 2048 5 8 (81920)
I0426 18:15:29.014276  9555 net.cpp:137] Memory required for data: 170769612
I0426 18:15:29.014292  9555 layer_factory.hpp:77] Creating layer bn5a_branch2c
I0426 18:15:29.014314  9555 net.cpp:84] Creating Layer bn5a_branch2c
I0426 18:15:29.014323  9555 net.cpp:406] bn5a_branch2c <- res5a_branch2c
I0426 18:15:29.014335  9555 net.cpp:367] bn5a_branch2c -> res5a_branch2c (in-place)
I0426 18:15:29.014773  9555 net.cpp:122] Setting up bn5a_branch2c
I0426 18:15:29.014785  9555 net.cpp:129] Top shape: 1 2048 5 8 (81920)
I0426 18:15:29.014791  9555 net.cpp:137] Memory required for data: 171097292
I0426 18:15:29.014801  9555 layer_factory.hpp:77] Creating layer scale5a_branch2c
I0426 18:15:29.014809  9555 net.cpp:84] Creating Layer scale5a_branch2c
I0426 18:15:29.014816  9555 net.cpp:406] scale5a_branch2c <- res5a_branch2c
I0426 18:15:29.014822  9555 net.cpp:367] scale5a_branch2c -> res5a_branch2c (in-place)
I0426 18:15:29.014889  9555 layer_factory.hpp:77] Creating layer scale5a_branch2c
I0426 18:15:29.015125  9555 net.cpp:122] Setting up scale5a_branch2c
I0426 18:15:29.015132  9555 net.cpp:129] Top shape: 1 2048 5 8 (81920)
I0426 18:15:29.015138  9555 net.cpp:137] Memory required for data: 171424972
I0426 18:15:29.015146  9555 layer_factory.hpp:77] Creating layer res5a
I0426 18:15:29.015158  9555 net.cpp:84] Creating Layer res5a
I0426 18:15:29.015164  9555 net.cpp:406] res5a <- res5a_branch1
I0426 18:15:29.015172  9555 net.cpp:406] res5a <- res5a_branch2c
I0426 18:15:29.015179  9555 net.cpp:380] res5a -> res5a
I0426 18:15:29.015223  9555 net.cpp:122] Setting up res5a
I0426 18:15:29.015231  9555 net.cpp:129] Top shape: 1 2048 5 8 (81920)
I0426 18:15:29.015236  9555 net.cpp:137] Memory required for data: 171752652
I0426 18:15:29.015241  9555 layer_factory.hpp:77] Creating layer res5a_relu
I0426 18:15:29.015251  9555 net.cpp:84] Creating Layer res5a_relu
I0426 18:15:29.015256  9555 net.cpp:406] res5a_relu <- res5a
I0426 18:15:29.015266  9555 net.cpp:367] res5a_relu -> res5a (in-place)
I0426 18:15:29.015521  9555 net.cpp:122] Setting up res5a_relu
I0426 18:15:29.015529  9555 net.cpp:129] Top shape: 1 2048 5 8 (81920)
I0426 18:15:29.015534  9555 net.cpp:137] Memory required for data: 172080332
I0426 18:15:29.015540  9555 layer_factory.hpp:77] Creating layer res5a_res5a_relu_0_split
I0426 18:15:29.015549  9555 net.cpp:84] Creating Layer res5a_res5a_relu_0_split
I0426 18:15:29.015555  9555 net.cpp:406] res5a_res5a_relu_0_split <- res5a
I0426 18:15:29.015568  9555 net.cpp:380] res5a_res5a_relu_0_split -> res5a_res5a_relu_0_split_0
I0426 18:15:29.015578  9555 net.cpp:380] res5a_res5a_relu_0_split -> res5a_res5a_relu_0_split_1
I0426 18:15:29.015647  9555 net.cpp:122] Setting up res5a_res5a_relu_0_split
I0426 18:15:29.015655  9555 net.cpp:129] Top shape: 1 2048 5 8 (81920)
I0426 18:15:29.015662  9555 net.cpp:129] Top shape: 1 2048 5 8 (81920)
I0426 18:15:29.015668  9555 net.cpp:137] Memory required for data: 172735692
I0426 18:15:29.015673  9555 layer_factory.hpp:77] Creating layer res5b_branch2a
I0426 18:15:29.015687  9555 net.cpp:84] Creating Layer res5b_branch2a
I0426 18:15:29.015693  9555 net.cpp:406] res5b_branch2a <- res5a_res5a_relu_0_split_0
I0426 18:15:29.015704  9555 net.cpp:380] res5b_branch2a -> res5b_branch2a
I0426 18:15:29.036519  9555 net.cpp:122] Setting up res5b_branch2a
I0426 18:15:29.036589  9555 net.cpp:129] Top shape: 1 512 5 8 (20480)
I0426 18:15:29.036595  9555 net.cpp:137] Memory required for data: 172817612
I0426 18:15:29.036613  9555 layer_factory.hpp:77] Creating layer bn5b_branch2a
I0426 18:15:29.036634  9555 net.cpp:84] Creating Layer bn5b_branch2a
I0426 18:15:29.036645  9555 net.cpp:406] bn5b_branch2a <- res5b_branch2a
I0426 18:15:29.036661  9555 net.cpp:367] bn5b_branch2a -> res5b_branch2a (in-place)
I0426 18:15:29.037113  9555 net.cpp:122] Setting up bn5b_branch2a
I0426 18:15:29.037122  9555 net.cpp:129] Top shape: 1 512 5 8 (20480)
I0426 18:15:29.037127  9555 net.cpp:137] Memory required for data: 172899532
I0426 18:15:29.037139  9555 layer_factory.hpp:77] Creating layer scale5b_branch2a
I0426 18:15:29.037187  9555 net.cpp:84] Creating Layer scale5b_branch2a
I0426 18:15:29.037194  9555 net.cpp:406] scale5b_branch2a <- res5b_branch2a
I0426 18:15:29.037202  9555 net.cpp:367] scale5b_branch2a -> res5b_branch2a (in-place)
I0426 18:15:29.037274  9555 layer_factory.hpp:77] Creating layer scale5b_branch2a
I0426 18:15:29.037513  9555 net.cpp:122] Setting up scale5b_branch2a
I0426 18:15:29.037520  9555 net.cpp:129] Top shape: 1 512 5 8 (20480)
I0426 18:15:29.037525  9555 net.cpp:137] Memory required for data: 172981452
I0426 18:15:29.037534  9555 layer_factory.hpp:77] Creating layer res5b_branch2a_relu
I0426 18:15:29.037545  9555 net.cpp:84] Creating Layer res5b_branch2a_relu
I0426 18:15:29.037551  9555 net.cpp:406] res5b_branch2a_relu <- res5b_branch2a
I0426 18:15:29.037561  9555 net.cpp:367] res5b_branch2a_relu -> res5b_branch2a (in-place)
I0426 18:15:29.037829  9555 net.cpp:122] Setting up res5b_branch2a_relu
I0426 18:15:29.037838  9555 net.cpp:129] Top shape: 1 512 5 8 (20480)
I0426 18:15:29.037843  9555 net.cpp:137] Memory required for data: 173063372
I0426 18:15:29.037849  9555 layer_factory.hpp:77] Creating layer res5b_branch2b
I0426 18:15:29.037864  9555 net.cpp:84] Creating Layer res5b_branch2b
I0426 18:15:29.037870  9555 net.cpp:406] res5b_branch2b <- res5b_branch2a
I0426 18:15:29.037883  9555 net.cpp:380] res5b_branch2b -> res5b_branch2b
I0426 18:15:29.083206  9555 net.cpp:122] Setting up res5b_branch2b
I0426 18:15:29.083286  9555 net.cpp:129] Top shape: 1 512 5 8 (20480)
I0426 18:15:29.083292  9555 net.cpp:137] Memory required for data: 173145292
I0426 18:15:29.083312  9555 layer_factory.hpp:77] Creating layer bn5b_branch2b
I0426 18:15:29.083334  9555 net.cpp:84] Creating Layer bn5b_branch2b
I0426 18:15:29.083346  9555 net.cpp:406] bn5b_branch2b <- res5b_branch2b
I0426 18:15:29.083364  9555 net.cpp:367] bn5b_branch2b -> res5b_branch2b (in-place)
I0426 18:15:29.083861  9555 net.cpp:122] Setting up bn5b_branch2b
I0426 18:15:29.083871  9555 net.cpp:129] Top shape: 1 512 5 8 (20480)
I0426 18:15:29.083878  9555 net.cpp:137] Memory required for data: 173227212
I0426 18:15:29.083889  9555 layer_factory.hpp:77] Creating layer scale5b_branch2b
I0426 18:15:29.083904  9555 net.cpp:84] Creating Layer scale5b_branch2b
I0426 18:15:29.083911  9555 net.cpp:406] scale5b_branch2b <- res5b_branch2b
I0426 18:15:29.083920  9555 net.cpp:367] scale5b_branch2b -> res5b_branch2b (in-place)
I0426 18:15:29.083991  9555 layer_factory.hpp:77] Creating layer scale5b_branch2b
I0426 18:15:29.084228  9555 net.cpp:122] Setting up scale5b_branch2b
I0426 18:15:29.084236  9555 net.cpp:129] Top shape: 1 512 5 8 (20480)
I0426 18:15:29.084242  9555 net.cpp:137] Memory required for data: 173309132
I0426 18:15:29.084251  9555 layer_factory.hpp:77] Creating layer res5b_branch2b_relu
I0426 18:15:29.084262  9555 net.cpp:84] Creating Layer res5b_branch2b_relu
I0426 18:15:29.084269  9555 net.cpp:406] res5b_branch2b_relu <- res5b_branch2b
I0426 18:15:29.084280  9555 net.cpp:367] res5b_branch2b_relu -> res5b_branch2b (in-place)
I0426 18:15:29.084558  9555 net.cpp:122] Setting up res5b_branch2b_relu
I0426 18:15:29.084568  9555 net.cpp:129] Top shape: 1 512 5 8 (20480)
I0426 18:15:29.084573  9555 net.cpp:137] Memory required for data: 173391052
I0426 18:15:29.084579  9555 layer_factory.hpp:77] Creating layer res5b_branch2c
I0426 18:15:29.084595  9555 net.cpp:84] Creating Layer res5b_branch2c
I0426 18:15:29.084602  9555 net.cpp:406] res5b_branch2c <- res5b_branch2b
I0426 18:15:29.084614  9555 net.cpp:380] res5b_branch2c -> res5b_branch2c
I0426 18:15:29.106346  9555 net.cpp:122] Setting up res5b_branch2c
I0426 18:15:29.106423  9555 net.cpp:129] Top shape: 1 2048 5 8 (81920)
I0426 18:15:29.106431  9555 net.cpp:137] Memory required for data: 173718732
I0426 18:15:29.106451  9555 layer_factory.hpp:77] Creating layer bn5b_branch2c
I0426 18:15:29.106472  9555 net.cpp:84] Creating Layer bn5b_branch2c
I0426 18:15:29.106483  9555 net.cpp:406] bn5b_branch2c <- res5b_branch2c
I0426 18:15:29.106500  9555 net.cpp:367] bn5b_branch2c -> res5b_branch2c (in-place)
I0426 18:15:29.106993  9555 net.cpp:122] Setting up bn5b_branch2c
I0426 18:15:29.107002  9555 net.cpp:129] Top shape: 1 2048 5 8 (81920)
I0426 18:15:29.107007  9555 net.cpp:137] Memory required for data: 174046412
I0426 18:15:29.107018  9555 layer_factory.hpp:77] Creating layer scale5b_branch2c
I0426 18:15:29.107029  9555 net.cpp:84] Creating Layer scale5b_branch2c
I0426 18:15:29.107035  9555 net.cpp:406] scale5b_branch2c <- res5b_branch2c
I0426 18:15:29.107043  9555 net.cpp:367] scale5b_branch2c -> res5b_branch2c (in-place)
I0426 18:15:29.107116  9555 layer_factory.hpp:77] Creating layer scale5b_branch2c
I0426 18:15:29.107354  9555 net.cpp:122] Setting up scale5b_branch2c
I0426 18:15:29.107362  9555 net.cpp:129] Top shape: 1 2048 5 8 (81920)
I0426 18:15:29.107367  9555 net.cpp:137] Memory required for data: 174374092
I0426 18:15:29.107376  9555 layer_factory.hpp:77] Creating layer res5b
I0426 18:15:29.107389  9555 net.cpp:84] Creating Layer res5b
I0426 18:15:29.107395  9555 net.cpp:406] res5b <- res5a_res5a_relu_0_split_1
I0426 18:15:29.107403  9555 net.cpp:406] res5b <- res5b_branch2c
I0426 18:15:29.107410  9555 net.cpp:380] res5b -> res5b
I0426 18:15:29.107455  9555 net.cpp:122] Setting up res5b
I0426 18:15:29.107462  9555 net.cpp:129] Top shape: 1 2048 5 8 (81920)
I0426 18:15:29.107467  9555 net.cpp:137] Memory required for data: 174701772
I0426 18:15:29.107473  9555 layer_factory.hpp:77] Creating layer res5b_relu
I0426 18:15:29.107482  9555 net.cpp:84] Creating Layer res5b_relu
I0426 18:15:29.107488  9555 net.cpp:406] res5b_relu <- res5b
I0426 18:15:29.107498  9555 net.cpp:367] res5b_relu -> res5b (in-place)
I0426 18:15:29.108541  9555 net.cpp:122] Setting up res5b_relu
I0426 18:15:29.108556  9555 net.cpp:129] Top shape: 1 2048 5 8 (81920)
I0426 18:15:29.108561  9555 net.cpp:137] Memory required for data: 175029452
I0426 18:15:29.108566  9555 layer_factory.hpp:77] Creating layer res5b_res5b_relu_0_split
I0426 18:15:29.108577  9555 net.cpp:84] Creating Layer res5b_res5b_relu_0_split
I0426 18:15:29.108582  9555 net.cpp:406] res5b_res5b_relu_0_split <- res5b
I0426 18:15:29.108595  9555 net.cpp:380] res5b_res5b_relu_0_split -> res5b_res5b_relu_0_split_0
I0426 18:15:29.108605  9555 net.cpp:380] res5b_res5b_relu_0_split -> res5b_res5b_relu_0_split_1
I0426 18:15:29.108678  9555 net.cpp:122] Setting up res5b_res5b_relu_0_split
I0426 18:15:29.108686  9555 net.cpp:129] Top shape: 1 2048 5 8 (81920)
I0426 18:15:29.108693  9555 net.cpp:129] Top shape: 1 2048 5 8 (81920)
I0426 18:15:29.108700  9555 net.cpp:137] Memory required for data: 175684812
I0426 18:15:29.108705  9555 layer_factory.hpp:77] Creating layer res5c_branch2a
I0426 18:15:29.108721  9555 net.cpp:84] Creating Layer res5c_branch2a
I0426 18:15:29.108726  9555 net.cpp:406] res5c_branch2a <- res5b_res5b_relu_0_split_0
I0426 18:15:29.108734  9555 net.cpp:380] res5c_branch2a -> res5c_branch2a
I0426 18:15:29.129220  9555 net.cpp:122] Setting up res5c_branch2a
I0426 18:15:29.129293  9555 net.cpp:129] Top shape: 1 512 5 8 (20480)
I0426 18:15:29.129300  9555 net.cpp:137] Memory required for data: 175766732
I0426 18:15:29.129319  9555 layer_factory.hpp:77] Creating layer bn5c_branch2a
I0426 18:15:29.129338  9555 net.cpp:84] Creating Layer bn5c_branch2a
I0426 18:15:29.129349  9555 net.cpp:406] bn5c_branch2a <- res5c_branch2a
I0426 18:15:29.129365  9555 net.cpp:367] bn5c_branch2a -> res5c_branch2a (in-place)
I0426 18:15:29.129823  9555 net.cpp:122] Setting up bn5c_branch2a
I0426 18:15:29.129832  9555 net.cpp:129] Top shape: 1 512 5 8 (20480)
I0426 18:15:29.129837  9555 net.cpp:137] Memory required for data: 175848652
I0426 18:15:29.129849  9555 layer_factory.hpp:77] Creating layer scale5c_branch2a
I0426 18:15:29.129859  9555 net.cpp:84] Creating Layer scale5c_branch2a
I0426 18:15:29.129865  9555 net.cpp:406] scale5c_branch2a <- res5c_branch2a
I0426 18:15:29.129873  9555 net.cpp:367] scale5c_branch2a -> res5c_branch2a (in-place)
I0426 18:15:29.129942  9555 layer_factory.hpp:77] Creating layer scale5c_branch2a
I0426 18:15:29.130183  9555 net.cpp:122] Setting up scale5c_branch2a
I0426 18:15:29.130224  9555 net.cpp:129] Top shape: 1 512 5 8 (20480)
I0426 18:15:29.130230  9555 net.cpp:137] Memory required for data: 175930572
I0426 18:15:29.130239  9555 layer_factory.hpp:77] Creating layer res5c_branch2a_relu
I0426 18:15:29.130249  9555 net.cpp:84] Creating Layer res5c_branch2a_relu
I0426 18:15:29.130254  9555 net.cpp:406] res5c_branch2a_relu <- res5c_branch2a
I0426 18:15:29.130264  9555 net.cpp:367] res5c_branch2a_relu -> res5c_branch2a (in-place)
I0426 18:15:29.131678  9555 net.cpp:122] Setting up res5c_branch2a_relu
I0426 18:15:29.131693  9555 net.cpp:129] Top shape: 1 512 5 8 (20480)
I0426 18:15:29.131698  9555 net.cpp:137] Memory required for data: 176012492
I0426 18:15:29.131705  9555 layer_factory.hpp:77] Creating layer res5c_branch2b
I0426 18:15:29.131741  9555 net.cpp:84] Creating Layer res5c_branch2b
I0426 18:15:29.131748  9555 net.cpp:406] res5c_branch2b <- res5c_branch2a
I0426 18:15:29.131757  9555 net.cpp:380] res5c_branch2b -> res5c_branch2b
I0426 18:15:29.175182  9555 net.cpp:122] Setting up res5c_branch2b
I0426 18:15:29.175252  9555 net.cpp:129] Top shape: 1 512 5 8 (20480)
I0426 18:15:29.175259  9555 net.cpp:137] Memory required for data: 176094412
I0426 18:15:29.175278  9555 layer_factory.hpp:77] Creating layer bn5c_branch2b
I0426 18:15:29.175300  9555 net.cpp:84] Creating Layer bn5c_branch2b
I0426 18:15:29.175312  9555 net.cpp:406] bn5c_branch2b <- res5c_branch2b
I0426 18:15:29.175328  9555 net.cpp:367] bn5c_branch2b -> res5c_branch2b (in-place)
I0426 18:15:29.175801  9555 net.cpp:122] Setting up bn5c_branch2b
I0426 18:15:29.175812  9555 net.cpp:129] Top shape: 1 512 5 8 (20480)
I0426 18:15:29.175817  9555 net.cpp:137] Memory required for data: 176176332
I0426 18:15:29.175829  9555 layer_factory.hpp:77] Creating layer scale5c_branch2b
I0426 18:15:29.175840  9555 net.cpp:84] Creating Layer scale5c_branch2b
I0426 18:15:29.175846  9555 net.cpp:406] scale5c_branch2b <- res5c_branch2b
I0426 18:15:29.175858  9555 net.cpp:367] scale5c_branch2b -> res5c_branch2b (in-place)
I0426 18:15:29.175925  9555 layer_factory.hpp:77] Creating layer scale5c_branch2b
I0426 18:15:29.176159  9555 net.cpp:122] Setting up scale5c_branch2b
I0426 18:15:29.176167  9555 net.cpp:129] Top shape: 1 512 5 8 (20480)
I0426 18:15:29.176172  9555 net.cpp:137] Memory required for data: 176258252
I0426 18:15:29.176182  9555 layer_factory.hpp:77] Creating layer res5c_branch2b_relu
I0426 18:15:29.176192  9555 net.cpp:84] Creating Layer res5c_branch2b_relu
I0426 18:15:29.176198  9555 net.cpp:406] res5c_branch2b_relu <- res5c_branch2b
I0426 18:15:29.176204  9555 net.cpp:367] res5c_branch2b_relu -> res5c_branch2b (in-place)
I0426 18:15:29.176479  9555 net.cpp:122] Setting up res5c_branch2b_relu
I0426 18:15:29.176489  9555 net.cpp:129] Top shape: 1 512 5 8 (20480)
I0426 18:15:29.176494  9555 net.cpp:137] Memory required for data: 176340172
I0426 18:15:29.176501  9555 layer_factory.hpp:77] Creating layer res5c_branch2c
I0426 18:15:29.176515  9555 net.cpp:84] Creating Layer res5c_branch2c
I0426 18:15:29.176522  9555 net.cpp:406] res5c_branch2c <- res5c_branch2b
I0426 18:15:29.176530  9555 net.cpp:380] res5c_branch2c -> res5c_branch2c
I0426 18:15:29.196991  9555 net.cpp:122] Setting up res5c_branch2c
I0426 18:15:29.197053  9555 net.cpp:129] Top shape: 1 2048 5 8 (81920)
I0426 18:15:29.197060  9555 net.cpp:137] Memory required for data: 176667852
I0426 18:15:29.197077  9555 layer_factory.hpp:77] Creating layer bn5c_branch2c
I0426 18:15:29.197093  9555 net.cpp:84] Creating Layer bn5c_branch2c
I0426 18:15:29.197103  9555 net.cpp:406] bn5c_branch2c <- res5c_branch2c
I0426 18:15:29.197118  9555 net.cpp:367] bn5c_branch2c -> res5c_branch2c (in-place)
I0426 18:15:29.197568  9555 net.cpp:122] Setting up bn5c_branch2c
I0426 18:15:29.197577  9555 net.cpp:129] Top shape: 1 2048 5 8 (81920)
I0426 18:15:29.197583  9555 net.cpp:137] Memory required for data: 176995532
I0426 18:15:29.197593  9555 layer_factory.hpp:77] Creating layer scale5c_branch2c
I0426 18:15:29.197604  9555 net.cpp:84] Creating Layer scale5c_branch2c
I0426 18:15:29.197626  9555 net.cpp:406] scale5c_branch2c <- res5c_branch2c
I0426 18:15:29.197650  9555 net.cpp:367] scale5c_branch2c -> res5c_branch2c (in-place)
I0426 18:15:29.197722  9555 layer_factory.hpp:77] Creating layer scale5c_branch2c
I0426 18:15:29.199877  9555 net.cpp:122] Setting up scale5c_branch2c
I0426 18:15:29.199920  9555 net.cpp:129] Top shape: 1 2048 5 8 (81920)
I0426 18:15:29.199926  9555 net.cpp:137] Memory required for data: 177323212
I0426 18:15:29.199944  9555 layer_factory.hpp:77] Creating layer res5c
I0426 18:15:29.199959  9555 net.cpp:84] Creating Layer res5c
I0426 18:15:29.199967  9555 net.cpp:406] res5c <- res5b_res5b_relu_0_split_1
I0426 18:15:29.199977  9555 net.cpp:406] res5c <- res5c_branch2c
I0426 18:15:29.199987  9555 net.cpp:380] res5c -> res5c
I0426 18:15:29.200033  9555 net.cpp:122] Setting up res5c
I0426 18:15:29.200045  9555 net.cpp:129] Top shape: 1 2048 5 8 (81920)
I0426 18:15:29.200050  9555 net.cpp:137] Memory required for data: 177650892
I0426 18:15:29.200057  9555 layer_factory.hpp:77] Creating layer res5c_relu
I0426 18:15:29.200065  9555 net.cpp:84] Creating Layer res5c_relu
I0426 18:15:29.200072  9555 net.cpp:406] res5c_relu <- res5c
I0426 18:15:29.200079  9555 net.cpp:367] res5c_relu -> res5c (in-place)
I0426 18:15:29.200489  9555 net.cpp:122] Setting up res5c_relu
I0426 18:15:29.200500  9555 net.cpp:129] Top shape: 1 2048 5 8 (81920)
I0426 18:15:29.200506  9555 net.cpp:137] Memory required for data: 177978572
I0426 18:15:29.200512  9555 layer_factory.hpp:77] Creating layer fc2
I0426 18:15:29.200525  9555 net.cpp:84] Creating Layer fc2
I0426 18:15:29.200531  9555 net.cpp:406] fc2 <- res5c
I0426 18:15:29.200543  9555 net.cpp:380] fc2 -> fc2
I0426 18:15:29.202163  9555 net.cpp:122] Setting up fc2
I0426 18:15:29.202172  9555 net.cpp:129] Top shape: 1 2 (2)
I0426 18:15:29.202178  9555 net.cpp:137] Memory required for data: 177978580
I0426 18:15:29.202188  9555 layer_factory.hpp:77] Creating layer fc2_fc2_0_split
I0426 18:15:29.202198  9555 net.cpp:84] Creating Layer fc2_fc2_0_split
I0426 18:15:29.202203  9555 net.cpp:406] fc2_fc2_0_split <- fc2
I0426 18:15:29.202215  9555 net.cpp:380] fc2_fc2_0_split -> fc2_fc2_0_split_0
I0426 18:15:29.202224  9555 net.cpp:380] fc2_fc2_0_split -> fc2_fc2_0_split_1
I0426 18:15:29.202272  9555 net.cpp:122] Setting up fc2_fc2_0_split
I0426 18:15:29.202280  9555 net.cpp:129] Top shape: 1 2 (2)
I0426 18:15:29.202286  9555 net.cpp:129] Top shape: 1 2 (2)
I0426 18:15:29.202291  9555 net.cpp:137] Memory required for data: 177978596
I0426 18:15:29.202297  9555 layer_factory.hpp:77] Creating layer accuracy
I0426 18:15:29.202308  9555 net.cpp:84] Creating Layer accuracy
I0426 18:15:29.202314  9555 net.cpp:406] accuracy <- fc2_fc2_0_split_0
I0426 18:15:29.202322  9555 net.cpp:406] accuracy <- label_data_1_split_0
I0426 18:15:29.202333  9555 net.cpp:380] accuracy -> accuracy
…
