…
I0321 18:28:39.377197  8892 net.cpp:296] The NetState phase (0) differed from the phase (1) specified by a rule in layer accuracy
I0321 18:28:39.377310  8892 net.cpp:53] Initializing net from parameters: 
name: "MCaffeNet"
state {
  phase: TRAIN
  level: 0
  stage: ""
}
layer {
  name: "data_msc"
  type: "ImageData"
  top: "data_msc"
  top: "label_msc"
  include {
    phase: TRAIN
  }
  transform_param {
    mean_value: 296
    mean_value: 103
    mean_value: 108
  }
  image_data_param {
    source: "/media/p307k07/ssd/opt/msc/data/train/list_caffe.txt"
    batch_size: 50
    new_height: 159
    new_width: 240
  }
}
layer {
  name: "conv1"
  type: "Convolution"
  bottom: "data_msc"
  top: "conv1"
  param {
    lr_mult: 0.01
    decay_mult: 0.01
  }
  param {
    lr_mult: 0.02
    decay_mult: 0
  }
  convolution_param {
    num_output: 96
    kernel_size: 11
    stride: 4
    weight_filler {
      type: "gaussian"
      std: 0.01
    }
    bias_filler {
      type: "constant"
      value: 0
    }
  }
}
layer {
  name: "relu1"
  type: "ReLU"
  bottom: "conv1"
  top: "conv1"
}
layer {
  name: "pool1"
  type: "Pooling"
  bottom: "conv1"
  top: "pool1"
  pooling_param {
    pool: MAX
    kernel_size: 3
    stride: 2
  }
}
layer {
  name: "norm1"
  type: "LRN"
  bottom: "pool1"
  top: "norm1"
  lrn_param {
    local_size: 5
    alpha: 0.0001
    beta: 0.75
  }
}
layer {
  name: "conv2"
  type: "Convolution"
  bottom: "norm1"
  top: "conv2"
  param {
    lr_mult: 0.01
    decay_mult: 0.01
  }
  param {
    lr_mult: 0.02
    decay_mult: 0
  }
  convolution_param {
    num_output: 256
    pad: 2
    kernel_size: 5
    group: 2
    weight_filler {
      type: "gaussian"
      std: 0.01
    }
    bias_filler {
      type: "constant"
      value: 1
    }
  }
}
layer {
  name: "relu2"
  type: "ReLU"
  bottom: "conv2"
  top: "conv2"
}
layer {
  name: "pool2"
  type: "Pooling"
  bottom: "conv2"
  top: "pool2"
  pooling_param {
    pool: MAX
    kernel_size: 3
    stride: 2
  }
}
layer {
  name: "norm2"
  type: "LRN"
  bottom: "pool2"
  top: "norm2"
  lrn_param {
    local_size: 5
    alpha: 0.0001
    beta: 0.75
  }
}
layer {
  name: "conv3"
  type: "Convolution"
  bottom: "norm2"
  top: "conv3"
  param {
    lr_mult: 0.01
    decay_mult: 0.01
  }
  param {
    lr_mult: 0.02
    decay_mult: 0
  }
  convolution_param {
    num_output: 384
    pad: 1
    kernel_size: 3
    weight_filler {
      type: "gaussian"
      std: 0.01
    }
    bias_filler {
      type: "constant"
      value: 0
    }
  }
}
layer {
  name: "relu3"
  type: "ReLU"
  bottom: "conv3"
  top: "conv3"
}
layer {
  name: "conv4"
  type: "Convolution"
  bottom: "conv3"
  top: "conv4"
  param {
    lr_mult: 0.01
    decay_mult: 0.01
  }
  param {
    lr_mult: 0.02
    decay_mult: 0
  }
  convolution_param {
    num_output: 384
    pad: 1
    kernel_size: 3
    group: 2
    weight_filler {
      type: "gaussian"
      std: 0.01
    }
    bias_filler {
      type: "constant"
      value: 1
    }
  }
}
layer {
  name: "relu4"
  type: "ReLU"
  bottom: "conv4"
  top: "conv4"
}
layer {
  name: "conv5"
  type: "Convolution"
  bottom: "conv4"
  top: "conv5"
  param {
    lr_mult: 0.01
    decay_mult: 0.01
  }
  param {
    lr_mult: 0.02
    decay_mult: 0
  }
  convolution_param {
    num_output: 256
    pad: 1
    kernel_size: 3
    group: 2
    weight_filler {
      type: "gaussian"
      std: 0.01
    }
    bias_filler {
      type: "constant"
      value: 1
    }
  }
}
layer {
  name: "relu5"
  type: "ReLU"
  bottom: "conv5"
  top: "conv5"
}
layer {
  name: "pool5"
  type: "Pooling"
  bottom: "conv5"
  top: "pool5"
  pooling_param {
    pool: MAX
    kernel_size: 3
    stride: 2
  }
}
layer {
  name: "fc6_msc"
  type: "InnerProduct"
  bottom: "pool5"
  top: "fc6_msc"
  param {
    lr_mult: 1
    decay_mult: 1
  }
  param {
    lr_mult: 2
    decay_mult: 0
  }
  inner_product_param {
    num_output: 4096
    weight_filler {
      type: "gaussian"
      std: 0.005
    }
    bias_filler {
      type: "constant"
      value: 1
    }
  }
}
layer {
  name: "relu6"
  type: "ReLU"
  bottom: "fc6_msc"
  top: "fc6_msc"
}
layer {
  name: "drop6"
  type: "Dropout"
  bottom: "fc6_msc"
  top: "fc6_msc"
  dropout_param {
    dropout_ratio: 0.5
  }
}
layer {
  name: "fc7_msc"
  type: "InnerProduct"
  bottom: "fc6_msc"
  top: "fc7_msc"
  param {
    lr_mult: 1
    decay_mult: 1
  }
  param {
    lr_mult: 2
    decay_mult: 0
  }
  inner_product_param {
    num_output: 4096
    weight_filler {
      type: "gaussian"
      std: 0.005
    }
    bias_filler {
      type: "constant"
      value: 1
    }
  }
}
layer {
  name: "relu7"
  type: "ReLU"
  bottom: "fc7_msc"
  top: "fc7_msc"
}
layer {
  name: "drop7"
  type: "Dropout"
  bottom: "fc7_msc"
  top: "fc7_msc"
  dropout_param {
    dropout_ratio: 0.5
  }
}
layer {
  name: "fc8_msc"
  type: "InnerProduct"
  bottom: "fc7_msc"
  top: "fc8_msc"
  param {
    lr_mult: 1
    decay_mult: 1
  }
  param {
    lr_mult: 2
    decay_mult: 0
  }
  inner_product_param {
    num_output: 2
    weight_filler {
      type: "gaussian"
      std: 0.01
    }
    bias_filler {
      type: "constant"
      value: 0
    }
  }
}
layer {
  name: "loss_msc"
  type: "SoftmaxWithLoss"
  bottom: "fc8_msc"
  bottom: "label_msc"
  top: "loss"
}
I0321 18:28:39.377380  8892 layer_factory.hpp:77] Creating layer data_msc
I0321 18:28:39.377401  8892 net.cpp:86] Creating Layer data_msc
I0321 18:28:39.377406  8892 net.cpp:382] data_msc -> data_msc
I0321 18:28:39.377421  8892 net.cpp:382] data_msc -> label_msc
I0321 18:28:39.377431  8892 image_data_layer.cpp:38] Opening file /media/p307k07/ssd/opt/msc/data/train/list_caffe.txt
I0321 18:28:39.523008  8892 image_data_layer.cpp:63] A total of 513382 images.
I0321 18:28:39.525017  8892 image_data_layer.cpp:90] output data size: 50,3,159,240
I0321 18:28:39.552237  8892 net.cpp:124] Setting up data_msc
I0321 18:28:39.552263  8892 net.cpp:131] Top shape: 50 3 159 240 (5724000)
I0321 18:28:39.552268  8892 net.cpp:131] Top shape: 50 (50)
I0321 18:28:39.552270  8892 net.cpp:139] Memory required for data: 22896200
I0321 18:28:39.552278  8892 layer_factory.hpp:77] Creating layer conv1
I0321 18:28:39.552294  8892 net.cpp:86] Creating Layer conv1
I0321 18:28:39.552299  8892 net.cpp:408] conv1 <- data_msc
I0321 18:28:39.552309  8892 net.cpp:382] conv1 -> conv1
I0321 18:28:39.668910  8892 net.cpp:124] Setting up conv1
I0321 18:28:39.668933  8892 net.cpp:131] Top shape: 50 96 38 58 (10579200)
I0321 18:28:39.668936  8892 net.cpp:139] Memory required for data: 65213000
I0321 18:28:39.668952  8892 layer_factory.hpp:77] Creating layer relu1
I0321 18:28:39.668963  8892 net.cpp:86] Creating Layer relu1
I0321 18:28:39.668967  8892 net.cpp:408] relu1 <- conv1
I0321 18:28:39.668970  8892 net.cpp:369] relu1 -> conv1 (in-place)
I0321 18:28:39.669245  8892 net.cpp:124] Setting up relu1
I0321 18:28:39.669252  8892 net.cpp:131] Top shape: 50 96 38 58 (10579200)
I0321 18:28:39.669255  8892 net.cpp:139] Memory required for data: 107529800
I0321 18:28:39.669257  8892 layer_factory.hpp:77] Creating layer pool1
I0321 18:28:39.669263  8892 net.cpp:86] Creating Layer pool1
I0321 18:28:39.669265  8892 net.cpp:408] pool1 <- conv1
I0321 18:28:39.669270  8892 net.cpp:382] pool1 -> pool1
I0321 18:28:39.669306  8892 net.cpp:124] Setting up pool1
I0321 18:28:39.669309  8892 net.cpp:131] Top shape: 50 96 19 29 (2644800)
I0321 18:28:39.669317  8892 net.cpp:139] Memory required for data: 118109000
I0321 18:28:39.669328  8892 layer_factory.hpp:77] Creating layer norm1
I0321 18:28:39.669347  8892 net.cpp:86] Creating Layer norm1
I0321 18:28:39.669349  8892 net.cpp:408] norm1 <- pool1
I0321 18:28:39.669353  8892 net.cpp:382] norm1 -> norm1
I0321 18:28:39.669497  8892 net.cpp:124] Setting up norm1
I0321 18:28:39.669504  8892 net.cpp:131] Top shape: 50 96 19 29 (2644800)
I0321 18:28:39.669507  8892 net.cpp:139] Memory required for data: 128688200
I0321 18:28:39.669508  8892 layer_factory.hpp:77] Creating layer conv2
I0321 18:28:39.669517  8892 net.cpp:86] Creating Layer conv2
I0321 18:28:39.669519  8892 net.cpp:408] conv2 <- norm1
I0321 18:28:39.669523  8892 net.cpp:382] conv2 -> conv2
I0321 18:28:39.673629  8892 net.cpp:124] Setting up conv2
I0321 18:28:39.673638  8892 net.cpp:131] Top shape: 50 256 19 29 (7052800)
I0321 18:28:39.673641  8892 net.cpp:139] Memory required for data: 156899400
I0321 18:28:39.673647  8892 layer_factory.hpp:77] Creating layer relu2
I0321 18:28:39.673651  8892 net.cpp:86] Creating Layer relu2
I0321 18:28:39.673655  8892 net.cpp:408] relu2 <- conv2
I0321 18:28:39.673660  8892 net.cpp:369] relu2 -> conv2 (in-place)
I0321 18:28:39.673776  8892 net.cpp:124] Setting up relu2
I0321 18:28:39.673782  8892 net.cpp:131] Top shape: 50 256 19 29 (7052800)
I0321 18:28:39.673784  8892 net.cpp:139] Memory required for data: 185110600
I0321 18:28:39.673786  8892 layer_factory.hpp:77] Creating layer pool2
I0321 18:28:39.673791  8892 net.cpp:86] Creating Layer pool2
I0321 18:28:39.673794  8892 net.cpp:408] pool2 <- conv2
I0321 18:28:39.673796  8892 net.cpp:382] pool2 -> pool2
I0321 18:28:39.673823  8892 net.cpp:124] Setting up pool2
I0321 18:28:39.673827  8892 net.cpp:131] Top shape: 50 256 9 14 (1612800)
I0321 18:28:39.673830  8892 net.cpp:139] Memory required for data: 191561800
I0321 18:28:39.673831  8892 layer_factory.hpp:77] Creating layer norm2
I0321 18:28:39.673836  8892 net.cpp:86] Creating Layer norm2
I0321 18:28:39.673840  8892 net.cpp:408] norm2 <- pool2
I0321 18:28:39.673842  8892 net.cpp:382] norm2 -> norm2
I0321 18:28:39.674118  8892 net.cpp:124] Setting up norm2
I0321 18:28:39.674126  8892 net.cpp:131] Top shape: 50 256 9 14 (1612800)
I0321 18:28:39.674129  8892 net.cpp:139] Memory required for data: 198013000
I0321 18:28:39.674130  8892 layer_factory.hpp:77] Creating layer conv3
I0321 18:28:39.674137  8892 net.cpp:86] Creating Layer conv3
I0321 18:28:39.674140  8892 net.cpp:408] conv3 <- norm2
I0321 18:28:39.674145  8892 net.cpp:382] conv3 -> conv3
I0321 18:28:39.682155  8892 net.cpp:124] Setting up conv3
I0321 18:28:39.682175  8892 net.cpp:131] Top shape: 50 384 9 14 (2419200)
I0321 18:28:39.682178  8892 net.cpp:139] Memory required for data: 207689800
I0321 18:28:39.682186  8892 layer_factory.hpp:77] Creating layer relu3
I0321 18:28:39.682193  8892 net.cpp:86] Creating Layer relu3
I0321 18:28:39.682195  8892 net.cpp:408] relu3 <- conv3
I0321 18:28:39.682200  8892 net.cpp:369] relu3 -> conv3 (in-place)
I0321 18:28:39.682317  8892 net.cpp:124] Setting up relu3
I0321 18:28:39.682322  8892 net.cpp:131] Top shape: 50 384 9 14 (2419200)
I0321 18:28:39.682324  8892 net.cpp:139] Memory required for data: 217366600
I0321 18:28:39.682327  8892 layer_factory.hpp:77] Creating layer conv4
I0321 18:28:39.682334  8892 net.cpp:86] Creating Layer conv4
I0321 18:28:39.682337  8892 net.cpp:408] conv4 <- conv3
I0321 18:28:39.682341  8892 net.cpp:382] conv4 -> conv4
I0321 18:28:39.688980  8892 net.cpp:124] Setting up conv4
I0321 18:28:39.688992  8892 net.cpp:131] Top shape: 50 384 9 14 (2419200)
I0321 18:28:39.688994  8892 net.cpp:139] Memory required for data: 227043400
I0321 18:28:39.688999  8892 layer_factory.hpp:77] Creating layer relu4
I0321 18:28:39.689005  8892 net.cpp:86] Creating Layer relu4
I0321 18:28:39.689007  8892 net.cpp:408] relu4 <- conv4
I0321 18:28:39.689012  8892 net.cpp:369] relu4 -> conv4 (in-place)
I0321 18:28:39.689126  8892 net.cpp:124] Setting up relu4
I0321 18:28:39.689131  8892 net.cpp:131] Top shape: 50 384 9 14 (2419200)
I0321 18:28:39.689139  8892 net.cpp:139] Memory required for data: 236720200
I0321 18:28:39.689152  8892 layer_factory.hpp:77] Creating layer conv5
I0321 18:28:39.689169  8892 net.cpp:86] Creating Layer conv5
I0321 18:28:39.689172  8892 net.cpp:408] conv5 <- conv4
I0321 18:28:39.689177  8892 net.cpp:382] conv5 -> conv5
I0321 18:28:39.694315  8892 net.cpp:124] Setting up conv5
I0321 18:28:39.694326  8892 net.cpp:131] Top shape: 50 256 9 14 (1612800)
I0321 18:28:39.694329  8892 net.cpp:139] Memory required for data: 243171400
I0321 18:28:39.694337  8892 layer_factory.hpp:77] Creating layer relu5
I0321 18:28:39.694341  8892 net.cpp:86] Creating Layer relu5
I0321 18:28:39.694344  8892 net.cpp:408] relu5 <- conv5
I0321 18:28:39.694347  8892 net.cpp:369] relu5 -> conv5 (in-place)
I0321 18:28:39.694458  8892 net.cpp:124] Setting up relu5
I0321 18:28:39.694466  8892 net.cpp:131] Top shape: 50 256 9 14 (1612800)
I0321 18:28:39.694468  8892 net.cpp:139] Memory required for data: 249622600
I0321 18:28:39.694471  8892 layer_factory.hpp:77] Creating layer pool5
I0321 18:28:39.694475  8892 net.cpp:86] Creating Layer pool5
I0321 18:28:39.694478  8892 net.cpp:408] pool5 <- conv5
I0321 18:28:39.694480  8892 net.cpp:382] pool5 -> pool5
I0321 18:28:39.694510  8892 net.cpp:124] Setting up pool5
I0321 18:28:39.694515  8892 net.cpp:131] Top shape: 50 256 4 7 (358400)
I0321 18:28:39.694517  8892 net.cpp:139] Memory required for data: 251056200
I0321 18:28:39.694519  8892 layer_factory.hpp:77] Creating layer fc6_msc
I0321 18:28:39.694526  8892 net.cpp:86] Creating Layer fc6_msc
I0321 18:28:39.694528  8892 net.cpp:408] fc6_msc <- pool5
I0321 18:28:39.694532  8892 net.cpp:382] fc6_msc -> fc6_msc
I0321 18:28:39.924226  8892 net.cpp:124] Setting up fc6_msc
I0321 18:28:39.924252  8892 net.cpp:131] Top shape: 50 4096 (204800)
I0321 18:28:39.924254  8892 net.cpp:139] Memory required for data: 251875400
I0321 18:28:39.924263  8892 layer_factory.hpp:77] Creating layer relu6
I0321 18:28:39.924270  8892 net.cpp:86] Creating Layer relu6
I0321 18:28:39.924273  8892 net.cpp:408] relu6 <- fc6_msc
I0321 18:28:39.924278  8892 net.cpp:369] relu6 -> fc6_msc (in-place)
I0321 18:28:39.924645  8892 net.cpp:124] Setting up relu6
I0321 18:28:39.924654  8892 net.cpp:131] Top shape: 50 4096 (204800)
I0321 18:28:39.924655  8892 net.cpp:139] Memory required for data: 252694600
I0321 18:28:39.924659  8892 layer_factory.hpp:77] Creating layer drop6
I0321 18:28:39.924664  8892 net.cpp:86] Creating Layer drop6
I0321 18:28:39.924666  8892 net.cpp:408] drop6 <- fc6_msc
I0321 18:28:39.924669  8892 net.cpp:369] drop6 -> fc6_msc (in-place)
I0321 18:28:39.924692  8892 net.cpp:124] Setting up drop6
I0321 18:28:39.924695  8892 net.cpp:131] Top shape: 50 4096 (204800)
I0321 18:28:39.924697  8892 net.cpp:139] Memory required for data: 253513800
I0321 18:28:39.924700  8892 layer_factory.hpp:77] Creating layer fc7_msc
I0321 18:28:39.924705  8892 net.cpp:86] Creating Layer fc7_msc
I0321 18:28:39.924707  8892 net.cpp:408] fc7_msc <- fc6_msc
I0321 18:28:39.924711  8892 net.cpp:382] fc7_msc -> fc7_msc
I0321 18:28:40.054116  8892 net.cpp:124] Setting up fc7_msc
I0321 18:28:40.054142  8892 net.cpp:131] Top shape: 50 4096 (204800)
I0321 18:28:40.054146  8892 net.cpp:139] Memory required for data: 254333000
I0321 18:28:40.054152  8892 layer_factory.hpp:77] Creating layer relu7
I0321 18:28:40.054158  8892 net.cpp:86] Creating Layer relu7
I0321 18:28:40.054162  8892 net.cpp:408] relu7 <- fc7_msc
I0321 18:28:40.054167  8892 net.cpp:369] relu7 -> fc7_msc (in-place)
I0321 18:28:40.054535  8892 net.cpp:124] Setting up relu7
I0321 18:28:40.054543  8892 net.cpp:131] Top shape: 50 4096 (204800)
I0321 18:28:40.054545  8892 net.cpp:139] Memory required for data: 255152200
I0321 18:28:40.054548  8892 layer_factory.hpp:77] Creating layer drop7
I0321 18:28:40.054553  8892 net.cpp:86] Creating Layer drop7
I0321 18:28:40.054554  8892 net.cpp:408] drop7 <- fc7_msc
I0321 18:28:40.054559  8892 net.cpp:369] drop7 -> fc7_msc (in-place)
I0321 18:28:40.054579  8892 net.cpp:124] Setting up drop7
I0321 18:28:40.054589  8892 net.cpp:131] Top shape: 50 4096 (204800)
I0321 18:28:40.054601  8892 net.cpp:139] Memory required for data: 255971400
I0321 18:28:40.054603  8892 layer_factory.hpp:77] Creating layer fc8_msc
I0321 18:28:40.054610  8892 net.cpp:86] Creating Layer fc8_msc
I0321 18:28:40.054611  8892 net.cpp:408] fc8_msc <- fc7_msc
I0321 18:28:40.054615  8892 net.cpp:382] fc8_msc -> fc8_msc
I0321 18:28:40.055014  8892 net.cpp:124] Setting up fc8_msc
I0321 18:28:40.055022  8892 net.cpp:131] Top shape: 50 2 (100)
I0321 18:28:40.055023  8892 net.cpp:139] Memory required for data: 255971800
I0321 18:28:40.055027  8892 layer_factory.hpp:77] Creating layer loss_msc
I0321 18:28:40.055032  8892 net.cpp:86] Creating Layer loss_msc
I0321 18:28:40.055034  8892 net.cpp:408] loss_msc <- fc8_msc
I0321 18:28:40.055037  8892 net.cpp:408] loss_msc <- label_msc
I0321 18:28:40.055047  8892 net.cpp:382] loss_msc -> loss
…
I0321 18:28:40.055559  8892 net.cpp:296] The NetState phase (1) differed from the phase (0) specified by a rule in layer data_msc
I0321 18:28:40.055675  8892 net.cpp:53] Initializing net from parameters: 
name: "MCaffeNet"
state {
  phase: TEST
}
layer {
  name: "data_msc"
  type: "ImageData"
  top: "data_msc"
  top: "label_msc"
  include {
    phase: TEST
  }
  transform_param {
    mean_value: 296
    mean_value: 103
    mean_value: 108
  }
  image_data_param {
    source: "/media/p307k07/ssd/opt/msc/data/test/list_caffe.txt"
    batch_size: 50
    new_height: 159
    new_width: 240
  }
}
layer {
  name: "conv1"
  type: "Convolution"
  bottom: "data_msc"
  top: "conv1"
  param {
    lr_mult: 0.01
    decay_mult: 0.01
  }
  param {
    lr_mult: 0.02
    decay_mult: 0
  }
  convolution_param {
    num_output: 96
    kernel_size: 11
    stride: 4
    weight_filler {
      type: "gaussian"
      std: 0.01
    }
    bias_filler {
      type: "constant"
      value: 0
    }
  }
}
layer {
  name: "relu1"
  type: "ReLU"
  bottom: "conv1"
  top: "conv1"
}
layer {
  name: "pool1"
  type: "Pooling"
  bottom: "conv1"
  top: "pool1"
  pooling_param {
    pool: MAX
    kernel_size: 3
    stride: 2
  }
}
layer {
  name: "norm1"
  type: "LRN"
  bottom: "pool1"
  top: "norm1"
  lrn_param {
    local_size: 5
    alpha: 0.0001
    beta: 0.75
  }
}
layer {
  name: "conv2"
  type: "Convolution"
  bottom: "norm1"
  top: "conv2"
  param {
    lr_mult: 0.01
    decay_mult: 0.01
  }
  param {
    lr_mult: 0.02
    decay_mult: 0
  }
  convolution_param {
    num_output: 256
    pad: 2
    kernel_size: 5
    group: 2
    weight_filler {
      type: "gaussian"
      std: 0.01
    }
    bias_filler {
      type: "constant"
      value: 1
    }
  }
}
layer {
  name: "relu2"
  type: "ReLU"
  bottom: "conv2"
  top: "conv2"
}
layer {
  name: "pool2"
  type: "Pooling"
  bottom: "conv2"
  top: "pool2"
  pooling_param {
    pool: MAX
    kernel_size: 3
    stride: 2
  }
}
layer {
  name: "norm2"
  type: "LRN"
  bottom: "pool2"
  top: "norm2"
  lrn_param {
    local_size: 5
    alpha: 0.0001
    beta: 0.75
  }
}
layer {
  name: "conv3"
  type: "Convolution"
  bottom: "norm2"
  top: "conv3"
  param {
    lr_mult: 0.01
    decay_mult: 0.01
  }
  param {
    lr_mult: 0.02
    decay_mult: 0
  }
  convolution_param {
    num_output: 384
    pad: 1
    kernel_size: 3
    weight_filler {
      type: "gaussian"
      std: 0.01
    }
    bias_filler {
      type: "constant"
      value: 0
    }
  }
}
layer {
  name: "relu3"
  type: "ReLU"
  bottom: "conv3"
  top: "conv3"
}
layer {
  name: "conv4"
  type: "Convolution"
  bottom: "conv3"
  top: "conv4"
  param {
    lr_mult: 0.01
    decay_mult: 0.01
  }
  param {
    lr_mult: 0.02
    decay_mult: 0
  }
  convolution_param {
    num_output: 384
    pad: 1
    kernel_size: 3
    group: 2
    weight_filler {
      type: "gaussian"
      std: 0.01
    }
    bias_filler {
      type: "constant"
      value: 1
    }
  }
}
layer {
  name: "relu4"
  type: "ReLU"
  bottom: "conv4"
  top: "conv4"
}
layer {
  name: "conv5"
  type: "Convolution"
  bottom: "conv4"
  top: "conv5"
  param {
    lr_mult: 0.01
    decay_mult: 0.01
  }
  param {
    lr_mult: 0.02
    decay_mult: 0
  }
  convolution_param {
    num_output: 256
    pad: 1
    kernel_size: 3
    group: 2
    weight_filler {
      type: "gaussian"
      std: 0.01
    }
    bias_filler {
      type: "constant"
      value: 1
    }
  }
}
layer {
  name: "relu5"
  type: "ReLU"
  bottom: "conv5"
  top: "conv5"
}
layer {
  name: "pool5"
  type: "Pooling"
  bottom: "conv5"
  top: "pool5"
  pooling_param {
    pool: MAX
    kernel_size: 3
    stride: 2
  }
}
layer {
  name: "fc6_msc"
  type: "InnerProduct"
  bottom: "pool5"
  top: "fc6_msc"
  param {
    lr_mult: 1
    decay_mult: 1
  }
  param {
    lr_mult: 2
    decay_mult: 0
  }
  inner_product_param {
    num_output: 4096
    weight_filler {
      type: "gaussian"
      std: 0.005
    }
    bias_filler {
      type: "constant"
      value: 1
    }
  }
}
layer {
  name: "relu6"
  type: "ReLU"
  bottom: "fc6_msc"
  top: "fc6_msc"
}
layer {
  name: "drop6"
  type: "Dropout"
  bottom: "fc6_msc"
  top: "fc6_msc"
  dropout_param {
    dropout_ratio: 0.5
  }
}
layer {
  name: "fc7_msc"
  type: "InnerProduct"
  bottom: "fc6_msc"
  top: "fc7_msc"
  param {
    lr_mult: 1
    decay_mult: 1
  }
  param {
    lr_mult: 2
    decay_mult: 0
  }
  inner_product_param {
    num_output: 4096
    weight_filler {
      type: "gaussian"
      std: 0.005
    }
    bias_filler {
      type: "constant"
      value: 1
    }
  }
}
layer {
  name: "relu7"
  type: "ReLU"
  bottom: "fc7_msc"
  top: "fc7_msc"
}
layer {
  name: "drop7"
  type: "Dropout"
  bottom: "fc7_msc"
  top: "fc7_msc"
  dropout_param {
    dropout_ratio: 0.5
  }
}
layer {
  name: "fc8_msc"
  type: "InnerProduct"
  bottom: "fc7_msc"
  top: "fc8_msc"
  param {
    lr_mult: 1
    decay_mult: 1
  }
  param {
    lr_mult: 2
    decay_mult: 0
  }
  inner_product_param {
    num_output: 2
    weight_filler {
      type: "gaussian"
      std: 0.01
    }
    bias_filler {
      type: "constant"
      value: 0
    }
  }
}
layer {
  name: "accuracy"
  type: "Accuracy"
  bottom: "fc8_msc"
  bottom: "label_msc"
  top: "accuracy"
  include {
    phase: TEST
  }
}
layer {
  name: "loss_msc"
  type: "SoftmaxWithLoss"
  bottom: "fc8_msc"
  bottom: "label_msc"
  top: "loss"
}
I0321 18:28:40.055753  8892 layer_factory.hpp:77] Creating layer data_msc
I0321 18:28:40.055763  8892 net.cpp:86] Creating Layer data_msc
I0321 18:28:40.055768  8892 net.cpp:382] data_msc -> data_msc
I0321 18:28:40.055773  8892 net.cpp:382] data_msc -> label_msc
I0321 18:28:40.055779  8892 image_data_layer.cpp:38] Opening file /media/p307k07/ssd/opt/msc/data/test/list_caffe.txt
I0321 18:28:40.083364  8892 image_data_layer.cpp:63] A total of 85562 images.
I0321 18:28:40.084044  8892 image_data_layer.cpp:90] output data size: 50,3,159,240
I0321 18:28:40.110617  8892 net.cpp:124] Setting up data_msc
I0321 18:28:40.110643  8892 net.cpp:131] Top shape: 50 3 159 240 (5724000)
I0321 18:28:40.110648  8892 net.cpp:131] Top shape: 50 (50)
I0321 18:28:40.110651  8892 net.cpp:139] Memory required for data: 22896200
I0321 18:28:40.110656  8892 layer_factory.hpp:77] Creating layer label_msc_data_msc_1_split
I0321 18:28:40.110666  8892 net.cpp:86] Creating Layer label_msc_data_msc_1_split
I0321 18:28:40.110669  8892 net.cpp:408] label_msc_data_msc_1_split <- label_msc
I0321 18:28:40.110674  8892 net.cpp:382] label_msc_data_msc_1_split -> label_msc_data_msc_1_split_0
I0321 18:28:40.110682  8892 net.cpp:382] label_msc_data_msc_1_split -> label_msc_data_msc_1_split_1
I0321 18:28:40.110745  8892 net.cpp:124] Setting up label_msc_data_msc_1_split
I0321 18:28:40.110751  8892 net.cpp:131] Top shape: 50 (50)
I0321 18:28:40.110754  8892 net.cpp:131] Top shape: 50 (50)
I0321 18:28:40.110755  8892 net.cpp:139] Memory required for data: 22896600
I0321 18:28:40.110759  8892 layer_factory.hpp:77] Creating layer conv1
I0321 18:28:40.110769  8892 net.cpp:86] Creating Layer conv1
I0321 18:28:40.110770  8892 net.cpp:408] conv1 <- data_msc
I0321 18:28:40.110774  8892 net.cpp:382] conv1 -> conv1
I0321 18:28:40.111989  8892 net.cpp:124] Setting up conv1
I0321 18:28:40.111999  8892 net.cpp:131] Top shape: 50 96 38 58 (10579200)
I0321 18:28:40.112001  8892 net.cpp:139] Memory required for data: 65213400
I0321 18:28:40.112010  8892 layer_factory.hpp:77] Creating layer relu1
I0321 18:28:40.112015  8892 net.cpp:86] Creating Layer relu1
I0321 18:28:40.112017  8892 net.cpp:408] relu1 <- conv1
I0321 18:28:40.112020  8892 net.cpp:369] relu1 -> conv1 (in-place)
I0321 18:28:40.112133  8892 net.cpp:124] Setting up relu1
I0321 18:28:40.112138  8892 net.cpp:131] Top shape: 50 96 38 58 (10579200)
I0321 18:28:40.112140  8892 net.cpp:139] Memory required for data: 107530200
I0321 18:28:40.112143  8892 layer_factory.hpp:77] Creating layer pool1
I0321 18:28:40.112149  8892 net.cpp:86] Creating Layer pool1
I0321 18:28:40.112150  8892 net.cpp:408] pool1 <- conv1
I0321 18:28:40.112154  8892 net.cpp:382] pool1 -> pool1
I0321 18:28:40.112185  8892 net.cpp:124] Setting up pool1
I0321 18:28:40.112188  8892 net.cpp:131] Top shape: 50 96 19 29 (2644800)
I0321 18:28:40.112190  8892 net.cpp:139] Memory required for data: 118109400
I0321 18:28:40.112192  8892 layer_factory.hpp:77] Creating layer norm1
I0321 18:28:40.112197  8892 net.cpp:86] Creating Layer norm1
I0321 18:28:40.112200  8892 net.cpp:408] norm1 <- pool1
I0321 18:28:40.112202  8892 net.cpp:382] norm1 -> norm1
I0321 18:28:40.114310  8892 net.cpp:124] Setting up norm1
I0321 18:28:40.114318  8892 net.cpp:131] Top shape: 50 96 19 29 (2644800)
I0321 18:28:40.114321  8892 net.cpp:139] Memory required for data: 128688600
I0321 18:28:40.114323  8892 layer_factory.hpp:77] Creating layer conv2
I0321 18:28:40.114329  8892 net.cpp:86] Creating Layer conv2
I0321 18:28:40.114332  8892 net.cpp:408] conv2 <- norm1
I0321 18:28:40.114342  8892 net.cpp:382] conv2 -> conv2
I0321 18:28:40.118252  8892 net.cpp:124] Setting up conv2
I0321 18:28:40.118261  8892 net.cpp:131] Top shape: 50 256 19 29 (7052800)
I0321 18:28:40.118263  8892 net.cpp:139] Memory required for data: 156899800
I0321 18:28:40.118269  8892 layer_factory.hpp:77] Creating layer relu2
I0321 18:28:40.118274  8892 net.cpp:86] Creating Layer relu2
I0321 18:28:40.118276  8892 net.cpp:408] relu2 <- conv2
I0321 18:28:40.118280  8892 net.cpp:369] relu2 -> conv2 (in-place)
I0321 18:28:40.118391  8892 net.cpp:124] Setting up relu2
I0321 18:28:40.118396  8892 net.cpp:131] Top shape: 50 256 19 29 (7052800)
I0321 18:28:40.118398  8892 net.cpp:139] Memory required for data: 185111000
I0321 18:28:40.118402  8892 layer_factory.hpp:77] Creating layer pool2
I0321 18:28:40.118407  8892 net.cpp:86] Creating Layer pool2
I0321 18:28:40.118408  8892 net.cpp:408] pool2 <- conv2
I0321 18:28:40.118412  8892 net.cpp:382] pool2 -> pool2
I0321 18:28:40.118441  8892 net.cpp:124] Setting up pool2
I0321 18:28:40.118445  8892 net.cpp:131] Top shape: 50 256 9 14 (1612800)
I0321 18:28:40.118448  8892 net.cpp:139] Memory required for data: 191562200
I0321 18:28:40.118449  8892 layer_factory.hpp:77] Creating layer norm2
I0321 18:28:40.118454  8892 net.cpp:86] Creating Layer norm2
I0321 18:28:40.118456  8892 net.cpp:408] norm2 <- pool2
I0321 18:28:40.118459  8892 net.cpp:382] norm2 -> norm2
I0321 18:28:40.118737  8892 net.cpp:124] Setting up norm2
I0321 18:28:40.118746  8892 net.cpp:131] Top shape: 50 256 9 14 (1612800)
I0321 18:28:40.118747  8892 net.cpp:139] Memory required for data: 198013400
I0321 18:28:40.118751  8892 layer_factory.hpp:77] Creating layer conv3
I0321 18:28:40.118757  8892 net.cpp:86] Creating Layer conv3
I0321 18:28:40.118759  8892 net.cpp:408] conv3 <- norm2
I0321 18:28:40.118763  8892 net.cpp:382] conv3 -> conv3
I0321 18:28:40.126413  8892 net.cpp:124] Setting up conv3
I0321 18:28:40.126425  8892 net.cpp:131] Top shape: 50 384 9 14 (2419200)
I0321 18:28:40.126426  8892 net.cpp:139] Memory required for data: 207690200
I0321 18:28:40.126433  8892 layer_factory.hpp:77] Creating layer relu3
I0321 18:28:40.126438  8892 net.cpp:86] Creating Layer relu3
I0321 18:28:40.126441  8892 net.cpp:408] relu3 <- conv3
I0321 18:28:40.126444  8892 net.cpp:369] relu3 -> conv3 (in-place)
I0321 18:28:40.126703  8892 net.cpp:124] Setting up relu3
I0321 18:28:40.126710  8892 net.cpp:131] Top shape: 50 384 9 14 (2419200)
I0321 18:28:40.126713  8892 net.cpp:139] Memory required for data: 217367000
I0321 18:28:40.126715  8892 layer_factory.hpp:77] Creating layer conv4
I0321 18:28:40.126723  8892 net.cpp:86] Creating Layer conv4
I0321 18:28:40.126724  8892 net.cpp:408] conv4 <- conv3
I0321 18:28:40.126729  8892 net.cpp:382] conv4 -> conv4
I0321 18:28:40.133518  8892 net.cpp:124] Setting up conv4
I0321 18:28:40.133530  8892 net.cpp:131] Top shape: 50 384 9 14 (2419200)
I0321 18:28:40.133533  8892 net.cpp:139] Memory required for data: 227043800
I0321 18:28:40.133538  8892 layer_factory.hpp:77] Creating layer relu4
I0321 18:28:40.133543  8892 net.cpp:86] Creating Layer relu4
I0321 18:28:40.133544  8892 net.cpp:408] relu4 <- conv4
I0321 18:28:40.133548  8892 net.cpp:369] relu4 -> conv4 (in-place)
I0321 18:28:40.133666  8892 net.cpp:124] Setting up relu4
I0321 18:28:40.133672  8892 net.cpp:131] Top shape: 50 384 9 14 (2419200)
I0321 18:28:40.133674  8892 net.cpp:139] Memory required for data: 236720600
I0321 18:28:40.133677  8892 layer_factory.hpp:77] Creating layer conv5
I0321 18:28:40.133682  8892 net.cpp:86] Creating Layer conv5
I0321 18:28:40.133685  8892 net.cpp:408] conv5 <- conv4
I0321 18:28:40.133689  8892 net.cpp:382] conv5 -> conv5
I0321 18:28:40.138612  8892 net.cpp:124] Setting up conv5
I0321 18:28:40.138624  8892 net.cpp:131] Top shape: 50 256 9 14 (1612800)
I0321 18:28:40.138626  8892 net.cpp:139] Memory required for data: 243171800
I0321 18:28:40.138634  8892 layer_factory.hpp:77] Creating layer relu5
I0321 18:28:40.138638  8892 net.cpp:86] Creating Layer relu5
I0321 18:28:40.138640  8892 net.cpp:408] relu5 <- conv5
I0321 18:28:40.138649  8892 net.cpp:369] relu5 -> conv5 (in-place)
I0321 18:28:40.138768  8892 net.cpp:124] Setting up relu5
I0321 18:28:40.138774  8892 net.cpp:131] Top shape: 50 256 9 14 (1612800)
I0321 18:28:40.138777  8892 net.cpp:139] Memory required for data: 249623000
I0321 18:28:40.138778  8892 layer_factory.hpp:77] Creating layer pool5
I0321 18:28:40.138785  8892 net.cpp:86] Creating Layer pool5
I0321 18:28:40.138787  8892 net.cpp:408] pool5 <- conv5
I0321 18:28:40.138790  8892 net.cpp:382] pool5 -> pool5
I0321 18:28:40.138821  8892 net.cpp:124] Setting up pool5
I0321 18:28:40.138825  8892 net.cpp:131] Top shape: 50 256 4 7 (358400)
I0321 18:28:40.138828  8892 net.cpp:139] Memory required for data: 251056600
I0321 18:28:40.138829  8892 layer_factory.hpp:77] Creating layer fc6_msc
I0321 18:28:40.138834  8892 net.cpp:86] Creating Layer fc6_msc
I0321 18:28:40.138836  8892 net.cpp:408] fc6_msc <- pool5
I0321 18:28:40.138840  8892 net.cpp:382] fc6_msc -> fc6_msc
I0321 18:28:40.368940  8892 net.cpp:124] Setting up fc6_msc
I0321 18:28:40.368966  8892 net.cpp:131] Top shape: 50 4096 (204800)
I0321 18:28:40.368969  8892 net.cpp:139] Memory required for data: 251875800
I0321 18:28:40.368978  8892 layer_factory.hpp:77] Creating layer relu6
I0321 18:28:40.368983  8892 net.cpp:86] Creating Layer relu6
I0321 18:28:40.368986  8892 net.cpp:408] relu6 <- fc6_msc
I0321 18:28:40.368991  8892 net.cpp:369] relu6 -> fc6_msc (in-place)
I0321 18:28:40.369369  8892 net.cpp:124] Setting up relu6
I0321 18:28:40.369377  8892 net.cpp:131] Top shape: 50 4096 (204800)
I0321 18:28:40.369380  8892 net.cpp:139] Memory required for data: 252695000
I0321 18:28:40.369382  8892 layer_factory.hpp:77] Creating layer drop6
I0321 18:28:40.369387  8892 net.cpp:86] Creating Layer drop6
I0321 18:28:40.369390  8892 net.cpp:408] drop6 <- fc6_msc
I0321 18:28:40.369393  8892 net.cpp:369] drop6 -> fc6_msc (in-place)
I0321 18:28:40.369415  8892 net.cpp:124] Setting up drop6
I0321 18:28:40.369420  8892 net.cpp:131] Top shape: 50 4096 (204800)
I0321 18:28:40.369421  8892 net.cpp:139] Memory required for data: 253514200
I0321 18:28:40.369423  8892 layer_factory.hpp:77] Creating layer fc7_msc
I0321 18:28:40.369428  8892 net.cpp:86] Creating Layer fc7_msc
I0321 18:28:40.369431  8892 net.cpp:408] fc7_msc <- fc6_msc
I0321 18:28:40.369434  8892 net.cpp:382] fc7_msc -> fc7_msc
I0321 18:28:40.498870  8892 net.cpp:124] Setting up fc7_msc
I0321 18:28:40.498896  8892 net.cpp:131] Top shape: 50 4096 (204800)
I0321 18:28:40.498899  8892 net.cpp:139] Memory required for data: 254333400
I0321 18:28:40.498908  8892 layer_factory.hpp:77] Creating layer relu7
I0321 18:28:40.498914  8892 net.cpp:86] Creating Layer relu7
I0321 18:28:40.498917  8892 net.cpp:408] relu7 <- fc7_msc
I0321 18:28:40.498922  8892 net.cpp:369] relu7 -> fc7_msc (in-place)
I0321 18:28:40.499086  8892 net.cpp:124] Setting up relu7
I0321 18:28:40.499092  8892 net.cpp:131] Top shape: 50 4096 (204800)
I0321 18:28:40.499094  8892 net.cpp:139] Memory required for data: 255152600
I0321 18:28:40.499096  8892 layer_factory.hpp:77] Creating layer drop7
I0321 18:28:40.499101  8892 net.cpp:86] Creating Layer drop7
I0321 18:28:40.499104  8892 net.cpp:408] drop7 <- fc7_msc
I0321 18:28:40.499106  8892 net.cpp:369] drop7 -> fc7_msc (in-place)
I0321 18:28:40.499128  8892 net.cpp:124] Setting up drop7
I0321 18:28:40.499131  8892 net.cpp:131] Top shape: 50 4096 (204800)
I0321 18:28:40.499133  8892 net.cpp:139] Memory required for data: 255971800
I0321 18:28:40.499135  8892 layer_factory.hpp:77] Creating layer fc8_msc
I0321 18:28:40.499140  8892 net.cpp:86] Creating Layer fc8_msc
I0321 18:28:40.499143  8892 net.cpp:408] fc8_msc <- fc7_msc
I0321 18:28:40.499146  8892 net.cpp:382] fc8_msc -> fc8_msc
I0321 18:28:40.499282  8892 net.cpp:124] Setting up fc8_msc
I0321 18:28:40.499287  8892 net.cpp:131] Top shape: 50 2 (100)
I0321 18:28:40.499289  8892 net.cpp:139] Memory required for data: 255972200
I0321 18:28:40.499294  8892 layer_factory.hpp:77] Creating layer fc8_msc_fc8_msc_0_split
I0321 18:28:40.499305  8892 net.cpp:86] Creating Layer fc8_msc_fc8_msc_0_split
I0321 18:28:40.499317  8892 net.cpp:408] fc8_msc_fc8_msc_0_split <- fc8_msc
I0321 18:28:40.499321  8892 net.cpp:382] fc8_msc_fc8_msc_0_split -> fc8_msc_fc8_msc_0_split_0
I0321 18:28:40.499326  8892 net.cpp:382] fc8_msc_fc8_msc_0_split -> fc8_msc_fc8_msc_0_split_1
I0321 18:28:40.499352  8892 net.cpp:124] Setting up fc8_msc_fc8_msc_0_split
I0321 18:28:40.499356  8892 net.cpp:131] Top shape: 50 2 (100)
I0321 18:28:40.499358  8892 net.cpp:131] Top shape: 50 2 (100)
I0321 18:28:40.499361  8892 net.cpp:139] Memory required for data: 255973000
I0321 18:28:40.499362  8892 layer_factory.hpp:77] Creating layer accuracy
I0321 18:28:40.499367  8892 net.cpp:86] Creating Layer accuracy
I0321 18:28:40.499369  8892 net.cpp:408] accuracy <- fc8_msc_fc8_msc_0_split_0
I0321 18:28:40.499372  8892 net.cpp:408] accuracy <- label_msc_data_msc_1_split_0
I0321 18:28:40.499375  8892 net.cpp:382] accuracy -> accuracy
…
