…
I0325 04:03:31.260013 32476 net.cpp:296] The NetState phase (0) differed from the phase (1) specified by a rule in layer accuracy
I0325 04:03:31.260273 32476 net.cpp:53] Initializing net from parameters: 
name: "MCaffeNet"
state {
  phase: TRAIN
  level: 0
  stage: ""
}
layer {
  name: "data_msc"
  type: "ImageData"
  top: "data_msc"
  top: "label_msc"
  include {
    phase: TRAIN
  }
  transform_param {
    mean_value: 296
    mean_value: 103
    mean_value: 108
  }
  image_data_param {
    source: "/media/p307k07/ssd/opt/msc/data/train/list_caffe.txt"
    batch_size: 50
    new_height: 159
    new_width: 240
  }
}
layer {
  name: "conv1"
  type: "Convolution"
  bottom: "data_msc"
  top: "conv1"
  param {
    lr_mult: 0.01
    decay_mult: 0.01
  }
  param {
    lr_mult: 0.02
    decay_mult: 0
  }
  convolution_param {
    num_output: 96
    kernel_size: 11
    stride: 4
    weight_filler {
      type: "gaussian"
      std: 0.01
    }
    bias_filler {
      type: "constant"
      value: 0
    }
  }
}
layer {
  name: "relu1"
  type: "ReLU"
  bottom: "conv1"
  top: "conv1"
}
layer {
  name: "pool1"
  type: "Pooling"
  bottom: "conv1"
  top: "pool1"
  pooling_param {
    pool: MAX
    kernel_size: 3
    stride: 2
  }
}
layer {
  name: "norm1"
  type: "LRN"
  bottom: "pool1"
  top: "norm1"
  lrn_param {
    local_size: 5
    alpha: 0.0001
    beta: 0.75
  }
}
layer {
  name: "conv2"
  type: "Convolution"
  bottom: "norm1"
  top: "conv2"
  param {
    lr_mult: 0.01
    decay_mult: 0.01
  }
  param {
    lr_mult: 0.02
    decay_mult: 0
  }
  convolution_param {
    num_output: 256
    pad: 2
    kernel_size: 5
    group: 2
    weight_filler {
      type: "gaussian"
      std: 0.01
    }
    bias_filler {
      type: "constant"
      value: 1
    }
  }
}
layer {
  name: "relu2"
  type: "ReLU"
  bottom: "conv2"
  top: "conv2"
}
layer {
  name: "pool2"
  type: "Pooling"
  bottom: "conv2"
  top: "pool2"
  pooling_param {
    pool: MAX
    kernel_size: 3
    stride: 2
  }
}
layer {
  name: "norm2"
  type: "LRN"
  bottom: "pool2"
  top: "norm2"
  lrn_param {
    local_size: 5
    alpha: 0.0001
    beta: 0.75
  }
}
layer {
  name: "conv3"
  type: "Convolution"
  bottom: "norm2"
  top: "conv3"
  param {
    lr_mult: 0.01
    decay_mult: 0.01
  }
  param {
    lr_mult: 0.02
    decay_mult: 0
  }
  convolution_param {
    num_output: 384
    pad: 1
    kernel_size: 3
    weight_filler {
      type: "gaussian"
      std: 0.01
    }
    bias_filler {
      type: "constant"
      value: 0
    }
  }
}
layer {
  name: "relu3"
  type: "ReLU"
  bottom: "conv3"
  top: "conv3"
}
layer {
  name: "conv4"
  type: "Convolution"
  bottom: "conv3"
  top: "conv4"
  param {
    lr_mult: 0.01
    decay_mult: 0.01
  }
  param {
    lr_mult: 0.02
    decay_mult: 0
  }
  convolution_param {
    num_output: 384
    pad: 1
    kernel_size: 3
    group: 2
    weight_filler {
      type: "gaussian"
      std: 0.01
    }
    bias_filler {
      type: "constant"
      value: 1
    }
  }
}
layer {
  name: "relu4"
  type: "ReLU"
  bottom: "conv4"
  top: "conv4"
}
layer {
  name: "conv5"
  type: "Convolution"
  bottom: "conv4"
  top: "conv5"
  param {
    lr_mult: 0.01
    decay_mult: 0.01
  }
  param {
    lr_mult: 0.02
    decay_mult: 0
  }
  convolution_param {
    num_output: 256
    pad: 1
    kernel_size: 3
    group: 2
    weight_filler {
      type: "gaussian"
      std: 0.01
    }
    bias_filler {
      type: "constant"
      value: 1
    }
  }
}
layer {
  name: "relu5"
  type: "ReLU"
  bottom: "conv5"
  top: "conv5"
}
layer {
  name: "pool5"
  type: "Pooling"
  bottom: "conv5"
  top: "pool5"
  pooling_param {
    pool: MAX
    kernel_size: 3
    stride: 2
  }
}
layer {
  name: "fc6_msc"
  type: "InnerProduct"
  bottom: "pool5"
  top: "fc6_msc"
  param {
    lr_mult: 1
    decay_mult: 1
  }
  param {
    lr_mult: 2
    decay_mult: 0
  }
  inner_product_param {
    num_output: 4096
    weight_filler {
      type: "gaussian"
      std: 0.005
    }
    bias_filler {
      type: "constant"
      value: 1
    }
  }
}
layer {
  name: "relu6"
  type: "ReLU"
  bottom: "fc6_msc"
  top: "fc6_msc"
}
layer {
  name: "drop6"
  type: "Dropout"
  bottom: "fc6_msc"
  top: "fc6_msc"
  dropout_param {
    dropout_ratio: 0.5
  }
}
layer {
  name: "fc7_msc"
  type: "InnerProduct"
  bottom: "fc6_msc"
  top: "fc7_msc"
  param {
    lr_mult: 1
    decay_mult: 1
  }
  param {
    lr_mult: 2
    decay_mult: 0
  }
  inner_product_param {
    num_output: 4096
    weight_filler {
      type: "gaussian"
      std: 0.005
    }
    bias_filler {
      type: "constant"
      value: 1
    }
  }
}
layer {
  name: "relu7"
  type: "ReLU"
  bottom: "fc7_msc"
  top: "fc7_msc"
}
layer {
  name: "drop7"
  type: "Dropout"
  bottom: "fc7_msc"
  top: "fc7_msc"
  dropout_param {
    dropout_ratio: 0.5
  }
}
layer {
  name: "fc8_msc"
  type: "InnerProduct"
  bottom: "fc7_msc"
  top: "fc8_msc"
  param {
    lr_mult: 1
    decay_mult: 1
  }
  param {
    lr_mult: 2
    decay_mult: 0
  }
  inner_product_param {
    num_output: 2
    weight_filler {
      type: "gaussian"
      std: 0.01
    }
    bias_filler {
      type: "constant"
      value: 0
    }
  }
}
layer {
  name: "loss_msc"
  type: "SoftmaxWithLoss"
  bottom: "fc8_msc"
  bottom: "label_msc"
  top: "loss"
}
I0325 04:03:31.260438 32476 layer_factory.hpp:77] Creating layer data_msc
I0325 04:03:31.260481 32476 net.cpp:86] Creating Layer data_msc
I0325 04:03:31.260491 32476 net.cpp:382] data_msc -> data_msc
I0325 04:03:31.260519 32476 net.cpp:382] data_msc -> label_msc
I0325 04:03:31.260545 32476 image_data_layer.cpp:38] Opening file /media/p307k07/ssd/opt/msc/data/train/list_caffe.txt
I0325 04:03:31.421988 32476 image_data_layer.cpp:63] A total of 513382 images.
I0325 04:03:31.424127 32476 image_data_layer.cpp:90] output data size: 50,3,159,240
I0325 04:03:31.451977 32476 net.cpp:124] Setting up data_msc
I0325 04:03:31.452003 32476 net.cpp:131] Top shape: 50 3 159 240 (5724000)
I0325 04:03:31.452006 32476 net.cpp:131] Top shape: 50 (50)
I0325 04:03:31.452009 32476 net.cpp:139] Memory required for data: 22896200
I0325 04:03:31.452015 32476 layer_factory.hpp:77] Creating layer conv1
I0325 04:03:31.452033 32476 net.cpp:86] Creating Layer conv1
I0325 04:03:31.452038 32476 net.cpp:408] conv1 <- data_msc
I0325 04:03:31.452049 32476 net.cpp:382] conv1 -> conv1
I0325 04:03:33.380913 32476 net.cpp:124] Setting up conv1
I0325 04:03:33.380945 32476 net.cpp:131] Top shape: 50 96 38 58 (10579200)
I0325 04:03:33.380949 32476 net.cpp:139] Memory required for data: 65213000
I0325 04:03:33.380973 32476 layer_factory.hpp:77] Creating layer relu1
I0325 04:03:33.380982 32476 net.cpp:86] Creating Layer relu1
I0325 04:03:33.380986 32476 net.cpp:408] relu1 <- conv1
I0325 04:03:33.380992 32476 net.cpp:369] relu1 -> conv1 (in-place)
I0325 04:03:33.381264 32476 net.cpp:124] Setting up relu1
I0325 04:03:33.381273 32476 net.cpp:131] Top shape: 50 96 38 58 (10579200)
I0325 04:03:33.381275 32476 net.cpp:139] Memory required for data: 107529800
I0325 04:03:33.381278 32476 layer_factory.hpp:77] Creating layer pool1
I0325 04:03:33.381283 32476 net.cpp:86] Creating Layer pool1
I0325 04:03:33.381285 32476 net.cpp:408] pool1 <- conv1
I0325 04:03:33.381290 32476 net.cpp:382] pool1 -> pool1
I0325 04:03:33.381325 32476 net.cpp:124] Setting up pool1
I0325 04:03:33.381330 32476 net.cpp:131] Top shape: 50 96 19 29 (2644800)
I0325 04:03:33.381336 32476 net.cpp:139] Memory required for data: 118109000
I0325 04:03:33.381753 32476 layer_factory.hpp:77] Creating layer norm1
I0325 04:03:33.381770 32476 net.cpp:86] Creating Layer norm1
I0325 04:03:33.381774 32476 net.cpp:408] norm1 <- pool1
I0325 04:03:33.381781 32476 net.cpp:382] norm1 -> norm1
I0325 04:03:33.381929 32476 net.cpp:124] Setting up norm1
I0325 04:03:33.381937 32476 net.cpp:131] Top shape: 50 96 19 29 (2644800)
I0325 04:03:33.381940 32476 net.cpp:139] Memory required for data: 128688200
I0325 04:03:33.381942 32476 layer_factory.hpp:77] Creating layer conv2
I0325 04:03:33.381950 32476 net.cpp:86] Creating Layer conv2
I0325 04:03:33.381953 32476 net.cpp:408] conv2 <- norm1
I0325 04:03:33.381958 32476 net.cpp:382] conv2 -> conv2
I0325 04:03:33.386178 32476 net.cpp:124] Setting up conv2
I0325 04:03:33.386188 32476 net.cpp:131] Top shape: 50 256 19 29 (7052800)
I0325 04:03:33.386191 32476 net.cpp:139] Memory required for data: 156899400
I0325 04:03:33.386198 32476 layer_factory.hpp:77] Creating layer relu2
I0325 04:03:33.386203 32476 net.cpp:86] Creating Layer relu2
I0325 04:03:33.386204 32476 net.cpp:408] relu2 <- conv2
I0325 04:03:33.386209 32476 net.cpp:369] relu2 -> conv2 (in-place)
I0325 04:03:33.386330 32476 net.cpp:124] Setting up relu2
I0325 04:03:33.386337 32476 net.cpp:131] Top shape: 50 256 19 29 (7052800)
I0325 04:03:33.386338 32476 net.cpp:139] Memory required for data: 185110600
I0325 04:03:33.386342 32476 layer_factory.hpp:77] Creating layer pool2
I0325 04:03:33.386344 32476 net.cpp:86] Creating Layer pool2
I0325 04:03:33.386348 32476 net.cpp:408] pool2 <- conv2
I0325 04:03:33.386351 32476 net.cpp:382] pool2 -> pool2
I0325 04:03:33.386378 32476 net.cpp:124] Setting up pool2
I0325 04:03:33.386382 32476 net.cpp:131] Top shape: 50 256 9 14 (1612800)
I0325 04:03:33.386384 32476 net.cpp:139] Memory required for data: 191561800
I0325 04:03:33.386386 32476 layer_factory.hpp:77] Creating layer norm2
I0325 04:03:33.386391 32476 net.cpp:86] Creating Layer norm2
I0325 04:03:33.386394 32476 net.cpp:408] norm2 <- pool2
I0325 04:03:33.386397 32476 net.cpp:382] norm2 -> norm2
I0325 04:03:33.386678 32476 net.cpp:124] Setting up norm2
I0325 04:03:33.386687 32476 net.cpp:131] Top shape: 50 256 9 14 (1612800)
I0325 04:03:33.386689 32476 net.cpp:139] Memory required for data: 198013000
I0325 04:03:33.386692 32476 layer_factory.hpp:77] Creating layer conv3
I0325 04:03:33.386699 32476 net.cpp:86] Creating Layer conv3
I0325 04:03:33.386701 32476 net.cpp:408] conv3 <- norm2
I0325 04:03:33.386706 32476 net.cpp:382] conv3 -> conv3
I0325 04:03:33.394564 32476 net.cpp:124] Setting up conv3
I0325 04:03:33.394574 32476 net.cpp:131] Top shape: 50 384 9 14 (2419200)
I0325 04:03:33.394577 32476 net.cpp:139] Memory required for data: 207689800
I0325 04:03:33.394583 32476 layer_factory.hpp:77] Creating layer relu3
I0325 04:03:33.394589 32476 net.cpp:86] Creating Layer relu3
I0325 04:03:33.394592 32476 net.cpp:408] relu3 <- conv3
I0325 04:03:33.394595 32476 net.cpp:369] relu3 -> conv3 (in-place)
I0325 04:03:33.394709 32476 net.cpp:124] Setting up relu3
I0325 04:03:33.394716 32476 net.cpp:131] Top shape: 50 384 9 14 (2419200)
I0325 04:03:33.394717 32476 net.cpp:139] Memory required for data: 217366600
I0325 04:03:33.394719 32476 layer_factory.hpp:77] Creating layer conv4
I0325 04:03:33.394726 32476 net.cpp:86] Creating Layer conv4
I0325 04:03:33.394729 32476 net.cpp:408] conv4 <- conv3
I0325 04:03:33.394733 32476 net.cpp:382] conv4 -> conv4
I0325 04:03:33.401407 32476 net.cpp:124] Setting up conv4
I0325 04:03:33.401420 32476 net.cpp:131] Top shape: 50 384 9 14 (2419200)
I0325 04:03:33.401422 32476 net.cpp:139] Memory required for data: 227043400
I0325 04:03:33.401427 32476 layer_factory.hpp:77] Creating layer relu4
I0325 04:03:33.401433 32476 net.cpp:86] Creating Layer relu4
I0325 04:03:33.401435 32476 net.cpp:408] relu4 <- conv4
I0325 04:03:33.401439 32476 net.cpp:369] relu4 -> conv4 (in-place)
I0325 04:03:33.401557 32476 net.cpp:124] Setting up relu4
I0325 04:03:33.401563 32476 net.cpp:131] Top shape: 50 384 9 14 (2419200)
I0325 04:03:33.401571 32476 net.cpp:139] Memory required for data: 236720200
I0325 04:03:33.401583 32476 layer_factory.hpp:77] Creating layer conv5
I0325 04:03:33.401592 32476 net.cpp:86] Creating Layer conv5
I0325 04:03:33.401595 32476 net.cpp:408] conv5 <- conv4
I0325 04:03:33.401600 32476 net.cpp:382] conv5 -> conv5
I0325 04:03:33.406705 32476 net.cpp:124] Setting up conv5
I0325 04:03:33.406715 32476 net.cpp:131] Top shape: 50 256 9 14 (1612800)
I0325 04:03:33.406718 32476 net.cpp:139] Memory required for data: 243171400
I0325 04:03:33.406724 32476 layer_factory.hpp:77] Creating layer relu5
I0325 04:03:33.406728 32476 net.cpp:86] Creating Layer relu5
I0325 04:03:33.406731 32476 net.cpp:408] relu5 <- conv5
I0325 04:03:33.406735 32476 net.cpp:369] relu5 -> conv5 (in-place)
I0325 04:03:33.406847 32476 net.cpp:124] Setting up relu5
I0325 04:03:33.406853 32476 net.cpp:131] Top shape: 50 256 9 14 (1612800)
I0325 04:03:33.406855 32476 net.cpp:139] Memory required for data: 249622600
I0325 04:03:33.406857 32476 layer_factory.hpp:77] Creating layer pool5
I0325 04:03:33.406862 32476 net.cpp:86] Creating Layer pool5
I0325 04:03:33.406864 32476 net.cpp:408] pool5 <- conv5
I0325 04:03:33.406868 32476 net.cpp:382] pool5 -> pool5
I0325 04:03:33.406896 32476 net.cpp:124] Setting up pool5
I0325 04:03:33.406900 32476 net.cpp:131] Top shape: 50 256 4 7 (358400)
I0325 04:03:33.406903 32476 net.cpp:139] Memory required for data: 251056200
I0325 04:03:33.406904 32476 layer_factory.hpp:77] Creating layer fc6_msc
I0325 04:03:33.406913 32476 net.cpp:86] Creating Layer fc6_msc
I0325 04:03:33.406914 32476 net.cpp:408] fc6_msc <- pool5
I0325 04:03:33.406919 32476 net.cpp:382] fc6_msc -> fc6_msc
I0325 04:03:33.635031 32476 net.cpp:124] Setting up fc6_msc
I0325 04:03:33.635058 32476 net.cpp:131] Top shape: 50 4096 (204800)
I0325 04:03:33.635061 32476 net.cpp:139] Memory required for data: 251875400
I0325 04:03:33.635069 32476 layer_factory.hpp:77] Creating layer relu6
I0325 04:03:33.635076 32476 net.cpp:86] Creating Layer relu6
I0325 04:03:33.635078 32476 net.cpp:408] relu6 <- fc6_msc
I0325 04:03:33.635084 32476 net.cpp:369] relu6 -> fc6_msc (in-place)
I0325 04:03:33.635457 32476 net.cpp:124] Setting up relu6
I0325 04:03:33.635464 32476 net.cpp:131] Top shape: 50 4096 (204800)
I0325 04:03:33.635466 32476 net.cpp:139] Memory required for data: 252694600
I0325 04:03:33.635469 32476 layer_factory.hpp:77] Creating layer drop6
I0325 04:03:33.635474 32476 net.cpp:86] Creating Layer drop6
I0325 04:03:33.635476 32476 net.cpp:408] drop6 <- fc6_msc
I0325 04:03:33.635480 32476 net.cpp:369] drop6 -> fc6_msc (in-place)
I0325 04:03:33.635502 32476 net.cpp:124] Setting up drop6
I0325 04:03:33.635507 32476 net.cpp:131] Top shape: 50 4096 (204800)
I0325 04:03:33.635509 32476 net.cpp:139] Memory required for data: 253513800
I0325 04:03:33.635511 32476 layer_factory.hpp:77] Creating layer fc7_msc
I0325 04:03:33.635517 32476 net.cpp:86] Creating Layer fc7_msc
I0325 04:03:33.635519 32476 net.cpp:408] fc7_msc <- fc6_msc
I0325 04:03:33.635524 32476 net.cpp:382] fc7_msc -> fc7_msc
I0325 04:03:33.766018 32476 net.cpp:124] Setting up fc7_msc
I0325 04:03:33.766043 32476 net.cpp:131] Top shape: 50 4096 (204800)
I0325 04:03:33.766047 32476 net.cpp:139] Memory required for data: 254333000
I0325 04:03:33.766054 32476 layer_factory.hpp:77] Creating layer relu7
I0325 04:03:33.766060 32476 net.cpp:86] Creating Layer relu7
I0325 04:03:33.766064 32476 net.cpp:408] relu7 <- fc7_msc
I0325 04:03:33.766070 32476 net.cpp:369] relu7 -> fc7_msc (in-place)
I0325 04:03:33.766438 32476 net.cpp:124] Setting up relu7
I0325 04:03:33.766445 32476 net.cpp:131] Top shape: 50 4096 (204800)
I0325 04:03:33.766448 32476 net.cpp:139] Memory required for data: 255152200
I0325 04:03:33.766449 32476 layer_factory.hpp:77] Creating layer drop7
I0325 04:03:33.766454 32476 net.cpp:86] Creating Layer drop7
I0325 04:03:33.766458 32476 net.cpp:408] drop7 <- fc7_msc
I0325 04:03:33.766460 32476 net.cpp:369] drop7 -> fc7_msc (in-place)
I0325 04:03:33.766484 32476 net.cpp:124] Setting up drop7
I0325 04:03:33.766494 32476 net.cpp:131] Top shape: 50 4096 (204800)
I0325 04:03:33.766506 32476 net.cpp:139] Memory required for data: 255971400
I0325 04:03:33.766510 32476 layer_factory.hpp:77] Creating layer fc8_msc
I0325 04:03:33.766518 32476 net.cpp:86] Creating Layer fc8_msc
I0325 04:03:33.766522 32476 net.cpp:408] fc8_msc <- fc7_msc
I0325 04:03:33.766527 32476 net.cpp:382] fc8_msc -> fc8_msc
I0325 04:03:33.766947 32476 net.cpp:124] Setting up fc8_msc
I0325 04:03:33.766953 32476 net.cpp:131] Top shape: 50 2 (100)
I0325 04:03:33.766955 32476 net.cpp:139] Memory required for data: 255971800
I0325 04:03:33.766959 32476 layer_factory.hpp:77] Creating layer loss_msc
I0325 04:03:33.766964 32476 net.cpp:86] Creating Layer loss_msc
I0325 04:03:33.766966 32476 net.cpp:408] loss_msc <- fc8_msc
I0325 04:03:33.766969 32476 net.cpp:408] loss_msc <- label_msc
I0325 04:03:33.766975 32476 net.cpp:382] loss_msc -> loss
…
I0325 04:03:33.767490 32476 net.cpp:296] The NetState phase (1) differed from the phase (0) specified by a rule in layer data_msc
I0325 04:03:33.767611 32476 net.cpp:53] Initializing net from parameters: 
name: "MCaffeNet"
state {
  phase: TEST
}
layer {
  name: "data_msc"
  type: "ImageData"
  top: "data_msc"
  top: "label_msc"
  include {
    phase: TEST
  }
  transform_param {
    mean_value: 296
    mean_value: 103
    mean_value: 108
  }
  image_data_param {
    source: "/media/p307k07/ssd/opt/msc/data/test/list_caffe.txt"
    batch_size: 50
    new_height: 159
    new_width: 240
  }
}
layer {
  name: "conv1"
  type: "Convolution"
  bottom: "data_msc"
  top: "conv1"
  param {
    lr_mult: 0.01
    decay_mult: 0.01
  }
  param {
    lr_mult: 0.02
    decay_mult: 0
  }
  convolution_param {
    num_output: 96
    kernel_size: 11
    stride: 4
    weight_filler {
      type: "gaussian"
      std: 0.01
    }
    bias_filler {
      type: "constant"
      value: 0
    }
  }
}
layer {
  name: "relu1"
  type: "ReLU"
  bottom: "conv1"
  top: "conv1"
}
layer {
  name: "pool1"
  type: "Pooling"
  bottom: "conv1"
  top: "pool1"
  pooling_param {
    pool: MAX
    kernel_size: 3
    stride: 2
  }
}
layer {
  name: "norm1"
  type: "LRN"
  bottom: "pool1"
  top: "norm1"
  lrn_param {
    local_size: 5
    alpha: 0.0001
    beta: 0.75
  }
}
layer {
  name: "conv2"
  type: "Convolution"
  bottom: "norm1"
  top: "conv2"
  param {
    lr_mult: 0.01
    decay_mult: 0.01
  }
  param {
    lr_mult: 0.02
    decay_mult: 0
  }
  convolution_param {
    num_output: 256
    pad: 2
    kernel_size: 5
    group: 2
    weight_filler {
      type: "gaussian"
      std: 0.01
    }
    bias_filler {
      type: "constant"
      value: 1
    }
  }
}
layer {
  name: "relu2"
  type: "ReLU"
  bottom: "conv2"
  top: "conv2"
}
layer {
  name: "pool2"
  type: "Pooling"
  bottom: "conv2"
  top: "pool2"
  pooling_param {
    pool: MAX
    kernel_size: 3
    stride: 2
  }
}
layer {
  name: "norm2"
  type: "LRN"
  bottom: "pool2"
  top: "norm2"
  lrn_param {
    local_size: 5
    alpha: 0.0001
    beta: 0.75
  }
}
layer {
  name: "conv3"
  type: "Convolution"
  bottom: "norm2"
  top: "conv3"
  param {
    lr_mult: 0.01
    decay_mult: 0.01
  }
  param {
    lr_mult: 0.02
    decay_mult: 0
  }
  convolution_param {
    num_output: 384
    pad: 1
    kernel_size: 3
    weight_filler {
      type: "gaussian"
      std: 0.01
    }
    bias_filler {
      type: "constant"
      value: 0
    }
  }
}
layer {
  name: "relu3"
  type: "ReLU"
  bottom: "conv3"
  top: "conv3"
}
layer {
  name: "conv4"
  type: "Convolution"
  bottom: "conv3"
  top: "conv4"
  param {
    lr_mult: 0.01
    decay_mult: 0.01
  }
  param {
    lr_mult: 0.02
    decay_mult: 0
  }
  convolution_param {
    num_output: 384
    pad: 1
    kernel_size: 3
    group: 2
    weight_filler {
      type: "gaussian"
      std: 0.01
    }
    bias_filler {
      type: "constant"
      value: 1
    }
  }
}
layer {
  name: "relu4"
  type: "ReLU"
  bottom: "conv4"
  top: "conv4"
}
layer {
  name: "conv5"
  type: "Convolution"
  bottom: "conv4"
  top: "conv5"
  param {
    lr_mult: 0.01
    decay_mult: 0.01
  }
  param {
    lr_mult: 0.02
    decay_mult: 0
  }
  convolution_param {
    num_output: 256
    pad: 1
    kernel_size: 3
    group: 2
    weight_filler {
      type: "gaussian"
      std: 0.01
    }
    bias_filler {
      type: "constant"
      value: 1
    }
  }
}
layer {
  name: "relu5"
  type: "ReLU"
  bottom: "conv5"
  top: "conv5"
}
layer {
  name: "pool5"
  type: "Pooling"
  bottom: "conv5"
  top: "pool5"
  pooling_param {
    pool: MAX
    kernel_size: 3
    stride: 2
  }
}
layer {
  name: "fc6_msc"
  type: "InnerProduct"
  bottom: "pool5"
  top: "fc6_msc"
  param {
    lr_mult: 1
    decay_mult: 1
  }
  param {
    lr_mult: 2
    decay_mult: 0
  }
  inner_product_param {
    num_output: 4096
    weight_filler {
      type: "gaussian"
      std: 0.005
    }
    bias_filler {
      type: "constant"
      value: 1
    }
  }
}
layer {
  name: "relu6"
  type: "ReLU"
  bottom: "fc6_msc"
  top: "fc6_msc"
}
layer {
  name: "drop6"
  type: "Dropout"
  bottom: "fc6_msc"
  top: "fc6_msc"
  dropout_param {
    dropout_ratio: 0.5
  }
}
layer {
  name: "fc7_msc"
  type: "InnerProduct"
  bottom: "fc6_msc"
  top: "fc7_msc"
  param {
    lr_mult: 1
    decay_mult: 1
  }
  param {
    lr_mult: 2
    decay_mult: 0
  }
  inner_product_param {
    num_output: 4096
    weight_filler {
      type: "gaussian"
      std: 0.005
    }
    bias_filler {
      type: "constant"
      value: 1
    }
  }
}
layer {
  name: "relu7"
  type: "ReLU"
  bottom: "fc7_msc"
  top: "fc7_msc"
}
layer {
  name: "drop7"
  type: "Dropout"
  bottom: "fc7_msc"
  top: "fc7_msc"
  dropout_param {
    dropout_ratio: 0.5
  }
}
layer {
  name: "fc8_msc"
  type: "InnerProduct"
  bottom: "fc7_msc"
  top: "fc8_msc"
  param {
    lr_mult: 1
    decay_mult: 1
  }
  param {
    lr_mult: 2
    decay_mult: 0
  }
  inner_product_param {
    num_output: 2
    weight_filler {
      type: "gaussian"
      std: 0.01
    }
    bias_filler {
      type: "constant"
      value: 0
    }
  }
}
layer {
  name: "accuracy"
  type: "Accuracy"
  bottom: "fc8_msc"
  bottom: "label_msc"
  top: "accuracy"
  include {
    phase: TEST
  }
}
layer {
  name: "loss_msc"
  type: "SoftmaxWithLoss"
  bottom: "fc8_msc"
  bottom: "label_msc"
  top: "loss"
}
I0325 04:03:33.767696 32476 layer_factory.hpp:77] Creating layer data_msc
I0325 04:03:33.767706 32476 net.cpp:86] Creating Layer data_msc
I0325 04:03:33.767710 32476 net.cpp:382] data_msc -> data_msc
I0325 04:03:33.767716 32476 net.cpp:382] data_msc -> label_msc
I0325 04:03:33.767721 32476 image_data_layer.cpp:38] Opening file /media/p307k07/ssd/opt/msc/data/test/list_caffe.txt
I0325 04:03:33.800894 32476 image_data_layer.cpp:63] A total of 85562 images.
I0325 04:03:33.801607 32476 image_data_layer.cpp:90] output data size: 50,3,159,240
I0325 04:03:33.830018 32476 net.cpp:124] Setting up data_msc
I0325 04:03:33.830044 32476 net.cpp:131] Top shape: 50 3 159 240 (5724000)
I0325 04:03:33.830049 32476 net.cpp:131] Top shape: 50 (50)
I0325 04:03:33.830050 32476 net.cpp:139] Memory required for data: 22896200
I0325 04:03:33.830055 32476 layer_factory.hpp:77] Creating layer label_msc_data_msc_1_split
I0325 04:03:33.830065 32476 net.cpp:86] Creating Layer label_msc_data_msc_1_split
I0325 04:03:33.830068 32476 net.cpp:408] label_msc_data_msc_1_split <- label_msc
I0325 04:03:33.830073 32476 net.cpp:382] label_msc_data_msc_1_split -> label_msc_data_msc_1_split_0
I0325 04:03:33.830080 32476 net.cpp:382] label_msc_data_msc_1_split -> label_msc_data_msc_1_split_1
I0325 04:03:33.830132 32476 net.cpp:124] Setting up label_msc_data_msc_1_split
I0325 04:03:33.830137 32476 net.cpp:131] Top shape: 50 (50)
I0325 04:03:33.830140 32476 net.cpp:131] Top shape: 50 (50)
I0325 04:03:33.830142 32476 net.cpp:139] Memory required for data: 22896600
I0325 04:03:33.830144 32476 layer_factory.hpp:77] Creating layer conv1
I0325 04:03:33.830153 32476 net.cpp:86] Creating Layer conv1
I0325 04:03:33.830155 32476 net.cpp:408] conv1 <- data_msc
I0325 04:03:33.830159 32476 net.cpp:382] conv1 -> conv1
I0325 04:03:33.831307 32476 net.cpp:124] Setting up conv1
I0325 04:03:33.831316 32476 net.cpp:131] Top shape: 50 96 38 58 (10579200)
I0325 04:03:33.831320 32476 net.cpp:139] Memory required for data: 65213400
I0325 04:03:33.831326 32476 layer_factory.hpp:77] Creating layer relu1
I0325 04:03:33.831331 32476 net.cpp:86] Creating Layer relu1
I0325 04:03:33.831333 32476 net.cpp:408] relu1 <- conv1
I0325 04:03:33.831337 32476 net.cpp:369] relu1 -> conv1 (in-place)
I0325 04:03:33.831446 32476 net.cpp:124] Setting up relu1
I0325 04:03:33.831451 32476 net.cpp:131] Top shape: 50 96 38 58 (10579200)
I0325 04:03:33.831454 32476 net.cpp:139] Memory required for data: 107530200
I0325 04:03:33.831456 32476 layer_factory.hpp:77] Creating layer pool1
I0325 04:03:33.831461 32476 net.cpp:86] Creating Layer pool1
I0325 04:03:33.831465 32476 net.cpp:408] pool1 <- conv1
I0325 04:03:33.831467 32476 net.cpp:382] pool1 -> pool1
I0325 04:03:33.831496 32476 net.cpp:124] Setting up pool1
I0325 04:03:33.831499 32476 net.cpp:131] Top shape: 50 96 19 29 (2644800)
I0325 04:03:33.831501 32476 net.cpp:139] Memory required for data: 118109400
I0325 04:03:33.831503 32476 layer_factory.hpp:77] Creating layer norm1
I0325 04:03:33.831508 32476 net.cpp:86] Creating Layer norm1
I0325 04:03:33.831511 32476 net.cpp:408] norm1 <- pool1
I0325 04:03:33.831514 32476 net.cpp:382] norm1 -> norm1
I0325 04:03:33.833636 32476 net.cpp:124] Setting up norm1
I0325 04:03:33.833647 32476 net.cpp:131] Top shape: 50 96 19 29 (2644800)
I0325 04:03:33.833650 32476 net.cpp:139] Memory required for data: 128688600
I0325 04:03:33.833652 32476 layer_factory.hpp:77] Creating layer conv2
I0325 04:03:33.833659 32476 net.cpp:86] Creating Layer conv2
I0325 04:03:33.833662 32476 net.cpp:408] conv2 <- norm1
I0325 04:03:33.833673 32476 net.cpp:382] conv2 -> conv2
I0325 04:03:33.837558 32476 net.cpp:124] Setting up conv2
I0325 04:03:33.837568 32476 net.cpp:131] Top shape: 50 256 19 29 (7052800)
I0325 04:03:33.837571 32476 net.cpp:139] Memory required for data: 156899800
I0325 04:03:33.837577 32476 layer_factory.hpp:77] Creating layer relu2
I0325 04:03:33.837582 32476 net.cpp:86] Creating Layer relu2
I0325 04:03:33.837584 32476 net.cpp:408] relu2 <- conv2
I0325 04:03:33.837589 32476 net.cpp:369] relu2 -> conv2 (in-place)
I0325 04:03:33.837700 32476 net.cpp:124] Setting up relu2
I0325 04:03:33.837705 32476 net.cpp:131] Top shape: 50 256 19 29 (7052800)
I0325 04:03:33.837708 32476 net.cpp:139] Memory required for data: 185111000
I0325 04:03:33.837710 32476 layer_factory.hpp:77] Creating layer pool2
I0325 04:03:33.837715 32476 net.cpp:86] Creating Layer pool2
I0325 04:03:33.837718 32476 net.cpp:408] pool2 <- conv2
I0325 04:03:33.837721 32476 net.cpp:382] pool2 -> pool2
I0325 04:03:33.837750 32476 net.cpp:124] Setting up pool2
I0325 04:03:33.837754 32476 net.cpp:131] Top shape: 50 256 9 14 (1612800)
I0325 04:03:33.837757 32476 net.cpp:139] Memory required for data: 191562200
I0325 04:03:33.837759 32476 layer_factory.hpp:77] Creating layer norm2
I0325 04:03:33.837762 32476 net.cpp:86] Creating Layer norm2
I0325 04:03:33.837765 32476 net.cpp:408] norm2 <- pool2
I0325 04:03:33.837769 32476 net.cpp:382] norm2 -> norm2
I0325 04:03:33.838044 32476 net.cpp:124] Setting up norm2
I0325 04:03:33.838052 32476 net.cpp:131] Top shape: 50 256 9 14 (1612800)
I0325 04:03:33.838054 32476 net.cpp:139] Memory required for data: 198013400
I0325 04:03:33.838057 32476 layer_factory.hpp:77] Creating layer conv3
I0325 04:03:33.838063 32476 net.cpp:86] Creating Layer conv3
I0325 04:03:33.838065 32476 net.cpp:408] conv3 <- norm2
I0325 04:03:33.838069 32476 net.cpp:382] conv3 -> conv3
I0325 04:03:33.845757 32476 net.cpp:124] Setting up conv3
I0325 04:03:33.845775 32476 net.cpp:131] Top shape: 50 384 9 14 (2419200)
I0325 04:03:33.845778 32476 net.cpp:139] Memory required for data: 207690200
I0325 04:03:33.845788 32476 layer_factory.hpp:77] Creating layer relu3
I0325 04:03:33.845794 32476 net.cpp:86] Creating Layer relu3
I0325 04:03:33.845798 32476 net.cpp:408] relu3 <- conv3
I0325 04:03:33.845801 32476 net.cpp:369] relu3 -> conv3 (in-place)
I0325 04:03:33.846062 32476 net.cpp:124] Setting up relu3
I0325 04:03:33.846071 32476 net.cpp:131] Top shape: 50 384 9 14 (2419200)
I0325 04:03:33.846072 32476 net.cpp:139] Memory required for data: 217367000
I0325 04:03:33.846074 32476 layer_factory.hpp:77] Creating layer conv4
I0325 04:03:33.846082 32476 net.cpp:86] Creating Layer conv4
I0325 04:03:33.846084 32476 net.cpp:408] conv4 <- conv3
I0325 04:03:33.846088 32476 net.cpp:382] conv4 -> conv4
I0325 04:03:33.852957 32476 net.cpp:124] Setting up conv4
I0325 04:03:33.852972 32476 net.cpp:131] Top shape: 50 384 9 14 (2419200)
I0325 04:03:33.852975 32476 net.cpp:139] Memory required for data: 227043800
I0325 04:03:33.852980 32476 layer_factory.hpp:77] Creating layer relu4
I0325 04:03:33.852987 32476 net.cpp:86] Creating Layer relu4
I0325 04:03:33.852988 32476 net.cpp:408] relu4 <- conv4
I0325 04:03:33.852993 32476 net.cpp:369] relu4 -> conv4 (in-place)
I0325 04:03:33.853112 32476 net.cpp:124] Setting up relu4
I0325 04:03:33.853118 32476 net.cpp:131] Top shape: 50 384 9 14 (2419200)
I0325 04:03:33.853121 32476 net.cpp:139] Memory required for data: 236720600
I0325 04:03:33.853122 32476 layer_factory.hpp:77] Creating layer conv5
I0325 04:03:33.853129 32476 net.cpp:86] Creating Layer conv5
I0325 04:03:33.853132 32476 net.cpp:408] conv5 <- conv4
I0325 04:03:33.853137 32476 net.cpp:382] conv5 -> conv5
I0325 04:03:33.858067 32476 net.cpp:124] Setting up conv5
I0325 04:03:33.858078 32476 net.cpp:131] Top shape: 50 256 9 14 (1612800)
I0325 04:03:33.858081 32476 net.cpp:139] Memory required for data: 243171800
I0325 04:03:33.858089 32476 layer_factory.hpp:77] Creating layer relu5
I0325 04:03:33.858094 32476 net.cpp:86] Creating Layer relu5
I0325 04:03:33.858096 32476 net.cpp:408] relu5 <- conv5
I0325 04:03:33.858106 32476 net.cpp:369] relu5 -> conv5 (in-place)
I0325 04:03:33.858227 32476 net.cpp:124] Setting up relu5
I0325 04:03:33.858232 32476 net.cpp:131] Top shape: 50 256 9 14 (1612800)
I0325 04:03:33.858234 32476 net.cpp:139] Memory required for data: 249623000
I0325 04:03:33.858237 32476 layer_factory.hpp:77] Creating layer pool5
I0325 04:03:33.858243 32476 net.cpp:86] Creating Layer pool5
I0325 04:03:33.858247 32476 net.cpp:408] pool5 <- conv5
I0325 04:03:33.858249 32476 net.cpp:382] pool5 -> pool5
I0325 04:03:33.858279 32476 net.cpp:124] Setting up pool5
I0325 04:03:33.858283 32476 net.cpp:131] Top shape: 50 256 4 7 (358400)
I0325 04:03:33.858285 32476 net.cpp:139] Memory required for data: 251056600
I0325 04:03:33.858288 32476 layer_factory.hpp:77] Creating layer fc6_msc
I0325 04:03:33.858292 32476 net.cpp:86] Creating Layer fc6_msc
I0325 04:03:33.858294 32476 net.cpp:408] fc6_msc <- pool5
I0325 04:03:33.858299 32476 net.cpp:382] fc6_msc -> fc6_msc
I0325 04:03:34.089154 32476 net.cpp:124] Setting up fc6_msc
I0325 04:03:34.089181 32476 net.cpp:131] Top shape: 50 4096 (204800)
I0325 04:03:34.089185 32476 net.cpp:139] Memory required for data: 251875800
I0325 04:03:34.089193 32476 layer_factory.hpp:77] Creating layer relu6
I0325 04:03:34.089201 32476 net.cpp:86] Creating Layer relu6
I0325 04:03:34.089205 32476 net.cpp:408] relu6 <- fc6_msc
I0325 04:03:34.089210 32476 net.cpp:369] relu6 -> fc6_msc (in-place)
I0325 04:03:34.089597 32476 net.cpp:124] Setting up relu6
I0325 04:03:34.089608 32476 net.cpp:131] Top shape: 50 4096 (204800)
I0325 04:03:34.089610 32476 net.cpp:139] Memory required for data: 252695000
I0325 04:03:34.089613 32476 layer_factory.hpp:77] Creating layer drop6
I0325 04:03:34.089618 32476 net.cpp:86] Creating Layer drop6
I0325 04:03:34.089622 32476 net.cpp:408] drop6 <- fc6_msc
I0325 04:03:34.089625 32476 net.cpp:369] drop6 -> fc6_msc (in-place)
I0325 04:03:34.089651 32476 net.cpp:124] Setting up drop6
I0325 04:03:34.089656 32476 net.cpp:131] Top shape: 50 4096 (204800)
I0325 04:03:34.089658 32476 net.cpp:139] Memory required for data: 253514200
I0325 04:03:34.089660 32476 layer_factory.hpp:77] Creating layer fc7_msc
I0325 04:03:34.089665 32476 net.cpp:86] Creating Layer fc7_msc
I0325 04:03:34.089668 32476 net.cpp:408] fc7_msc <- fc6_msc
I0325 04:03:34.089673 32476 net.cpp:382] fc7_msc -> fc7_msc
I0325 04:03:34.220311 32476 net.cpp:124] Setting up fc7_msc
I0325 04:03:34.220340 32476 net.cpp:131] Top shape: 50 4096 (204800)
I0325 04:03:34.220342 32476 net.cpp:139] Memory required for data: 254333400
I0325 04:03:34.220350 32476 layer_factory.hpp:77] Creating layer relu7
I0325 04:03:34.220358 32476 net.cpp:86] Creating Layer relu7
I0325 04:03:34.220362 32476 net.cpp:408] relu7 <- fc7_msc
I0325 04:03:34.220367 32476 net.cpp:369] relu7 -> fc7_msc (in-place)
I0325 04:03:34.220551 32476 net.cpp:124] Setting up relu7
I0325 04:03:34.220557 32476 net.cpp:131] Top shape: 50 4096 (204800)
I0325 04:03:34.220561 32476 net.cpp:139] Memory required for data: 255152600
I0325 04:03:34.220563 32476 layer_factory.hpp:77] Creating layer drop7
I0325 04:03:34.220568 32476 net.cpp:86] Creating Layer drop7
I0325 04:03:34.220571 32476 net.cpp:408] drop7 <- fc7_msc
I0325 04:03:34.220574 32476 net.cpp:369] drop7 -> fc7_msc (in-place)
I0325 04:03:34.220599 32476 net.cpp:124] Setting up drop7
I0325 04:03:34.220604 32476 net.cpp:131] Top shape: 50 4096 (204800)
I0325 04:03:34.220607 32476 net.cpp:139] Memory required for data: 255971800
I0325 04:03:34.220608 32476 layer_factory.hpp:77] Creating layer fc8_msc
I0325 04:03:34.220613 32476 net.cpp:86] Creating Layer fc8_msc
I0325 04:03:34.220616 32476 net.cpp:408] fc8_msc <- fc7_msc
I0325 04:03:34.220619 32476 net.cpp:382] fc8_msc -> fc8_msc
I0325 04:03:34.220762 32476 net.cpp:124] Setting up fc8_msc
I0325 04:03:34.220767 32476 net.cpp:131] Top shape: 50 2 (100)
I0325 04:03:34.220768 32476 net.cpp:139] Memory required for data: 255972200
I0325 04:03:34.220772 32476 layer_factory.hpp:77] Creating layer fc8_msc_fc8_msc_0_split
I0325 04:03:34.220784 32476 net.cpp:86] Creating Layer fc8_msc_fc8_msc_0_split
I0325 04:03:34.220800 32476 net.cpp:408] fc8_msc_fc8_msc_0_split <- fc8_msc
I0325 04:03:34.220806 32476 net.cpp:382] fc8_msc_fc8_msc_0_split -> fc8_msc_fc8_msc_0_split_0
I0325 04:03:34.220813 32476 net.cpp:382] fc8_msc_fc8_msc_0_split -> fc8_msc_fc8_msc_0_split_1
I0325 04:03:34.220849 32476 net.cpp:124] Setting up fc8_msc_fc8_msc_0_split
I0325 04:03:34.220854 32476 net.cpp:131] Top shape: 50 2 (100)
I0325 04:03:34.220856 32476 net.cpp:131] Top shape: 50 2 (100)
I0325 04:03:34.220859 32476 net.cpp:139] Memory required for data: 255973000
I0325 04:03:34.220860 32476 layer_factory.hpp:77] Creating layer accuracy
I0325 04:03:34.220865 32476 net.cpp:86] Creating Layer accuracy
I0325 04:03:34.220868 32476 net.cpp:408] accuracy <- fc8_msc_fc8_msc_0_split_0
I0325 04:03:34.220871 32476 net.cpp:408] accuracy <- label_msc_data_msc_1_split_0
I0325 04:03:34.220875 32476 net.cpp:382] accuracy -> accuracy
…
