…
I0323 07:39:01.284736 19424 net.cpp:296] The NetState phase (0) differed from the phase (1) specified by a rule in layer accuracy
I0323 07:39:01.284852 19424 net.cpp:53] Initializing net from parameters: 
name: "MCaffeNet"
state {
  phase: TRAIN
  level: 0
  stage: ""
}
layer {
  name: "data_msc"
  type: "ImageData"
  top: "data_msc"
  top: "label_msc"
  include {
    phase: TRAIN
  }
  transform_param {
    mean_value: 296
    mean_value: 103
    mean_value: 108
  }
  image_data_param {
    source: "/media/p307k07/ssd/opt/msc/data/train/list_caffe.txt"
    batch_size: 50
    new_height: 159
    new_width: 240
  }
}
layer {
  name: "conv1"
  type: "Convolution"
  bottom: "data_msc"
  top: "conv1"
  param {
    lr_mult: 0.01
    decay_mult: 0.01
  }
  param {
    lr_mult: 0.02
    decay_mult: 0
  }
  convolution_param {
    num_output: 96
    kernel_size: 11
    stride: 4
    weight_filler {
      type: "gaussian"
      std: 0.01
    }
    bias_filler {
      type: "constant"
      value: 0
    }
  }
}
layer {
  name: "relu1"
  type: "ReLU"
  bottom: "conv1"
  top: "conv1"
}
layer {
  name: "pool1"
  type: "Pooling"
  bottom: "conv1"
  top: "pool1"
  pooling_param {
    pool: MAX
    kernel_size: 3
    stride: 2
  }
}
layer {
  name: "norm1"
  type: "LRN"
  bottom: "pool1"
  top: "norm1"
  lrn_param {
    local_size: 5
    alpha: 0.0001
    beta: 0.75
  }
}
layer {
  name: "conv2"
  type: "Convolution"
  bottom: "norm1"
  top: "conv2"
  param {
    lr_mult: 0.01
    decay_mult: 0.01
  }
  param {
    lr_mult: 0.02
    decay_mult: 0
  }
  convolution_param {
    num_output: 256
    pad: 2
    kernel_size: 5
    group: 2
    weight_filler {
      type: "gaussian"
      std: 0.01
    }
    bias_filler {
      type: "constant"
      value: 1
    }
  }
}
layer {
  name: "relu2"
  type: "ReLU"
  bottom: "conv2"
  top: "conv2"
}
layer {
  name: "pool2"
  type: "Pooling"
  bottom: "conv2"
  top: "pool2"
  pooling_param {
    pool: MAX
    kernel_size: 3
    stride: 2
  }
}
layer {
  name: "norm2"
  type: "LRN"
  bottom: "pool2"
  top: "norm2"
  lrn_param {
    local_size: 5
    alpha: 0.0001
    beta: 0.75
  }
}
layer {
  name: "conv3"
  type: "Convolution"
  bottom: "norm2"
  top: "conv3"
  param {
    lr_mult: 0.01
    decay_mult: 0.01
  }
  param {
    lr_mult: 0.02
    decay_mult: 0
  }
  convolution_param {
    num_output: 384
    pad: 1
    kernel_size: 3
    weight_filler {
      type: "gaussian"
      std: 0.01
    }
    bias_filler {
      type: "constant"
      value: 0
    }
  }
}
layer {
  name: "relu3"
  type: "ReLU"
  bottom: "conv3"
  top: "conv3"
}
layer {
  name: "conv4"
  type: "Convolution"
  bottom: "conv3"
  top: "conv4"
  param {
    lr_mult: 0.01
    decay_mult: 0.01
  }
  param {
    lr_mult: 0.02
    decay_mult: 0
  }
  convolution_param {
    num_output: 384
    pad: 1
    kernel_size: 3
    group: 2
    weight_filler {
      type: "gaussian"
      std: 0.01
    }
    bias_filler {
      type: "constant"
      value: 1
    }
  }
}
layer {
  name: "relu4"
  type: "ReLU"
  bottom: "conv4"
  top: "conv4"
}
layer {
  name: "conv5"
  type: "Convolution"
  bottom: "conv4"
  top: "conv5"
  param {
    lr_mult: 0.01
    decay_mult: 0.01
  }
  param {
    lr_mult: 0.02
    decay_mult: 0
  }
  convolution_param {
    num_output: 256
    pad: 1
    kernel_size: 3
    group: 2
    weight_filler {
      type: "gaussian"
      std: 0.01
    }
    bias_filler {
      type: "constant"
      value: 1
    }
  }
}
layer {
  name: "relu5"
  type: "ReLU"
  bottom: "conv5"
  top: "conv5"
}
layer {
  name: "pool5"
  type: "Pooling"
  bottom: "conv5"
  top: "pool5"
  pooling_param {
    pool: MAX
    kernel_size: 3
    stride: 2
  }
}
layer {
  name: "fc6_msc"
  type: "InnerProduct"
  bottom: "pool5"
  top: "fc6_msc"
  param {
    lr_mult: 1
    decay_mult: 1
  }
  param {
    lr_mult: 2
    decay_mult: 0
  }
  inner_product_param {
    num_output: 4096
    weight_filler {
      type: "gaussian"
      std: 0.005
    }
    bias_filler {
      type: "constant"
      value: 1
    }
  }
}
layer {
  name: "relu6"
  type: "ReLU"
  bottom: "fc6_msc"
  top: "fc6_msc"
}
layer {
  name: "drop6"
  type: "Dropout"
  bottom: "fc6_msc"
  top: "fc6_msc"
  dropout_param {
    dropout_ratio: 0.5
  }
}
layer {
  name: "fc7_msc"
  type: "InnerProduct"
  bottom: "fc6_msc"
  top: "fc7_msc"
  param {
    lr_mult: 1
    decay_mult: 1
  }
  param {
    lr_mult: 2
    decay_mult: 0
  }
  inner_product_param {
    num_output: 4096
    weight_filler {
      type: "gaussian"
      std: 0.005
    }
    bias_filler {
      type: "constant"
      value: 1
    }
  }
}
layer {
  name: "relu7"
  type: "ReLU"
  bottom: "fc7_msc"
  top: "fc7_msc"
}
layer {
  name: "drop7"
  type: "Dropout"
  bottom: "fc7_msc"
  top: "fc7_msc"
  dropout_param {
    dropout_ratio: 0.5
  }
}
layer {
  name: "fc8_msc"
  type: "InnerProduct"
  bottom: "fc7_msc"
  top: "fc8_msc"
  param {
    lr_mult: 1
    decay_mult: 1
  }
  param {
    lr_mult: 2
    decay_mult: 0
  }
  inner_product_param {
    num_output: 2
    weight_filler {
      type: "gaussian"
      std: 0.01
    }
    bias_filler {
      type: "constant"
      value: 0
    }
  }
}
layer {
  name: "loss_msc"
  type: "SoftmaxWithLoss"
  bottom: "fc8_msc"
  bottom: "label_msc"
  top: "loss"
}
I0323 07:39:01.284924 19424 layer_factory.hpp:77] Creating layer data_msc
I0323 07:39:01.284946 19424 net.cpp:86] Creating Layer data_msc
I0323 07:39:01.284951 19424 net.cpp:382] data_msc -> data_msc
I0323 07:39:01.284967 19424 net.cpp:382] data_msc -> label_msc
I0323 07:39:01.284978 19424 image_data_layer.cpp:38] Opening file /media/p307k07/ssd/opt/msc/data/train/list_caffe.txt
I0323 07:39:01.440690 19424 image_data_layer.cpp:63] A total of 513382 images.
I0323 07:39:01.442723 19424 image_data_layer.cpp:90] output data size: 50,3,159,240
I0323 07:39:01.470813 19424 net.cpp:124] Setting up data_msc
I0323 07:39:01.470837 19424 net.cpp:131] Top shape: 50 3 159 240 (5724000)
I0323 07:39:01.470842 19424 net.cpp:131] Top shape: 50 (50)
I0323 07:39:01.470845 19424 net.cpp:139] Memory required for data: 22896200
I0323 07:39:01.470851 19424 layer_factory.hpp:77] Creating layer conv1
I0323 07:39:01.470870 19424 net.cpp:86] Creating Layer conv1
I0323 07:39:01.470873 19424 net.cpp:408] conv1 <- data_msc
I0323 07:39:01.470883 19424 net.cpp:382] conv1 -> conv1
I0323 07:39:03.289542 19424 net.cpp:124] Setting up conv1
I0323 07:39:03.289578 19424 net.cpp:131] Top shape: 50 96 38 58 (10579200)
I0323 07:39:03.289584 19424 net.cpp:139] Memory required for data: 65213000
I0323 07:39:03.289610 19424 layer_factory.hpp:77] Creating layer relu1
I0323 07:39:03.289624 19424 net.cpp:86] Creating Layer relu1
I0323 07:39:03.289629 19424 net.cpp:408] relu1 <- conv1
I0323 07:39:03.289638 19424 net.cpp:369] relu1 -> conv1 (in-place)
I0323 07:39:03.290112 19424 net.cpp:124] Setting up relu1
I0323 07:39:03.290127 19424 net.cpp:131] Top shape: 50 96 38 58 (10579200)
I0323 07:39:03.290132 19424 net.cpp:139] Memory required for data: 107529800
I0323 07:39:03.290136 19424 layer_factory.hpp:77] Creating layer pool1
I0323 07:39:03.290145 19424 net.cpp:86] Creating Layer pool1
I0323 07:39:03.290150 19424 net.cpp:408] pool1 <- conv1
I0323 07:39:03.290158 19424 net.cpp:382] pool1 -> pool1
I0323 07:39:03.290215 19424 net.cpp:124] Setting up pool1
I0323 07:39:03.290223 19424 net.cpp:131] Top shape: 50 96 19 29 (2644800)
I0323 07:39:03.290235 19424 net.cpp:139] Memory required for data: 118109000
I0323 07:39:03.290256 19424 layer_factory.hpp:77] Creating layer norm1
I0323 07:39:03.290269 19424 net.cpp:86] Creating Layer norm1
I0323 07:39:03.290274 19424 net.cpp:408] norm1 <- pool1
I0323 07:39:03.290280 19424 net.cpp:382] norm1 -> norm1
I0323 07:39:03.290519 19424 net.cpp:124] Setting up norm1
I0323 07:39:03.290531 19424 net.cpp:131] Top shape: 50 96 19 29 (2644800)
I0323 07:39:03.290536 19424 net.cpp:139] Memory required for data: 128688200
I0323 07:39:03.290540 19424 layer_factory.hpp:77] Creating layer conv2
I0323 07:39:03.290554 19424 net.cpp:86] Creating Layer conv2
I0323 07:39:03.290558 19424 net.cpp:408] conv2 <- norm1
I0323 07:39:03.290565 19424 net.cpp:382] conv2 -> conv2
I0323 07:39:03.298216 19424 net.cpp:124] Setting up conv2
I0323 07:39:03.298234 19424 net.cpp:131] Top shape: 50 256 19 29 (7052800)
I0323 07:39:03.298239 19424 net.cpp:139] Memory required for data: 156899400
I0323 07:39:03.298252 19424 layer_factory.hpp:77] Creating layer relu2
I0323 07:39:03.298261 19424 net.cpp:86] Creating Layer relu2
I0323 07:39:03.298265 19424 net.cpp:408] relu2 <- conv2
I0323 07:39:03.298272 19424 net.cpp:369] relu2 -> conv2 (in-place)
I0323 07:39:03.298497 19424 net.cpp:124] Setting up relu2
I0323 07:39:03.298509 19424 net.cpp:131] Top shape: 50 256 19 29 (7052800)
I0323 07:39:03.298513 19424 net.cpp:139] Memory required for data: 185110600
I0323 07:39:03.298517 19424 layer_factory.hpp:77] Creating layer pool2
I0323 07:39:03.298524 19424 net.cpp:86] Creating Layer pool2
I0323 07:39:03.298529 19424 net.cpp:408] pool2 <- conv2
I0323 07:39:03.298535 19424 net.cpp:382] pool2 -> pool2
I0323 07:39:03.298588 19424 net.cpp:124] Setting up pool2
I0323 07:39:03.298595 19424 net.cpp:131] Top shape: 50 256 9 14 (1612800)
I0323 07:39:03.298599 19424 net.cpp:139] Memory required for data: 191561800
I0323 07:39:03.298604 19424 layer_factory.hpp:77] Creating layer norm2
I0323 07:39:03.298612 19424 net.cpp:86] Creating Layer norm2
I0323 07:39:03.298617 19424 net.cpp:408] norm2 <- pool2
I0323 07:39:03.298624 19424 net.cpp:382] norm2 -> norm2
I0323 07:39:03.299113 19424 net.cpp:124] Setting up norm2
I0323 07:39:03.299127 19424 net.cpp:131] Top shape: 50 256 9 14 (1612800)
I0323 07:39:03.299132 19424 net.cpp:139] Memory required for data: 198013000
I0323 07:39:03.299136 19424 layer_factory.hpp:77] Creating layer conv3
I0323 07:39:03.299150 19424 net.cpp:86] Creating Layer conv3
I0323 07:39:03.299155 19424 net.cpp:408] conv3 <- norm2
I0323 07:39:03.299167 19424 net.cpp:382] conv3 -> conv3
I0323 07:39:03.313349 19424 net.cpp:124] Setting up conv3
I0323 07:39:03.313366 19424 net.cpp:131] Top shape: 50 384 9 14 (2419200)
I0323 07:39:03.313370 19424 net.cpp:139] Memory required for data: 207689800
I0323 07:39:03.313383 19424 layer_factory.hpp:77] Creating layer relu3
I0323 07:39:03.313391 19424 net.cpp:86] Creating Layer relu3
I0323 07:39:03.313395 19424 net.cpp:408] relu3 <- conv3
I0323 07:39:03.313401 19424 net.cpp:369] relu3 -> conv3 (in-place)
I0323 07:39:03.313601 19424 net.cpp:124] Setting up relu3
I0323 07:39:03.313611 19424 net.cpp:131] Top shape: 50 384 9 14 (2419200)
I0323 07:39:03.313614 19424 net.cpp:139] Memory required for data: 217366600
I0323 07:39:03.313618 19424 layer_factory.hpp:77] Creating layer conv4
I0323 07:39:03.313629 19424 net.cpp:86] Creating Layer conv4
I0323 07:39:03.313634 19424 net.cpp:408] conv4 <- conv3
I0323 07:39:03.313642 19424 net.cpp:382] conv4 -> conv4
I0323 07:39:03.325140 19424 net.cpp:124] Setting up conv4
I0323 07:39:03.325158 19424 net.cpp:131] Top shape: 50 384 9 14 (2419200)
I0323 07:39:03.325162 19424 net.cpp:139] Memory required for data: 227043400
I0323 07:39:03.325170 19424 layer_factory.hpp:77] Creating layer relu4
I0323 07:39:03.325177 19424 net.cpp:86] Creating Layer relu4
I0323 07:39:03.325181 19424 net.cpp:408] relu4 <- conv4
I0323 07:39:03.325189 19424 net.cpp:369] relu4 -> conv4 (in-place)
I0323 07:39:03.325377 19424 net.cpp:124] Setting up relu4
I0323 07:39:03.325387 19424 net.cpp:131] Top shape: 50 384 9 14 (2419200)
I0323 07:39:03.325400 19424 net.cpp:139] Memory required for data: 236720200
I0323 07:39:03.325418 19424 layer_factory.hpp:77] Creating layer conv5
I0323 07:39:03.325429 19424 net.cpp:86] Creating Layer conv5
I0323 07:39:03.325434 19424 net.cpp:408] conv5 <- conv4
I0323 07:39:03.325441 19424 net.cpp:382] conv5 -> conv5
I0323 07:39:03.333859 19424 net.cpp:124] Setting up conv5
I0323 07:39:03.333876 19424 net.cpp:131] Top shape: 50 256 9 14 (1612800)
I0323 07:39:03.333880 19424 net.cpp:139] Memory required for data: 243171400
I0323 07:39:03.333892 19424 layer_factory.hpp:77] Creating layer relu5
I0323 07:39:03.333900 19424 net.cpp:86] Creating Layer relu5
I0323 07:39:03.333904 19424 net.cpp:408] relu5 <- conv5
I0323 07:39:03.333912 19424 net.cpp:369] relu5 -> conv5 (in-place)
I0323 07:39:03.334097 19424 net.cpp:124] Setting up relu5
I0323 07:39:03.334107 19424 net.cpp:131] Top shape: 50 256 9 14 (1612800)
I0323 07:39:03.334111 19424 net.cpp:139] Memory required for data: 249622600
I0323 07:39:03.334115 19424 layer_factory.hpp:77] Creating layer pool5
I0323 07:39:03.334121 19424 net.cpp:86] Creating Layer pool5
I0323 07:39:03.334125 19424 net.cpp:408] pool5 <- conv5
I0323 07:39:03.334132 19424 net.cpp:382] pool5 -> pool5
I0323 07:39:03.334178 19424 net.cpp:124] Setting up pool5
I0323 07:39:03.334185 19424 net.cpp:131] Top shape: 50 256 4 7 (358400)
I0323 07:39:03.334189 19424 net.cpp:139] Memory required for data: 251056200
I0323 07:39:03.334192 19424 layer_factory.hpp:77] Creating layer fc6_msc
I0323 07:39:03.334203 19424 net.cpp:86] Creating Layer fc6_msc
I0323 07:39:03.334208 19424 net.cpp:408] fc6_msc <- pool5
I0323 07:39:03.334213 19424 net.cpp:382] fc6_msc -> fc6_msc
I0323 07:39:03.569612 19424 net.cpp:124] Setting up fc6_msc
I0323 07:39:03.569639 19424 net.cpp:131] Top shape: 50 4096 (204800)
I0323 07:39:03.569643 19424 net.cpp:139] Memory required for data: 251875400
I0323 07:39:03.569650 19424 layer_factory.hpp:77] Creating layer relu6
I0323 07:39:03.569656 19424 net.cpp:86] Creating Layer relu6
I0323 07:39:03.569659 19424 net.cpp:408] relu6 <- fc6_msc
I0323 07:39:03.569665 19424 net.cpp:369] relu6 -> fc6_msc (in-place)
I0323 07:39:03.570031 19424 net.cpp:124] Setting up relu6
I0323 07:39:03.570039 19424 net.cpp:131] Top shape: 50 4096 (204800)
I0323 07:39:03.570042 19424 net.cpp:139] Memory required for data: 252694600
I0323 07:39:03.570044 19424 layer_factory.hpp:77] Creating layer drop6
I0323 07:39:03.570050 19424 net.cpp:86] Creating Layer drop6
I0323 07:39:03.570051 19424 net.cpp:408] drop6 <- fc6_msc
I0323 07:39:03.570056 19424 net.cpp:369] drop6 -> fc6_msc (in-place)
I0323 07:39:03.570077 19424 net.cpp:124] Setting up drop6
I0323 07:39:03.570081 19424 net.cpp:131] Top shape: 50 4096 (204800)
I0323 07:39:03.570083 19424 net.cpp:139] Memory required for data: 253513800
I0323 07:39:03.570086 19424 layer_factory.hpp:77] Creating layer fc7_msc
I0323 07:39:03.570091 19424 net.cpp:86] Creating Layer fc7_msc
I0323 07:39:03.570094 19424 net.cpp:408] fc7_msc <- fc6_msc
I0323 07:39:03.570098 19424 net.cpp:382] fc7_msc -> fc7_msc
I0323 07:39:03.700744 19424 net.cpp:124] Setting up fc7_msc
I0323 07:39:03.700772 19424 net.cpp:131] Top shape: 50 4096 (204800)
I0323 07:39:03.700775 19424 net.cpp:139] Memory required for data: 254333000
I0323 07:39:03.700783 19424 layer_factory.hpp:77] Creating layer relu7
I0323 07:39:03.700790 19424 net.cpp:86] Creating Layer relu7
I0323 07:39:03.700793 19424 net.cpp:408] relu7 <- fc7_msc
I0323 07:39:03.700798 19424 net.cpp:369] relu7 -> fc7_msc (in-place)
I0323 07:39:03.701187 19424 net.cpp:124] Setting up relu7
I0323 07:39:03.701197 19424 net.cpp:131] Top shape: 50 4096 (204800)
I0323 07:39:03.701200 19424 net.cpp:139] Memory required for data: 255152200
I0323 07:39:03.701202 19424 layer_factory.hpp:77] Creating layer drop7
I0323 07:39:03.701211 19424 net.cpp:86] Creating Layer drop7
I0323 07:39:03.701213 19424 net.cpp:408] drop7 <- fc7_msc
I0323 07:39:03.701217 19424 net.cpp:369] drop7 -> fc7_msc (in-place)
I0323 07:39:03.701244 19424 net.cpp:124] Setting up drop7
I0323 07:39:03.701254 19424 net.cpp:131] Top shape: 50 4096 (204800)
I0323 07:39:03.701267 19424 net.cpp:139] Memory required for data: 255971400
I0323 07:39:03.701269 19424 layer_factory.hpp:77] Creating layer fc8_msc
I0323 07:39:03.701274 19424 net.cpp:86] Creating Layer fc8_msc
I0323 07:39:03.701277 19424 net.cpp:408] fc8_msc <- fc7_msc
I0323 07:39:03.701282 19424 net.cpp:382] fc8_msc -> fc8_msc
I0323 07:39:03.701736 19424 net.cpp:124] Setting up fc8_msc
I0323 07:39:03.701745 19424 net.cpp:131] Top shape: 50 2 (100)
I0323 07:39:03.701746 19424 net.cpp:139] Memory required for data: 255971800
I0323 07:39:03.701750 19424 layer_factory.hpp:77] Creating layer loss_msc
I0323 07:39:03.701756 19424 net.cpp:86] Creating Layer loss_msc
I0323 07:39:03.701757 19424 net.cpp:408] loss_msc <- fc8_msc
I0323 07:39:03.701761 19424 net.cpp:408] loss_msc <- label_msc
I0323 07:39:03.701766 19424 net.cpp:382] loss_msc -> loss
…
I0323 07:39:03.702294 19424 net.cpp:296] The NetState phase (1) differed from the phase (0) specified by a rule in layer data_msc
I0323 07:39:03.702414 19424 net.cpp:53] Initializing net from parameters: 
name: "MCaffeNet"
state {
  phase: TEST
}
layer {
  name: "data_msc"
  type: "ImageData"
  top: "data_msc"
  top: "label_msc"
  include {
    phase: TEST
  }
  transform_param {
    mean_value: 296
    mean_value: 103
    mean_value: 108
  }
  image_data_param {
    source: "/media/p307k07/ssd/opt/msc/data/test/list_caffe.txt"
    batch_size: 50
    new_height: 159
    new_width: 240
  }
}
layer {
  name: "conv1"
  type: "Convolution"
  bottom: "data_msc"
  top: "conv1"
  param {
    lr_mult: 0.01
    decay_mult: 0.01
  }
  param {
    lr_mult: 0.02
    decay_mult: 0
  }
  convolution_param {
    num_output: 96
    kernel_size: 11
    stride: 4
    weight_filler {
      type: "gaussian"
      std: 0.01
    }
    bias_filler {
      type: "constant"
      value: 0
    }
  }
}
layer {
  name: "relu1"
  type: "ReLU"
  bottom: "conv1"
  top: "conv1"
}
layer {
  name: "pool1"
  type: "Pooling"
  bottom: "conv1"
  top: "pool1"
  pooling_param {
    pool: MAX
    kernel_size: 3
    stride: 2
  }
}
layer {
  name: "norm1"
  type: "LRN"
  bottom: "pool1"
  top: "norm1"
  lrn_param {
    local_size: 5
    alpha: 0.0001
    beta: 0.75
  }
}
layer {
  name: "conv2"
  type: "Convolution"
  bottom: "norm1"
  top: "conv2"
  param {
    lr_mult: 0.01
    decay_mult: 0.01
  }
  param {
    lr_mult: 0.02
    decay_mult: 0
  }
  convolution_param {
    num_output: 256
    pad: 2
    kernel_size: 5
    group: 2
    weight_filler {
      type: "gaussian"
      std: 0.01
    }
    bias_filler {
      type: "constant"
      value: 1
    }
  }
}
layer {
  name: "relu2"
  type: "ReLU"
  bottom: "conv2"
  top: "conv2"
}
layer {
  name: "pool2"
  type: "Pooling"
  bottom: "conv2"
  top: "pool2"
  pooling_param {
    pool: MAX
    kernel_size: 3
    stride: 2
  }
}
layer {
  name: "norm2"
  type: "LRN"
  bottom: "pool2"
  top: "norm2"
  lrn_param {
    local_size: 5
    alpha: 0.0001
    beta: 0.75
  }
}
layer {
  name: "conv3"
  type: "Convolution"
  bottom: "norm2"
  top: "conv3"
  param {
    lr_mult: 0.01
    decay_mult: 0.01
  }
  param {
    lr_mult: 0.02
    decay_mult: 0
  }
  convolution_param {
    num_output: 384
    pad: 1
    kernel_size: 3
    weight_filler {
      type: "gaussian"
      std: 0.01
    }
    bias_filler {
      type: "constant"
      value: 0
    }
  }
}
layer {
  name: "relu3"
  type: "ReLU"
  bottom: "conv3"
  top: "conv3"
}
layer {
  name: "conv4"
  type: "Convolution"
  bottom: "conv3"
  top: "conv4"
  param {
    lr_mult: 0.01
    decay_mult: 0.01
  }
  param {
    lr_mult: 0.02
    decay_mult: 0
  }
  convolution_param {
    num_output: 384
    pad: 1
    kernel_size: 3
    group: 2
    weight_filler {
      type: "gaussian"
      std: 0.01
    }
    bias_filler {
      type: "constant"
      value: 1
    }
  }
}
layer {
  name: "relu4"
  type: "ReLU"
  bottom: "conv4"
  top: "conv4"
}
layer {
  name: "conv5"
  type: "Convolution"
  bottom: "conv4"
  top: "conv5"
  param {
    lr_mult: 0.01
    decay_mult: 0.01
  }
  param {
    lr_mult: 0.02
    decay_mult: 0
  }
  convolution_param {
    num_output: 256
    pad: 1
    kernel_size: 3
    group: 2
    weight_filler {
      type: "gaussian"
      std: 0.01
    }
    bias_filler {
      type: "constant"
      value: 1
    }
  }
}
layer {
  name: "relu5"
  type: "ReLU"
  bottom: "conv5"
  top: "conv5"
}
layer {
  name: "pool5"
  type: "Pooling"
  bottom: "conv5"
  top: "pool5"
  pooling_param {
    pool: MAX
    kernel_size: 3
    stride: 2
  }
}
layer {
  name: "fc6_msc"
  type: "InnerProduct"
  bottom: "pool5"
  top: "fc6_msc"
  param {
    lr_mult: 1
    decay_mult: 1
  }
  param {
    lr_mult: 2
    decay_mult: 0
  }
  inner_product_param {
    num_output: 4096
    weight_filler {
      type: "gaussian"
      std: 0.005
    }
    bias_filler {
      type: "constant"
      value: 1
    }
  }
}
layer {
  name: "relu6"
  type: "ReLU"
  bottom: "fc6_msc"
  top: "fc6_msc"
}
layer {
  name: "drop6"
  type: "Dropout"
  bottom: "fc6_msc"
  top: "fc6_msc"
  dropout_param {
    dropout_ratio: 0.5
  }
}
layer {
  name: "fc7_msc"
  type: "InnerProduct"
  bottom: "fc6_msc"
  top: "fc7_msc"
  param {
    lr_mult: 1
    decay_mult: 1
  }
  param {
    lr_mult: 2
    decay_mult: 0
  }
  inner_product_param {
    num_output: 4096
    weight_filler {
      type: "gaussian"
      std: 0.005
    }
    bias_filler {
      type: "constant"
      value: 1
    }
  }
}
layer {
  name: "relu7"
  type: "ReLU"
  bottom: "fc7_msc"
  top: "fc7_msc"
}
layer {
  name: "drop7"
  type: "Dropout"
  bottom: "fc7_msc"
  top: "fc7_msc"
  dropout_param {
    dropout_ratio: 0.5
  }
}
layer {
  name: "fc8_msc"
  type: "InnerProduct"
  bottom: "fc7_msc"
  top: "fc8_msc"
  param {
    lr_mult: 1
    decay_mult: 1
  }
  param {
    lr_mult: 2
    decay_mult: 0
  }
  inner_product_param {
    num_output: 2
    weight_filler {
      type: "gaussian"
      std: 0.01
    }
    bias_filler {
      type: "constant"
      value: 0
    }
  }
}
layer {
  name: "accuracy"
  type: "Accuracy"
  bottom: "fc8_msc"
  bottom: "label_msc"
  top: "accuracy"
  include {
    phase: TEST
  }
}
layer {
  name: "loss_msc"
  type: "SoftmaxWithLoss"
  bottom: "fc8_msc"
  bottom: "label_msc"
  top: "loss"
}
I0323 07:39:03.702499 19424 layer_factory.hpp:77] Creating layer data_msc
I0323 07:39:03.702510 19424 net.cpp:86] Creating Layer data_msc
I0323 07:39:03.702513 19424 net.cpp:382] data_msc -> data_msc
I0323 07:39:03.702519 19424 net.cpp:382] data_msc -> label_msc
I0323 07:39:03.702525 19424 image_data_layer.cpp:38] Opening file /media/p307k07/ssd/opt/msc/data/test/list_caffe.txt
I0323 07:39:03.736166 19424 image_data_layer.cpp:63] A total of 85562 images.
I0323 07:39:03.736878 19424 image_data_layer.cpp:90] output data size: 50,3,159,240
I0323 07:39:03.765000 19424 net.cpp:124] Setting up data_msc
I0323 07:39:03.765027 19424 net.cpp:131] Top shape: 50 3 159 240 (5724000)
I0323 07:39:03.765030 19424 net.cpp:131] Top shape: 50 (50)
I0323 07:39:03.765033 19424 net.cpp:139] Memory required for data: 22896200
I0323 07:39:03.765039 19424 layer_factory.hpp:77] Creating layer label_msc_data_msc_1_split
I0323 07:39:03.765049 19424 net.cpp:86] Creating Layer label_msc_data_msc_1_split
I0323 07:39:03.765053 19424 net.cpp:408] label_msc_data_msc_1_split <- label_msc
I0323 07:39:03.765058 19424 net.cpp:382] label_msc_data_msc_1_split -> label_msc_data_msc_1_split_0
I0323 07:39:03.765066 19424 net.cpp:382] label_msc_data_msc_1_split -> label_msc_data_msc_1_split_1
I0323 07:39:03.765120 19424 net.cpp:124] Setting up label_msc_data_msc_1_split
I0323 07:39:03.765125 19424 net.cpp:131] Top shape: 50 (50)
I0323 07:39:03.765128 19424 net.cpp:131] Top shape: 50 (50)
I0323 07:39:03.765130 19424 net.cpp:139] Memory required for data: 22896600
I0323 07:39:03.765133 19424 layer_factory.hpp:77] Creating layer conv1
I0323 07:39:03.765143 19424 net.cpp:86] Creating Layer conv1
I0323 07:39:03.765146 19424 net.cpp:408] conv1 <- data_msc
I0323 07:39:03.765151 19424 net.cpp:382] conv1 -> conv1
I0323 07:39:03.766326 19424 net.cpp:124] Setting up conv1
I0323 07:39:03.766336 19424 net.cpp:131] Top shape: 50 96 38 58 (10579200)
I0323 07:39:03.766340 19424 net.cpp:139] Memory required for data: 65213400
I0323 07:39:03.766347 19424 layer_factory.hpp:77] Creating layer relu1
I0323 07:39:03.766352 19424 net.cpp:86] Creating Layer relu1
I0323 07:39:03.766355 19424 net.cpp:408] relu1 <- conv1
I0323 07:39:03.766358 19424 net.cpp:369] relu1 -> conv1 (in-place)
I0323 07:39:03.766469 19424 net.cpp:124] Setting up relu1
I0323 07:39:03.766475 19424 net.cpp:131] Top shape: 50 96 38 58 (10579200)
I0323 07:39:03.766477 19424 net.cpp:139] Memory required for data: 107530200
I0323 07:39:03.766479 19424 layer_factory.hpp:77] Creating layer pool1
I0323 07:39:03.766485 19424 net.cpp:86] Creating Layer pool1
I0323 07:39:03.766489 19424 net.cpp:408] pool1 <- conv1
I0323 07:39:03.766491 19424 net.cpp:382] pool1 -> pool1
I0323 07:39:03.766521 19424 net.cpp:124] Setting up pool1
I0323 07:39:03.766525 19424 net.cpp:131] Top shape: 50 96 19 29 (2644800)
I0323 07:39:03.766527 19424 net.cpp:139] Memory required for data: 118109400
I0323 07:39:03.766530 19424 layer_factory.hpp:77] Creating layer norm1
I0323 07:39:03.766535 19424 net.cpp:86] Creating Layer norm1
I0323 07:39:03.766536 19424 net.cpp:408] norm1 <- pool1
I0323 07:39:03.766541 19424 net.cpp:382] norm1 -> norm1
I0323 07:39:03.768687 19424 net.cpp:124] Setting up norm1
I0323 07:39:03.768698 19424 net.cpp:131] Top shape: 50 96 19 29 (2644800)
I0323 07:39:03.768702 19424 net.cpp:139] Memory required for data: 128688600
I0323 07:39:03.768704 19424 layer_factory.hpp:77] Creating layer conv2
I0323 07:39:03.768712 19424 net.cpp:86] Creating Layer conv2
I0323 07:39:03.768714 19424 net.cpp:408] conv2 <- norm1
I0323 07:39:03.768723 19424 net.cpp:382] conv2 -> conv2
I0323 07:39:03.772656 19424 net.cpp:124] Setting up conv2
I0323 07:39:03.772666 19424 net.cpp:131] Top shape: 50 256 19 29 (7052800)
I0323 07:39:03.772670 19424 net.cpp:139] Memory required for data: 156899800
I0323 07:39:03.772676 19424 layer_factory.hpp:77] Creating layer relu2
I0323 07:39:03.772680 19424 net.cpp:86] Creating Layer relu2
I0323 07:39:03.772683 19424 net.cpp:408] relu2 <- conv2
I0323 07:39:03.772686 19424 net.cpp:369] relu2 -> conv2 (in-place)
I0323 07:39:03.772796 19424 net.cpp:124] Setting up relu2
I0323 07:39:03.772802 19424 net.cpp:131] Top shape: 50 256 19 29 (7052800)
I0323 07:39:03.772804 19424 net.cpp:139] Memory required for data: 185111000
I0323 07:39:03.772806 19424 layer_factory.hpp:77] Creating layer pool2
I0323 07:39:03.772812 19424 net.cpp:86] Creating Layer pool2
I0323 07:39:03.772814 19424 net.cpp:408] pool2 <- conv2
I0323 07:39:03.772817 19424 net.cpp:382] pool2 -> pool2
I0323 07:39:03.772846 19424 net.cpp:124] Setting up pool2
I0323 07:39:03.772850 19424 net.cpp:131] Top shape: 50 256 9 14 (1612800)
I0323 07:39:03.772852 19424 net.cpp:139] Memory required for data: 191562200
I0323 07:39:03.772855 19424 layer_factory.hpp:77] Creating layer norm2
I0323 07:39:03.772860 19424 net.cpp:86] Creating Layer norm2
I0323 07:39:03.772861 19424 net.cpp:408] norm2 <- pool2
I0323 07:39:03.772864 19424 net.cpp:382] norm2 -> norm2
I0323 07:39:03.773141 19424 net.cpp:124] Setting up norm2
I0323 07:39:03.773149 19424 net.cpp:131] Top shape: 50 256 9 14 (1612800)
I0323 07:39:03.773151 19424 net.cpp:139] Memory required for data: 198013400
I0323 07:39:03.773154 19424 layer_factory.hpp:77] Creating layer conv3
I0323 07:39:03.773160 19424 net.cpp:86] Creating Layer conv3
I0323 07:39:03.773162 19424 net.cpp:408] conv3 <- norm2
I0323 07:39:03.773166 19424 net.cpp:382] conv3 -> conv3
I0323 07:39:03.780908 19424 net.cpp:124] Setting up conv3
I0323 07:39:03.780921 19424 net.cpp:131] Top shape: 50 384 9 14 (2419200)
I0323 07:39:03.780925 19424 net.cpp:139] Memory required for data: 207690200
I0323 07:39:03.780931 19424 layer_factory.hpp:77] Creating layer relu3
I0323 07:39:03.780936 19424 net.cpp:86] Creating Layer relu3
I0323 07:39:03.780939 19424 net.cpp:408] relu3 <- conv3
I0323 07:39:03.780942 19424 net.cpp:369] relu3 -> conv3 (in-place)
I0323 07:39:03.781203 19424 net.cpp:124] Setting up relu3
I0323 07:39:03.781211 19424 net.cpp:131] Top shape: 50 384 9 14 (2419200)
I0323 07:39:03.781213 19424 net.cpp:139] Memory required for data: 217367000
I0323 07:39:03.781216 19424 layer_factory.hpp:77] Creating layer conv4
I0323 07:39:03.781222 19424 net.cpp:86] Creating Layer conv4
I0323 07:39:03.781225 19424 net.cpp:408] conv4 <- conv3
I0323 07:39:03.781229 19424 net.cpp:382] conv4 -> conv4
I0323 07:39:03.788103 19424 net.cpp:124] Setting up conv4
I0323 07:39:03.788115 19424 net.cpp:131] Top shape: 50 384 9 14 (2419200)
I0323 07:39:03.788118 19424 net.cpp:139] Memory required for data: 227043800
I0323 07:39:03.788123 19424 layer_factory.hpp:77] Creating layer relu4
I0323 07:39:03.788128 19424 net.cpp:86] Creating Layer relu4
I0323 07:39:03.788131 19424 net.cpp:408] relu4 <- conv4
I0323 07:39:03.788135 19424 net.cpp:369] relu4 -> conv4 (in-place)
I0323 07:39:03.788250 19424 net.cpp:124] Setting up relu4
I0323 07:39:03.788256 19424 net.cpp:131] Top shape: 50 384 9 14 (2419200)
I0323 07:39:03.788259 19424 net.cpp:139] Memory required for data: 236720600
I0323 07:39:03.788261 19424 layer_factory.hpp:77] Creating layer conv5
I0323 07:39:03.788267 19424 net.cpp:86] Creating Layer conv5
I0323 07:39:03.788269 19424 net.cpp:408] conv5 <- conv4
I0323 07:39:03.788274 19424 net.cpp:382] conv5 -> conv5
I0323 07:39:03.793190 19424 net.cpp:124] Setting up conv5
I0323 07:39:03.793201 19424 net.cpp:131] Top shape: 50 256 9 14 (1612800)
I0323 07:39:03.793205 19424 net.cpp:139] Memory required for data: 243171800
I0323 07:39:03.793212 19424 layer_factory.hpp:77] Creating layer relu5
I0323 07:39:03.793216 19424 net.cpp:86] Creating Layer relu5
I0323 07:39:03.793218 19424 net.cpp:408] relu5 <- conv5
I0323 07:39:03.793228 19424 net.cpp:369] relu5 -> conv5 (in-place)
I0323 07:39:03.793345 19424 net.cpp:124] Setting up relu5
I0323 07:39:03.793351 19424 net.cpp:131] Top shape: 50 256 9 14 (1612800)
I0323 07:39:03.793354 19424 net.cpp:139] Memory required for data: 249623000
I0323 07:39:03.793355 19424 layer_factory.hpp:77] Creating layer pool5
I0323 07:39:03.793364 19424 net.cpp:86] Creating Layer pool5
I0323 07:39:03.793365 19424 net.cpp:408] pool5 <- conv5
I0323 07:39:03.793370 19424 net.cpp:382] pool5 -> pool5
I0323 07:39:03.793397 19424 net.cpp:124] Setting up pool5
I0323 07:39:03.793401 19424 net.cpp:131] Top shape: 50 256 4 7 (358400)
I0323 07:39:03.793403 19424 net.cpp:139] Memory required for data: 251056600
I0323 07:39:03.793406 19424 layer_factory.hpp:77] Creating layer fc6_msc
I0323 07:39:03.793411 19424 net.cpp:86] Creating Layer fc6_msc
I0323 07:39:03.793413 19424 net.cpp:408] fc6_msc <- pool5
I0323 07:39:03.793416 19424 net.cpp:382] fc6_msc -> fc6_msc
I0323 07:39:04.025305 19424 net.cpp:124] Setting up fc6_msc
I0323 07:39:04.025333 19424 net.cpp:131] Top shape: 50 4096 (204800)
I0323 07:39:04.025336 19424 net.cpp:139] Memory required for data: 251875800
I0323 07:39:04.025349 19424 layer_factory.hpp:77] Creating layer relu6
I0323 07:39:04.025357 19424 net.cpp:86] Creating Layer relu6
I0323 07:39:04.025360 19424 net.cpp:408] relu6 <- fc6_msc
I0323 07:39:04.025365 19424 net.cpp:369] relu6 -> fc6_msc (in-place)
I0323 07:39:04.025764 19424 net.cpp:124] Setting up relu6
I0323 07:39:04.025774 19424 net.cpp:131] Top shape: 50 4096 (204800)
I0323 07:39:04.025775 19424 net.cpp:139] Memory required for data: 252695000
I0323 07:39:04.025777 19424 layer_factory.hpp:77] Creating layer drop6
I0323 07:39:04.025784 19424 net.cpp:86] Creating Layer drop6
I0323 07:39:04.025785 19424 net.cpp:408] drop6 <- fc6_msc
I0323 07:39:04.025789 19424 net.cpp:369] drop6 -> fc6_msc (in-place)
I0323 07:39:04.025810 19424 net.cpp:124] Setting up drop6
I0323 07:39:04.025813 19424 net.cpp:131] Top shape: 50 4096 (204800)
I0323 07:39:04.025815 19424 net.cpp:139] Memory required for data: 253514200
I0323 07:39:04.025817 19424 layer_factory.hpp:77] Creating layer fc7_msc
I0323 07:39:04.025823 19424 net.cpp:86] Creating Layer fc7_msc
I0323 07:39:04.025825 19424 net.cpp:408] fc7_msc <- fc6_msc
I0323 07:39:04.025828 19424 net.cpp:382] fc7_msc -> fc7_msc
I0323 07:39:04.156504 19424 net.cpp:124] Setting up fc7_msc
I0323 07:39:04.156533 19424 net.cpp:131] Top shape: 50 4096 (204800)
I0323 07:39:04.156535 19424 net.cpp:139] Memory required for data: 254333400
I0323 07:39:04.156543 19424 layer_factory.hpp:77] Creating layer relu7
I0323 07:39:04.156551 19424 net.cpp:86] Creating Layer relu7
I0323 07:39:04.156554 19424 net.cpp:408] relu7 <- fc7_msc
I0323 07:39:04.156560 19424 net.cpp:369] relu7 -> fc7_msc (in-place)
I0323 07:39:04.156741 19424 net.cpp:124] Setting up relu7
I0323 07:39:04.156749 19424 net.cpp:131] Top shape: 50 4096 (204800)
I0323 07:39:04.156751 19424 net.cpp:139] Memory required for data: 255152600
I0323 07:39:04.156754 19424 layer_factory.hpp:77] Creating layer drop7
I0323 07:39:04.156759 19424 net.cpp:86] Creating Layer drop7
I0323 07:39:04.156762 19424 net.cpp:408] drop7 <- fc7_msc
I0323 07:39:04.156766 19424 net.cpp:369] drop7 -> fc7_msc (in-place)
I0323 07:39:04.156791 19424 net.cpp:124] Setting up drop7
I0323 07:39:04.156795 19424 net.cpp:131] Top shape: 50 4096 (204800)
I0323 07:39:04.156797 19424 net.cpp:139] Memory required for data: 255971800
I0323 07:39:04.156800 19424 layer_factory.hpp:77] Creating layer fc8_msc
I0323 07:39:04.156805 19424 net.cpp:86] Creating Layer fc8_msc
I0323 07:39:04.156807 19424 net.cpp:408] fc8_msc <- fc7_msc
I0323 07:39:04.156810 19424 net.cpp:382] fc8_msc -> fc8_msc
I0323 07:39:04.156972 19424 net.cpp:124] Setting up fc8_msc
I0323 07:39:04.156980 19424 net.cpp:131] Top shape: 50 2 (100)
I0323 07:39:04.156981 19424 net.cpp:139] Memory required for data: 255972200
I0323 07:39:04.156985 19424 layer_factory.hpp:77] Creating layer fc8_msc_fc8_msc_0_split
I0323 07:39:04.156999 19424 net.cpp:86] Creating Layer fc8_msc_fc8_msc_0_split
I0323 07:39:04.157013 19424 net.cpp:408] fc8_msc_fc8_msc_0_split <- fc8_msc
I0323 07:39:04.157018 19424 net.cpp:382] fc8_msc_fc8_msc_0_split -> fc8_msc_fc8_msc_0_split_0
I0323 07:39:04.157023 19424 net.cpp:382] fc8_msc_fc8_msc_0_split -> fc8_msc_fc8_msc_0_split_1
I0323 07:39:04.157050 19424 net.cpp:124] Setting up fc8_msc_fc8_msc_0_split
I0323 07:39:04.157054 19424 net.cpp:131] Top shape: 50 2 (100)
I0323 07:39:04.157057 19424 net.cpp:131] Top shape: 50 2 (100)
I0323 07:39:04.157058 19424 net.cpp:139] Memory required for data: 255973000
I0323 07:39:04.157060 19424 layer_factory.hpp:77] Creating layer accuracy
I0323 07:39:04.157065 19424 net.cpp:86] Creating Layer accuracy
I0323 07:39:04.157068 19424 net.cpp:408] accuracy <- fc8_msc_fc8_msc_0_split_0
I0323 07:39:04.157070 19424 net.cpp:408] accuracy <- label_msc_data_msc_1_split_0
I0323 07:39:04.157074 19424 net.cpp:382] accuracy -> accuracy
…
