…
I0324 13:20:15.030534 29595 net.cpp:296] The NetState phase (0) differed from the phase (1) specified by a rule in layer accuracy
I0324 13:20:15.030889 29595 net.cpp:53] Initializing net from parameters: 
name: "MCaffeNet"
state {
  phase: TRAIN
  level: 0
  stage: ""
}
layer {
  name: "data_msc"
  type: "ImageData"
  top: "data_msc"
  top: "label_msc"
  include {
    phase: TRAIN
  }
  transform_param {
    mean_value: 296
    mean_value: 103
    mean_value: 108
  }
  image_data_param {
    source: "/media/p307k07/ssd/opt/msc/data/train/list_caffe.txt"
    batch_size: 50
    new_height: 159
    new_width: 240
  }
}
layer {
  name: "conv1"
  type: "Convolution"
  bottom: "data_msc"
  top: "conv1"
  param {
    lr_mult: 0.01
    decay_mult: 0.01
  }
  param {
    lr_mult: 0.02
    decay_mult: 0
  }
  convolution_param {
    num_output: 96
    kernel_size: 11
    stride: 4
    weight_filler {
      type: "gaussian"
      std: 0.01
    }
    bias_filler {
      type: "constant"
      value: 0
    }
  }
}
layer {
  name: "relu1"
  type: "ReLU"
  bottom: "conv1"
  top: "conv1"
}
layer {
  name: "pool1"
  type: "Pooling"
  bottom: "conv1"
  top: "pool1"
  pooling_param {
    pool: MAX
    kernel_size: 3
    stride: 2
  }
}
layer {
  name: "norm1"
  type: "LRN"
  bottom: "pool1"
  top: "norm1"
  lrn_param {
    local_size: 5
    alpha: 0.0001
    beta: 0.75
  }
}
layer {
  name: "conv2"
  type: "Convolution"
  bottom: "norm1"
  top: "conv2"
  param {
    lr_mult: 0.01
    decay_mult: 0.01
  }
  param {
    lr_mult: 0.02
    decay_mult: 0
  }
  convolution_param {
    num_output: 256
    pad: 2
    kernel_size: 5
    group: 2
    weight_filler {
      type: "gaussian"
      std: 0.01
    }
    bias_filler {
      type: "constant"
      value: 1
    }
  }
}
layer {
  name: "relu2"
  type: "ReLU"
  bottom: "conv2"
  top: "conv2"
}
layer {
  name: "pool2"
  type: "Pooling"
  bottom: "conv2"
  top: "pool2"
  pooling_param {
    pool: MAX
    kernel_size: 3
    stride: 2
  }
}
layer {
  name: "norm2"
  type: "LRN"
  bottom: "pool2"
  top: "norm2"
  lrn_param {
    local_size: 5
    alpha: 0.0001
    beta: 0.75
  }
}
layer {
  name: "conv3"
  type: "Convolution"
  bottom: "norm2"
  top: "conv3"
  param {
    lr_mult: 0.01
    decay_mult: 0.01
  }
  param {
    lr_mult: 0.02
    decay_mult: 0
  }
  convolution_param {
    num_output: 384
    pad: 1
    kernel_size: 3
    weight_filler {
      type: "gaussian"
      std: 0.01
    }
    bias_filler {
      type: "constant"
      value: 0
    }
  }
}
layer {
  name: "relu3"
  type: "ReLU"
  bottom: "conv3"
  top: "conv3"
}
layer {
  name: "conv4"
  type: "Convolution"
  bottom: "conv3"
  top: "conv4"
  param {
    lr_mult: 0.01
    decay_mult: 0.01
  }
  param {
    lr_mult: 0.02
    decay_mult: 0
  }
  convolution_param {
    num_output: 384
    pad: 1
    kernel_size: 3
    group: 2
    weight_filler {
      type: "gaussian"
      std: 0.01
    }
    bias_filler {
      type: "constant"
      value: 1
    }
  }
}
layer {
  name: "relu4"
  type: "ReLU"
  bottom: "conv4"
  top: "conv4"
}
layer {
  name: "conv5"
  type: "Convolution"
  bottom: "conv4"
  top: "conv5"
  param {
    lr_mult: 0.01
    decay_mult: 0.01
  }
  param {
    lr_mult: 0.02
    decay_mult: 0
  }
  convolution_param {
    num_output: 256
    pad: 1
    kernel_size: 3
    group: 2
    weight_filler {
      type: "gaussian"
      std: 0.01
    }
    bias_filler {
      type: "constant"
      value: 1
    }
  }
}
layer {
  name: "relu5"
  type: "ReLU"
  bottom: "conv5"
  top: "conv5"
}
layer {
  name: "pool5"
  type: "Pooling"
  bottom: "conv5"
  top: "pool5"
  pooling_param {
    pool: MAX
    kernel_size: 3
    stride: 2
  }
}
layer {
  name: "fc6_msc"
  type: "InnerProduct"
  bottom: "pool5"
  top: "fc6_msc"
  param {
    lr_mult: 1
    decay_mult: 1
  }
  param {
    lr_mult: 2
    decay_mult: 0
  }
  inner_product_param {
    num_output: 4096
    weight_filler {
      type: "gaussian"
      std: 0.005
    }
    bias_filler {
      type: "constant"
      value: 1
    }
  }
}
layer {
  name: "relu6"
  type: "ReLU"
  bottom: "fc6_msc"
  top: "fc6_msc"
}
layer {
  name: "drop6"
  type: "Dropout"
  bottom: "fc6_msc"
  top: "fc6_msc"
  dropout_param {
    dropout_ratio: 0.5
  }
}
layer {
  name: "fc7_msc"
  type: "InnerProduct"
  bottom: "fc6_msc"
  top: "fc7_msc"
  param {
    lr_mult: 1
    decay_mult: 1
  }
  param {
    lr_mult: 2
    decay_mult: 0
  }
  inner_product_param {
    num_output: 4096
    weight_filler {
      type: "gaussian"
      std: 0.005
    }
    bias_filler {
      type: "constant"
      value: 1
    }
  }
}
layer {
  name: "relu7"
  type: "ReLU"
  bottom: "fc7_msc"
  top: "fc7_msc"
}
layer {
  name: "drop7"
  type: "Dropout"
  bottom: "fc7_msc"
  top: "fc7_msc"
  dropout_param {
    dropout_ratio: 0.7
  }
}
layer {
  name: "fc8_msc"
  type: "InnerProduct"
  bottom: "fc7_msc"
  top: "fc8_msc"
  param {
    lr_mult: 1
    decay_mult: 1
  }
  param {
    lr_mult: 2
    decay_mult: 0
  }
  inner_product_param {
    num_output: 2
    weight_filler {
      type: "gaussian"
      std: 0.01
    }
    bias_filler {
      type: "constant"
      value: 0
    }
  }
}
layer {
  name: "loss_msc"
  type: "SoftmaxWithLoss"
  bottom: "fc8_msc"
  bottom: "label_msc"
  top: "loss"
}
I0324 13:20:15.031095 29595 layer_factory.hpp:77] Creating layer data_msc
I0324 13:20:15.031147 29595 net.cpp:86] Creating Layer data_msc
I0324 13:20:15.031162 29595 net.cpp:382] data_msc -> data_msc
I0324 13:20:15.031199 29595 net.cpp:382] data_msc -> label_msc
I0324 13:20:15.031231 29595 image_data_layer.cpp:38] Opening file /media/p307k07/ssd/opt/msc/data/train/list_caffe.txt
I0324 13:20:15.275815 29595 image_data_layer.cpp:63] A total of 513382 images.
I0324 13:20:15.278028 29595 image_data_layer.cpp:90] output data size: 50,3,159,240
I0324 13:20:15.307379 29595 net.cpp:124] Setting up data_msc
I0324 13:20:15.307404 29595 net.cpp:131] Top shape: 50 3 159 240 (5724000)
I0324 13:20:15.307407 29595 net.cpp:131] Top shape: 50 (50)
I0324 13:20:15.307410 29595 net.cpp:139] Memory required for data: 22896200
I0324 13:20:15.307416 29595 layer_factory.hpp:77] Creating layer conv1
I0324 13:20:15.307433 29595 net.cpp:86] Creating Layer conv1
I0324 13:20:15.307438 29595 net.cpp:408] conv1 <- data_msc
I0324 13:20:15.307449 29595 net.cpp:382] conv1 -> conv1
I0324 13:20:17.594758 29595 net.cpp:124] Setting up conv1
I0324 13:20:17.594827 29595 net.cpp:131] Top shape: 50 96 38 58 (10579200)
I0324 13:20:17.594838 29595 net.cpp:139] Memory required for data: 65213000
I0324 13:20:17.594897 29595 layer_factory.hpp:77] Creating layer relu1
I0324 13:20:17.594921 29595 net.cpp:86] Creating Layer relu1
I0324 13:20:17.594931 29595 net.cpp:408] relu1 <- conv1
I0324 13:20:17.594945 29595 net.cpp:369] relu1 -> conv1 (in-place)
I0324 13:20:17.595860 29595 net.cpp:124] Setting up relu1
I0324 13:20:17.595890 29595 net.cpp:131] Top shape: 50 96 38 58 (10579200)
I0324 13:20:17.595901 29595 net.cpp:139] Memory required for data: 107529800
I0324 13:20:17.595909 29595 layer_factory.hpp:77] Creating layer pool1
I0324 13:20:17.595952 29595 net.cpp:86] Creating Layer pool1
I0324 13:20:17.595963 29595 net.cpp:408] pool1 <- conv1
I0324 13:20:17.595976 29595 net.cpp:382] pool1 -> pool1
I0324 13:20:17.596091 29595 net.cpp:124] Setting up pool1
I0324 13:20:17.596107 29595 net.cpp:131] Top shape: 50 96 19 29 (2644800)
I0324 13:20:17.596130 29595 net.cpp:139] Memory required for data: 118109000
I0324 13:20:17.596169 29595 layer_factory.hpp:77] Creating layer norm1
I0324 13:20:17.596194 29595 net.cpp:86] Creating Layer norm1
I0324 13:20:17.596202 29595 net.cpp:408] norm1 <- pool1
I0324 13:20:17.596215 29595 net.cpp:382] norm1 -> norm1
I0324 13:20:17.596696 29595 net.cpp:124] Setting up norm1
I0324 13:20:17.596721 29595 net.cpp:131] Top shape: 50 96 19 29 (2644800)
I0324 13:20:17.596730 29595 net.cpp:139] Memory required for data: 128688200
I0324 13:20:17.596740 29595 layer_factory.hpp:77] Creating layer conv2
I0324 13:20:17.596763 29595 net.cpp:86] Creating Layer conv2
I0324 13:20:17.596773 29595 net.cpp:408] conv2 <- norm1
I0324 13:20:17.596787 29595 net.cpp:382] conv2 -> conv2
I0324 13:20:17.611086 29595 net.cpp:124] Setting up conv2
I0324 13:20:17.611119 29595 net.cpp:131] Top shape: 50 256 19 29 (7052800)
I0324 13:20:17.611129 29595 net.cpp:139] Memory required for data: 156899400
I0324 13:20:17.611150 29595 layer_factory.hpp:77] Creating layer relu2
I0324 13:20:17.611165 29595 net.cpp:86] Creating Layer relu2
I0324 13:20:17.611172 29595 net.cpp:408] relu2 <- conv2
I0324 13:20:17.611183 29595 net.cpp:369] relu2 -> conv2 (in-place)
I0324 13:20:17.611568 29595 net.cpp:124] Setting up relu2
I0324 13:20:17.611588 29595 net.cpp:131] Top shape: 50 256 19 29 (7052800)
I0324 13:20:17.611596 29595 net.cpp:139] Memory required for data: 185110600
I0324 13:20:17.611603 29595 layer_factory.hpp:77] Creating layer pool2
I0324 13:20:17.611616 29595 net.cpp:86] Creating Layer pool2
I0324 13:20:17.611624 29595 net.cpp:408] pool2 <- conv2
I0324 13:20:17.611635 29595 net.cpp:382] pool2 -> pool2
I0324 13:20:17.611722 29595 net.cpp:124] Setting up pool2
I0324 13:20:17.611737 29595 net.cpp:131] Top shape: 50 256 9 14 (1612800)
I0324 13:20:17.611743 29595 net.cpp:139] Memory required for data: 191561800
I0324 13:20:17.611750 29595 layer_factory.hpp:77] Creating layer norm2
I0324 13:20:17.611765 29595 net.cpp:86] Creating Layer norm2
I0324 13:20:17.611773 29595 net.cpp:408] norm2 <- pool2
I0324 13:20:17.611784 29595 net.cpp:382] norm2 -> norm2
I0324 13:20:17.612663 29595 net.cpp:124] Setting up norm2
I0324 13:20:17.612691 29595 net.cpp:131] Top shape: 50 256 9 14 (1612800)
I0324 13:20:17.612699 29595 net.cpp:139] Memory required for data: 198013000
I0324 13:20:17.612709 29595 layer_factory.hpp:77] Creating layer conv3
I0324 13:20:17.612730 29595 net.cpp:86] Creating Layer conv3
I0324 13:20:17.612738 29595 net.cpp:408] conv3 <- norm2
I0324 13:20:17.612751 29595 net.cpp:382] conv3 -> conv3
I0324 13:20:17.637006 29595 net.cpp:124] Setting up conv3
I0324 13:20:17.637035 29595 net.cpp:131] Top shape: 50 384 9 14 (2419200)
I0324 13:20:17.637042 29595 net.cpp:139] Memory required for data: 207689800
I0324 13:20:17.637064 29595 layer_factory.hpp:77] Creating layer relu3
I0324 13:20:17.637078 29595 net.cpp:86] Creating Layer relu3
I0324 13:20:17.637084 29595 net.cpp:408] relu3 <- conv3
I0324 13:20:17.637094 29595 net.cpp:369] relu3 -> conv3 (in-place)
I0324 13:20:17.637437 29595 net.cpp:124] Setting up relu3
I0324 13:20:17.637456 29595 net.cpp:131] Top shape: 50 384 9 14 (2419200)
I0324 13:20:17.637462 29595 net.cpp:139] Memory required for data: 217366600
I0324 13:20:17.637468 29595 layer_factory.hpp:77] Creating layer conv4
I0324 13:20:17.637487 29595 net.cpp:86] Creating Layer conv4
I0324 13:20:17.637495 29595 net.cpp:408] conv4 <- conv3
I0324 13:20:17.637506 29595 net.cpp:382] conv4 -> conv4
I0324 13:20:17.650506 29595 net.cpp:124] Setting up conv4
I0324 13:20:17.650526 29595 net.cpp:131] Top shape: 50 384 9 14 (2419200)
I0324 13:20:17.650530 29595 net.cpp:139] Memory required for data: 227043400
I0324 13:20:17.650538 29595 layer_factory.hpp:77] Creating layer relu4
I0324 13:20:17.650547 29595 net.cpp:86] Creating Layer relu4
I0324 13:20:17.650550 29595 net.cpp:408] relu4 <- conv4
I0324 13:20:17.650559 29595 net.cpp:369] relu4 -> conv4 (in-place)
I0324 13:20:17.650773 29595 net.cpp:124] Setting up relu4
I0324 13:20:17.650782 29595 net.cpp:131] Top shape: 50 384 9 14 (2419200)
I0324 13:20:17.650796 29595 net.cpp:139] Memory required for data: 236720200
I0324 13:20:17.650815 29595 layer_factory.hpp:77] Creating layer conv5
I0324 13:20:17.650830 29595 net.cpp:86] Creating Layer conv5
I0324 13:20:17.650833 29595 net.cpp:408] conv5 <- conv4
I0324 13:20:17.650841 29595 net.cpp:382] conv5 -> conv5
I0324 13:20:17.658787 29595 net.cpp:124] Setting up conv5
I0324 13:20:17.658803 29595 net.cpp:131] Top shape: 50 256 9 14 (1612800)
I0324 13:20:17.658807 29595 net.cpp:139] Memory required for data: 243171400
I0324 13:20:17.658818 29595 layer_factory.hpp:77] Creating layer relu5
I0324 13:20:17.658824 29595 net.cpp:86] Creating Layer relu5
I0324 13:20:17.658828 29595 net.cpp:408] relu5 <- conv5
I0324 13:20:17.658834 29595 net.cpp:369] relu5 -> conv5 (in-place)
I0324 13:20:17.659005 29595 net.cpp:124] Setting up relu5
I0324 13:20:17.659014 29595 net.cpp:131] Top shape: 50 256 9 14 (1612800)
I0324 13:20:17.659018 29595 net.cpp:139] Memory required for data: 249622600
I0324 13:20:17.659020 29595 layer_factory.hpp:77] Creating layer pool5
I0324 13:20:17.659029 29595 net.cpp:86] Creating Layer pool5
I0324 13:20:17.659034 29595 net.cpp:408] pool5 <- conv5
I0324 13:20:17.659039 29595 net.cpp:382] pool5 -> pool5
I0324 13:20:17.659085 29595 net.cpp:124] Setting up pool5
I0324 13:20:17.659091 29595 net.cpp:131] Top shape: 50 256 4 7 (358400)
I0324 13:20:17.659095 29595 net.cpp:139] Memory required for data: 251056200
I0324 13:20:17.659097 29595 layer_factory.hpp:77] Creating layer fc6_msc
I0324 13:20:17.659107 29595 net.cpp:86] Creating Layer fc6_msc
I0324 13:20:17.659111 29595 net.cpp:408] fc6_msc <- pool5
I0324 13:20:17.659116 29595 net.cpp:382] fc6_msc -> fc6_msc
I0324 13:20:17.915091 29595 net.cpp:124] Setting up fc6_msc
I0324 13:20:17.915117 29595 net.cpp:131] Top shape: 50 4096 (204800)
I0324 13:20:17.915120 29595 net.cpp:139] Memory required for data: 251875400
I0324 13:20:17.915127 29595 layer_factory.hpp:77] Creating layer relu6
I0324 13:20:17.915134 29595 net.cpp:86] Creating Layer relu6
I0324 13:20:17.915138 29595 net.cpp:408] relu6 <- fc6_msc
I0324 13:20:17.915143 29595 net.cpp:369] relu6 -> fc6_msc (in-place)
I0324 13:20:17.915513 29595 net.cpp:124] Setting up relu6
I0324 13:20:17.915520 29595 net.cpp:131] Top shape: 50 4096 (204800)
I0324 13:20:17.915524 29595 net.cpp:139] Memory required for data: 252694600
I0324 13:20:17.915525 29595 layer_factory.hpp:77] Creating layer drop6
I0324 13:20:17.915530 29595 net.cpp:86] Creating Layer drop6
I0324 13:20:17.915532 29595 net.cpp:408] drop6 <- fc6_msc
I0324 13:20:17.915537 29595 net.cpp:369] drop6 -> fc6_msc (in-place)
I0324 13:20:17.915560 29595 net.cpp:124] Setting up drop6
I0324 13:20:17.915562 29595 net.cpp:131] Top shape: 50 4096 (204800)
I0324 13:20:17.915565 29595 net.cpp:139] Memory required for data: 253513800
I0324 13:20:17.915567 29595 layer_factory.hpp:77] Creating layer fc7_msc
I0324 13:20:17.915573 29595 net.cpp:86] Creating Layer fc7_msc
I0324 13:20:17.915575 29595 net.cpp:408] fc7_msc <- fc6_msc
I0324 13:20:17.915580 29595 net.cpp:382] fc7_msc -> fc7_msc
I0324 13:20:18.046289 29595 net.cpp:124] Setting up fc7_msc
I0324 13:20:18.046315 29595 net.cpp:131] Top shape: 50 4096 (204800)
I0324 13:20:18.046319 29595 net.cpp:139] Memory required for data: 254333000
I0324 13:20:18.046326 29595 layer_factory.hpp:77] Creating layer relu7
I0324 13:20:18.046334 29595 net.cpp:86] Creating Layer relu7
I0324 13:20:18.046336 29595 net.cpp:408] relu7 <- fc7_msc
I0324 13:20:18.046342 29595 net.cpp:369] relu7 -> fc7_msc (in-place)
I0324 13:20:18.046731 29595 net.cpp:124] Setting up relu7
I0324 13:20:18.046741 29595 net.cpp:131] Top shape: 50 4096 (204800)
I0324 13:20:18.046743 29595 net.cpp:139] Memory required for data: 255152200
I0324 13:20:18.046746 29595 layer_factory.hpp:77] Creating layer drop7
I0324 13:20:18.046752 29595 net.cpp:86] Creating Layer drop7
I0324 13:20:18.046756 29595 net.cpp:408] drop7 <- fc7_msc
I0324 13:20:18.046761 29595 net.cpp:369] drop7 -> fc7_msc (in-place)
I0324 13:20:18.046783 29595 net.cpp:124] Setting up drop7
I0324 13:20:18.046793 29595 net.cpp:131] Top shape: 50 4096 (204800)
I0324 13:20:18.046805 29595 net.cpp:139] Memory required for data: 255971400
I0324 13:20:18.046808 29595 layer_factory.hpp:77] Creating layer fc8_msc
I0324 13:20:18.046814 29595 net.cpp:86] Creating Layer fc8_msc
I0324 13:20:18.046816 29595 net.cpp:408] fc8_msc <- fc7_msc
I0324 13:20:18.046821 29595 net.cpp:382] fc8_msc -> fc8_msc
I0324 13:20:18.047272 29595 net.cpp:124] Setting up fc8_msc
I0324 13:20:18.047281 29595 net.cpp:131] Top shape: 50 2 (100)
I0324 13:20:18.047282 29595 net.cpp:139] Memory required for data: 255971800
I0324 13:20:18.047287 29595 layer_factory.hpp:77] Creating layer loss_msc
I0324 13:20:18.047291 29595 net.cpp:86] Creating Layer loss_msc
I0324 13:20:18.047294 29595 net.cpp:408] loss_msc <- fc8_msc
I0324 13:20:18.047297 29595 net.cpp:408] loss_msc <- label_msc
I0324 13:20:18.047307 29595 net.cpp:382] loss_msc -> loss
…
I0324 13:20:18.047852 29595 net.cpp:296] The NetState phase (1) differed from the phase (0) specified by a rule in layer data_msc
I0324 13:20:18.047981 29595 net.cpp:53] Initializing net from parameters: 
name: "MCaffeNet"
state {
  phase: TEST
}
layer {
  name: "data_msc"
  type: "ImageData"
  top: "data_msc"
  top: "label_msc"
  include {
    phase: TEST
  }
  transform_param {
    mean_value: 296
    mean_value: 103
    mean_value: 108
  }
  image_data_param {
    source: "/media/p307k07/ssd/opt/msc/data/test/list_caffe.txt"
    batch_size: 50
    new_height: 159
    new_width: 240
  }
}
layer {
  name: "conv1"
  type: "Convolution"
  bottom: "data_msc"
  top: "conv1"
  param {
    lr_mult: 0.01
    decay_mult: 0.01
  }
  param {
    lr_mult: 0.02
    decay_mult: 0
  }
  convolution_param {
    num_output: 96
    kernel_size: 11
    stride: 4
    weight_filler {
      type: "gaussian"
      std: 0.01
    }
    bias_filler {
      type: "constant"
      value: 0
    }
  }
}
layer {
  name: "relu1"
  type: "ReLU"
  bottom: "conv1"
  top: "conv1"
}
layer {
  name: "pool1"
  type: "Pooling"
  bottom: "conv1"
  top: "pool1"
  pooling_param {
    pool: MAX
    kernel_size: 3
    stride: 2
  }
}
layer {
  name: "norm1"
  type: "LRN"
  bottom: "pool1"
  top: "norm1"
  lrn_param {
    local_size: 5
    alpha: 0.0001
    beta: 0.75
  }
}
layer {
  name: "conv2"
  type: "Convolution"
  bottom: "norm1"
  top: "conv2"
  param {
    lr_mult: 0.01
    decay_mult: 0.01
  }
  param {
    lr_mult: 0.02
    decay_mult: 0
  }
  convolution_param {
    num_output: 256
    pad: 2
    kernel_size: 5
    group: 2
    weight_filler {
      type: "gaussian"
      std: 0.01
    }
    bias_filler {
      type: "constant"
      value: 1
    }
  }
}
layer {
  name: "relu2"
  type: "ReLU"
  bottom: "conv2"
  top: "conv2"
}
layer {
  name: "pool2"
  type: "Pooling"
  bottom: "conv2"
  top: "pool2"
  pooling_param {
    pool: MAX
    kernel_size: 3
    stride: 2
  }
}
layer {
  name: "norm2"
  type: "LRN"
  bottom: "pool2"
  top: "norm2"
  lrn_param {
    local_size: 5
    alpha: 0.0001
    beta: 0.75
  }
}
layer {
  name: "conv3"
  type: "Convolution"
  bottom: "norm2"
  top: "conv3"
  param {
    lr_mult: 0.01
    decay_mult: 0.01
  }
  param {
    lr_mult: 0.02
    decay_mult: 0
  }
  convolution_param {
    num_output: 384
    pad: 1
    kernel_size: 3
    weight_filler {
      type: "gaussian"
      std: 0.01
    }
    bias_filler {
      type: "constant"
      value: 0
    }
  }
}
layer {
  name: "relu3"
  type: "ReLU"
  bottom: "conv3"
  top: "conv3"
}
layer {
  name: "conv4"
  type: "Convolution"
  bottom: "conv3"
  top: "conv4"
  param {
    lr_mult: 0.01
    decay_mult: 0.01
  }
  param {
    lr_mult: 0.02
    decay_mult: 0
  }
  convolution_param {
    num_output: 384
    pad: 1
    kernel_size: 3
    group: 2
    weight_filler {
      type: "gaussian"
      std: 0.01
    }
    bias_filler {
      type: "constant"
      value: 1
    }
  }
}
layer {
  name: "relu4"
  type: "ReLU"
  bottom: "conv4"
  top: "conv4"
}
layer {
  name: "conv5"
  type: "Convolution"
  bottom: "conv4"
  top: "conv5"
  param {
    lr_mult: 0.01
    decay_mult: 0.01
  }
  param {
    lr_mult: 0.02
    decay_mult: 0
  }
  convolution_param {
    num_output: 256
    pad: 1
    kernel_size: 3
    group: 2
    weight_filler {
      type: "gaussian"
      std: 0.01
    }
    bias_filler {
      type: "constant"
      value: 1
    }
  }
}
layer {
  name: "relu5"
  type: "ReLU"
  bottom: "conv5"
  top: "conv5"
}
layer {
  name: "pool5"
  type: "Pooling"
  bottom: "conv5"
  top: "pool5"
  pooling_param {
    pool: MAX
    kernel_size: 3
    stride: 2
  }
}
layer {
  name: "fc6_msc"
  type: "InnerProduct"
  bottom: "pool5"
  top: "fc6_msc"
  param {
    lr_mult: 1
    decay_mult: 1
  }
  param {
    lr_mult: 2
    decay_mult: 0
  }
  inner_product_param {
    num_output: 4096
    weight_filler {
      type: "gaussian"
      std: 0.005
    }
    bias_filler {
      type: "constant"
      value: 1
    }
  }
}
layer {
  name: "relu6"
  type: "ReLU"
  bottom: "fc6_msc"
  top: "fc6_msc"
}
layer {
  name: "drop6"
  type: "Dropout"
  bottom: "fc6_msc"
  top: "fc6_msc"
  dropout_param {
    dropout_ratio: 0.5
  }
}
layer {
  name: "fc7_msc"
  type: "InnerProduct"
  bottom: "fc6_msc"
  top: "fc7_msc"
  param {
    lr_mult: 1
    decay_mult: 1
  }
  param {
    lr_mult: 2
    decay_mult: 0
  }
  inner_product_param {
    num_output: 4096
    weight_filler {
      type: "gaussian"
      std: 0.005
    }
    bias_filler {
      type: "constant"
      value: 1
    }
  }
}
layer {
  name: "relu7"
  type: "ReLU"
  bottom: "fc7_msc"
  top: "fc7_msc"
}
layer {
  name: "drop7"
  type: "Dropout"
  bottom: "fc7_msc"
  top: "fc7_msc"
  dropout_param {
    dropout_ratio: 0.7
  }
}
layer {
  name: "fc8_msc"
  type: "InnerProduct"
  bottom: "fc7_msc"
  top: "fc8_msc"
  param {
    lr_mult: 1
    decay_mult: 1
  }
  param {
    lr_mult: 2
    decay_mult: 0
  }
  inner_product_param {
    num_output: 2
    weight_filler {
      type: "gaussian"
      std: 0.01
    }
    bias_filler {
      type: "constant"
      value: 0
    }
  }
}
layer {
  name: "accuracy"
  type: "Accuracy"
  bottom: "fc8_msc"
  bottom: "label_msc"
  top: "accuracy"
  include {
    phase: TEST
  }
}
layer {
  name: "loss_msc"
  type: "SoftmaxWithLoss"
  bottom: "fc8_msc"
  bottom: "label_msc"
  top: "loss"
}
I0324 13:20:18.048063 29595 layer_factory.hpp:77] Creating layer data_msc
I0324 13:20:18.048074 29595 net.cpp:86] Creating Layer data_msc
I0324 13:20:18.048077 29595 net.cpp:382] data_msc -> data_msc
I0324 13:20:18.048084 29595 net.cpp:382] data_msc -> label_msc
I0324 13:20:18.048090 29595 image_data_layer.cpp:38] Opening file /media/p307k07/ssd/opt/msc/data/test/list_caffe.txt
I0324 13:20:18.082109 29595 image_data_layer.cpp:63] A total of 85562 images.
I0324 13:20:18.082787 29595 image_data_layer.cpp:90] output data size: 50,3,159,240
I0324 13:20:18.110535 29595 net.cpp:124] Setting up data_msc
I0324 13:20:18.110560 29595 net.cpp:131] Top shape: 50 3 159 240 (5724000)
I0324 13:20:18.110564 29595 net.cpp:131] Top shape: 50 (50)
I0324 13:20:18.110568 29595 net.cpp:139] Memory required for data: 22896200
I0324 13:20:18.110572 29595 layer_factory.hpp:77] Creating layer label_msc_data_msc_1_split
I0324 13:20:18.110582 29595 net.cpp:86] Creating Layer label_msc_data_msc_1_split
I0324 13:20:18.110585 29595 net.cpp:408] label_msc_data_msc_1_split <- label_msc
I0324 13:20:18.110591 29595 net.cpp:382] label_msc_data_msc_1_split -> label_msc_data_msc_1_split_0
I0324 13:20:18.110599 29595 net.cpp:382] label_msc_data_msc_1_split -> label_msc_data_msc_1_split_1
I0324 13:20:18.110637 29595 net.cpp:124] Setting up label_msc_data_msc_1_split
I0324 13:20:18.110642 29595 net.cpp:131] Top shape: 50 (50)
I0324 13:20:18.110646 29595 net.cpp:131] Top shape: 50 (50)
I0324 13:20:18.110647 29595 net.cpp:139] Memory required for data: 22896600
I0324 13:20:18.110649 29595 layer_factory.hpp:77] Creating layer conv1
I0324 13:20:18.110659 29595 net.cpp:86] Creating Layer conv1
I0324 13:20:18.110661 29595 net.cpp:408] conv1 <- data_msc
I0324 13:20:18.110666 29595 net.cpp:382] conv1 -> conv1
I0324 13:20:18.111850 29595 net.cpp:124] Setting up conv1
I0324 13:20:18.111860 29595 net.cpp:131] Top shape: 50 96 38 58 (10579200)
I0324 13:20:18.111861 29595 net.cpp:139] Memory required for data: 65213400
I0324 13:20:18.111870 29595 layer_factory.hpp:77] Creating layer relu1
I0324 13:20:18.111874 29595 net.cpp:86] Creating Layer relu1
I0324 13:20:18.111877 29595 net.cpp:408] relu1 <- conv1
I0324 13:20:18.111881 29595 net.cpp:369] relu1 -> conv1 (in-place)
I0324 13:20:18.112004 29595 net.cpp:124] Setting up relu1
I0324 13:20:18.112011 29595 net.cpp:131] Top shape: 50 96 38 58 (10579200)
I0324 13:20:18.112013 29595 net.cpp:139] Memory required for data: 107530200
I0324 13:20:18.112016 29595 layer_factory.hpp:77] Creating layer pool1
I0324 13:20:18.112021 29595 net.cpp:86] Creating Layer pool1
I0324 13:20:18.112025 29595 net.cpp:408] pool1 <- conv1
I0324 13:20:18.112027 29595 net.cpp:382] pool1 -> pool1
I0324 13:20:18.112058 29595 net.cpp:124] Setting up pool1
I0324 13:20:18.112062 29595 net.cpp:131] Top shape: 50 96 19 29 (2644800)
I0324 13:20:18.112064 29595 net.cpp:139] Memory required for data: 118109400
I0324 13:20:18.112066 29595 layer_factory.hpp:77] Creating layer norm1
I0324 13:20:18.112071 29595 net.cpp:86] Creating Layer norm1
I0324 13:20:18.112074 29595 net.cpp:408] norm1 <- pool1
I0324 13:20:18.112077 29595 net.cpp:382] norm1 -> norm1
I0324 13:20:18.114186 29595 net.cpp:124] Setting up norm1
I0324 13:20:18.114193 29595 net.cpp:131] Top shape: 50 96 19 29 (2644800)
I0324 13:20:18.114195 29595 net.cpp:139] Memory required for data: 128688600
I0324 13:20:18.114197 29595 layer_factory.hpp:77] Creating layer conv2
I0324 13:20:18.114204 29595 net.cpp:86] Creating Layer conv2
I0324 13:20:18.114207 29595 net.cpp:408] conv2 <- norm1
I0324 13:20:18.114217 29595 net.cpp:382] conv2 -> conv2
I0324 13:20:18.118113 29595 net.cpp:124] Setting up conv2
I0324 13:20:18.118122 29595 net.cpp:131] Top shape: 50 256 19 29 (7052800)
I0324 13:20:18.118125 29595 net.cpp:139] Memory required for data: 156899800
I0324 13:20:18.118131 29595 layer_factory.hpp:77] Creating layer relu2
I0324 13:20:18.118136 29595 net.cpp:86] Creating Layer relu2
I0324 13:20:18.118139 29595 net.cpp:408] relu2 <- conv2
I0324 13:20:18.118142 29595 net.cpp:369] relu2 -> conv2 (in-place)
I0324 13:20:18.118255 29595 net.cpp:124] Setting up relu2
I0324 13:20:18.118261 29595 net.cpp:131] Top shape: 50 256 19 29 (7052800)
I0324 13:20:18.118263 29595 net.cpp:139] Memory required for data: 185111000
I0324 13:20:18.118265 29595 layer_factory.hpp:77] Creating layer pool2
I0324 13:20:18.118270 29595 net.cpp:86] Creating Layer pool2
I0324 13:20:18.118273 29595 net.cpp:408] pool2 <- conv2
I0324 13:20:18.118276 29595 net.cpp:382] pool2 -> pool2
I0324 13:20:18.118306 29595 net.cpp:124] Setting up pool2
I0324 13:20:18.118320 29595 net.cpp:131] Top shape: 50 256 9 14 (1612800)
I0324 13:20:18.118324 29595 net.cpp:139] Memory required for data: 191562200
I0324 13:20:18.118325 29595 layer_factory.hpp:77] Creating layer norm2
I0324 13:20:18.118330 29595 net.cpp:86] Creating Layer norm2
I0324 13:20:18.118332 29595 net.cpp:408] norm2 <- pool2
I0324 13:20:18.118335 29595 net.cpp:382] norm2 -> norm2
I0324 13:20:18.118625 29595 net.cpp:124] Setting up norm2
I0324 13:20:18.118633 29595 net.cpp:131] Top shape: 50 256 9 14 (1612800)
I0324 13:20:18.118635 29595 net.cpp:139] Memory required for data: 198013400
I0324 13:20:18.118638 29595 layer_factory.hpp:77] Creating layer conv3
I0324 13:20:18.118644 29595 net.cpp:86] Creating Layer conv3
I0324 13:20:18.118647 29595 net.cpp:408] conv3 <- norm2
I0324 13:20:18.118650 29595 net.cpp:382] conv3 -> conv3
I0324 13:20:18.126345 29595 net.cpp:124] Setting up conv3
I0324 13:20:18.126364 29595 net.cpp:131] Top shape: 50 384 9 14 (2419200)
I0324 13:20:18.126366 29595 net.cpp:139] Memory required for data: 207690200
I0324 13:20:18.126375 29595 layer_factory.hpp:77] Creating layer relu3
I0324 13:20:18.126381 29595 net.cpp:86] Creating Layer relu3
I0324 13:20:18.126384 29595 net.cpp:408] relu3 <- conv3
I0324 13:20:18.126389 29595 net.cpp:369] relu3 -> conv3 (in-place)
I0324 13:20:18.126648 29595 net.cpp:124] Setting up relu3
I0324 13:20:18.126657 29595 net.cpp:131] Top shape: 50 384 9 14 (2419200)
I0324 13:20:18.126658 29595 net.cpp:139] Memory required for data: 217367000
I0324 13:20:18.126660 29595 layer_factory.hpp:77] Creating layer conv4
I0324 13:20:18.126668 29595 net.cpp:86] Creating Layer conv4
I0324 13:20:18.126670 29595 net.cpp:408] conv4 <- conv3
I0324 13:20:18.126674 29595 net.cpp:382] conv4 -> conv4
I0324 13:20:18.133551 29595 net.cpp:124] Setting up conv4
I0324 13:20:18.133568 29595 net.cpp:131] Top shape: 50 384 9 14 (2419200)
I0324 13:20:18.133569 29595 net.cpp:139] Memory required for data: 227043800
I0324 13:20:18.133575 29595 layer_factory.hpp:77] Creating layer relu4
I0324 13:20:18.133581 29595 net.cpp:86] Creating Layer relu4
I0324 13:20:18.133584 29595 net.cpp:408] relu4 <- conv4
I0324 13:20:18.133587 29595 net.cpp:369] relu4 -> conv4 (in-place)
I0324 13:20:18.133708 29595 net.cpp:124] Setting up relu4
I0324 13:20:18.133713 29595 net.cpp:131] Top shape: 50 384 9 14 (2419200)
I0324 13:20:18.133716 29595 net.cpp:139] Memory required for data: 236720600
I0324 13:20:18.133718 29595 layer_factory.hpp:77] Creating layer conv5
I0324 13:20:18.133724 29595 net.cpp:86] Creating Layer conv5
I0324 13:20:18.133728 29595 net.cpp:408] conv5 <- conv4
I0324 13:20:18.133731 29595 net.cpp:382] conv5 -> conv5
I0324 13:20:18.138708 29595 net.cpp:124] Setting up conv5
I0324 13:20:18.138720 29595 net.cpp:131] Top shape: 50 256 9 14 (1612800)
I0324 13:20:18.138723 29595 net.cpp:139] Memory required for data: 243171800
I0324 13:20:18.138731 29595 layer_factory.hpp:77] Creating layer relu5
I0324 13:20:18.138736 29595 net.cpp:86] Creating Layer relu5
I0324 13:20:18.138738 29595 net.cpp:408] relu5 <- conv5
I0324 13:20:18.138751 29595 net.cpp:369] relu5 -> conv5 (in-place)
I0324 13:20:18.138871 29595 net.cpp:124] Setting up relu5
I0324 13:20:18.138877 29595 net.cpp:131] Top shape: 50 256 9 14 (1612800)
I0324 13:20:18.138880 29595 net.cpp:139] Memory required for data: 249623000
I0324 13:20:18.138882 29595 layer_factory.hpp:77] Creating layer pool5
I0324 13:20:18.138888 29595 net.cpp:86] Creating Layer pool5
I0324 13:20:18.138890 29595 net.cpp:408] pool5 <- conv5
I0324 13:20:18.138895 29595 net.cpp:382] pool5 -> pool5
I0324 13:20:18.138924 29595 net.cpp:124] Setting up pool5
I0324 13:20:18.138928 29595 net.cpp:131] Top shape: 50 256 4 7 (358400)
I0324 13:20:18.138931 29595 net.cpp:139] Memory required for data: 251056600
I0324 13:20:18.138932 29595 layer_factory.hpp:77] Creating layer fc6_msc
I0324 13:20:18.138937 29595 net.cpp:86] Creating Layer fc6_msc
I0324 13:20:18.138939 29595 net.cpp:408] fc6_msc <- pool5
I0324 13:20:18.138943 29595 net.cpp:382] fc6_msc -> fc6_msc
I0324 13:20:18.369783 29595 net.cpp:124] Setting up fc6_msc
I0324 13:20:18.369809 29595 net.cpp:131] Top shape: 50 4096 (204800)
I0324 13:20:18.369812 29595 net.cpp:139] Memory required for data: 251875800
I0324 13:20:18.369820 29595 layer_factory.hpp:77] Creating layer relu6
I0324 13:20:18.369827 29595 net.cpp:86] Creating Layer relu6
I0324 13:20:18.369830 29595 net.cpp:408] relu6 <- fc6_msc
I0324 13:20:18.369835 29595 net.cpp:369] relu6 -> fc6_msc (in-place)
I0324 13:20:18.370214 29595 net.cpp:124] Setting up relu6
I0324 13:20:18.370223 29595 net.cpp:131] Top shape: 50 4096 (204800)
I0324 13:20:18.370224 29595 net.cpp:139] Memory required for data: 252695000
I0324 13:20:18.370227 29595 layer_factory.hpp:77] Creating layer drop6
I0324 13:20:18.370232 29595 net.cpp:86] Creating Layer drop6
I0324 13:20:18.370234 29595 net.cpp:408] drop6 <- fc6_msc
I0324 13:20:18.370237 29595 net.cpp:369] drop6 -> fc6_msc (in-place)
I0324 13:20:18.370260 29595 net.cpp:124] Setting up drop6
I0324 13:20:18.370263 29595 net.cpp:131] Top shape: 50 4096 (204800)
I0324 13:20:18.370265 29595 net.cpp:139] Memory required for data: 253514200
I0324 13:20:18.370267 29595 layer_factory.hpp:77] Creating layer fc7_msc
I0324 13:20:18.370272 29595 net.cpp:86] Creating Layer fc7_msc
I0324 13:20:18.370275 29595 net.cpp:408] fc7_msc <- fc6_msc
I0324 13:20:18.370278 29595 net.cpp:382] fc7_msc -> fc7_msc
I0324 13:20:18.500552 29595 net.cpp:124] Setting up fc7_msc
I0324 13:20:18.500578 29595 net.cpp:131] Top shape: 50 4096 (204800)
I0324 13:20:18.500581 29595 net.cpp:139] Memory required for data: 254333400
I0324 13:20:18.500588 29595 layer_factory.hpp:77] Creating layer relu7
I0324 13:20:18.500596 29595 net.cpp:86] Creating Layer relu7
I0324 13:20:18.500598 29595 net.cpp:408] relu7 <- fc7_msc
I0324 13:20:18.500603 29595 net.cpp:369] relu7 -> fc7_msc (in-place)
I0324 13:20:18.500768 29595 net.cpp:124] Setting up relu7
I0324 13:20:18.500773 29595 net.cpp:131] Top shape: 50 4096 (204800)
I0324 13:20:18.500777 29595 net.cpp:139] Memory required for data: 255152600
I0324 13:20:18.500778 29595 layer_factory.hpp:77] Creating layer drop7
I0324 13:20:18.500783 29595 net.cpp:86] Creating Layer drop7
I0324 13:20:18.500785 29595 net.cpp:408] drop7 <- fc7_msc
I0324 13:20:18.500788 29595 net.cpp:369] drop7 -> fc7_msc (in-place)
I0324 13:20:18.500810 29595 net.cpp:124] Setting up drop7
I0324 13:20:18.500813 29595 net.cpp:131] Top shape: 50 4096 (204800)
I0324 13:20:18.500815 29595 net.cpp:139] Memory required for data: 255971800
I0324 13:20:18.500818 29595 layer_factory.hpp:77] Creating layer fc8_msc
I0324 13:20:18.500823 29595 net.cpp:86] Creating Layer fc8_msc
I0324 13:20:18.500825 29595 net.cpp:408] fc8_msc <- fc7_msc
I0324 13:20:18.500828 29595 net.cpp:382] fc8_msc -> fc8_msc
I0324 13:20:18.500960 29595 net.cpp:124] Setting up fc8_msc
I0324 13:20:18.500964 29595 net.cpp:131] Top shape: 50 2 (100)
I0324 13:20:18.500967 29595 net.cpp:139] Memory required for data: 255972200
I0324 13:20:18.500970 29595 layer_factory.hpp:77] Creating layer fc8_msc_fc8_msc_0_split
I0324 13:20:18.500982 29595 net.cpp:86] Creating Layer fc8_msc_fc8_msc_0_split
I0324 13:20:18.500995 29595 net.cpp:408] fc8_msc_fc8_msc_0_split <- fc8_msc
I0324 13:20:18.500999 29595 net.cpp:382] fc8_msc_fc8_msc_0_split -> fc8_msc_fc8_msc_0_split_0
I0324 13:20:18.501004 29595 net.cpp:382] fc8_msc_fc8_msc_0_split -> fc8_msc_fc8_msc_0_split_1
I0324 13:20:18.501029 29595 net.cpp:124] Setting up fc8_msc_fc8_msc_0_split
I0324 13:20:18.501034 29595 net.cpp:131] Top shape: 50 2 (100)
I0324 13:20:18.501035 29595 net.cpp:131] Top shape: 50 2 (100)
I0324 13:20:18.501037 29595 net.cpp:139] Memory required for data: 255973000
I0324 13:20:18.501039 29595 layer_factory.hpp:77] Creating layer accuracy
I0324 13:20:18.501044 29595 net.cpp:86] Creating Layer accuracy
I0324 13:20:18.501046 29595 net.cpp:408] accuracy <- fc8_msc_fc8_msc_0_split_0
I0324 13:20:18.501049 29595 net.cpp:408] accuracy <- label_msc_data_msc_1_split_0
I0324 13:20:18.501054 29595 net.cpp:382] accuracy -> accuracy
…
