…
I0323 15:03:19.475448 23529 net.cpp:296] The NetState phase (0) differed from the phase (1) specified by a rule in layer accuracy
I0323 15:03:19.475572 23529 net.cpp:53] Initializing net from parameters: 
name: "MCaffeNet"
state {
  phase: TRAIN
  level: 0
  stage: ""
}
layer {
  name: "data_msc"
  type: "ImageData"
  top: "data_msc"
  top: "label_msc"
  include {
    phase: TRAIN
  }
  transform_param {
    mean_value: 296
    mean_value: 103
    mean_value: 108
  }
  image_data_param {
    source: "/media/p307k07/ssd/opt/msc/data/train/list_caffe.txt"
    batch_size: 50
    new_height: 159
    new_width: 240
  }
}
layer {
  name: "conv1"
  type: "Convolution"
  bottom: "data_msc"
  top: "conv1"
  param {
    lr_mult: 0.01
    decay_mult: 0.01
  }
  param {
    lr_mult: 0.02
    decay_mult: 0
  }
  convolution_param {
    num_output: 96
    kernel_size: 11
    stride: 4
    weight_filler {
      type: "gaussian"
      std: 0.01
    }
    bias_filler {
      type: "constant"
      value: 0
    }
  }
}
layer {
  name: "relu1"
  type: "ReLU"
  bottom: "conv1"
  top: "conv1"
}
layer {
  name: "pool1"
  type: "Pooling"
  bottom: "conv1"
  top: "pool1"
  pooling_param {
    pool: MAX
    kernel_size: 3
    stride: 2
  }
}
layer {
  name: "norm1"
  type: "LRN"
  bottom: "pool1"
  top: "norm1"
  lrn_param {
    local_size: 5
    alpha: 0.0001
    beta: 0.75
  }
}
layer {
  name: "conv2"
  type: "Convolution"
  bottom: "norm1"
  top: "conv2"
  param {
    lr_mult: 0.01
    decay_mult: 0.01
  }
  param {
    lr_mult: 0.02
    decay_mult: 0
  }
  convolution_param {
    num_output: 256
    pad: 2
    kernel_size: 5
    group: 2
    weight_filler {
      type: "gaussian"
      std: 0.01
    }
    bias_filler {
      type: "constant"
      value: 1
    }
  }
}
layer {
  name: "relu2"
  type: "ReLU"
  bottom: "conv2"
  top: "conv2"
}
layer {
  name: "pool2"
  type: "Pooling"
  bottom: "conv2"
  top: "pool2"
  pooling_param {
    pool: MAX
    kernel_size: 3
    stride: 2
  }
}
layer {
  name: "norm2"
  type: "LRN"
  bottom: "pool2"
  top: "norm2"
  lrn_param {
    local_size: 5
    alpha: 0.0001
    beta: 0.75
  }
}
layer {
  name: "conv3"
  type: "Convolution"
  bottom: "norm2"
  top: "conv3"
  param {
    lr_mult: 0.01
    decay_mult: 0.01
  }
  param {
    lr_mult: 0.02
    decay_mult: 0
  }
  convolution_param {
    num_output: 384
    pad: 1
    kernel_size: 3
    weight_filler {
      type: "gaussian"
      std: 0.01
    }
    bias_filler {
      type: "constant"
      value: 0
    }
  }
}
layer {
  name: "relu3"
  type: "ReLU"
  bottom: "conv3"
  top: "conv3"
}
layer {
  name: "conv4"
  type: "Convolution"
  bottom: "conv3"
  top: "conv4"
  param {
    lr_mult: 0.01
    decay_mult: 0.01
  }
  param {
    lr_mult: 0.02
    decay_mult: 0
  }
  convolution_param {
    num_output: 384
    pad: 1
    kernel_size: 3
    group: 2
    weight_filler {
      type: "gaussian"
      std: 0.01
    }
    bias_filler {
      type: "constant"
      value: 1
    }
  }
}
layer {
  name: "relu4"
  type: "ReLU"
  bottom: "conv4"
  top: "conv4"
}
layer {
  name: "conv5"
  type: "Convolution"
  bottom: "conv4"
  top: "conv5"
  param {
    lr_mult: 0.01
    decay_mult: 0.01
  }
  param {
    lr_mult: 0.02
    decay_mult: 0
  }
  convolution_param {
    num_output: 256
    pad: 1
    kernel_size: 3
    group: 2
    weight_filler {
      type: "gaussian"
      std: 0.01
    }
    bias_filler {
      type: "constant"
      value: 1
    }
  }
}
layer {
  name: "relu5"
  type: "ReLU"
  bottom: "conv5"
  top: "conv5"
}
layer {
  name: "pool5"
  type: "Pooling"
  bottom: "conv5"
  top: "pool5"
  pooling_param {
    pool: MAX
    kernel_size: 3
    stride: 2
  }
}
layer {
  name: "fc6_msc"
  type: "InnerProduct"
  bottom: "pool5"
  top: "fc6_msc"
  param {
    lr_mult: 1
    decay_mult: 1
  }
  param {
    lr_mult: 2
    decay_mult: 0
  }
  inner_product_param {
    num_output: 4096
    weight_filler {
      type: "gaussian"
      std: 0.005
    }
    bias_filler {
      type: "constant"
      value: 1
    }
  }
}
layer {
  name: "relu6"
  type: "ReLU"
  bottom: "fc6_msc"
  top: "fc6_msc"
}
layer {
  name: "drop6"
  type: "Dropout"
  bottom: "fc6_msc"
  top: "fc6_msc"
  dropout_param {
    dropout_ratio: 0.7
  }
}
layer {
  name: "fc7_msc"
  type: "InnerProduct"
  bottom: "fc6_msc"
  top: "fc7_msc"
  param {
    lr_mult: 1
    decay_mult: 1
  }
  param {
    lr_mult: 2
    decay_mult: 0
  }
  inner_product_param {
    num_output: 4096
    weight_filler {
      type: "gaussian"
      std: 0.005
    }
    bias_filler {
      type: "constant"
      value: 1
    }
  }
}
layer {
  name: "relu7"
  type: "ReLU"
  bottom: "fc7_msc"
  top: "fc7_msc"
}
layer {
  name: "drop7"
  type: "Dropout"
  bottom: "fc7_msc"
  top: "fc7_msc"
  dropout_param {
    dropout_ratio: 0.6
  }
}
layer {
  name: "fc8_msc"
  type: "InnerProduct"
  bottom: "fc7_msc"
  top: "fc8_msc"
  param {
    lr_mult: 1
    decay_mult: 1
  }
  param {
    lr_mult: 2
    decay_mult: 0
  }
  inner_product_param {
    num_output: 2
    weight_filler {
      type: "gaussian"
      std: 0.01
    }
    bias_filler {
      type: "constant"
      value: 0
    }
  }
}
layer {
  name: "loss_msc"
  type: "SoftmaxWithLoss"
  bottom: "fc8_msc"
  bottom: "label_msc"
  top: "loss"
}
I0323 15:03:19.475654 23529 layer_factory.hpp:77] Creating layer data_msc
I0323 15:03:19.475677 23529 net.cpp:86] Creating Layer data_msc
I0323 15:03:19.475682 23529 net.cpp:382] data_msc -> data_msc
I0323 15:03:19.475697 23529 net.cpp:382] data_msc -> label_msc
I0323 15:03:19.475708 23529 image_data_layer.cpp:38] Opening file /media/p307k07/ssd/opt/msc/data/train/list_caffe.txt
I0323 15:03:19.632587 23529 image_data_layer.cpp:63] A total of 513382 images.
I0323 15:03:19.634956 23529 image_data_layer.cpp:90] output data size: 50,3,159,240
I0323 15:03:19.663163 23529 net.cpp:124] Setting up data_msc
I0323 15:03:19.663188 23529 net.cpp:131] Top shape: 50 3 159 240 (5724000)
I0323 15:03:19.663194 23529 net.cpp:131] Top shape: 50 (50)
I0323 15:03:19.663197 23529 net.cpp:139] Memory required for data: 22896200
I0323 15:03:19.663203 23529 layer_factory.hpp:77] Creating layer conv1
I0323 15:03:19.663220 23529 net.cpp:86] Creating Layer conv1
I0323 15:03:19.663225 23529 net.cpp:408] conv1 <- data_msc
I0323 15:03:19.663236 23529 net.cpp:382] conv1 -> conv1
I0323 15:03:21.569017 23529 net.cpp:124] Setting up conv1
I0323 15:03:21.569046 23529 net.cpp:131] Top shape: 50 96 38 58 (10579200)
I0323 15:03:21.569048 23529 net.cpp:139] Memory required for data: 65213000
I0323 15:03:21.569069 23529 layer_factory.hpp:77] Creating layer relu1
I0323 15:03:21.569078 23529 net.cpp:86] Creating Layer relu1
I0323 15:03:21.569082 23529 net.cpp:408] relu1 <- conv1
I0323 15:03:21.569085 23529 net.cpp:369] relu1 -> conv1 (in-place)
I0323 15:03:21.569346 23529 net.cpp:124] Setting up relu1
I0323 15:03:21.569355 23529 net.cpp:131] Top shape: 50 96 38 58 (10579200)
I0323 15:03:21.569357 23529 net.cpp:139] Memory required for data: 107529800
I0323 15:03:21.569360 23529 layer_factory.hpp:77] Creating layer pool1
I0323 15:03:21.569365 23529 net.cpp:86] Creating Layer pool1
I0323 15:03:21.569366 23529 net.cpp:408] pool1 <- conv1
I0323 15:03:21.569370 23529 net.cpp:382] pool1 -> pool1
I0323 15:03:21.569402 23529 net.cpp:124] Setting up pool1
I0323 15:03:21.569406 23529 net.cpp:131] Top shape: 50 96 19 29 (2644800)
I0323 15:03:21.569413 23529 net.cpp:139] Memory required for data: 118109000
I0323 15:03:21.569427 23529 layer_factory.hpp:77] Creating layer norm1
I0323 15:03:21.569437 23529 net.cpp:86] Creating Layer norm1
I0323 15:03:21.569440 23529 net.cpp:408] norm1 <- pool1
I0323 15:03:21.569445 23529 net.cpp:382] norm1 -> norm1
I0323 15:03:21.569579 23529 net.cpp:124] Setting up norm1
I0323 15:03:21.569586 23529 net.cpp:131] Top shape: 50 96 19 29 (2644800)
I0323 15:03:21.569588 23529 net.cpp:139] Memory required for data: 128688200
I0323 15:03:21.569591 23529 layer_factory.hpp:77] Creating layer conv2
I0323 15:03:21.569599 23529 net.cpp:86] Creating Layer conv2
I0323 15:03:21.569602 23529 net.cpp:408] conv2 <- norm1
I0323 15:03:21.569607 23529 net.cpp:382] conv2 -> conv2
I0323 15:03:21.573716 23529 net.cpp:124] Setting up conv2
I0323 15:03:21.573726 23529 net.cpp:131] Top shape: 50 256 19 29 (7052800)
I0323 15:03:21.573729 23529 net.cpp:139] Memory required for data: 156899400
I0323 15:03:21.573735 23529 layer_factory.hpp:77] Creating layer relu2
I0323 15:03:21.573740 23529 net.cpp:86] Creating Layer relu2
I0323 15:03:21.573742 23529 net.cpp:408] relu2 <- conv2
I0323 15:03:21.573746 23529 net.cpp:369] relu2 -> conv2 (in-place)
I0323 15:03:21.573863 23529 net.cpp:124] Setting up relu2
I0323 15:03:21.573870 23529 net.cpp:131] Top shape: 50 256 19 29 (7052800)
I0323 15:03:21.573873 23529 net.cpp:139] Memory required for data: 185110600
I0323 15:03:21.573874 23529 layer_factory.hpp:77] Creating layer pool2
I0323 15:03:21.573879 23529 net.cpp:86] Creating Layer pool2
I0323 15:03:21.573880 23529 net.cpp:408] pool2 <- conv2
I0323 15:03:21.573884 23529 net.cpp:382] pool2 -> pool2
I0323 15:03:21.573910 23529 net.cpp:124] Setting up pool2
I0323 15:03:21.573915 23529 net.cpp:131] Top shape: 50 256 9 14 (1612800)
I0323 15:03:21.573916 23529 net.cpp:139] Memory required for data: 191561800
I0323 15:03:21.573918 23529 layer_factory.hpp:77] Creating layer norm2
I0323 15:03:21.573926 23529 net.cpp:86] Creating Layer norm2
I0323 15:03:21.573930 23529 net.cpp:408] norm2 <- pool2
I0323 15:03:21.573932 23529 net.cpp:382] norm2 -> norm2
I0323 15:03:21.574206 23529 net.cpp:124] Setting up norm2
I0323 15:03:21.574214 23529 net.cpp:131] Top shape: 50 256 9 14 (1612800)
I0323 15:03:21.574216 23529 net.cpp:139] Memory required for data: 198013000
I0323 15:03:21.574219 23529 layer_factory.hpp:77] Creating layer conv3
I0323 15:03:21.574225 23529 net.cpp:86] Creating Layer conv3
I0323 15:03:21.574229 23529 net.cpp:408] conv3 <- norm2
I0323 15:03:21.574234 23529 net.cpp:382] conv3 -> conv3
I0323 15:03:21.581966 23529 net.cpp:124] Setting up conv3
I0323 15:03:21.581977 23529 net.cpp:131] Top shape: 50 384 9 14 (2419200)
I0323 15:03:21.581980 23529 net.cpp:139] Memory required for data: 207689800
I0323 15:03:21.581987 23529 layer_factory.hpp:77] Creating layer relu3
I0323 15:03:21.581992 23529 net.cpp:86] Creating Layer relu3
I0323 15:03:21.581995 23529 net.cpp:408] relu3 <- conv3
I0323 15:03:21.581998 23529 net.cpp:369] relu3 -> conv3 (in-place)
I0323 15:03:21.582113 23529 net.cpp:124] Setting up relu3
I0323 15:03:21.582118 23529 net.cpp:131] Top shape: 50 384 9 14 (2419200)
I0323 15:03:21.582121 23529 net.cpp:139] Memory required for data: 217366600
I0323 15:03:21.582123 23529 layer_factory.hpp:77] Creating layer conv4
I0323 15:03:21.582130 23529 net.cpp:86] Creating Layer conv4
I0323 15:03:21.582132 23529 net.cpp:408] conv4 <- conv3
I0323 15:03:21.582136 23529 net.cpp:382] conv4 -> conv4
I0323 15:03:21.588786 23529 net.cpp:124] Setting up conv4
I0323 15:03:21.588802 23529 net.cpp:131] Top shape: 50 384 9 14 (2419200)
I0323 15:03:21.588805 23529 net.cpp:139] Memory required for data: 227043400
I0323 15:03:21.588810 23529 layer_factory.hpp:77] Creating layer relu4
I0323 15:03:21.588819 23529 net.cpp:86] Creating Layer relu4
I0323 15:03:21.588821 23529 net.cpp:408] relu4 <- conv4
I0323 15:03:21.588825 23529 net.cpp:369] relu4 -> conv4 (in-place)
I0323 15:03:21.588943 23529 net.cpp:124] Setting up relu4
I0323 15:03:21.588949 23529 net.cpp:131] Top shape: 50 384 9 14 (2419200)
I0323 15:03:21.588955 23529 net.cpp:139] Memory required for data: 236720200
I0323 15:03:21.589401 23529 layer_factory.hpp:77] Creating layer conv5
I0323 15:03:21.589413 23529 net.cpp:86] Creating Layer conv5
I0323 15:03:21.589417 23529 net.cpp:408] conv5 <- conv4
I0323 15:03:21.589421 23529 net.cpp:382] conv5 -> conv5
I0323 15:03:21.594538 23529 net.cpp:124] Setting up conv5
I0323 15:03:21.594549 23529 net.cpp:131] Top shape: 50 256 9 14 (1612800)
I0323 15:03:21.594552 23529 net.cpp:139] Memory required for data: 243171400
I0323 15:03:21.594559 23529 layer_factory.hpp:77] Creating layer relu5
I0323 15:03:21.594563 23529 net.cpp:86] Creating Layer relu5
I0323 15:03:21.594566 23529 net.cpp:408] relu5 <- conv5
I0323 15:03:21.594570 23529 net.cpp:369] relu5 -> conv5 (in-place)
I0323 15:03:21.594681 23529 net.cpp:124] Setting up relu5
I0323 15:03:21.594686 23529 net.cpp:131] Top shape: 50 256 9 14 (1612800)
I0323 15:03:21.594688 23529 net.cpp:139] Memory required for data: 249622600
I0323 15:03:21.594691 23529 layer_factory.hpp:77] Creating layer pool5
I0323 15:03:21.594697 23529 net.cpp:86] Creating Layer pool5
I0323 15:03:21.594699 23529 net.cpp:408] pool5 <- conv5
I0323 15:03:21.594702 23529 net.cpp:382] pool5 -> pool5
I0323 15:03:21.594732 23529 net.cpp:124] Setting up pool5
I0323 15:03:21.594735 23529 net.cpp:131] Top shape: 50 256 4 7 (358400)
I0323 15:03:21.594738 23529 net.cpp:139] Memory required for data: 251056200
I0323 15:03:21.594739 23529 layer_factory.hpp:77] Creating layer fc6_msc
I0323 15:03:21.594746 23529 net.cpp:86] Creating Layer fc6_msc
I0323 15:03:21.594748 23529 net.cpp:408] fc6_msc <- pool5
I0323 15:03:21.594753 23529 net.cpp:382] fc6_msc -> fc6_msc
I0323 15:03:21.823254 23529 net.cpp:124] Setting up fc6_msc
I0323 15:03:21.823283 23529 net.cpp:131] Top shape: 50 4096 (204800)
I0323 15:03:21.823287 23529 net.cpp:139] Memory required for data: 251875400
I0323 15:03:21.823295 23529 layer_factory.hpp:77] Creating layer relu6
I0323 15:03:21.823303 23529 net.cpp:86] Creating Layer relu6
I0323 15:03:21.823307 23529 net.cpp:408] relu6 <- fc6_msc
I0323 15:03:21.823313 23529 net.cpp:369] relu6 -> fc6_msc (in-place)
I0323 15:03:21.823699 23529 net.cpp:124] Setting up relu6
I0323 15:03:21.823709 23529 net.cpp:131] Top shape: 50 4096 (204800)
I0323 15:03:21.823712 23529 net.cpp:139] Memory required for data: 252694600
I0323 15:03:21.823714 23529 layer_factory.hpp:77] Creating layer drop6
I0323 15:03:21.823720 23529 net.cpp:86] Creating Layer drop6
I0323 15:03:21.823722 23529 net.cpp:408] drop6 <- fc6_msc
I0323 15:03:21.823727 23529 net.cpp:369] drop6 -> fc6_msc (in-place)
I0323 15:03:21.823755 23529 net.cpp:124] Setting up drop6
I0323 15:03:21.823758 23529 net.cpp:131] Top shape: 50 4096 (204800)
I0323 15:03:21.823760 23529 net.cpp:139] Memory required for data: 253513800
I0323 15:03:21.823763 23529 layer_factory.hpp:77] Creating layer fc7_msc
I0323 15:03:21.823770 23529 net.cpp:86] Creating Layer fc7_msc
I0323 15:03:21.823771 23529 net.cpp:408] fc7_msc <- fc6_msc
I0323 15:03:21.823776 23529 net.cpp:382] fc7_msc -> fc7_msc
I0323 15:03:21.954501 23529 net.cpp:124] Setting up fc7_msc
I0323 15:03:21.954529 23529 net.cpp:131] Top shape: 50 4096 (204800)
I0323 15:03:21.954531 23529 net.cpp:139] Memory required for data: 254333000
I0323 15:03:21.954538 23529 layer_factory.hpp:77] Creating layer relu7
I0323 15:03:21.954545 23529 net.cpp:86] Creating Layer relu7
I0323 15:03:21.954550 23529 net.cpp:408] relu7 <- fc7_msc
I0323 15:03:21.954555 23529 net.cpp:369] relu7 -> fc7_msc (in-place)
I0323 15:03:21.954923 23529 net.cpp:124] Setting up relu7
I0323 15:03:21.954931 23529 net.cpp:131] Top shape: 50 4096 (204800)
I0323 15:03:21.954933 23529 net.cpp:139] Memory required for data: 255152200
I0323 15:03:21.954936 23529 layer_factory.hpp:77] Creating layer drop7
I0323 15:03:21.954942 23529 net.cpp:86] Creating Layer drop7
I0323 15:03:21.954946 23529 net.cpp:408] drop7 <- fc7_msc
I0323 15:03:21.954949 23529 net.cpp:369] drop7 -> fc7_msc (in-place)
I0323 15:03:21.954969 23529 net.cpp:124] Setting up drop7
I0323 15:03:21.954979 23529 net.cpp:131] Top shape: 50 4096 (204800)
I0323 15:03:21.954993 23529 net.cpp:139] Memory required for data: 255971400
I0323 15:03:21.954998 23529 layer_factory.hpp:77] Creating layer fc8_msc
I0323 15:03:21.955006 23529 net.cpp:86] Creating Layer fc8_msc
I0323 15:03:21.955009 23529 net.cpp:408] fc8_msc <- fc7_msc
I0323 15:03:21.955014 23529 net.cpp:382] fc8_msc -> fc8_msc
I0323 15:03:21.955437 23529 net.cpp:124] Setting up fc8_msc
I0323 15:03:21.955446 23529 net.cpp:131] Top shape: 50 2 (100)
I0323 15:03:21.955447 23529 net.cpp:139] Memory required for data: 255971800
I0323 15:03:21.955451 23529 layer_factory.hpp:77] Creating layer loss_msc
I0323 15:03:21.955456 23529 net.cpp:86] Creating Layer loss_msc
I0323 15:03:21.955458 23529 net.cpp:408] loss_msc <- fc8_msc
I0323 15:03:21.955461 23529 net.cpp:408] loss_msc <- label_msc
I0323 15:03:21.955466 23529 net.cpp:382] loss_msc -> loss
…
I0323 15:03:21.955989 23529 net.cpp:296] The NetState phase (1) differed from the phase (0) specified by a rule in layer data_msc
I0323 15:03:21.956110 23529 net.cpp:53] Initializing net from parameters: 
name: "MCaffeNet"
state {
  phase: TEST
}
layer {
  name: "data_msc"
  type: "ImageData"
  top: "data_msc"
  top: "label_msc"
  include {
    phase: TEST
  }
  transform_param {
    mean_value: 296
    mean_value: 103
    mean_value: 108
  }
  image_data_param {
    source: "/media/p307k07/ssd/opt/msc/data/test/list_caffe.txt"
    batch_size: 50
    new_height: 159
    new_width: 240
  }
}
layer {
  name: "conv1"
  type: "Convolution"
  bottom: "data_msc"
  top: "conv1"
  param {
    lr_mult: 0.01
    decay_mult: 0.01
  }
  param {
    lr_mult: 0.02
    decay_mult: 0
  }
  convolution_param {
    num_output: 96
    kernel_size: 11
    stride: 4
    weight_filler {
      type: "gaussian"
      std: 0.01
    }
    bias_filler {
      type: "constant"
      value: 0
    }
  }
}
layer {
  name: "relu1"
  type: "ReLU"
  bottom: "conv1"
  top: "conv1"
}
layer {
  name: "pool1"
  type: "Pooling"
  bottom: "conv1"
  top: "pool1"
  pooling_param {
    pool: MAX
    kernel_size: 3
    stride: 2
  }
}
layer {
  name: "norm1"
  type: "LRN"
  bottom: "pool1"
  top: "norm1"
  lrn_param {
    local_size: 5
    alpha: 0.0001
    beta: 0.75
  }
}
layer {
  name: "conv2"
  type: "Convolution"
  bottom: "norm1"
  top: "conv2"
  param {
    lr_mult: 0.01
    decay_mult: 0.01
  }
  param {
    lr_mult: 0.02
    decay_mult: 0
  }
  convolution_param {
    num_output: 256
    pad: 2
    kernel_size: 5
    group: 2
    weight_filler {
      type: "gaussian"
      std: 0.01
    }
    bias_filler {
      type: "constant"
      value: 1
    }
  }
}
layer {
  name: "relu2"
  type: "ReLU"
  bottom: "conv2"
  top: "conv2"
}
layer {
  name: "pool2"
  type: "Pooling"
  bottom: "conv2"
  top: "pool2"
  pooling_param {
    pool: MAX
    kernel_size: 3
    stride: 2
  }
}
layer {
  name: "norm2"
  type: "LRN"
  bottom: "pool2"
  top: "norm2"
  lrn_param {
    local_size: 5
    alpha: 0.0001
    beta: 0.75
  }
}
layer {
  name: "conv3"
  type: "Convolution"
  bottom: "norm2"
  top: "conv3"
  param {
    lr_mult: 0.01
    decay_mult: 0.01
  }
  param {
    lr_mult: 0.02
    decay_mult: 0
  }
  convolution_param {
    num_output: 384
    pad: 1
    kernel_size: 3
    weight_filler {
      type: "gaussian"
      std: 0.01
    }
    bias_filler {
      type: "constant"
      value: 0
    }
  }
}
layer {
  name: "relu3"
  type: "ReLU"
  bottom: "conv3"
  top: "conv3"
}
layer {
  name: "conv4"
  type: "Convolution"
  bottom: "conv3"
  top: "conv4"
  param {
    lr_mult: 0.01
    decay_mult: 0.01
  }
  param {
    lr_mult: 0.02
    decay_mult: 0
  }
  convolution_param {
    num_output: 384
    pad: 1
    kernel_size: 3
    group: 2
    weight_filler {
      type: "gaussian"
      std: 0.01
    }
    bias_filler {
      type: "constant"
      value: 1
    }
  }
}
layer {
  name: "relu4"
  type: "ReLU"
  bottom: "conv4"
  top: "conv4"
}
layer {
  name: "conv5"
  type: "Convolution"
  bottom: "conv4"
  top: "conv5"
  param {
    lr_mult: 0.01
    decay_mult: 0.01
  }
  param {
    lr_mult: 0.02
    decay_mult: 0
  }
  convolution_param {
    num_output: 256
    pad: 1
    kernel_size: 3
    group: 2
    weight_filler {
      type: "gaussian"
      std: 0.01
    }
    bias_filler {
      type: "constant"
      value: 1
    }
  }
}
layer {
  name: "relu5"
  type: "ReLU"
  bottom: "conv5"
  top: "conv5"
}
layer {
  name: "pool5"
  type: "Pooling"
  bottom: "conv5"
  top: "pool5"
  pooling_param {
    pool: MAX
    kernel_size: 3
    stride: 2
  }
}
layer {
  name: "fc6_msc"
  type: "InnerProduct"
  bottom: "pool5"
  top: "fc6_msc"
  param {
    lr_mult: 1
    decay_mult: 1
  }
  param {
    lr_mult: 2
    decay_mult: 0
  }
  inner_product_param {
    num_output: 4096
    weight_filler {
      type: "gaussian"
      std: 0.005
    }
    bias_filler {
      type: "constant"
      value: 1
    }
  }
}
layer {
  name: "relu6"
  type: "ReLU"
  bottom: "fc6_msc"
  top: "fc6_msc"
}
layer {
  name: "drop6"
  type: "Dropout"
  bottom: "fc6_msc"
  top: "fc6_msc"
  dropout_param {
    dropout_ratio: 0.7
  }
}
layer {
  name: "fc7_msc"
  type: "InnerProduct"
  bottom: "fc6_msc"
  top: "fc7_msc"
  param {
    lr_mult: 1
    decay_mult: 1
  }
  param {
    lr_mult: 2
    decay_mult: 0
  }
  inner_product_param {
    num_output: 4096
    weight_filler {
      type: "gaussian"
      std: 0.005
    }
    bias_filler {
      type: "constant"
      value: 1
    }
  }
}
layer {
  name: "relu7"
  type: "ReLU"
  bottom: "fc7_msc"
  top: "fc7_msc"
}
layer {
  name: "drop7"
  type: "Dropout"
  bottom: "fc7_msc"
  top: "fc7_msc"
  dropout_param {
    dropout_ratio: 0.6
  }
}
layer {
  name: "fc8_msc"
  type: "InnerProduct"
  bottom: "fc7_msc"
  top: "fc8_msc"
  param {
    lr_mult: 1
    decay_mult: 1
  }
  param {
    lr_mult: 2
    decay_mult: 0
  }
  inner_product_param {
    num_output: 2
    weight_filler {
      type: "gaussian"
      std: 0.01
    }
    bias_filler {
      type: "constant"
      value: 0
    }
  }
}
layer {
  name: "accuracy"
  type: "Accuracy"
  bottom: "fc8_msc"
  bottom: "label_msc"
  top: "accuracy"
  include {
    phase: TEST
  }
}
layer {
  name: "loss_msc"
  type: "SoftmaxWithLoss"
  bottom: "fc8_msc"
  bottom: "label_msc"
  top: "loss"
}
I0323 15:03:21.956194 23529 layer_factory.hpp:77] Creating layer data_msc
I0323 15:03:21.956204 23529 net.cpp:86] Creating Layer data_msc
I0323 15:03:21.956208 23529 net.cpp:382] data_msc -> data_msc
I0323 15:03:21.956213 23529 net.cpp:382] data_msc -> label_msc
I0323 15:03:21.956219 23529 image_data_layer.cpp:38] Opening file /media/p307k07/ssd/opt/msc/data/test/list_caffe.txt
I0323 15:03:21.989267 23529 image_data_layer.cpp:63] A total of 85562 images.
I0323 15:03:21.989933 23529 image_data_layer.cpp:90] output data size: 50,3,159,240
I0323 15:03:22.017606 23529 net.cpp:124] Setting up data_msc
I0323 15:03:22.017632 23529 net.cpp:131] Top shape: 50 3 159 240 (5724000)
I0323 15:03:22.017637 23529 net.cpp:131] Top shape: 50 (50)
I0323 15:03:22.017638 23529 net.cpp:139] Memory required for data: 22896200
I0323 15:03:22.017643 23529 layer_factory.hpp:77] Creating layer label_msc_data_msc_1_split
I0323 15:03:22.017653 23529 net.cpp:86] Creating Layer label_msc_data_msc_1_split
I0323 15:03:22.017657 23529 net.cpp:408] label_msc_data_msc_1_split <- label_msc
I0323 15:03:22.017662 23529 net.cpp:382] label_msc_data_msc_1_split -> label_msc_data_msc_1_split_0
I0323 15:03:22.017669 23529 net.cpp:382] label_msc_data_msc_1_split -> label_msc_data_msc_1_split_1
I0323 15:03:22.017724 23529 net.cpp:124] Setting up label_msc_data_msc_1_split
I0323 15:03:22.017729 23529 net.cpp:131] Top shape: 50 (50)
I0323 15:03:22.017731 23529 net.cpp:131] Top shape: 50 (50)
I0323 15:03:22.017734 23529 net.cpp:139] Memory required for data: 22896600
I0323 15:03:22.017736 23529 layer_factory.hpp:77] Creating layer conv1
I0323 15:03:22.017745 23529 net.cpp:86] Creating Layer conv1
I0323 15:03:22.017748 23529 net.cpp:408] conv1 <- data_msc
I0323 15:03:22.017752 23529 net.cpp:382] conv1 -> conv1
I0323 15:03:22.018930 23529 net.cpp:124] Setting up conv1
I0323 15:03:22.018940 23529 net.cpp:131] Top shape: 50 96 38 58 (10579200)
I0323 15:03:22.018942 23529 net.cpp:139] Memory required for data: 65213400
I0323 15:03:22.018951 23529 layer_factory.hpp:77] Creating layer relu1
I0323 15:03:22.018956 23529 net.cpp:86] Creating Layer relu1
I0323 15:03:22.018959 23529 net.cpp:408] relu1 <- conv1
I0323 15:03:22.018962 23529 net.cpp:369] relu1 -> conv1 (in-place)
I0323 15:03:22.019075 23529 net.cpp:124] Setting up relu1
I0323 15:03:22.019081 23529 net.cpp:131] Top shape: 50 96 38 58 (10579200)
I0323 15:03:22.019083 23529 net.cpp:139] Memory required for data: 107530200
I0323 15:03:22.019086 23529 layer_factory.hpp:77] Creating layer pool1
I0323 15:03:22.019093 23529 net.cpp:86] Creating Layer pool1
I0323 15:03:22.019094 23529 net.cpp:408] pool1 <- conv1
I0323 15:03:22.019098 23529 net.cpp:382] pool1 -> pool1
I0323 15:03:22.019129 23529 net.cpp:124] Setting up pool1
I0323 15:03:22.019134 23529 net.cpp:131] Top shape: 50 96 19 29 (2644800)
I0323 15:03:22.019135 23529 net.cpp:139] Memory required for data: 118109400
I0323 15:03:22.019137 23529 layer_factory.hpp:77] Creating layer norm1
I0323 15:03:22.019142 23529 net.cpp:86] Creating Layer norm1
I0323 15:03:22.019145 23529 net.cpp:408] norm1 <- pool1
I0323 15:03:22.019148 23529 net.cpp:382] norm1 -> norm1
I0323 15:03:22.021273 23529 net.cpp:124] Setting up norm1
I0323 15:03:22.021282 23529 net.cpp:131] Top shape: 50 96 19 29 (2644800)
I0323 15:03:22.021284 23529 net.cpp:139] Memory required for data: 128688600
I0323 15:03:22.021287 23529 layer_factory.hpp:77] Creating layer conv2
I0323 15:03:22.021293 23529 net.cpp:86] Creating Layer conv2
I0323 15:03:22.021296 23529 net.cpp:408] conv2 <- norm1
I0323 15:03:22.021306 23529 net.cpp:382] conv2 -> conv2
I0323 15:03:22.025244 23529 net.cpp:124] Setting up conv2
I0323 15:03:22.025254 23529 net.cpp:131] Top shape: 50 256 19 29 (7052800)
I0323 15:03:22.025257 23529 net.cpp:139] Memory required for data: 156899800
I0323 15:03:22.025264 23529 layer_factory.hpp:77] Creating layer relu2
I0323 15:03:22.025269 23529 net.cpp:86] Creating Layer relu2
I0323 15:03:22.025271 23529 net.cpp:408] relu2 <- conv2
I0323 15:03:22.025274 23529 net.cpp:369] relu2 -> conv2 (in-place)
I0323 15:03:22.025385 23529 net.cpp:124] Setting up relu2
I0323 15:03:22.025391 23529 net.cpp:131] Top shape: 50 256 19 29 (7052800)
I0323 15:03:22.025394 23529 net.cpp:139] Memory required for data: 185111000
I0323 15:03:22.025396 23529 layer_factory.hpp:77] Creating layer pool2
I0323 15:03:22.025401 23529 net.cpp:86] Creating Layer pool2
I0323 15:03:22.025404 23529 net.cpp:408] pool2 <- conv2
I0323 15:03:22.025408 23529 net.cpp:382] pool2 -> pool2
I0323 15:03:22.025436 23529 net.cpp:124] Setting up pool2
I0323 15:03:22.025440 23529 net.cpp:131] Top shape: 50 256 9 14 (1612800)
I0323 15:03:22.025442 23529 net.cpp:139] Memory required for data: 191562200
I0323 15:03:22.025444 23529 layer_factory.hpp:77] Creating layer norm2
I0323 15:03:22.025449 23529 net.cpp:86] Creating Layer norm2
I0323 15:03:22.025451 23529 net.cpp:408] norm2 <- pool2
I0323 15:03:22.025454 23529 net.cpp:382] norm2 -> norm2
I0323 15:03:22.025730 23529 net.cpp:124] Setting up norm2
I0323 15:03:22.025738 23529 net.cpp:131] Top shape: 50 256 9 14 (1612800)
I0323 15:03:22.025740 23529 net.cpp:139] Memory required for data: 198013400
I0323 15:03:22.025743 23529 layer_factory.hpp:77] Creating layer conv3
I0323 15:03:22.025749 23529 net.cpp:86] Creating Layer conv3
I0323 15:03:22.025753 23529 net.cpp:408] conv3 <- norm2
I0323 15:03:22.025756 23529 net.cpp:382] conv3 -> conv3
I0323 15:03:22.033493 23529 net.cpp:124] Setting up conv3
I0323 15:03:22.033511 23529 net.cpp:131] Top shape: 50 384 9 14 (2419200)
I0323 15:03:22.033514 23529 net.cpp:139] Memory required for data: 207690200
I0323 15:03:22.033522 23529 layer_factory.hpp:77] Creating layer relu3
I0323 15:03:22.033529 23529 net.cpp:86] Creating Layer relu3
I0323 15:03:22.033531 23529 net.cpp:408] relu3 <- conv3
I0323 15:03:22.033536 23529 net.cpp:369] relu3 -> conv3 (in-place)
I0323 15:03:22.033797 23529 net.cpp:124] Setting up relu3
I0323 15:03:22.033804 23529 net.cpp:131] Top shape: 50 384 9 14 (2419200)
I0323 15:03:22.033807 23529 net.cpp:139] Memory required for data: 217367000
I0323 15:03:22.033809 23529 layer_factory.hpp:77] Creating layer conv4
I0323 15:03:22.033816 23529 net.cpp:86] Creating Layer conv4
I0323 15:03:22.033818 23529 net.cpp:408] conv4 <- conv3
I0323 15:03:22.033823 23529 net.cpp:382] conv4 -> conv4
I0323 15:03:22.040720 23529 net.cpp:124] Setting up conv4
I0323 15:03:22.040736 23529 net.cpp:131] Top shape: 50 384 9 14 (2419200)
I0323 15:03:22.040738 23529 net.cpp:139] Memory required for data: 227043800
I0323 15:03:22.040745 23529 layer_factory.hpp:77] Creating layer relu4
I0323 15:03:22.040750 23529 net.cpp:86] Creating Layer relu4
I0323 15:03:22.040752 23529 net.cpp:408] relu4 <- conv4
I0323 15:03:22.040756 23529 net.cpp:369] relu4 -> conv4 (in-place)
I0323 15:03:22.040875 23529 net.cpp:124] Setting up relu4
I0323 15:03:22.040881 23529 net.cpp:131] Top shape: 50 384 9 14 (2419200)
I0323 15:03:22.040884 23529 net.cpp:139] Memory required for data: 236720600
I0323 15:03:22.040886 23529 layer_factory.hpp:77] Creating layer conv5
I0323 15:03:22.040892 23529 net.cpp:86] Creating Layer conv5
I0323 15:03:22.040895 23529 net.cpp:408] conv5 <- conv4
I0323 15:03:22.040899 23529 net.cpp:382] conv5 -> conv5
I0323 15:03:22.045879 23529 net.cpp:124] Setting up conv5
I0323 15:03:22.045889 23529 net.cpp:131] Top shape: 50 256 9 14 (1612800)
I0323 15:03:22.045892 23529 net.cpp:139] Memory required for data: 243171800
I0323 15:03:22.045900 23529 layer_factory.hpp:77] Creating layer relu5
I0323 15:03:22.045904 23529 net.cpp:86] Creating Layer relu5
I0323 15:03:22.045907 23529 net.cpp:408] relu5 <- conv5
I0323 15:03:22.045917 23529 net.cpp:369] relu5 -> conv5 (in-place)
I0323 15:03:22.046038 23529 net.cpp:124] Setting up relu5
I0323 15:03:22.046044 23529 net.cpp:131] Top shape: 50 256 9 14 (1612800)
I0323 15:03:22.046046 23529 net.cpp:139] Memory required for data: 249623000
I0323 15:03:22.046049 23529 layer_factory.hpp:77] Creating layer pool5
I0323 15:03:22.046056 23529 net.cpp:86] Creating Layer pool5
I0323 15:03:22.046058 23529 net.cpp:408] pool5 <- conv5
I0323 15:03:22.046061 23529 net.cpp:382] pool5 -> pool5
I0323 15:03:22.046092 23529 net.cpp:124] Setting up pool5
I0323 15:03:22.046095 23529 net.cpp:131] Top shape: 50 256 4 7 (358400)
I0323 15:03:22.046097 23529 net.cpp:139] Memory required for data: 251056600
I0323 15:03:22.046099 23529 layer_factory.hpp:77] Creating layer fc6_msc
I0323 15:03:22.046104 23529 net.cpp:86] Creating Layer fc6_msc
I0323 15:03:22.046106 23529 net.cpp:408] fc6_msc <- pool5
I0323 15:03:22.046110 23529 net.cpp:382] fc6_msc -> fc6_msc
I0323 15:03:22.277940 23529 net.cpp:124] Setting up fc6_msc
I0323 15:03:22.277967 23529 net.cpp:131] Top shape: 50 4096 (204800)
I0323 15:03:22.277971 23529 net.cpp:139] Memory required for data: 251875800
I0323 15:03:22.277978 23529 layer_factory.hpp:77] Creating layer relu6
I0323 15:03:22.277986 23529 net.cpp:86] Creating Layer relu6
I0323 15:03:22.277988 23529 net.cpp:408] relu6 <- fc6_msc
I0323 15:03:22.277993 23529 net.cpp:369] relu6 -> fc6_msc (in-place)
I0323 15:03:22.278372 23529 net.cpp:124] Setting up relu6
I0323 15:03:22.278379 23529 net.cpp:131] Top shape: 50 4096 (204800)
I0323 15:03:22.278383 23529 net.cpp:139] Memory required for data: 252695000
I0323 15:03:22.278384 23529 layer_factory.hpp:77] Creating layer drop6
I0323 15:03:22.278389 23529 net.cpp:86] Creating Layer drop6
I0323 15:03:22.278391 23529 net.cpp:408] drop6 <- fc6_msc
I0323 15:03:22.278395 23529 net.cpp:369] drop6 -> fc6_msc (in-place)
I0323 15:03:22.278417 23529 net.cpp:124] Setting up drop6
I0323 15:03:22.278421 23529 net.cpp:131] Top shape: 50 4096 (204800)
I0323 15:03:22.278424 23529 net.cpp:139] Memory required for data: 253514200
I0323 15:03:22.278425 23529 layer_factory.hpp:77] Creating layer fc7_msc
I0323 15:03:22.278431 23529 net.cpp:86] Creating Layer fc7_msc
I0323 15:03:22.278434 23529 net.cpp:408] fc7_msc <- fc6_msc
I0323 15:03:22.278437 23529 net.cpp:382] fc7_msc -> fc7_msc
I0323 15:03:22.409041 23529 net.cpp:124] Setting up fc7_msc
I0323 15:03:22.409068 23529 net.cpp:131] Top shape: 50 4096 (204800)
I0323 15:03:22.409072 23529 net.cpp:139] Memory required for data: 254333400
I0323 15:03:22.409080 23529 layer_factory.hpp:77] Creating layer relu7
I0323 15:03:22.409088 23529 net.cpp:86] Creating Layer relu7
I0323 15:03:22.409091 23529 net.cpp:408] relu7 <- fc7_msc
I0323 15:03:22.409096 23529 net.cpp:369] relu7 -> fc7_msc (in-place)
I0323 15:03:22.409277 23529 net.cpp:124] Setting up relu7
I0323 15:03:22.409286 23529 net.cpp:131] Top shape: 50 4096 (204800)
I0323 15:03:22.409287 23529 net.cpp:139] Memory required for data: 255152600
I0323 15:03:22.409291 23529 layer_factory.hpp:77] Creating layer drop7
I0323 15:03:22.409296 23529 net.cpp:86] Creating Layer drop7
I0323 15:03:22.409298 23529 net.cpp:408] drop7 <- fc7_msc
I0323 15:03:22.409301 23529 net.cpp:369] drop7 -> fc7_msc (in-place)
I0323 15:03:22.409327 23529 net.cpp:124] Setting up drop7
I0323 15:03:22.409330 23529 net.cpp:131] Top shape: 50 4096 (204800)
I0323 15:03:22.409332 23529 net.cpp:139] Memory required for data: 255971800
I0323 15:03:22.409334 23529 layer_factory.hpp:77] Creating layer fc8_msc
I0323 15:03:22.409339 23529 net.cpp:86] Creating Layer fc8_msc
I0323 15:03:22.409343 23529 net.cpp:408] fc8_msc <- fc7_msc
I0323 15:03:22.409346 23529 net.cpp:382] fc8_msc -> fc8_msc
I0323 15:03:22.409488 23529 net.cpp:124] Setting up fc8_msc
I0323 15:03:22.409493 23529 net.cpp:131] Top shape: 50 2 (100)
I0323 15:03:22.409495 23529 net.cpp:139] Memory required for data: 255972200
I0323 15:03:22.409499 23529 layer_factory.hpp:77] Creating layer fc8_msc_fc8_msc_0_split
I0323 15:03:22.409512 23529 net.cpp:86] Creating Layer fc8_msc_fc8_msc_0_split
I0323 15:03:22.409526 23529 net.cpp:408] fc8_msc_fc8_msc_0_split <- fc8_msc
I0323 15:03:22.409533 23529 net.cpp:382] fc8_msc_fc8_msc_0_split -> fc8_msc_fc8_msc_0_split_0
I0323 15:03:22.409539 23529 net.cpp:382] fc8_msc_fc8_msc_0_split -> fc8_msc_fc8_msc_0_split_1
I0323 15:03:22.409574 23529 net.cpp:124] Setting up fc8_msc_fc8_msc_0_split
I0323 15:03:22.409579 23529 net.cpp:131] Top shape: 50 2 (100)
I0323 15:03:22.409582 23529 net.cpp:131] Top shape: 50 2 (100)
I0323 15:03:22.409584 23529 net.cpp:139] Memory required for data: 255973000
I0323 15:03:22.409586 23529 layer_factory.hpp:77] Creating layer accuracy
I0323 15:03:22.409591 23529 net.cpp:86] Creating Layer accuracy
I0323 15:03:22.409593 23529 net.cpp:408] accuracy <- fc8_msc_fc8_msc_0_split_0
I0323 15:03:22.409596 23529 net.cpp:408] accuracy <- label_msc_data_msc_1_split_0
I0323 15:03:22.409600 23529 net.cpp:382] accuracy -> accuracy
…
