…
I0316 15:02:51.225942 14421 net.cpp:296] The NetState phase (0) differed from the phase (1) specified by a rule in layer accuracy
I0316 15:02:51.226076 14421 net.cpp:53] Initializing net from parameters: 
name: "MCaffeNet"
state {
  phase: TRAIN
  level: 0
  stage: ""
}
layer {
  name: "data_msc"
  type: "ImageData"
  top: "data_msc"
  top: "label_msc"
  include {
    phase: TRAIN
  }
  transform_param {
    mean_value: 296
    mean_value: 103
    mean_value: 108
  }
  image_data_param {
    source: "/media/p307k07/ssd/opt/msc/data/train/list_caffe.txt"
    batch_size: 50
    new_height: 159
    new_width: 240
  }
}
layer {
  name: "conv1"
  type: "Convolution"
  bottom: "data_msc"
  top: "conv1"
  param {
    lr_mult: 0
    decay_mult: 0
  }
  param {
    lr_mult: 0
    decay_mult: 0
  }
  convolution_param {
    num_output: 96
    kernel_size: 11
    stride: 4
    weight_filler {
      type: "gaussian"
      std: 0.01
    }
    bias_filler {
      type: "constant"
      value: 0
    }
  }
}
layer {
  name: "relu1"
  type: "ReLU"
  bottom: "conv1"
  top: "conv1"
}
layer {
  name: "pool1"
  type: "Pooling"
  bottom: "conv1"
  top: "pool1"
  pooling_param {
    pool: MAX
    kernel_size: 3
    stride: 2
  }
}
layer {
  name: "norm1"
  type: "LRN"
  bottom: "pool1"
  top: "norm1"
  lrn_param {
    local_size: 5
    alpha: 0.0001
    beta: 0.75
  }
}
layer {
  name: "conv2"
  type: "Convolution"
  bottom: "norm1"
  top: "conv2"
  param {
    lr_mult: 0
    decay_mult: 0
  }
  param {
    lr_mult: 0
    decay_mult: 0
  }
  convolution_param {
    num_output: 256
    pad: 2
    kernel_size: 5
    group: 2
    weight_filler {
      type: "gaussian"
      std: 0.01
    }
    bias_filler {
      type: "constant"
      value: 1
    }
  }
}
layer {
  name: "relu2"
  type: "ReLU"
  bottom: "conv2"
  top: "conv2"
}
layer {
  name: "pool2"
  type: "Pooling"
  bottom: "conv2"
  top: "pool2"
  pooling_param {
    pool: MAX
    kernel_size: 3
    stride: 2
  }
}
layer {
  name: "norm2"
  type: "LRN"
  bottom: "pool2"
  top: "norm2"
  lrn_param {
    local_size: 5
    alpha: 0.0001
    beta: 0.75
  }
}
layer {
  name: "conv3"
  type: "Convolution"
  bottom: "norm2"
  top: "conv3"
  param {
    lr_mult: 0
    decay_mult: 0.01
  }
  param {
    lr_mult: 0
    decay_mult: 0
  }
  convolution_param {
    num_output: 384
    pad: 1
    kernel_size: 3
    weight_filler {
      type: "gaussian"
      std: 0.01
    }
    bias_filler {
      type: "constant"
      value: 0
    }
  }
}
layer {
  name: "relu3"
  type: "ReLU"
  bottom: "conv3"
  top: "conv3"
}
layer {
  name: "conv4"
  type: "Convolution"
  bottom: "conv3"
  top: "conv4"
  param {
    lr_mult: 0
    decay_mult: 0
  }
  param {
    lr_mult: 0
    decay_mult: 0
  }
  convolution_param {
    num_output: 384
    pad: 1
    kernel_size: 3
    group: 2
    weight_filler {
      type: "gaussian"
      std: 0.01
    }
    bias_filler {
      type: "constant"
      value: 1
    }
  }
}
layer {
  name: "relu4"
  type: "ReLU"
  bottom: "conv4"
  top: "conv4"
}
layer {
  name: "conv5"
  type: "Convolution"
  bottom: "conv4"
  top: "conv5"
  param {
    lr_mult: 0
    decay_mult: 0
  }
  param {
    lr_mult: 0
    decay_mult: 0
  }
  convolution_param {
    num_output: 256
    pad: 1
    kernel_size: 3
    group: 2
    weight_filler {
      type: "gaussian"
      std: 0.01
    }
    bias_filler {
      type: "constant"
      value: 1
    }
  }
}
layer {
  name: "relu5"
  type: "ReLU"
  bottom: "conv5"
  top: "conv5"
}
layer {
  name: "pool5"
  type: "Pooling"
  bottom: "conv5"
  top: "pool5"
  pooling_param {
    pool: MAX
    kernel_size: 3
    stride: 2
  }
}
layer {
  name: "fc6_msc"
  type: "InnerProduct"
  bottom: "pool5"
  top: "fc6_msc"
  param {
    lr_mult: 1
    decay_mult: 1
  }
  param {
    lr_mult: 2
    decay_mult: 0
  }
  inner_product_param {
    num_output: 4096
    weight_filler {
      type: "gaussian"
      std: 0.005
    }
    bias_filler {
      type: "constant"
      value: 1
    }
  }
}
layer {
  name: "relu6"
  type: "ReLU"
  bottom: "fc6_msc"
  top: "fc6_msc"
}
layer {
  name: "drop6"
  type: "Dropout"
  bottom: "fc6_msc"
  top: "fc6_msc"
  dropout_param {
    dropout_ratio: 0.5
  }
}
layer {
  name: "fc7_msc"
  type: "InnerProduct"
  bottom: "fc6_msc"
  top: "fc7_msc"
  param {
    lr_mult: 1
    decay_mult: 1
  }
  param {
    lr_mult: 2
    decay_mult: 0
  }
  inner_product_param {
    num_output: 4096
    weight_filler {
      type: "gaussian"
      std: 0.005
    }
    bias_filler {
      type: "constant"
      value: 1
    }
  }
}
layer {
  name: "relu7"
  type: "ReLU"
  bottom: "fc7_msc"
  top: "fc7_msc"
}
layer {
  name: "drop7"
  type: "Dropout"
  bottom: "fc7_msc"
  top: "fc7_msc"
  dropout_param {
    dropout_ratio: 0.5
  }
}
layer {
  name: "fc8_msc"
  type: "InnerProduct"
  bottom: "fc7_msc"
  top: "fc8_msc"
  param {
    lr_mult: 1
    decay_mult: 1
  }
  param {
    lr_mult: 2
    decay_mult: 0
  }
  inner_product_param {
    num_output: 2
    weight_filler {
      type: "gaussian"
      std: 0.01
    }
    bias_filler {
      type: "constant"
      value: 0
    }
  }
}
layer {
  name: "loss_msc"
  type: "SoftmaxWithLoss"
  bottom: "fc8_msc"
  bottom: "label_msc"
  top: "loss"
}
I0316 15:02:51.226210 14421 layer_factory.hpp:77] Creating layer data_msc
I0316 15:02:51.226233 14421 net.cpp:86] Creating Layer data_msc
I0316 15:02:51.226249 14421 net.cpp:382] data_msc -> data_msc
I0316 15:02:51.226280 14421 net.cpp:382] data_msc -> label_msc
I0316 15:02:51.226308 14421 image_data_layer.cpp:38] Opening file /media/p307k07/ssd/opt/msc/data/train/list_caffe.txt
I0316 15:02:51.374547 14421 image_data_layer.cpp:63] A total of 513382 images.
I0316 15:02:51.376703 14421 image_data_layer.cpp:90] output data size: 50,3,159,240
I0316 15:02:51.404618 14421 net.cpp:124] Setting up data_msc
I0316 15:02:51.404657 14421 net.cpp:131] Top shape: 50 3 159 240 (5724000)
I0316 15:02:51.404662 14421 net.cpp:131] Top shape: 50 (50)
I0316 15:02:51.404664 14421 net.cpp:139] Memory required for data: 22896200
I0316 15:02:51.404671 14421 layer_factory.hpp:77] Creating layer conv1
I0316 15:02:51.404698 14421 net.cpp:86] Creating Layer conv1
I0316 15:02:51.404713 14421 net.cpp:408] conv1 <- data_msc
I0316 15:02:51.404733 14421 net.cpp:382] conv1 -> conv1
I0316 15:02:51.521077 14421 net.cpp:124] Setting up conv1
I0316 15:02:51.521119 14421 net.cpp:131] Top shape: 50 96 38 58 (10579200)
I0316 15:02:51.521133 14421 net.cpp:139] Memory required for data: 65213000
I0316 15:02:51.521153 14421 layer_factory.hpp:77] Creating layer relu1
I0316 15:02:51.521164 14421 net.cpp:86] Creating Layer relu1
I0316 15:02:51.521168 14421 net.cpp:408] relu1 <- conv1
I0316 15:02:51.521183 14421 net.cpp:369] relu1 -> conv1 (in-place)
I0316 15:02:51.521422 14421 net.cpp:124] Setting up relu1
I0316 15:02:51.521431 14421 net.cpp:131] Top shape: 50 96 38 58 (10579200)
I0316 15:02:51.521445 14421 net.cpp:139] Memory required for data: 107529800
I0316 15:02:51.521448 14421 layer_factory.hpp:77] Creating layer pool1
I0316 15:02:51.521453 14421 net.cpp:86] Creating Layer pool1
I0316 15:02:51.521467 14421 net.cpp:408] pool1 <- conv1
I0316 15:02:51.521472 14421 net.cpp:382] pool1 -> pool1
I0316 15:02:51.521538 14421 net.cpp:124] Setting up pool1
I0316 15:02:51.521543 14421 net.cpp:131] Top shape: 50 96 19 29 (2644800)
I0316 15:02:51.521561 14421 net.cpp:139] Memory required for data: 118109000
I0316 15:02:51.521594 14421 layer_factory.hpp:77] Creating layer norm1
I0316 15:02:51.521601 14421 net.cpp:86] Creating Layer norm1
I0316 15:02:51.521605 14421 net.cpp:408] norm1 <- pool1
I0316 15:02:51.521610 14421 net.cpp:382] norm1 -> norm1
I0316 15:02:51.521770 14421 net.cpp:124] Setting up norm1
I0316 15:02:51.521777 14421 net.cpp:131] Top shape: 50 96 19 29 (2644800)
I0316 15:02:51.521781 14421 net.cpp:139] Memory required for data: 128688200
I0316 15:02:51.521800 14421 layer_factory.hpp:77] Creating layer conv2
I0316 15:02:51.521808 14421 net.cpp:86] Creating Layer conv2
I0316 15:02:51.521812 14421 net.cpp:408] conv2 <- norm1
I0316 15:02:51.521826 14421 net.cpp:382] conv2 -> conv2
I0316 15:02:51.525851 14421 net.cpp:124] Setting up conv2
I0316 15:02:51.525866 14421 net.cpp:131] Top shape: 50 256 19 29 (7052800)
I0316 15:02:51.525869 14421 net.cpp:139] Memory required for data: 156899400
I0316 15:02:51.525879 14421 layer_factory.hpp:77] Creating layer relu2
I0316 15:02:51.525885 14421 net.cpp:86] Creating Layer relu2
I0316 15:02:51.525889 14421 net.cpp:408] relu2 <- conv2
I0316 15:02:51.525893 14421 net.cpp:369] relu2 -> conv2 (in-place)
I0316 15:02:51.526048 14421 net.cpp:124] Setting up relu2
I0316 15:02:51.526057 14421 net.cpp:131] Top shape: 50 256 19 29 (7052800)
I0316 15:02:51.526060 14421 net.cpp:139] Memory required for data: 185110600
I0316 15:02:51.526077 14421 layer_factory.hpp:77] Creating layer pool2
I0316 15:02:51.526082 14421 net.cpp:86] Creating Layer pool2
I0316 15:02:51.526085 14421 net.cpp:408] pool2 <- conv2
I0316 15:02:51.526089 14421 net.cpp:382] pool2 -> pool2
I0316 15:02:51.526141 14421 net.cpp:124] Setting up pool2
I0316 15:02:51.526146 14421 net.cpp:131] Top shape: 50 256 9 14 (1612800)
I0316 15:02:51.526159 14421 net.cpp:139] Memory required for data: 191561800
I0316 15:02:51.526161 14421 layer_factory.hpp:77] Creating layer norm2
I0316 15:02:51.526177 14421 net.cpp:86] Creating Layer norm2
I0316 15:02:51.526181 14421 net.cpp:408] norm2 <- pool2
I0316 15:02:51.526187 14421 net.cpp:382] norm2 -> norm2
I0316 15:02:51.526417 14421 net.cpp:124] Setting up norm2
I0316 15:02:51.526427 14421 net.cpp:131] Top shape: 50 256 9 14 (1612800)
I0316 15:02:51.526430 14421 net.cpp:139] Memory required for data: 198013000
I0316 15:02:51.526434 14421 layer_factory.hpp:77] Creating layer conv3
I0316 15:02:51.526443 14421 net.cpp:86] Creating Layer conv3
I0316 15:02:51.526448 14421 net.cpp:408] conv3 <- norm2
I0316 15:02:51.526453 14421 net.cpp:382] conv3 -> conv3
I0316 15:02:51.534493 14421 net.cpp:124] Setting up conv3
I0316 15:02:51.534518 14421 net.cpp:131] Top shape: 50 384 9 14 (2419200)
I0316 15:02:51.534521 14421 net.cpp:139] Memory required for data: 207689800
I0316 15:02:51.534543 14421 layer_factory.hpp:77] Creating layer relu3
I0316 15:02:51.534560 14421 net.cpp:86] Creating Layer relu3
I0316 15:02:51.534564 14421 net.cpp:408] relu3 <- conv3
I0316 15:02:51.534579 14421 net.cpp:369] relu3 -> conv3 (in-place)
I0316 15:02:51.534701 14421 net.cpp:124] Setting up relu3
I0316 15:02:51.534709 14421 net.cpp:131] Top shape: 50 384 9 14 (2419200)
I0316 15:02:51.534713 14421 net.cpp:139] Memory required for data: 217366600
I0316 15:02:51.534715 14421 layer_factory.hpp:77] Creating layer conv4
I0316 15:02:51.534723 14421 net.cpp:86] Creating Layer conv4
I0316 15:02:51.534728 14421 net.cpp:408] conv4 <- conv3
I0316 15:02:51.534734 14421 net.cpp:382] conv4 -> conv4
I0316 15:02:51.544163 14421 net.cpp:124] Setting up conv4
I0316 15:02:51.544193 14421 net.cpp:131] Top shape: 50 384 9 14 (2419200)
I0316 15:02:51.544195 14421 net.cpp:139] Memory required for data: 227043400
I0316 15:02:51.544201 14421 layer_factory.hpp:77] Creating layer relu4
I0316 15:02:51.544209 14421 net.cpp:86] Creating Layer relu4
I0316 15:02:51.544222 14421 net.cpp:408] relu4 <- conv4
I0316 15:02:51.544229 14421 net.cpp:369] relu4 -> conv4 (in-place)
I0316 15:02:51.544391 14421 net.cpp:124] Setting up relu4
I0316 15:02:51.544399 14421 net.cpp:131] Top shape: 50 384 9 14 (2419200)
I0316 15:02:51.544416 14421 net.cpp:139] Memory required for data: 236720200
I0316 15:02:51.544438 14421 layer_factory.hpp:77] Creating layer conv5
I0316 15:02:51.544447 14421 net.cpp:86] Creating Layer conv5
I0316 15:02:51.544451 14421 net.cpp:408] conv5 <- conv4
I0316 15:02:51.544457 14421 net.cpp:382] conv5 -> conv5
I0316 15:02:51.549494 14421 net.cpp:124] Setting up conv5
I0316 15:02:51.549510 14421 net.cpp:131] Top shape: 50 256 9 14 (1612800)
I0316 15:02:51.549532 14421 net.cpp:139] Memory required for data: 243171400
I0316 15:02:51.549542 14421 layer_factory.hpp:77] Creating layer relu5
I0316 15:02:51.549549 14421 net.cpp:86] Creating Layer relu5
I0316 15:02:51.549562 14421 net.cpp:408] relu5 <- conv5
I0316 15:02:51.549567 14421 net.cpp:369] relu5 -> conv5 (in-place)
I0316 15:02:51.549715 14421 net.cpp:124] Setting up relu5
I0316 15:02:51.549722 14421 net.cpp:131] Top shape: 50 256 9 14 (1612800)
I0316 15:02:51.549726 14421 net.cpp:139] Memory required for data: 249622600
I0316 15:02:51.549729 14421 layer_factory.hpp:77] Creating layer pool5
I0316 15:02:51.549736 14421 net.cpp:86] Creating Layer pool5
I0316 15:02:51.549749 14421 net.cpp:408] pool5 <- conv5
I0316 15:02:51.549754 14421 net.cpp:382] pool5 -> pool5
I0316 15:02:51.549784 14421 net.cpp:124] Setting up pool5
I0316 15:02:51.549790 14421 net.cpp:131] Top shape: 50 256 4 7 (358400)
I0316 15:02:51.549793 14421 net.cpp:139] Memory required for data: 251056200
I0316 15:02:51.549796 14421 layer_factory.hpp:77] Creating layer fc6_msc
I0316 15:02:51.549806 14421 net.cpp:86] Creating Layer fc6_msc
I0316 15:02:51.549809 14421 net.cpp:408] fc6_msc <- pool5
I0316 15:02:51.549815 14421 net.cpp:382] fc6_msc -> fc6_msc
I0316 15:02:51.781641 14421 net.cpp:124] Setting up fc6_msc
I0316 15:02:51.781672 14421 net.cpp:131] Top shape: 50 4096 (204800)
I0316 15:02:51.781694 14421 net.cpp:139] Memory required for data: 251875400
I0316 15:02:51.781704 14421 layer_factory.hpp:77] Creating layer relu6
I0316 15:02:51.781713 14421 net.cpp:86] Creating Layer relu6
I0316 15:02:51.781719 14421 net.cpp:408] relu6 <- fc6_msc
I0316 15:02:51.781726 14421 net.cpp:369] relu6 -> fc6_msc (in-place)
I0316 15:02:51.782064 14421 net.cpp:124] Setting up relu6
I0316 15:02:51.782076 14421 net.cpp:131] Top shape: 50 4096 (204800)
I0316 15:02:51.782079 14421 net.cpp:139] Memory required for data: 252694600
I0316 15:02:51.782083 14421 layer_factory.hpp:77] Creating layer drop6
I0316 15:02:51.782089 14421 net.cpp:86] Creating Layer drop6
I0316 15:02:51.782093 14421 net.cpp:408] drop6 <- fc6_msc
I0316 15:02:51.782099 14421 net.cpp:369] drop6 -> fc6_msc (in-place)
I0316 15:02:51.782130 14421 net.cpp:124] Setting up drop6
I0316 15:02:51.782135 14421 net.cpp:131] Top shape: 50 4096 (204800)
I0316 15:02:51.782137 14421 net.cpp:139] Memory required for data: 253513800
I0316 15:02:51.782140 14421 layer_factory.hpp:77] Creating layer fc7_msc
I0316 15:02:51.782146 14421 net.cpp:86] Creating Layer fc7_msc
I0316 15:02:51.782150 14421 net.cpp:408] fc7_msc <- fc6_msc
I0316 15:02:51.782153 14421 net.cpp:382] fc7_msc -> fc7_msc
I0316 15:02:51.912150 14421 net.cpp:124] Setting up fc7_msc
I0316 15:02:51.912181 14421 net.cpp:131] Top shape: 50 4096 (204800)
I0316 15:02:51.912202 14421 net.cpp:139] Memory required for data: 254333000
I0316 15:02:51.912210 14421 layer_factory.hpp:77] Creating layer relu7
I0316 15:02:51.912220 14421 net.cpp:86] Creating Layer relu7
I0316 15:02:51.912223 14421 net.cpp:408] relu7 <- fc7_msc
I0316 15:02:51.912230 14421 net.cpp:369] relu7 -> fc7_msc (in-place)
I0316 15:02:51.912554 14421 net.cpp:124] Setting up relu7
I0316 15:02:51.912564 14421 net.cpp:131] Top shape: 50 4096 (204800)
I0316 15:02:51.912566 14421 net.cpp:139] Memory required for data: 255152200
I0316 15:02:51.912569 14421 layer_factory.hpp:77] Creating layer drop7
I0316 15:02:51.912575 14421 net.cpp:86] Creating Layer drop7
I0316 15:02:51.912580 14421 net.cpp:408] drop7 <- fc7_msc
I0316 15:02:51.912583 14421 net.cpp:369] drop7 -> fc7_msc (in-place)
I0316 15:02:51.912606 14421 net.cpp:124] Setting up drop7
I0316 15:02:51.912616 14421 net.cpp:131] Top shape: 50 4096 (204800)
I0316 15:02:51.912626 14421 net.cpp:139] Memory required for data: 255971400
I0316 15:02:51.912628 14421 layer_factory.hpp:77] Creating layer fc8_msc
I0316 15:02:51.912634 14421 net.cpp:86] Creating Layer fc8_msc
I0316 15:02:51.912637 14421 net.cpp:408] fc8_msc <- fc7_msc
I0316 15:02:51.912653 14421 net.cpp:382] fc8_msc -> fc8_msc
I0316 15:02:51.913066 14421 net.cpp:124] Setting up fc8_msc
I0316 15:02:51.913075 14421 net.cpp:131] Top shape: 50 2 (100)
I0316 15:02:51.913079 14421 net.cpp:139] Memory required for data: 255971800
I0316 15:02:51.913082 14421 layer_factory.hpp:77] Creating layer fc8_msc_fc8_msc_0_split
I0316 15:02:51.913087 14421 net.cpp:86] Creating Layer fc8_msc_fc8_msc_0_split
I0316 15:02:51.913090 14421 net.cpp:408] fc8_msc_fc8_msc_0_split <- fc8_msc
I0316 15:02:51.913094 14421 net.cpp:382] fc8_msc_fc8_msc_0_split -> fc8_msc_fc8_msc_0_split_0
I0316 15:02:51.913110 14421 net.cpp:382] fc8_msc_fc8_msc_0_split -> fc8_msc_fc8_msc_0_split_1
I0316 15:02:51.913151 14421 net.cpp:124] Setting up fc8_msc_fc8_msc_0_split
I0316 15:02:51.913156 14421 net.cpp:131] Top shape: 50 2 (100)
I0316 15:02:51.913158 14421 net.cpp:131] Top shape: 50 2 (100)
I0316 15:02:51.913161 14421 net.cpp:139] Memory required for data: 255972600
I0316 15:02:51.913163 14421 layer_factory.hpp:77] Creating layer sigmoid
I0316 15:02:51.913168 14421 net.cpp:86] Creating Layer sigmoid
I0316 15:02:51.913170 14421 net.cpp:408] sigmoid <- fc8_msc_fc8_msc_0_split_0
I0316 15:02:51.913322 14421 net.cpp:124] Setting up sigmoid
I0316 15:02:51.913329 14421 net.cpp:131] Top shape: 50 2 (100)
I0316 15:02:51.913332 14421 net.cpp:139] Memory required for data: 255973000
I0316 15:02:51.913334 14421 layer_factory.hpp:77] Creating layer loss_msc
I0316 15:02:51.913339 14421 net.cpp:86] Creating Layer loss_msc
I0316 15:02:51.913341 14421 net.cpp:408] loss_msc <- fc8_msc_fc8_msc_0_split_1
I0316 15:02:51.913345 14421 net.cpp:408] loss_msc <- label_msc
I0316 15:02:51.913350 14421 net.cpp:382] loss_msc -> loss
…
I0316 15:02:51.914073 14421 net.cpp:296] The NetState phase (1) differed from the phase (0) specified by a rule in layer data_msc
I0316 15:02:51.914197 14421 net.cpp:53] Initializing net from parameters: 
name: "MCaffeNet"
state {
  phase: TEST
}
layer {
  name: "data_msc"
  type: "ImageData"
  top: "data_msc"
  top: "label_msc"
  include {
    phase: TEST
  }
  transform_param {
    mean_value: 296
    mean_value: 103
    mean_value: 108
  }
  image_data_param {
    source: "/media/p307k07/ssd/opt/msc/data/test/list_caffe.txt"
    batch_size: 50
    new_height: 159
    new_width: 240
  }
}
layer {
  name: "conv1"
  type: "Convolution"
  bottom: "data_msc"
  top: "conv1"
  param {
    lr_mult: 0
    decay_mult: 0
  }
  param {
    lr_mult: 0
    decay_mult: 0
  }
  convolution_param {
    num_output: 96
    kernel_size: 11
    stride: 4
    weight_filler {
      type: "gaussian"
      std: 0.01
    }
    bias_filler {
      type: "constant"
      value: 0
    }
  }
}
layer {
  name: "relu1"
  type: "ReLU"
  bottom: "conv1"
  top: "conv1"
}
layer {
  name: "pool1"
  type: "Pooling"
  bottom: "conv1"
  top: "pool1"
  pooling_param {
    pool: MAX
    kernel_size: 3
    stride: 2
  }
}
layer {
  name: "norm1"
  type: "LRN"
  bottom: "pool1"
  top: "norm1"
  lrn_param {
    local_size: 5
    alpha: 0.0001
    beta: 0.75
  }
}
layer {
  name: "conv2"
  type: "Convolution"
  bottom: "norm1"
  top: "conv2"
  param {
    lr_mult: 0
    decay_mult: 0
  }
  param {
    lr_mult: 0
    decay_mult: 0
  }
  convolution_param {
    num_output: 256
    pad: 2
    kernel_size: 5
    group: 2
    weight_filler {
      type: "gaussian"
      std: 0.01
    }
    bias_filler {
      type: "constant"
      value: 1
    }
  }
}
layer {
  name: "relu2"
  type: "ReLU"
  bottom: "conv2"
  top: "conv2"
}
layer {
  name: "pool2"
  type: "Pooling"
  bottom: "conv2"
  top: "pool2"
  pooling_param {
    pool: MAX
    kernel_size: 3
    stride: 2
  }
}
layer {
  name: "norm2"
  type: "LRN"
  bottom: "pool2"
  top: "norm2"
  lrn_param {
    local_size: 5
    alpha: 0.0001
    beta: 0.75
  }
}
layer {
  name: "conv3"
  type: "Convolution"
  bottom: "norm2"
  top: "conv3"
  param {
    lr_mult: 0
    decay_mult: 0.01
  }
  param {
    lr_mult: 0
    decay_mult: 0
  }
  convolution_param {
    num_output: 384
    pad: 1
    kernel_size: 3
    weight_filler {
      type: "gaussian"
      std: 0.01
    }
    bias_filler {
      type: "constant"
      value: 0
    }
  }
}
layer {
  name: "relu3"
  type: "ReLU"
  bottom: "conv3"
  top: "conv3"
}
layer {
  name: "conv4"
  type: "Convolution"
  bottom: "conv3"
  top: "conv4"
  param {
    lr_mult: 0
    decay_mult: 0
  }
  param {
    lr_mult: 0
    decay_mult: 0
  }
  convolution_param {
    num_output: 384
    pad: 1
    kernel_size: 3
    group: 2
    weight_filler {
      type: "gaussian"
      std: 0.01
    }
    bias_filler {
      type: "constant"
      value: 1
    }
  }
}
layer {
  name: "relu4"
  type: "ReLU"
  bottom: "conv4"
  top: "conv4"
}
layer {
  name: "conv5"
  type: "Convolution"
  bottom: "conv4"
  top: "conv5"
  param {
    lr_mult: 0
    decay_mult: 0
  }
  param {
    lr_mult: 0
    decay_mult: 0
  }
  convolution_param {
    num_output: 256
    pad: 1
    kernel_size: 3
    group: 2
    weight_filler {
      type: "gaussian"
      std: 0.01
    }
    bias_filler {
      type: "constant"
      value: 1
    }
  }
}
layer {
  name: "relu5"
  type: "ReLU"
  bottom: "conv5"
  top: "conv5"
}
layer {
  name: "pool5"
  type: "Pooling"
  bottom: "conv5"
  top: "pool5"
  pooling_param {
    pool: MAX
    kernel_size: 3
    stride: 2
  }
}
layer {
  name: "fc6_msc"
  type: "InnerProduct"
  bottom: "pool5"
  top: "fc6_msc"
  param {
    lr_mult: 1
    decay_mult: 1
  }
  param {
    lr_mult: 2
    decay_mult: 0
  }
  inner_product_param {
    num_output: 4096
    weight_filler {
      type: "gaussian"
      std: 0.005
    }
    bias_filler {
      type: "constant"
      value: 1
    }
  }
}
layer {
  name: "relu6"
  type: "ReLU"
  bottom: "fc6_msc"
  top: "fc6_msc"
}
layer {
  name: "drop6"
  type: "Dropout"
  bottom: "fc6_msc"
  top: "fc6_msc"
  dropout_param {
    dropout_ratio: 0.5
  }
}
layer {
  name: "fc7_msc"
  type: "InnerProduct"
  bottom: "fc6_msc"
  top: "fc7_msc"
  param {
    lr_mult: 1
    decay_mult: 1
  }
  param {
    lr_mult: 2
    decay_mult: 0
  }
  inner_product_param {
    num_output: 4096
    weight_filler {
      type: "gaussian"
      std: 0.005
    }
    bias_filler {
      type: "constant"
      value: 1
    }
  }
}
layer {
  name: "relu7"
  type: "ReLU"
  bottom: "fc7_msc"
  top: "fc7_msc"
}
layer {
  name: "drop7"
  type: "Dropout"
  bottom: "fc7_msc"
  top: "fc7_msc"
  dropout_param {
    dropout_ratio: 0.5
  }
}
layer {
  name: "fc8_msc"
  type: "InnerProduct"
  bottom: "fc7_msc"
  top: "fc8_msc"
  param {
    lr_mult: 1
    decay_mult: 1
  }
  param {
    lr_mult: 2
    decay_mult: 0
  }
  inner_product_param {
    num_output: 2
    weight_filler {
      type: "gaussian"
      std: 0.01
    }
    bias_filler {
      type: "constant"
      value: 0
    }
  }
}
layer {
  name: "accuracy"
  type: "Accuracy"
  bottom: "fc8_msc"
  bottom: "label_msc"
  top: "accuracy"
  include {
    phase: TEST
  }
}
layer {
  name: "loss_msc"
  type: "SoftmaxWithLoss"
  bottom: "fc8_msc"
  bottom: "label_msc"
  top: "loss"
}
I0316 15:02:51.914273 14421 layer_factory.hpp:77] Creating layer data_msc
I0316 15:02:51.914284 14421 net.cpp:86] Creating Layer data_msc
I0316 15:02:51.914289 14421 net.cpp:382] data_msc -> data_msc
I0316 15:02:51.914296 14421 net.cpp:382] data_msc -> label_msc
I0316 15:02:51.914304 14421 image_data_layer.cpp:38] Opening file /media/p307k07/ssd/opt/msc/data/test/list_caffe.txt
I0316 15:02:51.938423 14421 image_data_layer.cpp:63] A total of 85562 images.
I0316 15:02:51.939134 14421 image_data_layer.cpp:90] output data size: 50,3,159,240
I0316 15:02:52.581944 14421 net.cpp:124] Setting up data_msc
I0316 15:02:52.582002 14421 net.cpp:131] Top shape: 50 3 159 240 (5724000)
I0316 15:02:52.582015 14421 net.cpp:131] Top shape: 50 (50)
I0316 15:02:52.582021 14421 net.cpp:139] Memory required for data: 22896200
I0316 15:02:52.582031 14421 layer_factory.hpp:77] Creating layer label_msc_data_msc_1_split
I0316 15:02:52.582056 14421 net.cpp:86] Creating Layer label_msc_data_msc_1_split
I0316 15:02:52.582062 14421 net.cpp:408] label_msc_data_msc_1_split <- label_msc
I0316 15:02:52.582080 14421 net.cpp:382] label_msc_data_msc_1_split -> label_msc_data_msc_1_split_0
I0316 15:02:52.582090 14421 net.cpp:382] label_msc_data_msc_1_split -> label_msc_data_msc_1_split_1
I0316 15:02:52.582157 14421 net.cpp:124] Setting up label_msc_data_msc_1_split
I0316 15:02:52.582164 14421 net.cpp:131] Top shape: 50 (50)
I0316 15:02:52.582177 14421 net.cpp:131] Top shape: 50 (50)
I0316 15:02:52.582180 14421 net.cpp:139] Memory required for data: 22896600
I0316 15:02:52.582182 14421 layer_factory.hpp:77] Creating layer conv1
I0316 15:02:52.582203 14421 net.cpp:86] Creating Layer conv1
I0316 15:02:52.582206 14421 net.cpp:408] conv1 <- data_msc
I0316 15:02:52.582221 14421 net.cpp:382] conv1 -> conv1
I0316 15:02:52.583328 14421 net.cpp:124] Setting up conv1
I0316 15:02:52.583353 14421 net.cpp:131] Top shape: 50 96 38 58 (10579200)
I0316 15:02:52.583360 14421 net.cpp:139] Memory required for data: 65213400
I0316 15:02:52.583391 14421 layer_factory.hpp:77] Creating layer relu1
I0316 15:02:52.583398 14421 net.cpp:86] Creating Layer relu1
I0316 15:02:52.583402 14421 net.cpp:408] relu1 <- conv1
I0316 15:02:52.583406 14421 net.cpp:369] relu1 -> conv1 (in-place)
I0316 15:02:52.585480 14421 net.cpp:124] Setting up relu1
I0316 15:02:52.585494 14421 net.cpp:131] Top shape: 50 96 38 58 (10579200)
I0316 15:02:52.585499 14421 net.cpp:139] Memory required for data: 107530200
I0316 15:02:52.585501 14421 layer_factory.hpp:77] Creating layer pool1
I0316 15:02:52.585518 14421 net.cpp:86] Creating Layer pool1
I0316 15:02:52.585522 14421 net.cpp:408] pool1 <- conv1
I0316 15:02:52.585537 14421 net.cpp:382] pool1 -> pool1
I0316 15:02:52.585582 14421 net.cpp:124] Setting up pool1
I0316 15:02:52.585588 14421 net.cpp:131] Top shape: 50 96 19 29 (2644800)
I0316 15:02:52.585592 14421 net.cpp:139] Memory required for data: 118109400
I0316 15:02:52.585605 14421 layer_factory.hpp:77] Creating layer norm1
I0316 15:02:52.585611 14421 net.cpp:86] Creating Layer norm1
I0316 15:02:52.585614 14421 net.cpp:408] norm1 <- pool1
I0316 15:02:52.585619 14421 net.cpp:382] norm1 -> norm1
I0316 15:02:52.585871 14421 net.cpp:124] Setting up norm1
I0316 15:02:52.585881 14421 net.cpp:131] Top shape: 50 96 19 29 (2644800)
I0316 15:02:52.585894 14421 net.cpp:139] Memory required for data: 128688600
I0316 15:02:52.585898 14421 layer_factory.hpp:77] Creating layer conv2
I0316 15:02:52.585907 14421 net.cpp:86] Creating Layer conv2
I0316 15:02:52.585911 14421 net.cpp:408] conv2 <- norm1
I0316 15:02:52.585916 14421 net.cpp:382] conv2 -> conv2
I0316 15:02:52.589711 14421 net.cpp:124] Setting up conv2
I0316 15:02:52.589727 14421 net.cpp:131] Top shape: 50 256 19 29 (7052800)
I0316 15:02:52.589731 14421 net.cpp:139] Memory required for data: 156899800
I0316 15:02:52.589740 14421 layer_factory.hpp:77] Creating layer relu2
I0316 15:02:52.589746 14421 net.cpp:86] Creating Layer relu2
I0316 15:02:52.589751 14421 net.cpp:408] relu2 <- conv2
I0316 15:02:52.589756 14421 net.cpp:369] relu2 -> conv2 (in-place)
I0316 15:02:52.590164 14421 net.cpp:124] Setting up relu2
I0316 15:02:52.590178 14421 net.cpp:131] Top shape: 50 256 19 29 (7052800)
I0316 15:02:52.590181 14421 net.cpp:139] Memory required for data: 185111000
I0316 15:02:52.590185 14421 layer_factory.hpp:77] Creating layer pool2
I0316 15:02:52.590193 14421 net.cpp:86] Creating Layer pool2
I0316 15:02:52.590198 14421 net.cpp:408] pool2 <- conv2
I0316 15:02:52.590204 14421 net.cpp:382] pool2 -> pool2
I0316 15:02:52.590240 14421 net.cpp:124] Setting up pool2
I0316 15:02:52.590247 14421 net.cpp:131] Top shape: 50 256 9 14 (1612800)
I0316 15:02:52.590250 14421 net.cpp:139] Memory required for data: 191562200
I0316 15:02:52.590253 14421 layer_factory.hpp:77] Creating layer norm2
I0316 15:02:52.590260 14421 net.cpp:86] Creating Layer norm2
I0316 15:02:52.590263 14421 net.cpp:408] norm2 <- pool2
I0316 15:02:52.590267 14421 net.cpp:382] norm2 -> norm2
I0316 15:02:52.590667 14421 net.cpp:124] Setting up norm2
I0316 15:02:52.590677 14421 net.cpp:131] Top shape: 50 256 9 14 (1612800)
I0316 15:02:52.590680 14421 net.cpp:139] Memory required for data: 198013400
I0316 15:02:52.590684 14421 layer_factory.hpp:77] Creating layer conv3
I0316 15:02:52.590692 14421 net.cpp:86] Creating Layer conv3
I0316 15:02:52.590698 14421 net.cpp:408] conv3 <- norm2
I0316 15:02:52.590703 14421 net.cpp:382] conv3 -> conv3
I0316 15:02:52.598923 14421 net.cpp:124] Setting up conv3
I0316 15:02:52.598948 14421 net.cpp:131] Top shape: 50 384 9 14 (2419200)
I0316 15:02:52.598951 14421 net.cpp:139] Memory required for data: 207690200
I0316 15:02:52.598963 14421 layer_factory.hpp:77] Creating layer relu3
I0316 15:02:52.598973 14421 net.cpp:86] Creating Layer relu3
I0316 15:02:52.598978 14421 net.cpp:408] relu3 <- conv3
I0316 15:02:52.598984 14421 net.cpp:369] relu3 -> conv3 (in-place)
I0316 15:02:52.599236 14421 net.cpp:124] Setting up relu3
I0316 15:02:52.599247 14421 net.cpp:131] Top shape: 50 384 9 14 (2419200)
I0316 15:02:52.599257 14421 net.cpp:139] Memory required for data: 217367000
I0316 15:02:52.599268 14421 layer_factory.hpp:77] Creating layer conv4
I0316 15:02:52.599290 14421 net.cpp:86] Creating Layer conv4
I0316 15:02:52.599294 14421 net.cpp:408] conv4 <- conv3
I0316 15:02:52.599309 14421 net.cpp:382] conv4 -> conv4
I0316 15:02:52.606266 14421 net.cpp:124] Setting up conv4
I0316 15:02:52.606287 14421 net.cpp:131] Top shape: 50 384 9 14 (2419200)
I0316 15:02:52.606290 14421 net.cpp:139] Memory required for data: 227043800
I0316 15:02:52.606297 14421 layer_factory.hpp:77] Creating layer relu4
I0316 15:02:52.606304 14421 net.cpp:86] Creating Layer relu4
I0316 15:02:52.606308 14421 net.cpp:408] relu4 <- conv4
I0316 15:02:52.606313 14421 net.cpp:369] relu4 -> conv4 (in-place)
I0316 15:02:52.606523 14421 net.cpp:124] Setting up relu4
I0316 15:02:52.606531 14421 net.cpp:131] Top shape: 50 384 9 14 (2419200)
I0316 15:02:52.606535 14421 net.cpp:139] Memory required for data: 236720600
I0316 15:02:52.606539 14421 layer_factory.hpp:77] Creating layer conv5
I0316 15:02:52.606547 14421 net.cpp:86] Creating Layer conv5
I0316 15:02:52.606551 14421 net.cpp:408] conv5 <- conv4
I0316 15:02:52.606556 14421 net.cpp:382] conv5 -> conv5
I0316 15:02:52.611311 14421 net.cpp:124] Setting up conv5
I0316 15:02:52.611325 14421 net.cpp:131] Top shape: 50 256 9 14 (1612800)
I0316 15:02:52.611327 14421 net.cpp:139] Memory required for data: 243171800
I0316 15:02:52.611337 14421 layer_factory.hpp:77] Creating layer relu5
I0316 15:02:52.611343 14421 net.cpp:86] Creating Layer relu5
I0316 15:02:52.611347 14421 net.cpp:408] relu5 <- conv5
I0316 15:02:52.611352 14421 net.cpp:369] relu5 -> conv5 (in-place)
I0316 15:02:52.611562 14421 net.cpp:124] Setting up relu5
I0316 15:02:52.611570 14421 net.cpp:131] Top shape: 50 256 9 14 (1612800)
I0316 15:02:52.611573 14421 net.cpp:139] Memory required for data: 249623000
I0316 15:02:52.611577 14421 layer_factory.hpp:77] Creating layer pool5
I0316 15:02:52.611585 14421 net.cpp:86] Creating Layer pool5
I0316 15:02:52.611588 14421 net.cpp:408] pool5 <- conv5
I0316 15:02:52.611593 14421 net.cpp:382] pool5 -> pool5
I0316 15:02:52.611626 14421 net.cpp:124] Setting up pool5
I0316 15:02:52.611632 14421 net.cpp:131] Top shape: 50 256 4 7 (358400)
I0316 15:02:52.611636 14421 net.cpp:139] Memory required for data: 251056600
I0316 15:02:52.611639 14421 layer_factory.hpp:77] Creating layer fc6_msc
I0316 15:02:52.611645 14421 net.cpp:86] Creating Layer fc6_msc
I0316 15:02:52.611649 14421 net.cpp:408] fc6_msc <- pool5
I0316 15:02:52.611654 14421 net.cpp:382] fc6_msc -> fc6_msc
I0316 15:02:52.843827 14421 net.cpp:124] Setting up fc6_msc
I0316 15:02:52.843859 14421 net.cpp:131] Top shape: 50 4096 (204800)
I0316 15:02:52.843881 14421 net.cpp:139] Memory required for data: 251875800
I0316 15:02:52.843891 14421 layer_factory.hpp:77] Creating layer relu6
I0316 15:02:52.843900 14421 net.cpp:86] Creating Layer relu6
I0316 15:02:52.843916 14421 net.cpp:408] relu6 <- fc6_msc
I0316 15:02:52.843924 14421 net.cpp:369] relu6 -> fc6_msc (in-place)
I0316 15:02:52.844128 14421 net.cpp:124] Setting up relu6
I0316 15:02:52.844137 14421 net.cpp:131] Top shape: 50 4096 (204800)
I0316 15:02:52.844141 14421 net.cpp:139] Memory required for data: 252695000
I0316 15:02:52.844143 14421 layer_factory.hpp:77] Creating layer drop6
I0316 15:02:52.844151 14421 net.cpp:86] Creating Layer drop6
I0316 15:02:52.844153 14421 net.cpp:408] drop6 <- fc6_msc
I0316 15:02:52.844157 14421 net.cpp:369] drop6 -> fc6_msc (in-place)
I0316 15:02:52.844208 14421 net.cpp:124] Setting up drop6
I0316 15:02:52.844213 14421 net.cpp:131] Top shape: 50 4096 (204800)
I0316 15:02:52.844215 14421 net.cpp:139] Memory required for data: 253514200
I0316 15:02:52.844218 14421 layer_factory.hpp:77] Creating layer fc7_msc
I0316 15:02:52.844223 14421 net.cpp:86] Creating Layer fc7_msc
I0316 15:02:52.844226 14421 net.cpp:408] fc7_msc <- fc6_msc
I0316 15:02:52.844230 14421 net.cpp:382] fc7_msc -> fc7_msc
I0316 15:02:52.974871 14421 net.cpp:124] Setting up fc7_msc
I0316 15:02:52.974963 14421 net.cpp:131] Top shape: 50 4096 (204800)
I0316 15:02:52.975011 14421 net.cpp:139] Memory required for data: 254333400
I0316 15:02:52.975023 14421 layer_factory.hpp:77] Creating layer relu7
I0316 15:02:52.975033 14421 net.cpp:86] Creating Layer relu7
I0316 15:02:52.975039 14421 net.cpp:408] relu7 <- fc7_msc
I0316 15:02:52.975045 14421 net.cpp:369] relu7 -> fc7_msc (in-place)
I0316 15:02:52.975406 14421 net.cpp:124] Setting up relu7
I0316 15:02:52.975419 14421 net.cpp:131] Top shape: 50 4096 (204800)
I0316 15:02:52.975420 14421 net.cpp:139] Memory required for data: 255152600
I0316 15:02:52.975425 14421 layer_factory.hpp:77] Creating layer drop7
I0316 15:02:52.975430 14421 net.cpp:86] Creating Layer drop7
I0316 15:02:52.975433 14421 net.cpp:408] drop7 <- fc7_msc
I0316 15:02:52.975437 14421 net.cpp:369] drop7 -> fc7_msc (in-place)
I0316 15:02:52.975487 14421 net.cpp:124] Setting up drop7
I0316 15:02:52.975492 14421 net.cpp:131] Top shape: 50 4096 (204800)
I0316 15:02:52.975495 14421 net.cpp:139] Memory required for data: 255971800
I0316 15:02:52.975497 14421 layer_factory.hpp:77] Creating layer fc8_msc
I0316 15:02:52.975503 14421 net.cpp:86] Creating Layer fc8_msc
I0316 15:02:52.975507 14421 net.cpp:408] fc8_msc <- fc7_msc
I0316 15:02:52.975510 14421 net.cpp:382] fc8_msc -> fc8_msc
I0316 15:02:52.975678 14421 net.cpp:124] Setting up fc8_msc
I0316 15:02:52.975685 14421 net.cpp:131] Top shape: 50 2 (100)
I0316 15:02:52.975687 14421 net.cpp:139] Memory required for data: 255972200
I0316 15:02:52.975692 14421 layer_factory.hpp:77] Creating layer fc8_msc_fc8_msc_0_split
I0316 15:02:52.975697 14421 net.cpp:86] Creating Layer fc8_msc_fc8_msc_0_split
I0316 15:02:52.975700 14421 net.cpp:408] fc8_msc_fc8_msc_0_split <- fc8_msc
I0316 15:02:52.975704 14421 net.cpp:382] fc8_msc_fc8_msc_0_split -> fc8_msc_fc8_msc_0_split_0
I0316 15:02:52.975720 14421 net.cpp:382] fc8_msc_fc8_msc_0_split -> fc8_msc_fc8_msc_0_split_1
I0316 15:02:52.975725 14421 net.cpp:382] fc8_msc_fc8_msc_0_split -> fc8_msc_fc8_msc_0_split_2
I0316 15:02:52.975770 14421 net.cpp:124] Setting up fc8_msc_fc8_msc_0_split
I0316 15:02:52.975775 14421 net.cpp:131] Top shape: 50 2 (100)
I0316 15:02:52.975778 14421 net.cpp:131] Top shape: 50 2 (100)
I0316 15:02:52.975781 14421 net.cpp:131] Top shape: 50 2 (100)
I0316 15:02:52.975783 14421 net.cpp:139] Memory required for data: 255973400
I0316 15:02:52.975785 14421 layer_factory.hpp:77] Creating layer sigmoid
I0316 15:02:52.975790 14421 net.cpp:86] Creating Layer sigmoid
I0316 15:02:52.975792 14421 net.cpp:408] sigmoid <- fc8_msc_fc8_msc_0_split_0
I0316 15:02:52.975950 14421 net.cpp:124] Setting up sigmoid
I0316 15:02:52.975956 14421 net.cpp:131] Top shape: 50 2 (100)
I0316 15:02:52.975960 14421 net.cpp:139] Memory required for data: 255973800
I0316 15:02:52.975975 14421 layer_factory.hpp:77] Creating layer accuracy
I0316 15:02:52.975980 14421 net.cpp:86] Creating Layer accuracy
I0316 15:02:52.975985 14421 net.cpp:408] accuracy <- fc8_msc_fc8_msc_0_split_1
I0316 15:02:52.975988 14421 net.cpp:408] accuracy <- label_msc_data_msc_1_split_0
I0316 15:02:52.975993 14421 net.cpp:382] accuracy -> accuracy
…
