…
I0327 10:23:50.858299 28722 net.cpp:296] The NetState phase (0) differed from the phase (1) specified by a rule in layer accuracy
I0327 10:23:50.858423 28722 net.cpp:53] Initializing net from parameters: 
name: "MCaffeNet"
state {
  phase: TRAIN
  level: 0
  stage: ""
}
layer {
  name: "data_msc"
  type: "ImageData"
  top: "data_msc"
  top: "label_msc"
  include {
    phase: TRAIN
  }
  transform_param {
    mean_value: 296
    mean_value: 103
    mean_value: 108
  }
  image_data_param {
    source: "/media/p307k07/ssd/opt/msc/data/train/list_caffe.txt"
    batch_size: 50
    new_height: 159
    new_width: 240
  }
}
layer {
  name: "conv1"
  type: "Convolution"
  bottom: "data_msc"
  top: "conv1"
  param {
    lr_mult: 0.1
    decay_mult: 0.1
  }
  param {
    lr_mult: 0.2
    decay_mult: 0
  }
  convolution_param {
    num_output: 96
    kernel_size: 11
    stride: 4
    weight_filler {
      type: "gaussian"
      std: 0.01
    }
    bias_filler {
      type: "constant"
      value: 0
    }
  }
}
layer {
  name: "relu1"
  type: "ReLU"
  bottom: "conv1"
  top: "conv1"
}
layer {
  name: "pool1"
  type: "Pooling"
  bottom: "conv1"
  top: "pool1"
  pooling_param {
    pool: MAX
    kernel_size: 3
    stride: 2
  }
}
layer {
  name: "norm1"
  type: "LRN"
  bottom: "pool1"
  top: "norm1"
  lrn_param {
    local_size: 5
    alpha: 0.0001
    beta: 0.75
  }
}
layer {
  name: "conv2"
  type: "Convolution"
  bottom: "norm1"
  top: "conv2"
  param {
    lr_mult: 0.1
    decay_mult: 0.1
  }
  param {
    lr_mult: 0.2
    decay_mult: 0
  }
  convolution_param {
    num_output: 256
    pad: 2
    kernel_size: 5
    group: 2
    weight_filler {
      type: "gaussian"
      std: 0.01
    }
    bias_filler {
      type: "constant"
      value: 1
    }
  }
}
layer {
  name: "relu2"
  type: "ReLU"
  bottom: "conv2"
  top: "conv2"
}
layer {
  name: "pool2"
  type: "Pooling"
  bottom: "conv2"
  top: "pool2"
  pooling_param {
    pool: MAX
    kernel_size: 3
    stride: 2
  }
}
layer {
  name: "norm2"
  type: "LRN"
  bottom: "pool2"
  top: "norm2"
  lrn_param {
    local_size: 5
    alpha: 0.0001
    beta: 0.75
  }
}
layer {
  name: "conv3"
  type: "Convolution"
  bottom: "norm2"
  top: "conv3"
  param {
    lr_mult: 0.1
    decay_mult: 0.1
  }
  param {
    lr_mult: 0.2
    decay_mult: 0
  }
  convolution_param {
    num_output: 384
    pad: 1
    kernel_size: 3
    weight_filler {
      type: "gaussian"
      std: 0.01
    }
    bias_filler {
      type: "constant"
      value: 0
    }
  }
}
layer {
  name: "relu3"
  type: "ReLU"
  bottom: "conv3"
  top: "conv3"
}
layer {
  name: "conv4"
  type: "Convolution"
  bottom: "conv3"
  top: "conv4"
  param {
    lr_mult: 0.1
    decay_mult: 0.1
  }
  param {
    lr_mult: 0.2
    decay_mult: 0
  }
  convolution_param {
    num_output: 384
    pad: 1
    kernel_size: 3
    group: 2
    weight_filler {
      type: "gaussian"
      std: 0.01
    }
    bias_filler {
      type: "constant"
      value: 1
    }
  }
}
layer {
  name: "relu4"
  type: "ReLU"
  bottom: "conv4"
  top: "conv4"
}
layer {
  name: "conv5"
  type: "Convolution"
  bottom: "conv4"
  top: "conv5"
  param {
    lr_mult: 0.1
    decay_mult: 0.1
  }
  param {
    lr_mult: 0.2
    decay_mult: 0
  }
  convolution_param {
    num_output: 256
    pad: 1
    kernel_size: 3
    group: 2
    weight_filler {
      type: "gaussian"
      std: 0.01
    }
    bias_filler {
      type: "constant"
      value: 1
    }
  }
}
layer {
  name: "relu5"
  type: "ReLU"
  bottom: "conv5"
  top: "conv5"
}
layer {
  name: "pool5"
  type: "Pooling"
  bottom: "conv5"
  top: "pool5"
  pooling_param {
    pool: MAX
    kernel_size: 3
    stride: 2
  }
}
layer {
  name: "fc6_msc"
  type: "InnerProduct"
  bottom: "pool5"
  top: "fc6_msc"
  param {
    lr_mult: 1
    decay_mult: 1
  }
  param {
    lr_mult: 2
    decay_mult: 0
  }
  inner_product_param {
    num_output: 4096
    weight_filler {
      type: "gaussian"
      std: 0.005
    }
    bias_filler {
      type: "constant"
      value: 1
    }
  }
}
layer {
  name: "relu6"
  type: "ReLU"
  bottom: "fc6_msc"
  top: "fc6_msc"
}
layer {
  name: "drop6"
  type: "Dropout"
  bottom: "fc6_msc"
  top: "fc6_msc"
  dropout_param {
    dropout_ratio: 0.5
  }
}
layer {
  name: "fc7_msc"
  type: "InnerProduct"
  bottom: "fc6_msc"
  top: "fc7_msc"
  param {
    lr_mult: 1
    decay_mult: 1
  }
  param {
    lr_mult: 2
    decay_mult: 0
  }
  inner_product_param {
    num_output: 4096
    weight_filler {
      type: "gaussian"
      std: 0.005
    }
    bias_filler {
      type: "constant"
      value: 1
    }
  }
}
layer {
  name: "relu7"
  type: "ReLU"
  bottom: "fc7_msc"
  top: "fc7_msc"
}
layer {
  name: "drop7"
  type: "Dropout"
  bottom: "fc7_msc"
  top: "fc7_msc"
  dropout_param {
    dropout_ratio: 0.5
  }
}
layer {
  name: "fc8_msc"
  type: "InnerProduct"
  bottom: "fc7_msc"
  top: "fc8_msc"
  param {
    lr_mult: 1
    decay_mult: 1
  }
  param {
    lr_mult: 2
    decay_mult: 0
  }
  inner_product_param {
    num_output: 2
    weight_filler {
      type: "gaussian"
      std: 0.01
    }
    bias_filler {
      type: "constant"
      value: 0
    }
  }
}
layer {
  name: "loss_msc"
  type: "SoftmaxWithLoss"
  bottom: "fc8_msc"
  bottom: "label_msc"
  top: "loss"
}
I0327 10:23:50.858497 28722 layer_factory.hpp:77] Creating layer data_msc
I0327 10:23:50.858525 28722 net.cpp:86] Creating Layer data_msc
I0327 10:23:50.858531 28722 net.cpp:382] data_msc -> data_msc
I0327 10:23:50.858551 28722 net.cpp:382] data_msc -> label_msc
I0327 10:23:50.858562 28722 image_data_layer.cpp:38] Opening file /media/p307k07/ssd/opt/msc/data/train/list_caffe.txt
I0327 10:23:51.015106 28722 image_data_layer.cpp:63] A total of 513382 images.
I0327 10:23:51.017673 28722 image_data_layer.cpp:90] output data size: 50,3,159,240
I0327 10:23:51.045765 28722 net.cpp:124] Setting up data_msc
I0327 10:23:51.045794 28722 net.cpp:131] Top shape: 50 3 159 240 (5724000)
I0327 10:23:51.045799 28722 net.cpp:131] Top shape: 50 (50)
I0327 10:23:51.045802 28722 net.cpp:139] Memory required for data: 22896200
I0327 10:23:51.045809 28722 layer_factory.hpp:77] Creating layer conv1
I0327 10:23:51.045827 28722 net.cpp:86] Creating Layer conv1
I0327 10:23:51.045833 28722 net.cpp:408] conv1 <- data_msc
I0327 10:23:51.045845 28722 net.cpp:382] conv1 -> conv1
I0327 10:23:52.917177 28722 net.cpp:124] Setting up conv1
I0327 10:23:52.917207 28722 net.cpp:131] Top shape: 50 96 38 58 (10579200)
I0327 10:23:52.917210 28722 net.cpp:139] Memory required for data: 65213000
I0327 10:23:52.917238 28722 layer_factory.hpp:77] Creating layer relu1
I0327 10:23:52.917248 28722 net.cpp:86] Creating Layer relu1
I0327 10:23:52.917260 28722 net.cpp:408] relu1 <- conv1
I0327 10:23:52.917265 28722 net.cpp:369] relu1 -> conv1 (in-place)
I0327 10:23:52.917532 28722 net.cpp:124] Setting up relu1
I0327 10:23:52.917541 28722 net.cpp:131] Top shape: 50 96 38 58 (10579200)
I0327 10:23:52.917544 28722 net.cpp:139] Memory required for data: 107529800
I0327 10:23:52.917547 28722 layer_factory.hpp:77] Creating layer pool1
I0327 10:23:52.917552 28722 net.cpp:86] Creating Layer pool1
I0327 10:23:52.917556 28722 net.cpp:408] pool1 <- conv1
I0327 10:23:52.917559 28722 net.cpp:382] pool1 -> pool1
I0327 10:23:52.917593 28722 net.cpp:124] Setting up pool1
I0327 10:23:52.917596 28722 net.cpp:131] Top shape: 50 96 19 29 (2644800)
I0327 10:23:52.917599 28722 net.cpp:139] Memory required for data: 118109000
I0327 10:23:52.917606 28722 layer_factory.hpp:77] Creating layer norm1
I0327 10:23:52.917623 28722 net.cpp:86] Creating Layer norm1
I0327 10:23:52.917626 28722 net.cpp:408] norm1 <- pool1
I0327 10:23:52.917629 28722 net.cpp:382] norm1 -> norm1
I0327 10:23:52.917759 28722 net.cpp:124] Setting up norm1
I0327 10:23:52.917767 28722 net.cpp:131] Top shape: 50 96 19 29 (2644800)
I0327 10:23:52.917769 28722 net.cpp:139] Memory required for data: 128688200
I0327 10:23:52.917773 28722 layer_factory.hpp:77] Creating layer conv2
I0327 10:23:52.917780 28722 net.cpp:86] Creating Layer conv2
I0327 10:23:52.917783 28722 net.cpp:408] conv2 <- norm1
I0327 10:23:52.917788 28722 net.cpp:382] conv2 -> conv2
I0327 10:23:52.921921 28722 net.cpp:124] Setting up conv2
I0327 10:23:52.921931 28722 net.cpp:131] Top shape: 50 256 19 29 (7052800)
I0327 10:23:52.921934 28722 net.cpp:139] Memory required for data: 156899400
I0327 10:23:52.921942 28722 layer_factory.hpp:77] Creating layer relu2
I0327 10:23:52.921947 28722 net.cpp:86] Creating Layer relu2
I0327 10:23:52.921949 28722 net.cpp:408] relu2 <- conv2
I0327 10:23:52.921953 28722 net.cpp:369] relu2 -> conv2 (in-place)
I0327 10:23:52.922072 28722 net.cpp:124] Setting up relu2
I0327 10:23:52.922078 28722 net.cpp:131] Top shape: 50 256 19 29 (7052800)
I0327 10:23:52.922081 28722 net.cpp:139] Memory required for data: 185110600
I0327 10:23:52.922083 28722 layer_factory.hpp:77] Creating layer pool2
I0327 10:23:52.922088 28722 net.cpp:86] Creating Layer pool2
I0327 10:23:52.922091 28722 net.cpp:408] pool2 <- conv2
I0327 10:23:52.922094 28722 net.cpp:382] pool2 -> pool2
I0327 10:23:52.922122 28722 net.cpp:124] Setting up pool2
I0327 10:23:52.922125 28722 net.cpp:131] Top shape: 50 256 9 14 (1612800)
I0327 10:23:52.922127 28722 net.cpp:139] Memory required for data: 191561800
I0327 10:23:52.922130 28722 layer_factory.hpp:77] Creating layer norm2
I0327 10:23:52.922135 28722 net.cpp:86] Creating Layer norm2
I0327 10:23:52.922138 28722 net.cpp:408] norm2 <- pool2
I0327 10:23:52.922142 28722 net.cpp:382] norm2 -> norm2
I0327 10:23:52.922422 28722 net.cpp:124] Setting up norm2
I0327 10:23:52.922431 28722 net.cpp:131] Top shape: 50 256 9 14 (1612800)
I0327 10:23:52.922433 28722 net.cpp:139] Memory required for data: 198013000
I0327 10:23:52.922436 28722 layer_factory.hpp:77] Creating layer conv3
I0327 10:23:52.922444 28722 net.cpp:86] Creating Layer conv3
I0327 10:23:52.922447 28722 net.cpp:408] conv3 <- norm2
I0327 10:23:52.922452 28722 net.cpp:382] conv3 -> conv3
I0327 10:23:52.930368 28722 net.cpp:124] Setting up conv3
I0327 10:23:52.930382 28722 net.cpp:131] Top shape: 50 384 9 14 (2419200)
I0327 10:23:52.930384 28722 net.cpp:139] Memory required for data: 207689800
I0327 10:23:52.930392 28722 layer_factory.hpp:77] Creating layer relu3
I0327 10:23:52.930398 28722 net.cpp:86] Creating Layer relu3
I0327 10:23:52.930402 28722 net.cpp:408] relu3 <- conv3
I0327 10:23:52.930405 28722 net.cpp:369] relu3 -> conv3 (in-place)
I0327 10:23:52.930518 28722 net.cpp:124] Setting up relu3
I0327 10:23:52.930524 28722 net.cpp:131] Top shape: 50 384 9 14 (2419200)
I0327 10:23:52.930527 28722 net.cpp:139] Memory required for data: 217366600
I0327 10:23:52.930529 28722 layer_factory.hpp:77] Creating layer conv4
I0327 10:23:52.930537 28722 net.cpp:86] Creating Layer conv4
I0327 10:23:52.930541 28722 net.cpp:408] conv4 <- conv3
I0327 10:23:52.930546 28722 net.cpp:382] conv4 -> conv4
I0327 10:23:52.937289 28722 net.cpp:124] Setting up conv4
I0327 10:23:52.937302 28722 net.cpp:131] Top shape: 50 384 9 14 (2419200)
I0327 10:23:52.937305 28722 net.cpp:139] Memory required for data: 227043400
I0327 10:23:52.937311 28722 layer_factory.hpp:77] Creating layer relu4
I0327 10:23:52.937316 28722 net.cpp:86] Creating Layer relu4
I0327 10:23:52.937319 28722 net.cpp:408] relu4 <- conv4
I0327 10:23:52.937324 28722 net.cpp:369] relu4 -> conv4 (in-place)
I0327 10:23:52.937440 28722 net.cpp:124] Setting up relu4
I0327 10:23:52.937448 28722 net.cpp:131] Top shape: 50 384 9 14 (2419200)
I0327 10:23:52.937449 28722 net.cpp:139] Memory required for data: 236720200
I0327 10:23:52.937458 28722 layer_factory.hpp:77] Creating layer conv5
I0327 10:23:52.937474 28722 net.cpp:86] Creating Layer conv5
I0327 10:23:52.937477 28722 net.cpp:408] conv5 <- conv4
I0327 10:23:52.937482 28722 net.cpp:382] conv5 -> conv5
I0327 10:23:52.942629 28722 net.cpp:124] Setting up conv5
I0327 10:23:52.942639 28722 net.cpp:131] Top shape: 50 256 9 14 (1612800)
I0327 10:23:52.942642 28722 net.cpp:139] Memory required for data: 243171400
I0327 10:23:52.942651 28722 layer_factory.hpp:77] Creating layer relu5
I0327 10:23:52.942656 28722 net.cpp:86] Creating Layer relu5
I0327 10:23:52.942658 28722 net.cpp:408] relu5 <- conv5
I0327 10:23:52.942663 28722 net.cpp:369] relu5 -> conv5 (in-place)
I0327 10:23:52.942775 28722 net.cpp:124] Setting up relu5
I0327 10:23:52.942781 28722 net.cpp:131] Top shape: 50 256 9 14 (1612800)
I0327 10:23:52.942785 28722 net.cpp:139] Memory required for data: 249622600
I0327 10:23:52.942786 28722 layer_factory.hpp:77] Creating layer pool5
I0327 10:23:52.942791 28722 net.cpp:86] Creating Layer pool5
I0327 10:23:52.942795 28722 net.cpp:408] pool5 <- conv5
I0327 10:23:52.942798 28722 net.cpp:382] pool5 -> pool5
I0327 10:23:52.942828 28722 net.cpp:124] Setting up pool5
I0327 10:23:52.942833 28722 net.cpp:131] Top shape: 50 256 4 7 (358400)
I0327 10:23:52.942836 28722 net.cpp:139] Memory required for data: 251056200
I0327 10:23:52.942838 28722 layer_factory.hpp:77] Creating layer fc6_msc
I0327 10:23:52.942845 28722 net.cpp:86] Creating Layer fc6_msc
I0327 10:23:52.942848 28722 net.cpp:408] fc6_msc <- pool5
I0327 10:23:52.942852 28722 net.cpp:382] fc6_msc -> fc6_msc
I0327 10:23:53.172260 28722 net.cpp:124] Setting up fc6_msc
I0327 10:23:53.172289 28722 net.cpp:131] Top shape: 50 4096 (204800)
I0327 10:23:53.172294 28722 net.cpp:139] Memory required for data: 251875400
I0327 10:23:53.172304 28722 layer_factory.hpp:77] Creating layer relu6
I0327 10:23:53.172322 28722 net.cpp:86] Creating Layer relu6
I0327 10:23:53.172327 28722 net.cpp:408] relu6 <- fc6_msc
I0327 10:23:53.172343 28722 net.cpp:369] relu6 -> fc6_msc (in-place)
I0327 10:23:53.172732 28722 net.cpp:124] Setting up relu6
I0327 10:23:53.172744 28722 net.cpp:131] Top shape: 50 4096 (204800)
I0327 10:23:53.172746 28722 net.cpp:139] Memory required for data: 252694600
I0327 10:23:53.172749 28722 layer_factory.hpp:77] Creating layer drop6
I0327 10:23:53.172755 28722 net.cpp:86] Creating Layer drop6
I0327 10:23:53.172758 28722 net.cpp:408] drop6 <- fc6_msc
I0327 10:23:53.172763 28722 net.cpp:369] drop6 -> fc6_msc (in-place)
I0327 10:23:53.172791 28722 net.cpp:124] Setting up drop6
I0327 10:23:53.172794 28722 net.cpp:131] Top shape: 50 4096 (204800)
I0327 10:23:53.172797 28722 net.cpp:139] Memory required for data: 253513800
I0327 10:23:53.172799 28722 layer_factory.hpp:77] Creating layer fc7_msc
I0327 10:23:53.172806 28722 net.cpp:86] Creating Layer fc7_msc
I0327 10:23:53.172808 28722 net.cpp:408] fc7_msc <- fc6_msc
I0327 10:23:53.172812 28722 net.cpp:382] fc7_msc -> fc7_msc
I0327 10:23:53.304766 28722 net.cpp:124] Setting up fc7_msc
I0327 10:23:53.304796 28722 net.cpp:131] Top shape: 50 4096 (204800)
I0327 10:23:53.304800 28722 net.cpp:139] Memory required for data: 254333000
I0327 10:23:53.304811 28722 layer_factory.hpp:77] Creating layer relu7
I0327 10:23:53.304828 28722 net.cpp:86] Creating Layer relu7
I0327 10:23:53.304833 28722 net.cpp:408] relu7 <- fc7_msc
I0327 10:23:53.304839 28722 net.cpp:369] relu7 -> fc7_msc (in-place)
I0327 10:23:53.305243 28722 net.cpp:124] Setting up relu7
I0327 10:23:53.305254 28722 net.cpp:131] Top shape: 50 4096 (204800)
I0327 10:23:53.305258 28722 net.cpp:139] Memory required for data: 255152200
I0327 10:23:53.305260 28722 layer_factory.hpp:77] Creating layer drop7
I0327 10:23:53.305269 28722 net.cpp:86] Creating Layer drop7
I0327 10:23:53.305271 28722 net.cpp:408] drop7 <- fc7_msc
I0327 10:23:53.305275 28722 net.cpp:369] drop7 -> fc7_msc (in-place)
I0327 10:23:53.305300 28722 net.cpp:124] Setting up drop7
I0327 10:23:53.305305 28722 net.cpp:131] Top shape: 50 4096 (204800)
I0327 10:23:53.305312 28722 net.cpp:139] Memory required for data: 255971400
I0327 10:23:53.305325 28722 layer_factory.hpp:77] Creating layer fc8_msc
I0327 10:23:53.305332 28722 net.cpp:86] Creating Layer fc8_msc
I0327 10:23:53.305335 28722 net.cpp:408] fc8_msc <- fc7_msc
I0327 10:23:53.305340 28722 net.cpp:382] fc8_msc -> fc8_msc
I0327 10:23:53.305793 28722 net.cpp:124] Setting up fc8_msc
I0327 10:23:53.305800 28722 net.cpp:131] Top shape: 50 2 (100)
I0327 10:23:53.305804 28722 net.cpp:139] Memory required for data: 255971800
I0327 10:23:53.305809 28722 layer_factory.hpp:77] Creating layer loss_msc
I0327 10:23:53.305814 28722 net.cpp:86] Creating Layer loss_msc
I0327 10:23:53.305815 28722 net.cpp:408] loss_msc <- fc8_msc
I0327 10:23:53.305819 28722 net.cpp:408] loss_msc <- label_msc
I0327 10:23:53.305824 28722 net.cpp:382] loss_msc -> loss
…
I0327 10:23:53.306391 28722 net.cpp:296] The NetState phase (1) differed from the phase (0) specified by a rule in layer data_msc
I0327 10:23:53.306509 28722 net.cpp:53] Initializing net from parameters: 
name: "MCaffeNet"
state {
  phase: TEST
}
layer {
  name: "data_msc"
  type: "ImageData"
  top: "data_msc"
  top: "label_msc"
  include {
    phase: TEST
  }
  transform_param {
    mean_value: 296
    mean_value: 103
    mean_value: 108
  }
  image_data_param {
    source: "/media/p307k07/ssd/opt/msc/data/test/list_caffe.txt"
    batch_size: 50
    new_height: 159
    new_width: 240
  }
}
layer {
  name: "conv1"
  type: "Convolution"
  bottom: "data_msc"
  top: "conv1"
  param {
    lr_mult: 0.1
    decay_mult: 0.1
  }
  param {
    lr_mult: 0.2
    decay_mult: 0
  }
  convolution_param {
    num_output: 96
    kernel_size: 11
    stride: 4
    weight_filler {
      type: "gaussian"
      std: 0.01
    }
    bias_filler {
      type: "constant"
      value: 0
    }
  }
}
layer {
  name: "relu1"
  type: "ReLU"
  bottom: "conv1"
  top: "conv1"
}
layer {
  name: "pool1"
  type: "Pooling"
  bottom: "conv1"
  top: "pool1"
  pooling_param {
    pool: MAX
    kernel_size: 3
    stride: 2
  }
}
layer {
  name: "norm1"
  type: "LRN"
  bottom: "pool1"
  top: "norm1"
  lrn_param {
    local_size: 5
    alpha: 0.0001
    beta: 0.75
  }
}
layer {
  name: "conv2"
  type: "Convolution"
  bottom: "norm1"
  top: "conv2"
  param {
    lr_mult: 0.1
    decay_mult: 0.1
  }
  param {
    lr_mult: 0.2
    decay_mult: 0
  }
  convolution_param {
    num_output: 256
    pad: 2
    kernel_size: 5
    group: 2
    weight_filler {
      type: "gaussian"
      std: 0.01
    }
    bias_filler {
      type: "constant"
      value: 1
    }
  }
}
layer {
  name: "relu2"
  type: "ReLU"
  bottom: "conv2"
  top: "conv2"
}
layer {
  name: "pool2"
  type: "Pooling"
  bottom: "conv2"
  top: "pool2"
  pooling_param {
    pool: MAX
    kernel_size: 3
    stride: 2
  }
}
layer {
  name: "norm2"
  type: "LRN"
  bottom: "pool2"
  top: "norm2"
  lrn_param {
    local_size: 5
    alpha: 0.0001
    beta: 0.75
  }
}
layer {
  name: "conv3"
  type: "Convolution"
  bottom: "norm2"
  top: "conv3"
  param {
    lr_mult: 0.1
    decay_mult: 0.1
  }
  param {
    lr_mult: 0.2
    decay_mult: 0
  }
  convolution_param {
    num_output: 384
    pad: 1
    kernel_size: 3
    weight_filler {
      type: "gaussian"
      std: 0.01
    }
    bias_filler {
      type: "constant"
      value: 0
    }
  }
}
layer {
  name: "relu3"
  type: "ReLU"
  bottom: "conv3"
  top: "conv3"
}
layer {
  name: "conv4"
  type: "Convolution"
  bottom: "conv3"
  top: "conv4"
  param {
    lr_mult: 0.1
    decay_mult: 0.1
  }
  param {
    lr_mult: 0.2
    decay_mult: 0
  }
  convolution_param {
    num_output: 384
    pad: 1
    kernel_size: 3
    group: 2
    weight_filler {
      type: "gaussian"
      std: 0.01
    }
    bias_filler {
      type: "constant"
      value: 1
    }
  }
}
layer {
  name: "relu4"
  type: "ReLU"
  bottom: "conv4"
  top: "conv4"
}
layer {
  name: "conv5"
  type: "Convolution"
  bottom: "conv4"
  top: "conv5"
  param {
    lr_mult: 0.1
    decay_mult: 0.1
  }
  param {
    lr_mult: 0.2
    decay_mult: 0
  }
  convolution_param {
    num_output: 256
    pad: 1
    kernel_size: 3
    group: 2
    weight_filler {
      type: "gaussian"
      std: 0.01
    }
    bias_filler {
      type: "constant"
      value: 1
    }
  }
}
layer {
  name: "relu5"
  type: "ReLU"
  bottom: "conv5"
  top: "conv5"
}
layer {
  name: "pool5"
  type: "Pooling"
  bottom: "conv5"
  top: "pool5"
  pooling_param {
    pool: MAX
    kernel_size: 3
    stride: 2
  }
}
layer {
  name: "fc6_msc"
  type: "InnerProduct"
  bottom: "pool5"
  top: "fc6_msc"
  param {
    lr_mult: 1
    decay_mult: 1
  }
  param {
    lr_mult: 2
    decay_mult: 0
  }
  inner_product_param {
    num_output: 4096
    weight_filler {
      type: "gaussian"
      std: 0.005
    }
    bias_filler {
      type: "constant"
      value: 1
    }
  }
}
layer {
  name: "relu6"
  type: "ReLU"
  bottom: "fc6_msc"
  top: "fc6_msc"
}
layer {
  name: "drop6"
  type: "Dropout"
  bottom: "fc6_msc"
  top: "fc6_msc"
  dropout_param {
    dropout_ratio: 0.5
  }
}
layer {
  name: "fc7_msc"
  type: "InnerProduct"
  bottom: "fc6_msc"
  top: "fc7_msc"
  param {
    lr_mult: 1
    decay_mult: 1
  }
  param {
    lr_mult: 2
    decay_mult: 0
  }
  inner_product_param {
    num_output: 4096
    weight_filler {
      type: "gaussian"
      std: 0.005
    }
    bias_filler {
      type: "constant"
      value: 1
    }
  }
}
layer {
  name: "relu7"
  type: "ReLU"
  bottom: "fc7_msc"
  top: "fc7_msc"
}
layer {
  name: "drop7"
  type: "Dropout"
  bottom: "fc7_msc"
  top: "fc7_msc"
  dropout_param {
    dropout_ratio: 0.5
  }
}
layer {
  name: "fc8_msc"
  type: "InnerProduct"
  bottom: "fc7_msc"
  top: "fc8_msc"
  param {
    lr_mult: 1
    decay_mult: 1
  }
  param {
    lr_mult: 2
    decay_mult: 0
  }
  inner_product_param {
    num_output: 2
    weight_filler {
      type: "gaussian"
      std: 0.01
    }
    bias_filler {
      type: "constant"
      value: 0
    }
  }
}
layer {
  name: "accuracy"
  type: "Accuracy"
  bottom: "fc8_msc"
  bottom: "label_msc"
  top: "accuracy"
  include {
    phase: TEST
  }
}
layer {
  name: "loss_msc"
  type: "SoftmaxWithLoss"
  bottom: "fc8_msc"
  bottom: "label_msc"
  top: "loss"
}
I0327 10:23:53.306591 28722 layer_factory.hpp:77] Creating layer data_msc
I0327 10:23:53.306602 28722 net.cpp:86] Creating Layer data_msc
I0327 10:23:53.306607 28722 net.cpp:382] data_msc -> data_msc
I0327 10:23:53.306612 28722 net.cpp:382] data_msc -> label_msc
I0327 10:23:53.306619 28722 image_data_layer.cpp:38] Opening file /media/p307k07/ssd/opt/msc/data/test/list_caffe.txt
I0327 10:23:53.340281 28722 image_data_layer.cpp:63] A total of 85562 images.
I0327 10:23:53.340979 28722 image_data_layer.cpp:90] output data size: 50,3,159,240
I0327 10:23:53.369632 28722 net.cpp:124] Setting up data_msc
I0327 10:23:53.369658 28722 net.cpp:131] Top shape: 50 3 159 240 (5724000)
I0327 10:23:53.369664 28722 net.cpp:131] Top shape: 50 (50)
I0327 10:23:53.369668 28722 net.cpp:139] Memory required for data: 22896200
I0327 10:23:53.369673 28722 layer_factory.hpp:77] Creating layer label_msc_data_msc_1_split
I0327 10:23:53.369683 28722 net.cpp:86] Creating Layer label_msc_data_msc_1_split
I0327 10:23:53.369688 28722 net.cpp:408] label_msc_data_msc_1_split <- label_msc
I0327 10:23:53.369693 28722 net.cpp:382] label_msc_data_msc_1_split -> label_msc_data_msc_1_split_0
I0327 10:23:53.369701 28722 net.cpp:382] label_msc_data_msc_1_split -> label_msc_data_msc_1_split_1
I0327 10:23:53.369750 28722 net.cpp:124] Setting up label_msc_data_msc_1_split
I0327 10:23:53.369756 28722 net.cpp:131] Top shape: 50 (50)
I0327 10:23:53.369760 28722 net.cpp:131] Top shape: 50 (50)
I0327 10:23:53.369761 28722 net.cpp:139] Memory required for data: 22896600
I0327 10:23:53.369765 28722 layer_factory.hpp:77] Creating layer conv1
I0327 10:23:53.369776 28722 net.cpp:86] Creating Layer conv1
I0327 10:23:53.369778 28722 net.cpp:408] conv1 <- data_msc
I0327 10:23:53.369783 28722 net.cpp:382] conv1 -> conv1
I0327 10:23:53.370986 28722 net.cpp:124] Setting up conv1
I0327 10:23:53.370997 28722 net.cpp:131] Top shape: 50 96 38 58 (10579200)
I0327 10:23:53.371001 28722 net.cpp:139] Memory required for data: 65213400
I0327 10:23:53.371009 28722 layer_factory.hpp:77] Creating layer relu1
I0327 10:23:53.371016 28722 net.cpp:86] Creating Layer relu1
I0327 10:23:53.371018 28722 net.cpp:408] relu1 <- conv1
I0327 10:23:53.371022 28722 net.cpp:369] relu1 -> conv1 (in-place)
I0327 10:23:53.371134 28722 net.cpp:124] Setting up relu1
I0327 10:23:53.371141 28722 net.cpp:131] Top shape: 50 96 38 58 (10579200)
I0327 10:23:53.371145 28722 net.cpp:139] Memory required for data: 107530200
I0327 10:23:53.371147 28722 layer_factory.hpp:77] Creating layer pool1
I0327 10:23:53.371153 28722 net.cpp:86] Creating Layer pool1
I0327 10:23:53.371156 28722 net.cpp:408] pool1 <- conv1
I0327 10:23:53.371160 28722 net.cpp:382] pool1 -> pool1
I0327 10:23:53.371189 28722 net.cpp:124] Setting up pool1
I0327 10:23:53.371193 28722 net.cpp:131] Top shape: 50 96 19 29 (2644800)
I0327 10:23:53.371196 28722 net.cpp:139] Memory required for data: 118109400
I0327 10:23:53.371198 28722 layer_factory.hpp:77] Creating layer norm1
I0327 10:23:53.371203 28722 net.cpp:86] Creating Layer norm1
I0327 10:23:53.371206 28722 net.cpp:408] norm1 <- pool1
I0327 10:23:53.371210 28722 net.cpp:382] norm1 -> norm1
I0327 10:23:53.373348 28722 net.cpp:124] Setting up norm1
I0327 10:23:53.373358 28722 net.cpp:131] Top shape: 50 96 19 29 (2644800)
I0327 10:23:53.373360 28722 net.cpp:139] Memory required for data: 128688600
I0327 10:23:53.373363 28722 layer_factory.hpp:77] Creating layer conv2
I0327 10:23:53.373371 28722 net.cpp:86] Creating Layer conv2
I0327 10:23:53.373374 28722 net.cpp:408] conv2 <- norm1
I0327 10:23:53.373378 28722 net.cpp:382] conv2 -> conv2
I0327 10:23:53.377367 28722 net.cpp:124] Setting up conv2
I0327 10:23:53.377389 28722 net.cpp:131] Top shape: 50 256 19 29 (7052800)
I0327 10:23:53.377393 28722 net.cpp:139] Memory required for data: 156899800
I0327 10:23:53.377399 28722 layer_factory.hpp:77] Creating layer relu2
I0327 10:23:53.377404 28722 net.cpp:86] Creating Layer relu2
I0327 10:23:53.377408 28722 net.cpp:408] relu2 <- conv2
I0327 10:23:53.377411 28722 net.cpp:369] relu2 -> conv2 (in-place)
I0327 10:23:53.377524 28722 net.cpp:124] Setting up relu2
I0327 10:23:53.377532 28722 net.cpp:131] Top shape: 50 256 19 29 (7052800)
I0327 10:23:53.377534 28722 net.cpp:139] Memory required for data: 185111000
I0327 10:23:53.377537 28722 layer_factory.hpp:77] Creating layer pool2
I0327 10:23:53.377542 28722 net.cpp:86] Creating Layer pool2
I0327 10:23:53.377545 28722 net.cpp:408] pool2 <- conv2
I0327 10:23:53.377548 28722 net.cpp:382] pool2 -> pool2
I0327 10:23:53.377578 28722 net.cpp:124] Setting up pool2
I0327 10:23:53.377583 28722 net.cpp:131] Top shape: 50 256 9 14 (1612800)
I0327 10:23:53.377585 28722 net.cpp:139] Memory required for data: 191562200
I0327 10:23:53.377588 28722 layer_factory.hpp:77] Creating layer norm2
I0327 10:23:53.377593 28722 net.cpp:86] Creating Layer norm2
I0327 10:23:53.377595 28722 net.cpp:408] norm2 <- pool2
I0327 10:23:53.377599 28722 net.cpp:382] norm2 -> norm2
I0327 10:23:53.377877 28722 net.cpp:124] Setting up norm2
I0327 10:23:53.377885 28722 net.cpp:131] Top shape: 50 256 9 14 (1612800)
I0327 10:23:53.377888 28722 net.cpp:139] Memory required for data: 198013400
I0327 10:23:53.377892 28722 layer_factory.hpp:77] Creating layer conv3
I0327 10:23:53.377898 28722 net.cpp:86] Creating Layer conv3
I0327 10:23:53.377902 28722 net.cpp:408] conv3 <- norm2
I0327 10:23:53.377905 28722 net.cpp:382] conv3 -> conv3
I0327 10:23:53.385695 28722 net.cpp:124] Setting up conv3
I0327 10:23:53.385710 28722 net.cpp:131] Top shape: 50 384 9 14 (2419200)
I0327 10:23:53.385713 28722 net.cpp:139] Memory required for data: 207690200
I0327 10:23:53.385721 28722 layer_factory.hpp:77] Creating layer relu3
I0327 10:23:53.385727 28722 net.cpp:86] Creating Layer relu3
I0327 10:23:53.385730 28722 net.cpp:408] relu3 <- conv3
I0327 10:23:53.385735 28722 net.cpp:369] relu3 -> conv3 (in-place)
I0327 10:23:53.385995 28722 net.cpp:124] Setting up relu3
I0327 10:23:53.386003 28722 net.cpp:131] Top shape: 50 384 9 14 (2419200)
I0327 10:23:53.386006 28722 net.cpp:139] Memory required for data: 217367000
I0327 10:23:53.386009 28722 layer_factory.hpp:77] Creating layer conv4
I0327 10:23:53.386018 28722 net.cpp:86] Creating Layer conv4
I0327 10:23:53.386021 28722 net.cpp:408] conv4 <- conv3
I0327 10:23:53.386026 28722 net.cpp:382] conv4 -> conv4
I0327 10:23:53.392940 28722 net.cpp:124] Setting up conv4
I0327 10:23:53.392956 28722 net.cpp:131] Top shape: 50 384 9 14 (2419200)
I0327 10:23:53.392958 28722 net.cpp:139] Memory required for data: 227043800
I0327 10:23:53.392964 28722 layer_factory.hpp:77] Creating layer relu4
I0327 10:23:53.392971 28722 net.cpp:86] Creating Layer relu4
I0327 10:23:53.392973 28722 net.cpp:408] relu4 <- conv4
I0327 10:23:53.392977 28722 net.cpp:369] relu4 -> conv4 (in-place)
I0327 10:23:53.393098 28722 net.cpp:124] Setting up relu4
I0327 10:23:53.393105 28722 net.cpp:131] Top shape: 50 384 9 14 (2419200)
I0327 10:23:53.393107 28722 net.cpp:139] Memory required for data: 236720600
I0327 10:23:53.393110 28722 layer_factory.hpp:77] Creating layer conv5
I0327 10:23:53.393116 28722 net.cpp:86] Creating Layer conv5
I0327 10:23:53.393120 28722 net.cpp:408] conv5 <- conv4
I0327 10:23:53.393124 28722 net.cpp:382] conv5 -> conv5
I0327 10:23:53.398130 28722 net.cpp:124] Setting up conv5
I0327 10:23:53.398142 28722 net.cpp:131] Top shape: 50 256 9 14 (1612800)
I0327 10:23:53.398145 28722 net.cpp:139] Memory required for data: 243171800
I0327 10:23:53.398154 28722 layer_factory.hpp:77] Creating layer relu5
I0327 10:23:53.398159 28722 net.cpp:86] Creating Layer relu5
I0327 10:23:53.398161 28722 net.cpp:408] relu5 <- conv5
I0327 10:23:53.398165 28722 net.cpp:369] relu5 -> conv5 (in-place)
I0327 10:23:53.398283 28722 net.cpp:124] Setting up relu5
I0327 10:23:53.398296 28722 net.cpp:131] Top shape: 50 256 9 14 (1612800)
I0327 10:23:53.398299 28722 net.cpp:139] Memory required for data: 249623000
I0327 10:23:53.398301 28722 layer_factory.hpp:77] Creating layer pool5
I0327 10:23:53.398309 28722 net.cpp:86] Creating Layer pool5
I0327 10:23:53.398313 28722 net.cpp:408] pool5 <- conv5
I0327 10:23:53.398315 28722 net.cpp:382] pool5 -> pool5
I0327 10:23:53.398345 28722 net.cpp:124] Setting up pool5
I0327 10:23:53.398350 28722 net.cpp:131] Top shape: 50 256 4 7 (358400)
I0327 10:23:53.398353 28722 net.cpp:139] Memory required for data: 251056600
I0327 10:23:53.398355 28722 layer_factory.hpp:77] Creating layer fc6_msc
I0327 10:23:53.398360 28722 net.cpp:86] Creating Layer fc6_msc
I0327 10:23:53.398363 28722 net.cpp:408] fc6_msc <- pool5
I0327 10:23:53.398367 28722 net.cpp:382] fc6_msc -> fc6_msc
I0327 10:23:53.632300 28722 net.cpp:124] Setting up fc6_msc
I0327 10:23:53.632330 28722 net.cpp:131] Top shape: 50 4096 (204800)
I0327 10:23:53.632333 28722 net.cpp:139] Memory required for data: 251875800
I0327 10:23:53.632342 28722 layer_factory.hpp:77] Creating layer relu6
I0327 10:23:53.632349 28722 net.cpp:86] Creating Layer relu6
I0327 10:23:53.632364 28722 net.cpp:408] relu6 <- fc6_msc
I0327 10:23:53.632369 28722 net.cpp:369] relu6 -> fc6_msc (in-place)
I0327 10:23:53.632768 28722 net.cpp:124] Setting up relu6
I0327 10:23:53.632777 28722 net.cpp:131] Top shape: 50 4096 (204800)
I0327 10:23:53.632781 28722 net.cpp:139] Memory required for data: 252695000
I0327 10:23:53.632782 28722 layer_factory.hpp:77] Creating layer drop6
I0327 10:23:53.632788 28722 net.cpp:86] Creating Layer drop6
I0327 10:23:53.632791 28722 net.cpp:408] drop6 <- fc6_msc
I0327 10:23:53.632794 28722 net.cpp:369] drop6 -> fc6_msc (in-place)
I0327 10:23:53.632817 28722 net.cpp:124] Setting up drop6
I0327 10:23:53.632822 28722 net.cpp:131] Top shape: 50 4096 (204800)
I0327 10:23:53.632823 28722 net.cpp:139] Memory required for data: 253514200
I0327 10:23:53.632825 28722 layer_factory.hpp:77] Creating layer fc7_msc
I0327 10:23:53.632832 28722 net.cpp:86] Creating Layer fc7_msc
I0327 10:23:53.632833 28722 net.cpp:408] fc7_msc <- fc6_msc
I0327 10:23:53.632838 28722 net.cpp:382] fc7_msc -> fc7_msc
I0327 10:23:53.764066 28722 net.cpp:124] Setting up fc7_msc
I0327 10:23:53.764094 28722 net.cpp:131] Top shape: 50 4096 (204800)
I0327 10:23:53.764097 28722 net.cpp:139] Memory required for data: 254333400
I0327 10:23:53.764106 28722 layer_factory.hpp:77] Creating layer relu7
I0327 10:23:53.764113 28722 net.cpp:86] Creating Layer relu7
I0327 10:23:53.764127 28722 net.cpp:408] relu7 <- fc7_msc
I0327 10:23:53.764133 28722 net.cpp:369] relu7 -> fc7_msc (in-place)
I0327 10:23:53.764309 28722 net.cpp:124] Setting up relu7
I0327 10:23:53.764317 28722 net.cpp:131] Top shape: 50 4096 (204800)
I0327 10:23:53.764318 28722 net.cpp:139] Memory required for data: 255152600
I0327 10:23:53.764322 28722 layer_factory.hpp:77] Creating layer drop7
I0327 10:23:53.764327 28722 net.cpp:86] Creating Layer drop7
I0327 10:23:53.764328 28722 net.cpp:408] drop7 <- fc7_msc
I0327 10:23:53.764333 28722 net.cpp:369] drop7 -> fc7_msc (in-place)
I0327 10:23:53.764353 28722 net.cpp:124] Setting up drop7
I0327 10:23:53.764358 28722 net.cpp:131] Top shape: 50 4096 (204800)
I0327 10:23:53.764359 28722 net.cpp:139] Memory required for data: 255971800
I0327 10:23:53.764361 28722 layer_factory.hpp:77] Creating layer fc8_msc
I0327 10:23:53.764367 28722 net.cpp:86] Creating Layer fc8_msc
I0327 10:23:53.764369 28722 net.cpp:408] fc8_msc <- fc7_msc
I0327 10:23:53.764374 28722 net.cpp:382] fc8_msc -> fc8_msc
I0327 10:23:53.764506 28722 net.cpp:124] Setting up fc8_msc
I0327 10:23:53.764511 28722 net.cpp:131] Top shape: 50 2 (100)
I0327 10:23:53.764513 28722 net.cpp:139] Memory required for data: 255972200
I0327 10:23:53.764518 28722 layer_factory.hpp:77] Creating layer fc8_msc_fc8_msc_0_split
I0327 10:23:53.764523 28722 net.cpp:86] Creating Layer fc8_msc_fc8_msc_0_split
I0327 10:23:53.764524 28722 net.cpp:408] fc8_msc_fc8_msc_0_split <- fc8_msc
I0327 10:23:53.764544 28722 net.cpp:382] fc8_msc_fc8_msc_0_split -> fc8_msc_fc8_msc_0_split_0
I0327 10:23:53.764549 28722 net.cpp:382] fc8_msc_fc8_msc_0_split -> fc8_msc_fc8_msc_0_split_1
I0327 10:23:53.764575 28722 net.cpp:124] Setting up fc8_msc_fc8_msc_0_split
I0327 10:23:53.764578 28722 net.cpp:131] Top shape: 50 2 (100)
I0327 10:23:53.764580 28722 net.cpp:131] Top shape: 50 2 (100)
I0327 10:23:53.764583 28722 net.cpp:139] Memory required for data: 255973000
I0327 10:23:53.764585 28722 layer_factory.hpp:77] Creating layer accuracy
I0327 10:23:53.764590 28722 net.cpp:86] Creating Layer accuracy
I0327 10:23:53.764593 28722 net.cpp:408] accuracy <- fc8_msc_fc8_msc_0_split_0
I0327 10:23:53.764596 28722 net.cpp:408] accuracy <- label_msc_data_msc_1_split_0
I0327 10:23:53.764600 28722 net.cpp:382] accuracy -> accuracy
…
