…
I0322 16:49:10.270517 15898 net.cpp:296] The NetState phase (0) differed from the phase (1) specified by a rule in layer accuracy
I0322 16:49:10.270725 15898 net.cpp:53] Initializing net from parameters: 
name: "MCaffeNet"
state {
  phase: TRAIN
  level: 0
  stage: ""
}
layer {
  name: "data_msc"
  type: "ImageData"
  top: "data_msc"
  top: "label_msc"
  include {
    phase: TRAIN
  }
  transform_param {
    mean_value: 296
    mean_value: 103
    mean_value: 108
  }
  image_data_param {
    source: "/media/p307k07/ssd/opt/msc/data/train/list_caffe.txt"
    batch_size: 50
    new_height: 159
    new_width: 240
  }
}
layer {
  name: "conv1"
  type: "Convolution"
  bottom: "data_msc"
  top: "conv1"
  param {
    lr_mult: 0.01
    decay_mult: 0.01
  }
  param {
    lr_mult: 0.02
    decay_mult: 0
  }
  convolution_param {
    num_output: 96
    kernel_size: 11
    stride: 4
    weight_filler {
      type: "gaussian"
      std: 0.01
    }
    bias_filler {
      type: "constant"
      value: 0
    }
  }
}
layer {
  name: "relu1"
  type: "ReLU"
  bottom: "conv1"
  top: "conv1"
}
layer {
  name: "pool1"
  type: "Pooling"
  bottom: "conv1"
  top: "pool1"
  pooling_param {
    pool: MAX
    kernel_size: 3
    stride: 2
  }
}
layer {
  name: "norm1"
  type: "LRN"
  bottom: "pool1"
  top: "norm1"
  lrn_param {
    local_size: 5
    alpha: 0.0001
    beta: 0.75
  }
}
layer {
  name: "conv2"
  type: "Convolution"
  bottom: "norm1"
  top: "conv2"
  param {
    lr_mult: 0.01
    decay_mult: 0.01
  }
  param {
    lr_mult: 0.02
    decay_mult: 0
  }
  convolution_param {
    num_output: 256
    pad: 2
    kernel_size: 5
    group: 2
    weight_filler {
      type: "gaussian"
      std: 0.01
    }
    bias_filler {
      type: "constant"
      value: 1
    }
  }
}
layer {
  name: "relu2"
  type: "ReLU"
  bottom: "conv2"
  top: "conv2"
}
layer {
  name: "pool2"
  type: "Pooling"
  bottom: "conv2"
  top: "pool2"
  pooling_param {
    pool: MAX
    kernel_size: 3
    stride: 2
  }
}
layer {
  name: "norm2"
  type: "LRN"
  bottom: "pool2"
  top: "norm2"
  lrn_param {
    local_size: 5
    alpha: 0.0001
    beta: 0.75
  }
}
layer {
  name: "conv3"
  type: "Convolution"
  bottom: "norm2"
  top: "conv3"
  param {
    lr_mult: 0.01
    decay_mult: 0.01
  }
  param {
    lr_mult: 0.02
    decay_mult: 0
  }
  convolution_param {
    num_output: 384
    pad: 1
    kernel_size: 3
    weight_filler {
      type: "gaussian"
      std: 0.01
    }
    bias_filler {
      type: "constant"
      value: 0
    }
  }
}
layer {
  name: "relu3"
  type: "ReLU"
  bottom: "conv3"
  top: "conv3"
}
layer {
  name: "conv4"
  type: "Convolution"
  bottom: "conv3"
  top: "conv4"
  param {
    lr_mult: 0.01
    decay_mult: 0.01
  }
  param {
    lr_mult: 0.02
    decay_mult: 0
  }
  convolution_param {
    num_output: 384
    pad: 1
    kernel_size: 3
    group: 2
    weight_filler {
      type: "gaussian"
      std: 0.01
    }
    bias_filler {
      type: "constant"
      value: 1
    }
  }
}
layer {
  name: "relu4"
  type: "ReLU"
  bottom: "conv4"
  top: "conv4"
}
layer {
  name: "conv5"
  type: "Convolution"
  bottom: "conv4"
  top: "conv5"
  param {
    lr_mult: 0.01
    decay_mult: 0.01
  }
  param {
    lr_mult: 0.02
    decay_mult: 0
  }
  convolution_param {
    num_output: 256
    pad: 1
    kernel_size: 3
    group: 2
    weight_filler {
      type: "gaussian"
      std: 0.01
    }
    bias_filler {
      type: "constant"
      value: 1
    }
  }
}
layer {
  name: "relu5"
  type: "ReLU"
  bottom: "conv5"
  top: "conv5"
}
layer {
  name: "pool5"
  type: "Pooling"
  bottom: "conv5"
  top: "pool5"
  pooling_param {
    pool: MAX
    kernel_size: 3
    stride: 2
  }
}
layer {
  name: "fc6_msc"
  type: "InnerProduct"
  bottom: "pool5"
  top: "fc6_msc"
  param {
    lr_mult: 1
    decay_mult: 1
  }
  param {
    lr_mult: 2
    decay_mult: 0
  }
  inner_product_param {
    num_output: 4096
    weight_filler {
      type: "gaussian"
      std: 0.005
    }
    bias_filler {
      type: "constant"
      value: 1
    }
  }
}
layer {
  name: "relu6"
  type: "ReLU"
  bottom: "fc6_msc"
  top: "fc6_msc"
}
layer {
  name: "drop6"
  type: "Dropout"
  bottom: "fc6_msc"
  top: "fc6_msc"
  dropout_param {
    dropout_ratio: 0.6
  }
}
layer {
  name: "fc7_msc"
  type: "InnerProduct"
  bottom: "fc6_msc"
  top: "fc7_msc"
  param {
    lr_mult: 1
    decay_mult: 1
  }
  param {
    lr_mult: 2
    decay_mult: 0
  }
  inner_product_param {
    num_output: 4096
    weight_filler {
      type: "gaussian"
      std: 0.005
    }
    bias_filler {
      type: "constant"
      value: 1
    }
  }
}
layer {
  name: "relu7"
  type: "ReLU"
  bottom: "fc7_msc"
  top: "fc7_msc"
}
layer {
  name: "drop7"
  type: "Dropout"
  bottom: "fc7_msc"
  top: "fc7_msc"
  dropout_param {
    dropout_ratio: 0.7
  }
}
layer {
  name: "fc8_msc"
  type: "InnerProduct"
  bottom: "fc7_msc"
  top: "fc8_msc"
  param {
    lr_mult: 1
    decay_mult: 1
  }
  param {
    lr_mult: 2
    decay_mult: 0
  }
  inner_product_param {
    num_output: 2
    weight_filler {
      type: "gaussian"
      std: 0.01
    }
    bias_filler {
      type: "constant"
      value: 0
    }
  }
}
layer {
  name: "loss_msc"
  type: "SoftmaxWithLoss"
  bottom: "fc8_msc"
  bottom: "label_msc"
  top: "loss"
}
I0322 16:49:10.270862 15898 layer_factory.hpp:77] Creating layer data_msc
I0322 16:49:10.270900 15898 net.cpp:86] Creating Layer data_msc
I0322 16:49:10.270908 15898 net.cpp:382] data_msc -> data_msc
I0322 16:49:10.270931 15898 net.cpp:382] data_msc -> label_msc
I0322 16:49:10.270949 15898 image_data_layer.cpp:38] Opening file /media/p307k07/ssd/opt/msc/data/train/list_caffe.txt
I0322 16:49:10.472460 15898 image_data_layer.cpp:63] A total of 513382 images.
I0322 16:49:10.474535 15898 image_data_layer.cpp:90] output data size: 50,3,159,240
I0322 16:49:10.503192 15898 net.cpp:124] Setting up data_msc
I0322 16:49:10.503219 15898 net.cpp:131] Top shape: 50 3 159 240 (5724000)
I0322 16:49:10.503224 15898 net.cpp:131] Top shape: 50 (50)
I0322 16:49:10.503227 15898 net.cpp:139] Memory required for data: 22896200
I0322 16:49:10.503234 15898 layer_factory.hpp:77] Creating layer conv1
I0322 16:49:10.503252 15898 net.cpp:86] Creating Layer conv1
I0322 16:49:10.503257 15898 net.cpp:408] conv1 <- data_msc
I0322 16:49:10.503267 15898 net.cpp:382] conv1 -> conv1
I0322 16:49:12.679014 15898 net.cpp:124] Setting up conv1
I0322 16:49:12.679049 15898 net.cpp:131] Top shape: 50 96 38 58 (10579200)
I0322 16:49:12.679054 15898 net.cpp:139] Memory required for data: 65213000
I0322 16:49:12.679080 15898 layer_factory.hpp:77] Creating layer relu1
I0322 16:49:12.679092 15898 net.cpp:86] Creating Layer relu1
I0322 16:49:12.679097 15898 net.cpp:408] relu1 <- conv1
I0322 16:49:12.679103 15898 net.cpp:369] relu1 -> conv1 (in-place)
I0322 16:49:12.679476 15898 net.cpp:124] Setting up relu1
I0322 16:49:12.679487 15898 net.cpp:131] Top shape: 50 96 38 58 (10579200)
I0322 16:49:12.679491 15898 net.cpp:139] Memory required for data: 107529800
I0322 16:49:12.679494 15898 layer_factory.hpp:77] Creating layer pool1
I0322 16:49:12.679502 15898 net.cpp:86] Creating Layer pool1
I0322 16:49:12.679507 15898 net.cpp:408] pool1 <- conv1
I0322 16:49:12.679512 15898 net.cpp:382] pool1 -> pool1
I0322 16:49:12.679558 15898 net.cpp:124] Setting up pool1
I0322 16:49:12.679564 15898 net.cpp:131] Top shape: 50 96 19 29 (2644800)
I0322 16:49:12.679574 15898 net.cpp:139] Memory required for data: 118109000
I0322 16:49:12.679657 15898 layer_factory.hpp:77] Creating layer norm1
I0322 16:49:12.679674 15898 net.cpp:86] Creating Layer norm1
I0322 16:49:12.679680 15898 net.cpp:408] norm1 <- pool1
I0322 16:49:12.679689 15898 net.cpp:382] norm1 -> norm1
I0322 16:49:12.679891 15898 net.cpp:124] Setting up norm1
I0322 16:49:12.679901 15898 net.cpp:131] Top shape: 50 96 19 29 (2644800)
I0322 16:49:12.679905 15898 net.cpp:139] Memory required for data: 128688200
I0322 16:49:12.679909 15898 layer_factory.hpp:77] Creating layer conv2
I0322 16:49:12.679947 15898 net.cpp:86] Creating Layer conv2
I0322 16:49:12.679955 15898 net.cpp:408] conv2 <- norm1
I0322 16:49:12.679962 15898 net.cpp:382] conv2 -> conv2
I0322 16:49:12.687729 15898 net.cpp:124] Setting up conv2
I0322 16:49:12.687748 15898 net.cpp:131] Top shape: 50 256 19 29 (7052800)
I0322 16:49:12.687753 15898 net.cpp:139] Memory required for data: 156899400
I0322 16:49:12.687767 15898 layer_factory.hpp:77] Creating layer relu2
I0322 16:49:12.687777 15898 net.cpp:86] Creating Layer relu2
I0322 16:49:12.687782 15898 net.cpp:408] relu2 <- conv2
I0322 16:49:12.687788 15898 net.cpp:369] relu2 -> conv2 (in-place)
I0322 16:49:12.688024 15898 net.cpp:124] Setting up relu2
I0322 16:49:12.688038 15898 net.cpp:131] Top shape: 50 256 19 29 (7052800)
I0322 16:49:12.688043 15898 net.cpp:139] Memory required for data: 185110600
I0322 16:49:12.688048 15898 layer_factory.hpp:77] Creating layer pool2
I0322 16:49:12.688055 15898 net.cpp:86] Creating Layer pool2
I0322 16:49:12.688060 15898 net.cpp:408] pool2 <- conv2
I0322 16:49:12.688067 15898 net.cpp:382] pool2 -> pool2
I0322 16:49:12.688118 15898 net.cpp:124] Setting up pool2
I0322 16:49:12.688127 15898 net.cpp:131] Top shape: 50 256 9 14 (1612800)
I0322 16:49:12.688130 15898 net.cpp:139] Memory required for data: 191561800
I0322 16:49:12.688135 15898 layer_factory.hpp:77] Creating layer norm2
I0322 16:49:12.688145 15898 net.cpp:86] Creating Layer norm2
I0322 16:49:12.688149 15898 net.cpp:408] norm2 <- pool2
I0322 16:49:12.688156 15898 net.cpp:382] norm2 -> norm2
I0322 16:49:12.688663 15898 net.cpp:124] Setting up norm2
I0322 16:49:12.688678 15898 net.cpp:131] Top shape: 50 256 9 14 (1612800)
I0322 16:49:12.688683 15898 net.cpp:139] Memory required for data: 198013000
I0322 16:49:12.688688 15898 layer_factory.hpp:77] Creating layer conv3
I0322 16:49:12.688701 15898 net.cpp:86] Creating Layer conv3
I0322 16:49:12.688707 15898 net.cpp:408] conv3 <- norm2
I0322 16:49:12.688715 15898 net.cpp:382] conv3 -> conv3
I0322 16:49:12.700950 15898 net.cpp:124] Setting up conv3
I0322 16:49:12.700966 15898 net.cpp:131] Top shape: 50 384 9 14 (2419200)
I0322 16:49:12.700970 15898 net.cpp:139] Memory required for data: 207689800
I0322 16:49:12.700980 15898 layer_factory.hpp:77] Creating layer relu3
I0322 16:49:12.700987 15898 net.cpp:86] Creating Layer relu3
I0322 16:49:12.700991 15898 net.cpp:408] relu3 <- conv3
I0322 16:49:12.700997 15898 net.cpp:369] relu3 -> conv3 (in-place)
I0322 16:49:12.701162 15898 net.cpp:124] Setting up relu3
I0322 16:49:12.701171 15898 net.cpp:131] Top shape: 50 384 9 14 (2419200)
I0322 16:49:12.701175 15898 net.cpp:139] Memory required for data: 217366600
I0322 16:49:12.701179 15898 layer_factory.hpp:77] Creating layer conv4
I0322 16:49:12.701189 15898 net.cpp:86] Creating Layer conv4
I0322 16:49:12.701192 15898 net.cpp:408] conv4 <- conv3
I0322 16:49:12.701200 15898 net.cpp:382] conv4 -> conv4
I0322 16:49:12.710855 15898 net.cpp:124] Setting up conv4
I0322 16:49:12.710872 15898 net.cpp:131] Top shape: 50 384 9 14 (2419200)
I0322 16:49:12.710876 15898 net.cpp:139] Memory required for data: 227043400
I0322 16:49:12.710883 15898 layer_factory.hpp:77] Creating layer relu4
I0322 16:49:12.710891 15898 net.cpp:86] Creating Layer relu4
I0322 16:49:12.710893 15898 net.cpp:408] relu4 <- conv4
I0322 16:49:12.710899 15898 net.cpp:369] relu4 -> conv4 (in-place)
I0322 16:49:12.711067 15898 net.cpp:124] Setting up relu4
I0322 16:49:12.711076 15898 net.cpp:131] Top shape: 50 384 9 14 (2419200)
I0322 16:49:12.711084 15898 net.cpp:139] Memory required for data: 236720200
I0322 16:49:12.711100 15898 layer_factory.hpp:77] Creating layer conv5
I0322 16:49:12.711115 15898 net.cpp:86] Creating Layer conv5
I0322 16:49:12.711119 15898 net.cpp:408] conv5 <- conv4
I0322 16:49:12.711127 15898 net.cpp:382] conv5 -> conv5
I0322 16:49:12.718284 15898 net.cpp:124] Setting up conv5
I0322 16:49:12.718298 15898 net.cpp:131] Top shape: 50 256 9 14 (1612800)
I0322 16:49:12.718302 15898 net.cpp:139] Memory required for data: 243171400
I0322 16:49:12.718312 15898 layer_factory.hpp:77] Creating layer relu5
I0322 16:49:12.718319 15898 net.cpp:86] Creating Layer relu5
I0322 16:49:12.718322 15898 net.cpp:408] relu5 <- conv5
I0322 16:49:12.718328 15898 net.cpp:369] relu5 -> conv5 (in-place)
I0322 16:49:12.718482 15898 net.cpp:124] Setting up relu5
I0322 16:49:12.718489 15898 net.cpp:131] Top shape: 50 256 9 14 (1612800)
I0322 16:49:12.718492 15898 net.cpp:139] Memory required for data: 249622600
I0322 16:49:12.718495 15898 layer_factory.hpp:77] Creating layer pool5
I0322 16:49:12.718503 15898 net.cpp:86] Creating Layer pool5
I0322 16:49:12.718508 15898 net.cpp:408] pool5 <- conv5
I0322 16:49:12.718513 15898 net.cpp:382] pool5 -> pool5
I0322 16:49:12.718550 15898 net.cpp:124] Setting up pool5
I0322 16:49:12.718556 15898 net.cpp:131] Top shape: 50 256 4 7 (358400)
I0322 16:49:12.718559 15898 net.cpp:139] Memory required for data: 251056200
I0322 16:49:12.718562 15898 layer_factory.hpp:77] Creating layer fc6_msc
I0322 16:49:12.718572 15898 net.cpp:86] Creating Layer fc6_msc
I0322 16:49:12.718575 15898 net.cpp:408] fc6_msc <- pool5
I0322 16:49:12.718581 15898 net.cpp:382] fc6_msc -> fc6_msc
I0322 16:49:12.964553 15898 net.cpp:124] Setting up fc6_msc
I0322 16:49:12.964579 15898 net.cpp:131] Top shape: 50 4096 (204800)
I0322 16:49:12.964582 15898 net.cpp:139] Memory required for data: 251875400
I0322 16:49:12.964589 15898 layer_factory.hpp:77] Creating layer relu6
I0322 16:49:12.964596 15898 net.cpp:86] Creating Layer relu6
I0322 16:49:12.964599 15898 net.cpp:408] relu6 <- fc6_msc
I0322 16:49:12.964604 15898 net.cpp:369] relu6 -> fc6_msc (in-place)
I0322 16:49:12.964972 15898 net.cpp:124] Setting up relu6
I0322 16:49:12.964979 15898 net.cpp:131] Top shape: 50 4096 (204800)
I0322 16:49:12.964982 15898 net.cpp:139] Memory required for data: 252694600
I0322 16:49:12.964984 15898 layer_factory.hpp:77] Creating layer drop6
I0322 16:49:12.964992 15898 net.cpp:86] Creating Layer drop6
I0322 16:49:12.964993 15898 net.cpp:408] drop6 <- fc6_msc
I0322 16:49:12.964998 15898 net.cpp:369] drop6 -> fc6_msc (in-place)
I0322 16:49:12.965019 15898 net.cpp:124] Setting up drop6
I0322 16:49:12.965024 15898 net.cpp:131] Top shape: 50 4096 (204800)
I0322 16:49:12.965026 15898 net.cpp:139] Memory required for data: 253513800
I0322 16:49:12.965029 15898 layer_factory.hpp:77] Creating layer fc7_msc
I0322 16:49:12.965035 15898 net.cpp:86] Creating Layer fc7_msc
I0322 16:49:12.965037 15898 net.cpp:408] fc7_msc <- fc6_msc
I0322 16:49:12.965041 15898 net.cpp:382] fc7_msc -> fc7_msc
I0322 16:49:13.095556 15898 net.cpp:124] Setting up fc7_msc
I0322 16:49:13.095584 15898 net.cpp:131] Top shape: 50 4096 (204800)
I0322 16:49:13.095588 15898 net.cpp:139] Memory required for data: 254333000
I0322 16:49:13.095597 15898 layer_factory.hpp:77] Creating layer relu7
I0322 16:49:13.095604 15898 net.cpp:86] Creating Layer relu7
I0322 16:49:13.095608 15898 net.cpp:408] relu7 <- fc7_msc
I0322 16:49:13.095613 15898 net.cpp:369] relu7 -> fc7_msc (in-place)
I0322 16:49:13.096001 15898 net.cpp:124] Setting up relu7
I0322 16:49:13.096012 15898 net.cpp:131] Top shape: 50 4096 (204800)
I0322 16:49:13.096015 15898 net.cpp:139] Memory required for data: 255152200
I0322 16:49:13.096019 15898 layer_factory.hpp:77] Creating layer drop7
I0322 16:49:13.096024 15898 net.cpp:86] Creating Layer drop7
I0322 16:49:13.096027 15898 net.cpp:408] drop7 <- fc7_msc
I0322 16:49:13.096034 15898 net.cpp:369] drop7 -> fc7_msc (in-place)
I0322 16:49:13.096060 15898 net.cpp:124] Setting up drop7
I0322 16:49:13.096071 15898 net.cpp:131] Top shape: 50 4096 (204800)
I0322 16:49:13.096083 15898 net.cpp:139] Memory required for data: 255971400
I0322 16:49:13.096086 15898 layer_factory.hpp:77] Creating layer fc8_msc
I0322 16:49:13.096094 15898 net.cpp:86] Creating Layer fc8_msc
I0322 16:49:13.096098 15898 net.cpp:408] fc8_msc <- fc7_msc
I0322 16:49:13.096104 15898 net.cpp:382] fc8_msc -> fc8_msc
I0322 16:49:13.096544 15898 net.cpp:124] Setting up fc8_msc
I0322 16:49:13.096554 15898 net.cpp:131] Top shape: 50 2 (100)
I0322 16:49:13.096555 15898 net.cpp:139] Memory required for data: 255971800
I0322 16:49:13.096561 15898 layer_factory.hpp:77] Creating layer loss_msc
I0322 16:49:13.096566 15898 net.cpp:86] Creating Layer loss_msc
I0322 16:49:13.096568 15898 net.cpp:408] loss_msc <- fc8_msc
I0322 16:49:13.096571 15898 net.cpp:408] loss_msc <- label_msc
I0322 16:49:13.096576 15898 net.cpp:382] loss_msc -> loss
…
I0322 16:49:13.097126 15898 net.cpp:296] The NetState phase (1) differed from the phase (0) specified by a rule in layer data_msc
I0322 16:49:13.097245 15898 net.cpp:53] Initializing net from parameters: 
name: "MCaffeNet"
state {
  phase: TEST
}
layer {
  name: "data_msc"
  type: "ImageData"
  top: "data_msc"
  top: "label_msc"
  include {
    phase: TEST
  }
  transform_param {
    mean_value: 296
    mean_value: 103
    mean_value: 108
  }
  image_data_param {
    source: "/media/p307k07/ssd/opt/msc/data/test/list_caffe.txt"
    batch_size: 50
    new_height: 159
    new_width: 240
  }
}
layer {
  name: "conv1"
  type: "Convolution"
  bottom: "data_msc"
  top: "conv1"
  param {
    lr_mult: 0.01
    decay_mult: 0.01
  }
  param {
    lr_mult: 0.02
    decay_mult: 0
  }
  convolution_param {
    num_output: 96
    kernel_size: 11
    stride: 4
    weight_filler {
      type: "gaussian"
      std: 0.01
    }
    bias_filler {
      type: "constant"
      value: 0
    }
  }
}
layer {
  name: "relu1"
  type: "ReLU"
  bottom: "conv1"
  top: "conv1"
}
layer {
  name: "pool1"
  type: "Pooling"
  bottom: "conv1"
  top: "pool1"
  pooling_param {
    pool: MAX
    kernel_size: 3
    stride: 2
  }
}
layer {
  name: "norm1"
  type: "LRN"
  bottom: "pool1"
  top: "norm1"
  lrn_param {
    local_size: 5
    alpha: 0.0001
    beta: 0.75
  }
}
layer {
  name: "conv2"
  type: "Convolution"
  bottom: "norm1"
  top: "conv2"
  param {
    lr_mult: 0.01
    decay_mult: 0.01
  }
  param {
    lr_mult: 0.02
    decay_mult: 0
  }
  convolution_param {
    num_output: 256
    pad: 2
    kernel_size: 5
    group: 2
    weight_filler {
      type: "gaussian"
      std: 0.01
    }
    bias_filler {
      type: "constant"
      value: 1
    }
  }
}
layer {
  name: "relu2"
  type: "ReLU"
  bottom: "conv2"
  top: "conv2"
}
layer {
  name: "pool2"
  type: "Pooling"
  bottom: "conv2"
  top: "pool2"
  pooling_param {
    pool: MAX
    kernel_size: 3
    stride: 2
  }
}
layer {
  name: "norm2"
  type: "LRN"
  bottom: "pool2"
  top: "norm2"
  lrn_param {
    local_size: 5
    alpha: 0.0001
    beta: 0.75
  }
}
layer {
  name: "conv3"
  type: "Convolution"
  bottom: "norm2"
  top: "conv3"
  param {
    lr_mult: 0.01
    decay_mult: 0.01
  }
  param {
    lr_mult: 0.02
    decay_mult: 0
  }
  convolution_param {
    num_output: 384
    pad: 1
    kernel_size: 3
    weight_filler {
      type: "gaussian"
      std: 0.01
    }
    bias_filler {
      type: "constant"
      value: 0
    }
  }
}
layer {
  name: "relu3"
  type: "ReLU"
  bottom: "conv3"
  top: "conv3"
}
layer {
  name: "conv4"
  type: "Convolution"
  bottom: "conv3"
  top: "conv4"
  param {
    lr_mult: 0.01
    decay_mult: 0.01
  }
  param {
    lr_mult: 0.02
    decay_mult: 0
  }
  convolution_param {
    num_output: 384
    pad: 1
    kernel_size: 3
    group: 2
    weight_filler {
      type: "gaussian"
      std: 0.01
    }
    bias_filler {
      type: "constant"
      value: 1
    }
  }
}
layer {
  name: "relu4"
  type: "ReLU"
  bottom: "conv4"
  top: "conv4"
}
layer {
  name: "conv5"
  type: "Convolution"
  bottom: "conv4"
  top: "conv5"
  param {
    lr_mult: 0.01
    decay_mult: 0.01
  }
  param {
    lr_mult: 0.02
    decay_mult: 0
  }
  convolution_param {
    num_output: 256
    pad: 1
    kernel_size: 3
    group: 2
    weight_filler {
      type: "gaussian"
      std: 0.01
    }
    bias_filler {
      type: "constant"
      value: 1
    }
  }
}
layer {
  name: "relu5"
  type: "ReLU"
  bottom: "conv5"
  top: "conv5"
}
layer {
  name: "pool5"
  type: "Pooling"
  bottom: "conv5"
  top: "pool5"
  pooling_param {
    pool: MAX
    kernel_size: 3
    stride: 2
  }
}
layer {
  name: "fc6_msc"
  type: "InnerProduct"
  bottom: "pool5"
  top: "fc6_msc"
  param {
    lr_mult: 1
    decay_mult: 1
  }
  param {
    lr_mult: 2
    decay_mult: 0
  }
  inner_product_param {
    num_output: 4096
    weight_filler {
      type: "gaussian"
      std: 0.005
    }
    bias_filler {
      type: "constant"
      value: 1
    }
  }
}
layer {
  name: "relu6"
  type: "ReLU"
  bottom: "fc6_msc"
  top: "fc6_msc"
}
layer {
  name: "drop6"
  type: "Dropout"
  bottom: "fc6_msc"
  top: "fc6_msc"
  dropout_param {
    dropout_ratio: 0.6
  }
}
layer {
  name: "fc7_msc"
  type: "InnerProduct"
  bottom: "fc6_msc"
  top: "fc7_msc"
  param {
    lr_mult: 1
    decay_mult: 1
  }
  param {
    lr_mult: 2
    decay_mult: 0
  }
  inner_product_param {
    num_output: 4096
    weight_filler {
      type: "gaussian"
      std: 0.005
    }
    bias_filler {
      type: "constant"
      value: 1
    }
  }
}
layer {
  name: "relu7"
  type: "ReLU"
  bottom: "fc7_msc"
  top: "fc7_msc"
}
layer {
  name: "drop7"
  type: "Dropout"
  bottom: "fc7_msc"
  top: "fc7_msc"
  dropout_param {
    dropout_ratio: 0.7
  }
}
layer {
  name: "fc8_msc"
  type: "InnerProduct"
  bottom: "fc7_msc"
  top: "fc8_msc"
  param {
    lr_mult: 1
    decay_mult: 1
  }
  param {
    lr_mult: 2
    decay_mult: 0
  }
  inner_product_param {
    num_output: 2
    weight_filler {
      type: "gaussian"
      std: 0.01
    }
    bias_filler {
      type: "constant"
      value: 0
    }
  }
}
layer {
  name: "accuracy"
  type: "Accuracy"
  bottom: "fc8_msc"
  bottom: "label_msc"
  top: "accuracy"
  include {
    phase: TEST
  }
}
layer {
  name: "loss_msc"
  type: "SoftmaxWithLoss"
  bottom: "fc8_msc"
  bottom: "label_msc"
  top: "loss"
}
I0322 16:49:13.097331 15898 layer_factory.hpp:77] Creating layer data_msc
I0322 16:49:13.097342 15898 net.cpp:86] Creating Layer data_msc
I0322 16:49:13.097347 15898 net.cpp:382] data_msc -> data_msc
I0322 16:49:13.097353 15898 net.cpp:382] data_msc -> label_msc
I0322 16:49:13.097359 15898 image_data_layer.cpp:38] Opening file /media/p307k07/ssd/opt/msc/data/test/list_caffe.txt
I0322 16:49:13.130825 15898 image_data_layer.cpp:63] A total of 85562 images.
I0322 16:49:13.131544 15898 image_data_layer.cpp:90] output data size: 50,3,159,240
I0322 16:49:13.158934 15898 net.cpp:124] Setting up data_msc
I0322 16:49:13.158959 15898 net.cpp:131] Top shape: 50 3 159 240 (5724000)
I0322 16:49:13.158964 15898 net.cpp:131] Top shape: 50 (50)
I0322 16:49:13.158967 15898 net.cpp:139] Memory required for data: 22896200
I0322 16:49:13.158972 15898 layer_factory.hpp:77] Creating layer label_msc_data_msc_1_split
I0322 16:49:13.158982 15898 net.cpp:86] Creating Layer label_msc_data_msc_1_split
I0322 16:49:13.158987 15898 net.cpp:408] label_msc_data_msc_1_split <- label_msc
I0322 16:49:13.158991 15898 net.cpp:382] label_msc_data_msc_1_split -> label_msc_data_msc_1_split_0
I0322 16:49:13.159000 15898 net.cpp:382] label_msc_data_msc_1_split -> label_msc_data_msc_1_split_1
I0322 16:49:13.159070 15898 net.cpp:124] Setting up label_msc_data_msc_1_split
I0322 16:49:13.159075 15898 net.cpp:131] Top shape: 50 (50)
I0322 16:49:13.159078 15898 net.cpp:131] Top shape: 50 (50)
I0322 16:49:13.159080 15898 net.cpp:139] Memory required for data: 22896600
I0322 16:49:13.159083 15898 layer_factory.hpp:77] Creating layer conv1
I0322 16:49:13.159095 15898 net.cpp:86] Creating Layer conv1
I0322 16:49:13.159096 15898 net.cpp:408] conv1 <- data_msc
I0322 16:49:13.159101 15898 net.cpp:382] conv1 -> conv1
I0322 16:49:13.160308 15898 net.cpp:124] Setting up conv1
I0322 16:49:13.160320 15898 net.cpp:131] Top shape: 50 96 38 58 (10579200)
I0322 16:49:13.160322 15898 net.cpp:139] Memory required for data: 65213400
I0322 16:49:13.160331 15898 layer_factory.hpp:77] Creating layer relu1
I0322 16:49:13.160337 15898 net.cpp:86] Creating Layer relu1
I0322 16:49:13.160339 15898 net.cpp:408] relu1 <- conv1
I0322 16:49:13.160343 15898 net.cpp:369] relu1 -> conv1 (in-place)
I0322 16:49:13.160454 15898 net.cpp:124] Setting up relu1
I0322 16:49:13.160459 15898 net.cpp:131] Top shape: 50 96 38 58 (10579200)
I0322 16:49:13.160462 15898 net.cpp:139] Memory required for data: 107530200
I0322 16:49:13.160465 15898 layer_factory.hpp:77] Creating layer pool1
I0322 16:49:13.160470 15898 net.cpp:86] Creating Layer pool1
I0322 16:49:13.160473 15898 net.cpp:408] pool1 <- conv1
I0322 16:49:13.160476 15898 net.cpp:382] pool1 -> pool1
I0322 16:49:13.160507 15898 net.cpp:124] Setting up pool1
I0322 16:49:13.160511 15898 net.cpp:131] Top shape: 50 96 19 29 (2644800)
I0322 16:49:13.160514 15898 net.cpp:139] Memory required for data: 118109400
I0322 16:49:13.160516 15898 layer_factory.hpp:77] Creating layer norm1
I0322 16:49:13.160521 15898 net.cpp:86] Creating Layer norm1
I0322 16:49:13.160523 15898 net.cpp:408] norm1 <- pool1
I0322 16:49:13.160527 15898 net.cpp:382] norm1 -> norm1
I0322 16:49:13.162654 15898 net.cpp:124] Setting up norm1
I0322 16:49:13.162662 15898 net.cpp:131] Top shape: 50 96 19 29 (2644800)
I0322 16:49:13.162665 15898 net.cpp:139] Memory required for data: 128688600
I0322 16:49:13.162667 15898 layer_factory.hpp:77] Creating layer conv2
I0322 16:49:13.162675 15898 net.cpp:86] Creating Layer conv2
I0322 16:49:13.162678 15898 net.cpp:408] conv2 <- norm1
I0322 16:49:13.162688 15898 net.cpp:382] conv2 -> conv2
I0322 16:49:13.166584 15898 net.cpp:124] Setting up conv2
I0322 16:49:13.166594 15898 net.cpp:131] Top shape: 50 256 19 29 (7052800)
I0322 16:49:13.166595 15898 net.cpp:139] Memory required for data: 156899800
I0322 16:49:13.166604 15898 layer_factory.hpp:77] Creating layer relu2
I0322 16:49:13.166607 15898 net.cpp:86] Creating Layer relu2
I0322 16:49:13.166610 15898 net.cpp:408] relu2 <- conv2
I0322 16:49:13.166613 15898 net.cpp:369] relu2 -> conv2 (in-place)
I0322 16:49:13.166725 15898 net.cpp:124] Setting up relu2
I0322 16:49:13.166730 15898 net.cpp:131] Top shape: 50 256 19 29 (7052800)
I0322 16:49:13.166733 15898 net.cpp:139] Memory required for data: 185111000
I0322 16:49:13.166735 15898 layer_factory.hpp:77] Creating layer pool2
I0322 16:49:13.166740 15898 net.cpp:86] Creating Layer pool2
I0322 16:49:13.166743 15898 net.cpp:408] pool2 <- conv2
I0322 16:49:13.166746 15898 net.cpp:382] pool2 -> pool2
I0322 16:49:13.166775 15898 net.cpp:124] Setting up pool2
I0322 16:49:13.166779 15898 net.cpp:131] Top shape: 50 256 9 14 (1612800)
I0322 16:49:13.166781 15898 net.cpp:139] Memory required for data: 191562200
I0322 16:49:13.166785 15898 layer_factory.hpp:77] Creating layer norm2
I0322 16:49:13.166788 15898 net.cpp:86] Creating Layer norm2
I0322 16:49:13.166790 15898 net.cpp:408] norm2 <- pool2
I0322 16:49:13.166795 15898 net.cpp:382] norm2 -> norm2
I0322 16:49:13.167069 15898 net.cpp:124] Setting up norm2
I0322 16:49:13.167078 15898 net.cpp:131] Top shape: 50 256 9 14 (1612800)
I0322 16:49:13.167079 15898 net.cpp:139] Memory required for data: 198013400
I0322 16:49:13.167083 15898 layer_factory.hpp:77] Creating layer conv3
I0322 16:49:13.167089 15898 net.cpp:86] Creating Layer conv3
I0322 16:49:13.167091 15898 net.cpp:408] conv3 <- norm2
I0322 16:49:13.167095 15898 net.cpp:382] conv3 -> conv3
I0322 16:49:13.174810 15898 net.cpp:124] Setting up conv3
I0322 16:49:13.174820 15898 net.cpp:131] Top shape: 50 384 9 14 (2419200)
I0322 16:49:13.174823 15898 net.cpp:139] Memory required for data: 207690200
I0322 16:49:13.174831 15898 layer_factory.hpp:77] Creating layer relu3
I0322 16:49:13.174836 15898 net.cpp:86] Creating Layer relu3
I0322 16:49:13.174839 15898 net.cpp:408] relu3 <- conv3
I0322 16:49:13.174842 15898 net.cpp:369] relu3 -> conv3 (in-place)
I0322 16:49:13.175101 15898 net.cpp:124] Setting up relu3
I0322 16:49:13.175107 15898 net.cpp:131] Top shape: 50 384 9 14 (2419200)
I0322 16:49:13.175110 15898 net.cpp:139] Memory required for data: 217367000
I0322 16:49:13.175112 15898 layer_factory.hpp:77] Creating layer conv4
I0322 16:49:13.175119 15898 net.cpp:86] Creating Layer conv4
I0322 16:49:13.175122 15898 net.cpp:408] conv4 <- conv3
I0322 16:49:13.175127 15898 net.cpp:382] conv4 -> conv4
I0322 16:49:13.181977 15898 net.cpp:124] Setting up conv4
I0322 16:49:13.181990 15898 net.cpp:131] Top shape: 50 384 9 14 (2419200)
I0322 16:49:13.181993 15898 net.cpp:139] Memory required for data: 227043800
I0322 16:49:13.182008 15898 layer_factory.hpp:77] Creating layer relu4
I0322 16:49:13.182013 15898 net.cpp:86] Creating Layer relu4
I0322 16:49:13.182015 15898 net.cpp:408] relu4 <- conv4
I0322 16:49:13.182019 15898 net.cpp:369] relu4 -> conv4 (in-place)
I0322 16:49:13.182147 15898 net.cpp:124] Setting up relu4
I0322 16:49:13.182152 15898 net.cpp:131] Top shape: 50 384 9 14 (2419200)
I0322 16:49:13.182155 15898 net.cpp:139] Memory required for data: 236720600
I0322 16:49:13.182157 15898 layer_factory.hpp:77] Creating layer conv5
I0322 16:49:13.182163 15898 net.cpp:86] Creating Layer conv5
I0322 16:49:13.182166 15898 net.cpp:408] conv5 <- conv4
I0322 16:49:13.182170 15898 net.cpp:382] conv5 -> conv5
I0322 16:49:13.187111 15898 net.cpp:124] Setting up conv5
I0322 16:49:13.187122 15898 net.cpp:131] Top shape: 50 256 9 14 (1612800)
I0322 16:49:13.187125 15898 net.cpp:139] Memory required for data: 243171800
I0322 16:49:13.187132 15898 layer_factory.hpp:77] Creating layer relu5
I0322 16:49:13.187137 15898 net.cpp:86] Creating Layer relu5
I0322 16:49:13.187140 15898 net.cpp:408] relu5 <- conv5
I0322 16:49:13.187150 15898 net.cpp:369] relu5 -> conv5 (in-place)
I0322 16:49:13.187268 15898 net.cpp:124] Setting up relu5
I0322 16:49:13.187273 15898 net.cpp:131] Top shape: 50 256 9 14 (1612800)
I0322 16:49:13.187275 15898 net.cpp:139] Memory required for data: 249623000
I0322 16:49:13.187278 15898 layer_factory.hpp:77] Creating layer pool5
I0322 16:49:13.187284 15898 net.cpp:86] Creating Layer pool5
I0322 16:49:13.187288 15898 net.cpp:408] pool5 <- conv5
I0322 16:49:13.187290 15898 net.cpp:382] pool5 -> pool5
I0322 16:49:13.187321 15898 net.cpp:124] Setting up pool5
I0322 16:49:13.187325 15898 net.cpp:131] Top shape: 50 256 4 7 (358400)
I0322 16:49:13.187327 15898 net.cpp:139] Memory required for data: 251056600
I0322 16:49:13.187330 15898 layer_factory.hpp:77] Creating layer fc6_msc
I0322 16:49:13.187335 15898 net.cpp:86] Creating Layer fc6_msc
I0322 16:49:13.187337 15898 net.cpp:408] fc6_msc <- pool5
I0322 16:49:13.187340 15898 net.cpp:382] fc6_msc -> fc6_msc
I0322 16:49:13.417857 15898 net.cpp:124] Setting up fc6_msc
I0322 16:49:13.417886 15898 net.cpp:131] Top shape: 50 4096 (204800)
I0322 16:49:13.417888 15898 net.cpp:139] Memory required for data: 251875800
I0322 16:49:13.417896 15898 layer_factory.hpp:77] Creating layer relu6
I0322 16:49:13.417903 15898 net.cpp:86] Creating Layer relu6
I0322 16:49:13.417906 15898 net.cpp:408] relu6 <- fc6_msc
I0322 16:49:13.417912 15898 net.cpp:369] relu6 -> fc6_msc (in-place)
I0322 16:49:13.418287 15898 net.cpp:124] Setting up relu6
I0322 16:49:13.418293 15898 net.cpp:131] Top shape: 50 4096 (204800)
I0322 16:49:13.418296 15898 net.cpp:139] Memory required for data: 252695000
I0322 16:49:13.418298 15898 layer_factory.hpp:77] Creating layer drop6
I0322 16:49:13.418303 15898 net.cpp:86] Creating Layer drop6
I0322 16:49:13.418306 15898 net.cpp:408] drop6 <- fc6_msc
I0322 16:49:13.418310 15898 net.cpp:369] drop6 -> fc6_msc (in-place)
I0322 16:49:13.418331 15898 net.cpp:124] Setting up drop6
I0322 16:49:13.418335 15898 net.cpp:131] Top shape: 50 4096 (204800)
I0322 16:49:13.418337 15898 net.cpp:139] Memory required for data: 253514200
I0322 16:49:13.418339 15898 layer_factory.hpp:77] Creating layer fc7_msc
I0322 16:49:13.418344 15898 net.cpp:86] Creating Layer fc7_msc
I0322 16:49:13.418347 15898 net.cpp:408] fc7_msc <- fc6_msc
I0322 16:49:13.418351 15898 net.cpp:382] fc7_msc -> fc7_msc
I0322 16:49:13.548337 15898 net.cpp:124] Setting up fc7_msc
I0322 16:49:13.548363 15898 net.cpp:131] Top shape: 50 4096 (204800)
I0322 16:49:13.548367 15898 net.cpp:139] Memory required for data: 254333400
I0322 16:49:13.548374 15898 layer_factory.hpp:77] Creating layer relu7
I0322 16:49:13.548382 15898 net.cpp:86] Creating Layer relu7
I0322 16:49:13.548387 15898 net.cpp:408] relu7 <- fc7_msc
I0322 16:49:13.548391 15898 net.cpp:369] relu7 -> fc7_msc (in-place)
I0322 16:49:13.548563 15898 net.cpp:124] Setting up relu7
I0322 16:49:13.548571 15898 net.cpp:131] Top shape: 50 4096 (204800)
I0322 16:49:13.548573 15898 net.cpp:139] Memory required for data: 255152600
I0322 16:49:13.548576 15898 layer_factory.hpp:77] Creating layer drop7
I0322 16:49:13.548581 15898 net.cpp:86] Creating Layer drop7
I0322 16:49:13.548584 15898 net.cpp:408] drop7 <- fc7_msc
I0322 16:49:13.548588 15898 net.cpp:369] drop7 -> fc7_msc (in-place)
I0322 16:49:13.548614 15898 net.cpp:124] Setting up drop7
I0322 16:49:13.548619 15898 net.cpp:131] Top shape: 50 4096 (204800)
I0322 16:49:13.548621 15898 net.cpp:139] Memory required for data: 255971800
I0322 16:49:13.548624 15898 layer_factory.hpp:77] Creating layer fc8_msc
I0322 16:49:13.548629 15898 net.cpp:86] Creating Layer fc8_msc
I0322 16:49:13.548631 15898 net.cpp:408] fc8_msc <- fc7_msc
I0322 16:49:13.548635 15898 net.cpp:382] fc8_msc -> fc8_msc
I0322 16:49:13.548777 15898 net.cpp:124] Setting up fc8_msc
I0322 16:49:13.548782 15898 net.cpp:131] Top shape: 50 2 (100)
I0322 16:49:13.548785 15898 net.cpp:139] Memory required for data: 255972200
I0322 16:49:13.548789 15898 layer_factory.hpp:77] Creating layer fc8_msc_fc8_msc_0_split
I0322 16:49:13.548801 15898 net.cpp:86] Creating Layer fc8_msc_fc8_msc_0_split
I0322 16:49:13.548817 15898 net.cpp:408] fc8_msc_fc8_msc_0_split <- fc8_msc
I0322 16:49:13.548823 15898 net.cpp:382] fc8_msc_fc8_msc_0_split -> fc8_msc_fc8_msc_0_split_0
I0322 16:49:13.548830 15898 net.cpp:382] fc8_msc_fc8_msc_0_split -> fc8_msc_fc8_msc_0_split_1
I0322 16:49:13.548866 15898 net.cpp:124] Setting up fc8_msc_fc8_msc_0_split
I0322 16:49:13.548871 15898 net.cpp:131] Top shape: 50 2 (100)
I0322 16:49:13.548873 15898 net.cpp:131] Top shape: 50 2 (100)
I0322 16:49:13.548876 15898 net.cpp:139] Memory required for data: 255973000
I0322 16:49:13.548878 15898 layer_factory.hpp:77] Creating layer accuracy
I0322 16:49:13.548883 15898 net.cpp:86] Creating Layer accuracy
I0322 16:49:13.548885 15898 net.cpp:408] accuracy <- fc8_msc_fc8_msc_0_split_0
I0322 16:49:13.548889 15898 net.cpp:408] accuracy <- label_msc_data_msc_1_split_0
I0322 16:49:13.548893 15898 net.cpp:382] accuracy -> accuracy
…
