…
I0322 09:21:49.810940 14683 net.cpp:296] The NetState phase (0) differed from the phase (1) specified by a rule in layer accuracy
I0322 09:21:49.811339 14683 net.cpp:53] Initializing net from parameters: 
name: "MCaffeNet"
state {
  phase: TRAIN
  level: 0
  stage: ""
}
layer {
  name: "data_msc"
  type: "ImageData"
  top: "data_msc"
  top: "label_msc"
  include {
    phase: TRAIN
  }
  transform_param {
    mean_value: 296
    mean_value: 103
    mean_value: 108
  }
  image_data_param {
    source: "/media/p307k07/ssd/opt/msc/data/train/list_caffe.txt"
    batch_size: 50
    new_height: 159
    new_width: 240
  }
}
layer {
  name: "conv1"
  type: "Convolution"
  bottom: "data_msc"
  top: "conv1"
  param {
    lr_mult: 0.01
    decay_mult: 0.01
  }
  param {
    lr_mult: 0.02
    decay_mult: 0
  }
  convolution_param {
    num_output: 96
    kernel_size: 11
    stride: 4
    weight_filler {
      type: "gaussian"
      std: 0.01
    }
    bias_filler {
      type: "constant"
      value: 0
    }
  }
}
layer {
  name: "relu1"
  type: "ReLU"
  bottom: "conv1"
  top: "conv1"
}
layer {
  name: "pool1"
  type: "Pooling"
  bottom: "conv1"
  top: "pool1"
  pooling_param {
    pool: MAX
    kernel_size: 3
    stride: 2
  }
}
layer {
  name: "norm1"
  type: "LRN"
  bottom: "pool1"
  top: "norm1"
  lrn_param {
    local_size: 5
    alpha: 0.0001
    beta: 0.75
  }
}
layer {
  name: "conv2"
  type: "Convolution"
  bottom: "norm1"
  top: "conv2"
  param {
    lr_mult: 0.01
    decay_mult: 0.01
  }
  param {
    lr_mult: 0.02
    decay_mult: 0
  }
  convolution_param {
    num_output: 256
    pad: 2
    kernel_size: 5
    group: 2
    weight_filler {
      type: "gaussian"
      std: 0.01
    }
    bias_filler {
      type: "constant"
      value: 1
    }
  }
}
layer {
  name: "relu2"
  type: "ReLU"
  bottom: "conv2"
  top: "conv2"
}
layer {
  name: "pool2"
  type: "Pooling"
  bottom: "conv2"
  top: "pool2"
  pooling_param {
    pool: MAX
    kernel_size: 3
    stride: 2
  }
}
layer {
  name: "norm2"
  type: "LRN"
  bottom: "pool2"
  top: "norm2"
  lrn_param {
    local_size: 5
    alpha: 0.0001
    beta: 0.75
  }
}
layer {
  name: "conv3"
  type: "Convolution"
  bottom: "norm2"
  top: "conv3"
  param {
    lr_mult: 0.01
    decay_mult: 0.01
  }
  param {
    lr_mult: 0.02
    decay_mult: 0
  }
  convolution_param {
    num_output: 384
    pad: 1
    kernel_size: 3
    weight_filler {
      type: "gaussian"
      std: 0.01
    }
    bias_filler {
      type: "constant"
      value: 0
    }
  }
}
layer {
  name: "relu3"
  type: "ReLU"
  bottom: "conv3"
  top: "conv3"
}
layer {
  name: "conv4"
  type: "Convolution"
  bottom: "conv3"
  top: "conv4"
  param {
    lr_mult: 0.01
    decay_mult: 0.01
  }
  param {
    lr_mult: 0.02
    decay_mult: 0
  }
  convolution_param {
    num_output: 384
    pad: 1
    kernel_size: 3
    group: 2
    weight_filler {
      type: "gaussian"
      std: 0.01
    }
    bias_filler {
      type: "constant"
      value: 1
    }
  }
}
layer {
  name: "relu4"
  type: "ReLU"
  bottom: "conv4"
  top: "conv4"
}
layer {
  name: "conv5"
  type: "Convolution"
  bottom: "conv4"
  top: "conv5"
  param {
    lr_mult: 0.01
    decay_mult: 0.01
  }
  param {
    lr_mult: 0.02
    decay_mult: 0
  }
  convolution_param {
    num_output: 256
    pad: 1
    kernel_size: 3
    group: 2
    weight_filler {
      type: "gaussian"
      std: 0.01
    }
    bias_filler {
      type: "constant"
      value: 1
    }
  }
}
layer {
  name: "relu5"
  type: "ReLU"
  bottom: "conv5"
  top: "conv5"
}
layer {
  name: "pool5"
  type: "Pooling"
  bottom: "conv5"
  top: "pool5"
  pooling_param {
    pool: MAX
    kernel_size: 3
    stride: 2
  }
}
layer {
  name: "fc6_msc"
  type: "InnerProduct"
  bottom: "pool5"
  top: "fc6_msc"
  param {
    lr_mult: 1
    decay_mult: 1
  }
  param {
    lr_mult: 2
    decay_mult: 0
  }
  inner_product_param {
    num_output: 4096
    weight_filler {
      type: "gaussian"
      std: 0.005
    }
    bias_filler {
      type: "constant"
      value: 1
    }
  }
}
layer {
  name: "relu6"
  type: "ReLU"
  bottom: "fc6_msc"
  top: "fc6_msc"
}
layer {
  name: "drop6"
  type: "Dropout"
  bottom: "fc6_msc"
  top: "fc6_msc"
  dropout_param {
    dropout_ratio: 0.5
  }
}
layer {
  name: "fc7_msc"
  type: "InnerProduct"
  bottom: "fc6_msc"
  top: "fc7_msc"
  param {
    lr_mult: 1
    decay_mult: 1
  }
  param {
    lr_mult: 2
    decay_mult: 0
  }
  inner_product_param {
    num_output: 4096
    weight_filler {
      type: "gaussian"
      std: 0.005
    }
    bias_filler {
      type: "constant"
      value: 1
    }
  }
}
layer {
  name: "relu7"
  type: "ReLU"
  bottom: "fc7_msc"
  top: "fc7_msc"
}
layer {
  name: "drop7"
  type: "Dropout"
  bottom: "fc7_msc"
  top: "fc7_msc"
  dropout_param {
    dropout_ratio: 0.8
  }
}
layer {
  name: "fc8_msc"
  type: "InnerProduct"
  bottom: "fc7_msc"
  top: "fc8_msc"
  param {
    lr_mult: 1
    decay_mult: 1
  }
  param {
    lr_mult: 2
    decay_mult: 0
  }
  inner_product_param {
    num_output: 2
    weight_filler {
      type: "gaussian"
      std: 0.01
    }
    bias_filler {
      type: "constant"
      value: 0
    }
  }
}
layer {
  name: "loss_msc"
  type: "SoftmaxWithLoss"
  bottom: "fc8_msc"
  bottom: "label_msc"
  top: "loss"
}
I0322 09:21:49.811584 14683 layer_factory.hpp:77] Creating layer data_msc
I0322 09:21:49.811647 14683 net.cpp:86] Creating Layer data_msc
I0322 09:21:49.811663 14683 net.cpp:382] data_msc -> data_msc
I0322 09:21:49.811702 14683 net.cpp:382] data_msc -> label_msc
I0322 09:21:49.811734 14683 image_data_layer.cpp:38] Opening file /media/p307k07/ssd/opt/msc/data/train/list_caffe.txt
I0322 09:21:50.061856 14683 image_data_layer.cpp:63] A total of 513382 images.
I0322 09:21:50.063971 14683 image_data_layer.cpp:90] output data size: 50,3,159,240
I0322 09:21:50.091423 14683 net.cpp:124] Setting up data_msc
I0322 09:21:50.091449 14683 net.cpp:131] Top shape: 50 3 159 240 (5724000)
I0322 09:21:50.091454 14683 net.cpp:131] Top shape: 50 (50)
I0322 09:21:50.091456 14683 net.cpp:139] Memory required for data: 22896200
I0322 09:21:50.091462 14683 layer_factory.hpp:77] Creating layer conv1
I0322 09:21:50.091480 14683 net.cpp:86] Creating Layer conv1
I0322 09:21:50.091485 14683 net.cpp:408] conv1 <- data_msc
I0322 09:21:50.091496 14683 net.cpp:382] conv1 -> conv1
I0322 09:21:51.966909 14683 net.cpp:124] Setting up conv1
I0322 09:21:51.966940 14683 net.cpp:131] Top shape: 50 96 38 58 (10579200)
I0322 09:21:51.966943 14683 net.cpp:139] Memory required for data: 65213000
I0322 09:21:51.966967 14683 layer_factory.hpp:77] Creating layer relu1
I0322 09:21:51.966977 14683 net.cpp:86] Creating Layer relu1
I0322 09:21:51.966980 14683 net.cpp:408] relu1 <- conv1
I0322 09:21:51.966985 14683 net.cpp:369] relu1 -> conv1 (in-place)
I0322 09:21:51.967257 14683 net.cpp:124] Setting up relu1
I0322 09:21:51.967265 14683 net.cpp:131] Top shape: 50 96 38 58 (10579200)
I0322 09:21:51.967268 14683 net.cpp:139] Memory required for data: 107529800
I0322 09:21:51.967270 14683 layer_factory.hpp:77] Creating layer pool1
I0322 09:21:51.967275 14683 net.cpp:86] Creating Layer pool1
I0322 09:21:51.967278 14683 net.cpp:408] pool1 <- conv1
I0322 09:21:51.967283 14683 net.cpp:382] pool1 -> pool1
I0322 09:21:51.967316 14683 net.cpp:124] Setting up pool1
I0322 09:21:51.967321 14683 net.cpp:131] Top shape: 50 96 19 29 (2644800)
I0322 09:21:51.967327 14683 net.cpp:139] Memory required for data: 118109000
I0322 09:21:51.967607 14683 layer_factory.hpp:77] Creating layer norm1
I0322 09:21:51.967622 14683 net.cpp:86] Creating Layer norm1
I0322 09:21:51.967627 14683 net.cpp:408] norm1 <- pool1
I0322 09:21:51.967633 14683 net.cpp:382] norm1 -> norm1
I0322 09:21:51.967780 14683 net.cpp:124] Setting up norm1
I0322 09:21:51.967787 14683 net.cpp:131] Top shape: 50 96 19 29 (2644800)
I0322 09:21:51.967789 14683 net.cpp:139] Memory required for data: 128688200
I0322 09:21:51.967792 14683 layer_factory.hpp:77] Creating layer conv2
I0322 09:21:51.967800 14683 net.cpp:86] Creating Layer conv2
I0322 09:21:51.967803 14683 net.cpp:408] conv2 <- norm1
I0322 09:21:51.967808 14683 net.cpp:382] conv2 -> conv2
I0322 09:21:51.971871 14683 net.cpp:124] Setting up conv2
I0322 09:21:51.971881 14683 net.cpp:131] Top shape: 50 256 19 29 (7052800)
I0322 09:21:51.971884 14683 net.cpp:139] Memory required for data: 156899400
I0322 09:21:51.971890 14683 layer_factory.hpp:77] Creating layer relu2
I0322 09:21:51.971895 14683 net.cpp:86] Creating Layer relu2
I0322 09:21:51.971897 14683 net.cpp:408] relu2 <- conv2
I0322 09:21:51.971900 14683 net.cpp:369] relu2 -> conv2 (in-place)
I0322 09:21:51.972021 14683 net.cpp:124] Setting up relu2
I0322 09:21:51.972029 14683 net.cpp:131] Top shape: 50 256 19 29 (7052800)
I0322 09:21:51.972031 14683 net.cpp:139] Memory required for data: 185110600
I0322 09:21:51.972033 14683 layer_factory.hpp:77] Creating layer pool2
I0322 09:21:51.972038 14683 net.cpp:86] Creating Layer pool2
I0322 09:21:51.972039 14683 net.cpp:408] pool2 <- conv2
I0322 09:21:51.972043 14683 net.cpp:382] pool2 -> pool2
I0322 09:21:51.972072 14683 net.cpp:124] Setting up pool2
I0322 09:21:51.972076 14683 net.cpp:131] Top shape: 50 256 9 14 (1612800)
I0322 09:21:51.972079 14683 net.cpp:139] Memory required for data: 191561800
I0322 09:21:51.972080 14683 layer_factory.hpp:77] Creating layer norm2
I0322 09:21:51.972085 14683 net.cpp:86] Creating Layer norm2
I0322 09:21:51.972088 14683 net.cpp:408] norm2 <- pool2
I0322 09:21:51.972092 14683 net.cpp:382] norm2 -> norm2
I0322 09:21:51.972364 14683 net.cpp:124] Setting up norm2
I0322 09:21:51.972373 14683 net.cpp:131] Top shape: 50 256 9 14 (1612800)
I0322 09:21:51.972375 14683 net.cpp:139] Memory required for data: 198013000
I0322 09:21:51.972378 14683 layer_factory.hpp:77] Creating layer conv3
I0322 09:21:51.972384 14683 net.cpp:86] Creating Layer conv3
I0322 09:21:51.972386 14683 net.cpp:408] conv3 <- norm2
I0322 09:21:51.972390 14683 net.cpp:382] conv3 -> conv3
I0322 09:21:51.980032 14683 net.cpp:124] Setting up conv3
I0322 09:21:51.980044 14683 net.cpp:131] Top shape: 50 384 9 14 (2419200)
I0322 09:21:51.980046 14683 net.cpp:139] Memory required for data: 207689800
I0322 09:21:51.980053 14683 layer_factory.hpp:77] Creating layer relu3
I0322 09:21:51.980058 14683 net.cpp:86] Creating Layer relu3
I0322 09:21:51.980062 14683 net.cpp:408] relu3 <- conv3
I0322 09:21:51.980064 14683 net.cpp:369] relu3 -> conv3 (in-place)
I0322 09:21:51.980176 14683 net.cpp:124] Setting up relu3
I0322 09:21:51.980182 14683 net.cpp:131] Top shape: 50 384 9 14 (2419200)
I0322 09:21:51.980185 14683 net.cpp:139] Memory required for data: 217366600
I0322 09:21:51.980186 14683 layer_factory.hpp:77] Creating layer conv4
I0322 09:21:51.980192 14683 net.cpp:86] Creating Layer conv4
I0322 09:21:51.980195 14683 net.cpp:408] conv4 <- conv3
I0322 09:21:51.980199 14683 net.cpp:382] conv4 -> conv4
I0322 09:21:51.986783 14683 net.cpp:124] Setting up conv4
I0322 09:21:51.986794 14683 net.cpp:131] Top shape: 50 384 9 14 (2419200)
I0322 09:21:51.986798 14683 net.cpp:139] Memory required for data: 227043400
I0322 09:21:51.986802 14683 layer_factory.hpp:77] Creating layer relu4
I0322 09:21:51.986807 14683 net.cpp:86] Creating Layer relu4
I0322 09:21:51.986809 14683 net.cpp:408] relu4 <- conv4
I0322 09:21:51.986814 14683 net.cpp:369] relu4 -> conv4 (in-place)
I0322 09:21:51.986929 14683 net.cpp:124] Setting up relu4
I0322 09:21:51.986935 14683 net.cpp:131] Top shape: 50 384 9 14 (2419200)
I0322 09:21:51.986943 14683 net.cpp:139] Memory required for data: 236720200
I0322 09:21:51.986954 14683 layer_factory.hpp:77] Creating layer conv5
I0322 09:21:51.986964 14683 net.cpp:86] Creating Layer conv5
I0322 09:21:51.986968 14683 net.cpp:408] conv5 <- conv4
I0322 09:21:51.986973 14683 net.cpp:382] conv5 -> conv5
I0322 09:21:51.992063 14683 net.cpp:124] Setting up conv5
I0322 09:21:51.992074 14683 net.cpp:131] Top shape: 50 256 9 14 (1612800)
I0322 09:21:51.992075 14683 net.cpp:139] Memory required for data: 243171400
I0322 09:21:51.992084 14683 layer_factory.hpp:77] Creating layer relu5
I0322 09:21:51.992087 14683 net.cpp:86] Creating Layer relu5
I0322 09:21:51.992089 14683 net.cpp:408] relu5 <- conv5
I0322 09:21:51.992094 14683 net.cpp:369] relu5 -> conv5 (in-place)
I0322 09:21:51.992207 14683 net.cpp:124] Setting up relu5
I0322 09:21:51.992213 14683 net.cpp:131] Top shape: 50 256 9 14 (1612800)
I0322 09:21:51.992214 14683 net.cpp:139] Memory required for data: 249622600
I0322 09:21:51.992216 14683 layer_factory.hpp:77] Creating layer pool5
I0322 09:21:51.992220 14683 net.cpp:86] Creating Layer pool5
I0322 09:21:51.992223 14683 net.cpp:408] pool5 <- conv5
I0322 09:21:51.992228 14683 net.cpp:382] pool5 -> pool5
I0322 09:21:51.992255 14683 net.cpp:124] Setting up pool5
I0322 09:21:51.992260 14683 net.cpp:131] Top shape: 50 256 4 7 (358400)
I0322 09:21:51.992262 14683 net.cpp:139] Memory required for data: 251056200
I0322 09:21:51.992264 14683 layer_factory.hpp:77] Creating layer fc6_msc
I0322 09:21:51.992270 14683 net.cpp:86] Creating Layer fc6_msc
I0322 09:21:51.992274 14683 net.cpp:408] fc6_msc <- pool5
I0322 09:21:51.992276 14683 net.cpp:382] fc6_msc -> fc6_msc
I0322 09:21:52.218140 14683 net.cpp:124] Setting up fc6_msc
I0322 09:21:52.218166 14683 net.cpp:131] Top shape: 50 4096 (204800)
I0322 09:21:52.218169 14683 net.cpp:139] Memory required for data: 251875400
I0322 09:21:52.218176 14683 layer_factory.hpp:77] Creating layer relu6
I0322 09:21:52.218183 14683 net.cpp:86] Creating Layer relu6
I0322 09:21:52.218186 14683 net.cpp:408] relu6 <- fc6_msc
I0322 09:21:52.218191 14683 net.cpp:369] relu6 -> fc6_msc (in-place)
I0322 09:21:52.218557 14683 net.cpp:124] Setting up relu6
I0322 09:21:52.218564 14683 net.cpp:131] Top shape: 50 4096 (204800)
I0322 09:21:52.218567 14683 net.cpp:139] Memory required for data: 252694600
I0322 09:21:52.218569 14683 layer_factory.hpp:77] Creating layer drop6
I0322 09:21:52.218575 14683 net.cpp:86] Creating Layer drop6
I0322 09:21:52.218577 14683 net.cpp:408] drop6 <- fc6_msc
I0322 09:21:52.218581 14683 net.cpp:369] drop6 -> fc6_msc (in-place)
I0322 09:21:52.218602 14683 net.cpp:124] Setting up drop6
I0322 09:21:52.218606 14683 net.cpp:131] Top shape: 50 4096 (204800)
I0322 09:21:52.218608 14683 net.cpp:139] Memory required for data: 253513800
I0322 09:21:52.218611 14683 layer_factory.hpp:77] Creating layer fc7_msc
I0322 09:21:52.218617 14683 net.cpp:86] Creating Layer fc7_msc
I0322 09:21:52.218619 14683 net.cpp:408] fc7_msc <- fc6_msc
I0322 09:21:52.218623 14683 net.cpp:382] fc7_msc -> fc7_msc
I0322 09:21:52.347815 14683 net.cpp:124] Setting up fc7_msc
I0322 09:21:52.347841 14683 net.cpp:131] Top shape: 50 4096 (204800)
I0322 09:21:52.347843 14683 net.cpp:139] Memory required for data: 254333000
I0322 09:21:52.347851 14683 layer_factory.hpp:77] Creating layer relu7
I0322 09:21:52.347858 14683 net.cpp:86] Creating Layer relu7
I0322 09:21:52.347862 14683 net.cpp:408] relu7 <- fc7_msc
I0322 09:21:52.347867 14683 net.cpp:369] relu7 -> fc7_msc (in-place)
I0322 09:21:52.348232 14683 net.cpp:124] Setting up relu7
I0322 09:21:52.348240 14683 net.cpp:131] Top shape: 50 4096 (204800)
I0322 09:21:52.348242 14683 net.cpp:139] Memory required for data: 255152200
I0322 09:21:52.348245 14683 layer_factory.hpp:77] Creating layer drop7
I0322 09:21:52.348253 14683 net.cpp:86] Creating Layer drop7
I0322 09:21:52.348254 14683 net.cpp:408] drop7 <- fc7_msc
I0322 09:21:52.348258 14683 net.cpp:369] drop7 -> fc7_msc (in-place)
I0322 09:21:52.348278 14683 net.cpp:124] Setting up drop7
I0322 09:21:52.348287 14683 net.cpp:131] Top shape: 50 4096 (204800)
I0322 09:21:52.348300 14683 net.cpp:139] Memory required for data: 255971400
I0322 09:21:52.348304 14683 layer_factory.hpp:77] Creating layer fc8_msc
I0322 09:21:52.348311 14683 net.cpp:86] Creating Layer fc8_msc
I0322 09:21:52.348315 14683 net.cpp:408] fc8_msc <- fc7_msc
I0322 09:21:52.348321 14683 net.cpp:382] fc8_msc -> fc8_msc
I0322 09:21:52.348719 14683 net.cpp:124] Setting up fc8_msc
I0322 09:21:52.348726 14683 net.cpp:131] Top shape: 50 2 (100)
I0322 09:21:52.348728 14683 net.cpp:139] Memory required for data: 255971800
I0322 09:21:52.348732 14683 layer_factory.hpp:77] Creating layer loss_msc
I0322 09:21:52.348737 14683 net.cpp:86] Creating Layer loss_msc
I0322 09:21:52.348739 14683 net.cpp:408] loss_msc <- fc8_msc
I0322 09:21:52.348742 14683 net.cpp:408] loss_msc <- label_msc
I0322 09:21:52.348747 14683 net.cpp:382] loss_msc -> loss
…
I0322 09:21:52.349258 14683 net.cpp:296] The NetState phase (1) differed from the phase (0) specified by a rule in layer data_msc
I0322 09:21:52.349375 14683 net.cpp:53] Initializing net from parameters: 
name: "MCaffeNet"
state {
  phase: TEST
}
layer {
  name: "data_msc"
  type: "ImageData"
  top: "data_msc"
  top: "label_msc"
  include {
    phase: TEST
  }
  transform_param {
    mean_value: 296
    mean_value: 103
    mean_value: 108
  }
  image_data_param {
    source: "/media/p307k07/ssd/opt/msc/data/test/list_caffe.txt"
    batch_size: 50
    new_height: 159
    new_width: 240
  }
}
layer {
  name: "conv1"
  type: "Convolution"
  bottom: "data_msc"
  top: "conv1"
  param {
    lr_mult: 0.01
    decay_mult: 0.01
  }
  param {
    lr_mult: 0.02
    decay_mult: 0
  }
  convolution_param {
    num_output: 96
    kernel_size: 11
    stride: 4
    weight_filler {
      type: "gaussian"
      std: 0.01
    }
    bias_filler {
      type: "constant"
      value: 0
    }
  }
}
layer {
  name: "relu1"
  type: "ReLU"
  bottom: "conv1"
  top: "conv1"
}
layer {
  name: "pool1"
  type: "Pooling"
  bottom: "conv1"
  top: "pool1"
  pooling_param {
    pool: MAX
    kernel_size: 3
    stride: 2
  }
}
layer {
  name: "norm1"
  type: "LRN"
  bottom: "pool1"
  top: "norm1"
  lrn_param {
    local_size: 5
    alpha: 0.0001
    beta: 0.75
  }
}
layer {
  name: "conv2"
  type: "Convolution"
  bottom: "norm1"
  top: "conv2"
  param {
    lr_mult: 0.01
    decay_mult: 0.01
  }
  param {
    lr_mult: 0.02
    decay_mult: 0
  }
  convolution_param {
    num_output: 256
    pad: 2
    kernel_size: 5
    group: 2
    weight_filler {
      type: "gaussian"
      std: 0.01
    }
    bias_filler {
      type: "constant"
      value: 1
    }
  }
}
layer {
  name: "relu2"
  type: "ReLU"
  bottom: "conv2"
  top: "conv2"
}
layer {
  name: "pool2"
  type: "Pooling"
  bottom: "conv2"
  top: "pool2"
  pooling_param {
    pool: MAX
    kernel_size: 3
    stride: 2
  }
}
layer {
  name: "norm2"
  type: "LRN"
  bottom: "pool2"
  top: "norm2"
  lrn_param {
    local_size: 5
    alpha: 0.0001
    beta: 0.75
  }
}
layer {
  name: "conv3"
  type: "Convolution"
  bottom: "norm2"
  top: "conv3"
  param {
    lr_mult: 0.01
    decay_mult: 0.01
  }
  param {
    lr_mult: 0.02
    decay_mult: 0
  }
  convolution_param {
    num_output: 384
    pad: 1
    kernel_size: 3
    weight_filler {
      type: "gaussian"
      std: 0.01
    }
    bias_filler {
      type: "constant"
      value: 0
    }
  }
}
layer {
  name: "relu3"
  type: "ReLU"
  bottom: "conv3"
  top: "conv3"
}
layer {
  name: "conv4"
  type: "Convolution"
  bottom: "conv3"
  top: "conv4"
  param {
    lr_mult: 0.01
    decay_mult: 0.01
  }
  param {
    lr_mult: 0.02
    decay_mult: 0
  }
  convolution_param {
    num_output: 384
    pad: 1
    kernel_size: 3
    group: 2
    weight_filler {
      type: "gaussian"
      std: 0.01
    }
    bias_filler {
      type: "constant"
      value: 1
    }
  }
}
layer {
  name: "relu4"
  type: "ReLU"
  bottom: "conv4"
  top: "conv4"
}
layer {
  name: "conv5"
  type: "Convolution"
  bottom: "conv4"
  top: "conv5"
  param {
    lr_mult: 0.01
    decay_mult: 0.01
  }
  param {
    lr_mult: 0.02
    decay_mult: 0
  }
  convolution_param {
    num_output: 256
    pad: 1
    kernel_size: 3
    group: 2
    weight_filler {
      type: "gaussian"
      std: 0.01
    }
    bias_filler {
      type: "constant"
      value: 1
    }
  }
}
layer {
  name: "relu5"
  type: "ReLU"
  bottom: "conv5"
  top: "conv5"
}
layer {
  name: "pool5"
  type: "Pooling"
  bottom: "conv5"
  top: "pool5"
  pooling_param {
    pool: MAX
    kernel_size: 3
    stride: 2
  }
}
layer {
  name: "fc6_msc"
  type: "InnerProduct"
  bottom: "pool5"
  top: "fc6_msc"
  param {
    lr_mult: 1
    decay_mult: 1
  }
  param {
    lr_mult: 2
    decay_mult: 0
  }
  inner_product_param {
    num_output: 4096
    weight_filler {
      type: "gaussian"
      std: 0.005
    }
    bias_filler {
      type: "constant"
      value: 1
    }
  }
}
layer {
  name: "relu6"
  type: "ReLU"
  bottom: "fc6_msc"
  top: "fc6_msc"
}
layer {
  name: "drop6"
  type: "Dropout"
  bottom: "fc6_msc"
  top: "fc6_msc"
  dropout_param {
    dropout_ratio: 0.5
  }
}
layer {
  name: "fc7_msc"
  type: "InnerProduct"
  bottom: "fc6_msc"
  top: "fc7_msc"
  param {
    lr_mult: 1
    decay_mult: 1
  }
  param {
    lr_mult: 2
    decay_mult: 0
  }
  inner_product_param {
    num_output: 4096
    weight_filler {
      type: "gaussian"
      std: 0.005
    }
    bias_filler {
      type: "constant"
      value: 1
    }
  }
}
layer {
  name: "relu7"
  type: "ReLU"
  bottom: "fc7_msc"
  top: "fc7_msc"
}
layer {
  name: "drop7"
  type: "Dropout"
  bottom: "fc7_msc"
  top: "fc7_msc"
  dropout_param {
    dropout_ratio: 0.8
  }
}
layer {
  name: "fc8_msc"
  type: "InnerProduct"
  bottom: "fc7_msc"
  top: "fc8_msc"
  param {
    lr_mult: 1
    decay_mult: 1
  }
  param {
    lr_mult: 2
    decay_mult: 0
  }
  inner_product_param {
    num_output: 2
    weight_filler {
      type: "gaussian"
      std: 0.01
    }
    bias_filler {
      type: "constant"
      value: 0
    }
  }
}
layer {
  name: "accuracy"
  type: "Accuracy"
  bottom: "fc8_msc"
  bottom: "label_msc"
  top: "accuracy"
  include {
    phase: TEST
  }
}
layer {
  name: "loss_msc"
  type: "SoftmaxWithLoss"
  bottom: "fc8_msc"
  bottom: "label_msc"
  top: "loss"
}
I0322 09:21:52.349457 14683 layer_factory.hpp:77] Creating layer data_msc
I0322 09:21:52.349467 14683 net.cpp:86] Creating Layer data_msc
I0322 09:21:52.349472 14683 net.cpp:382] data_msc -> data_msc
I0322 09:21:52.349478 14683 net.cpp:382] data_msc -> label_msc
I0322 09:21:52.349483 14683 image_data_layer.cpp:38] Opening file /media/p307k07/ssd/opt/msc/data/test/list_caffe.txt
I0322 09:21:52.382333 14683 image_data_layer.cpp:63] A total of 85562 images.
I0322 09:21:52.383025 14683 image_data_layer.cpp:90] output data size: 50,3,159,240
I0322 09:21:52.409940 14683 net.cpp:124] Setting up data_msc
I0322 09:21:52.409967 14683 net.cpp:131] Top shape: 50 3 159 240 (5724000)
I0322 09:21:52.409972 14683 net.cpp:131] Top shape: 50 (50)
I0322 09:21:52.409974 14683 net.cpp:139] Memory required for data: 22896200
I0322 09:21:52.409979 14683 layer_factory.hpp:77] Creating layer label_msc_data_msc_1_split
I0322 09:21:52.409989 14683 net.cpp:86] Creating Layer label_msc_data_msc_1_split
I0322 09:21:52.409992 14683 net.cpp:408] label_msc_data_msc_1_split <- label_msc
I0322 09:21:52.409997 14683 net.cpp:382] label_msc_data_msc_1_split -> label_msc_data_msc_1_split_0
I0322 09:21:52.410006 14683 net.cpp:382] label_msc_data_msc_1_split -> label_msc_data_msc_1_split_1
I0322 09:21:52.410048 14683 net.cpp:124] Setting up label_msc_data_msc_1_split
I0322 09:21:52.410053 14683 net.cpp:131] Top shape: 50 (50)
I0322 09:21:52.410056 14683 net.cpp:131] Top shape: 50 (50)
I0322 09:21:52.410058 14683 net.cpp:139] Memory required for data: 22896600
I0322 09:21:52.410060 14683 layer_factory.hpp:77] Creating layer conv1
I0322 09:21:52.410069 14683 net.cpp:86] Creating Layer conv1
I0322 09:21:52.410073 14683 net.cpp:408] conv1 <- data_msc
I0322 09:21:52.410076 14683 net.cpp:382] conv1 -> conv1
I0322 09:21:52.411267 14683 net.cpp:124] Setting up conv1
I0322 09:21:52.411278 14683 net.cpp:131] Top shape: 50 96 38 58 (10579200)
I0322 09:21:52.411279 14683 net.cpp:139] Memory required for data: 65213400
I0322 09:21:52.411288 14683 layer_factory.hpp:77] Creating layer relu1
I0322 09:21:52.411293 14683 net.cpp:86] Creating Layer relu1
I0322 09:21:52.411295 14683 net.cpp:408] relu1 <- conv1
I0322 09:21:52.411298 14683 net.cpp:369] relu1 -> conv1 (in-place)
I0322 09:21:52.411409 14683 net.cpp:124] Setting up relu1
I0322 09:21:52.411415 14683 net.cpp:131] Top shape: 50 96 38 58 (10579200)
I0322 09:21:52.411417 14683 net.cpp:139] Memory required for data: 107530200
I0322 09:21:52.411419 14683 layer_factory.hpp:77] Creating layer pool1
I0322 09:21:52.411425 14683 net.cpp:86] Creating Layer pool1
I0322 09:21:52.411427 14683 net.cpp:408] pool1 <- conv1
I0322 09:21:52.411430 14683 net.cpp:382] pool1 -> pool1
I0322 09:21:52.413274 14683 net.cpp:124] Setting up pool1
I0322 09:21:52.413278 14683 net.cpp:131] Top shape: 50 96 19 29 (2644800)
I0322 09:21:52.413281 14683 net.cpp:139] Memory required for data: 118109400
I0322 09:21:52.413283 14683 layer_factory.hpp:77] Creating layer norm1
I0322 09:21:52.413288 14683 net.cpp:86] Creating Layer norm1
I0322 09:21:52.413290 14683 net.cpp:408] norm1 <- pool1
I0322 09:21:52.413293 14683 net.cpp:382] norm1 -> norm1
I0322 09:21:52.413578 14683 net.cpp:124] Setting up norm1
I0322 09:21:52.413585 14683 net.cpp:131] Top shape: 50 96 19 29 (2644800)
I0322 09:21:52.413588 14683 net.cpp:139] Memory required for data: 128688600
I0322 09:21:52.413589 14683 layer_factory.hpp:77] Creating layer conv2
I0322 09:21:52.413596 14683 net.cpp:86] Creating Layer conv2
I0322 09:21:52.413599 14683 net.cpp:408] conv2 <- norm1
I0322 09:21:52.413609 14683 net.cpp:382] conv2 -> conv2
I0322 09:21:52.417505 14683 net.cpp:124] Setting up conv2
I0322 09:21:52.417515 14683 net.cpp:131] Top shape: 50 256 19 29 (7052800)
I0322 09:21:52.417517 14683 net.cpp:139] Memory required for data: 156899800
I0322 09:21:52.417524 14683 layer_factory.hpp:77] Creating layer relu2
I0322 09:21:52.417528 14683 net.cpp:86] Creating Layer relu2
I0322 09:21:52.417531 14683 net.cpp:408] relu2 <- conv2
I0322 09:21:52.417534 14683 net.cpp:369] relu2 -> conv2 (in-place)
I0322 09:21:52.417655 14683 net.cpp:124] Setting up relu2
I0322 09:21:52.417660 14683 net.cpp:131] Top shape: 50 256 19 29 (7052800)
I0322 09:21:52.417662 14683 net.cpp:139] Memory required for data: 185111000
I0322 09:21:52.417665 14683 layer_factory.hpp:77] Creating layer pool2
I0322 09:21:52.417670 14683 net.cpp:86] Creating Layer pool2
I0322 09:21:52.417682 14683 net.cpp:408] pool2 <- conv2
I0322 09:21:52.417685 14683 net.cpp:382] pool2 -> pool2
I0322 09:21:52.417716 14683 net.cpp:124] Setting up pool2
I0322 09:21:52.417721 14683 net.cpp:131] Top shape: 50 256 9 14 (1612800)
I0322 09:21:52.417722 14683 net.cpp:139] Memory required for data: 191562200
I0322 09:21:52.417724 14683 layer_factory.hpp:77] Creating layer norm2
I0322 09:21:52.417728 14683 net.cpp:86] Creating Layer norm2
I0322 09:21:52.417731 14683 net.cpp:408] norm2 <- pool2
I0322 09:21:52.417733 14683 net.cpp:382] norm2 -> norm2
I0322 09:21:52.418010 14683 net.cpp:124] Setting up norm2
I0322 09:21:52.418018 14683 net.cpp:131] Top shape: 50 256 9 14 (1612800)
I0322 09:21:52.418020 14683 net.cpp:139] Memory required for data: 198013400
I0322 09:21:52.418022 14683 layer_factory.hpp:77] Creating layer conv3
I0322 09:21:52.418030 14683 net.cpp:86] Creating Layer conv3
I0322 09:21:52.418031 14683 net.cpp:408] conv3 <- norm2
I0322 09:21:52.418035 14683 net.cpp:382] conv3 -> conv3
I0322 09:21:52.425747 14683 net.cpp:124] Setting up conv3
I0322 09:21:52.425760 14683 net.cpp:131] Top shape: 50 384 9 14 (2419200)
I0322 09:21:52.425763 14683 net.cpp:139] Memory required for data: 207690200
I0322 09:21:52.425771 14683 layer_factory.hpp:77] Creating layer relu3
I0322 09:21:52.425776 14683 net.cpp:86] Creating Layer relu3
I0322 09:21:52.425779 14683 net.cpp:408] relu3 <- conv3
I0322 09:21:52.425783 14683 net.cpp:369] relu3 -> conv3 (in-place)
I0322 09:21:52.426039 14683 net.cpp:124] Setting up relu3
I0322 09:21:52.426048 14683 net.cpp:131] Top shape: 50 384 9 14 (2419200)
I0322 09:21:52.426049 14683 net.cpp:139] Memory required for data: 217367000
I0322 09:21:52.426053 14683 layer_factory.hpp:77] Creating layer conv4
I0322 09:21:52.426059 14683 net.cpp:86] Creating Layer conv4
I0322 09:21:52.426061 14683 net.cpp:408] conv4 <- conv3
I0322 09:21:52.426065 14683 net.cpp:382] conv4 -> conv4
I0322 09:21:52.432917 14683 net.cpp:124] Setting up conv4
I0322 09:21:52.432930 14683 net.cpp:131] Top shape: 50 384 9 14 (2419200)
I0322 09:21:52.432932 14683 net.cpp:139] Memory required for data: 227043800
I0322 09:21:52.432937 14683 layer_factory.hpp:77] Creating layer relu4
I0322 09:21:52.432942 14683 net.cpp:86] Creating Layer relu4
I0322 09:21:52.432945 14683 net.cpp:408] relu4 <- conv4
I0322 09:21:52.432950 14683 net.cpp:369] relu4 -> conv4 (in-place)
I0322 09:21:52.433066 14683 net.cpp:124] Setting up relu4
I0322 09:21:52.433073 14683 net.cpp:131] Top shape: 50 384 9 14 (2419200)
I0322 09:21:52.433074 14683 net.cpp:139] Memory required for data: 236720600
I0322 09:21:52.433076 14683 layer_factory.hpp:77] Creating layer conv5
I0322 09:21:52.433082 14683 net.cpp:86] Creating Layer conv5
I0322 09:21:52.433085 14683 net.cpp:408] conv5 <- conv4
I0322 09:21:52.433089 14683 net.cpp:382] conv5 -> conv5
I0322 09:21:52.438062 14683 net.cpp:124] Setting up conv5
I0322 09:21:52.438073 14683 net.cpp:131] Top shape: 50 256 9 14 (1612800)
I0322 09:21:52.438076 14683 net.cpp:139] Memory required for data: 243171800
I0322 09:21:52.438083 14683 layer_factory.hpp:77] Creating layer relu5
I0322 09:21:52.438087 14683 net.cpp:86] Creating Layer relu5
I0322 09:21:52.438091 14683 net.cpp:408] relu5 <- conv5
I0322 09:21:52.438099 14683 net.cpp:369] relu5 -> conv5 (in-place)
I0322 09:21:52.438218 14683 net.cpp:124] Setting up relu5
I0322 09:21:52.438225 14683 net.cpp:131] Top shape: 50 256 9 14 (1612800)
I0322 09:21:52.438226 14683 net.cpp:139] Memory required for data: 249623000
I0322 09:21:52.438228 14683 layer_factory.hpp:77] Creating layer pool5
I0322 09:21:52.438235 14683 net.cpp:86] Creating Layer pool5
I0322 09:21:52.438237 14683 net.cpp:408] pool5 <- conv5
I0322 09:21:52.438241 14683 net.cpp:382] pool5 -> pool5
I0322 09:21:52.438271 14683 net.cpp:124] Setting up pool5
I0322 09:21:52.438275 14683 net.cpp:131] Top shape: 50 256 4 7 (358400)
I0322 09:21:52.438277 14683 net.cpp:139] Memory required for data: 251056600
I0322 09:21:52.438280 14683 layer_factory.hpp:77] Creating layer fc6_msc
I0322 09:21:52.438285 14683 net.cpp:86] Creating Layer fc6_msc
I0322 09:21:52.438287 14683 net.cpp:408] fc6_msc <- pool5
I0322 09:21:52.438290 14683 net.cpp:382] fc6_msc -> fc6_msc
I0322 09:21:52.667500 14683 net.cpp:124] Setting up fc6_msc
I0322 09:21:52.667526 14683 net.cpp:131] Top shape: 50 4096 (204800)
I0322 09:21:52.667529 14683 net.cpp:139] Memory required for data: 251875800
I0322 09:21:52.667536 14683 layer_factory.hpp:77] Creating layer relu6
I0322 09:21:52.667543 14683 net.cpp:86] Creating Layer relu6
I0322 09:21:52.667546 14683 net.cpp:408] relu6 <- fc6_msc
I0322 09:21:52.667551 14683 net.cpp:369] relu6 -> fc6_msc (in-place)
I0322 09:21:52.667937 14683 net.cpp:124] Setting up relu6
I0322 09:21:52.667946 14683 net.cpp:131] Top shape: 50 4096 (204800)
I0322 09:21:52.667948 14683 net.cpp:139] Memory required for data: 252695000
I0322 09:21:52.667950 14683 layer_factory.hpp:77] Creating layer drop6
I0322 09:21:52.667955 14683 net.cpp:86] Creating Layer drop6
I0322 09:21:52.667958 14683 net.cpp:408] drop6 <- fc6_msc
I0322 09:21:52.667961 14683 net.cpp:369] drop6 -> fc6_msc (in-place)
I0322 09:21:52.667984 14683 net.cpp:124] Setting up drop6
I0322 09:21:52.667987 14683 net.cpp:131] Top shape: 50 4096 (204800)
I0322 09:21:52.667989 14683 net.cpp:139] Memory required for data: 253514200
I0322 09:21:52.667991 14683 layer_factory.hpp:77] Creating layer fc7_msc
I0322 09:21:52.667997 14683 net.cpp:86] Creating Layer fc7_msc
I0322 09:21:52.667999 14683 net.cpp:408] fc7_msc <- fc6_msc
I0322 09:21:52.668004 14683 net.cpp:382] fc7_msc -> fc7_msc
I0322 09:21:52.797564 14683 net.cpp:124] Setting up fc7_msc
I0322 09:21:52.797590 14683 net.cpp:131] Top shape: 50 4096 (204800)
I0322 09:21:52.797593 14683 net.cpp:139] Memory required for data: 254333400
I0322 09:21:52.797600 14683 layer_factory.hpp:77] Creating layer relu7
I0322 09:21:52.797607 14683 net.cpp:86] Creating Layer relu7
I0322 09:21:52.797610 14683 net.cpp:408] relu7 <- fc7_msc
I0322 09:21:52.797616 14683 net.cpp:369] relu7 -> fc7_msc (in-place)
I0322 09:21:52.797780 14683 net.cpp:124] Setting up relu7
I0322 09:21:52.797785 14683 net.cpp:131] Top shape: 50 4096 (204800)
I0322 09:21:52.797787 14683 net.cpp:139] Memory required for data: 255152600
I0322 09:21:52.797790 14683 layer_factory.hpp:77] Creating layer drop7
I0322 09:21:52.797794 14683 net.cpp:86] Creating Layer drop7
I0322 09:21:52.797796 14683 net.cpp:408] drop7 <- fc7_msc
I0322 09:21:52.797801 14683 net.cpp:369] drop7 -> fc7_msc (in-place)
I0322 09:21:52.797821 14683 net.cpp:124] Setting up drop7
I0322 09:21:52.797826 14683 net.cpp:131] Top shape: 50 4096 (204800)
I0322 09:21:52.797827 14683 net.cpp:139] Memory required for data: 255971800
I0322 09:21:52.797829 14683 layer_factory.hpp:77] Creating layer fc8_msc
I0322 09:21:52.797834 14683 net.cpp:86] Creating Layer fc8_msc
I0322 09:21:52.797837 14683 net.cpp:408] fc8_msc <- fc7_msc
I0322 09:21:52.797840 14683 net.cpp:382] fc8_msc -> fc8_msc
I0322 09:21:52.797976 14683 net.cpp:124] Setting up fc8_msc
I0322 09:21:52.797979 14683 net.cpp:131] Top shape: 50 2 (100)
I0322 09:21:52.797981 14683 net.cpp:139] Memory required for data: 255972200
I0322 09:21:52.797986 14683 layer_factory.hpp:77] Creating layer fc8_msc_fc8_msc_0_split
I0322 09:21:52.797998 14683 net.cpp:86] Creating Layer fc8_msc_fc8_msc_0_split
I0322 09:21:52.798012 14683 net.cpp:408] fc8_msc_fc8_msc_0_split <- fc8_msc
I0322 09:21:52.798018 14683 net.cpp:382] fc8_msc_fc8_msc_0_split -> fc8_msc_fc8_msc_0_split_0
I0322 09:21:52.798025 14683 net.cpp:382] fc8_msc_fc8_msc_0_split -> fc8_msc_fc8_msc_0_split_1
I0322 09:21:52.798058 14683 net.cpp:124] Setting up fc8_msc_fc8_msc_0_split
I0322 09:21:52.798063 14683 net.cpp:131] Top shape: 50 2 (100)
I0322 09:21:52.798064 14683 net.cpp:131] Top shape: 50 2 (100)
I0322 09:21:52.798066 14683 net.cpp:139] Memory required for data: 255973000
I0322 09:21:52.798069 14683 layer_factory.hpp:77] Creating layer accuracy
I0322 09:21:52.798074 14683 net.cpp:86] Creating Layer accuracy
I0322 09:21:52.798076 14683 net.cpp:408] accuracy <- fc8_msc_fc8_msc_0_split_0
I0322 09:21:52.798079 14683 net.cpp:408] accuracy <- label_msc_data_msc_1_split_0
I0322 09:21:52.798082 14683 net.cpp:382] accuracy -> accuracy
…
