…
I0324 20:37:45.079797 31042 net.cpp:296] The NetState phase (0) differed from the phase (1) specified by a rule in layer accuracy
I0324 20:37:45.080255 31042 net.cpp:53] Initializing net from parameters: 
name: "MCaffeNet"
state {
  phase: TRAIN
  level: 0
  stage: ""
}
layer {
  name: "data_msc"
  type: "ImageData"
  top: "data_msc"
  top: "label_msc"
  include {
    phase: TRAIN
  }
  transform_param {
    mean_value: 296
    mean_value: 103
    mean_value: 108
  }
  image_data_param {
    source: "/media/p307k07/ssd/opt/msc/data/train/list_caffe.txt"
    batch_size: 50
    new_height: 159
    new_width: 240
  }
}
layer {
  name: "conv1"
  type: "Convolution"
  bottom: "data_msc"
  top: "conv1"
  param {
    lr_mult: 0.01
    decay_mult: 0.01
  }
  param {
    lr_mult: 0.02
    decay_mult: 0
  }
  convolution_param {
    num_output: 96
    kernel_size: 11
    stride: 4
    weight_filler {
      type: "gaussian"
      std: 0.01
    }
    bias_filler {
      type: "constant"
      value: 0
    }
  }
}
layer {
  name: "relu1"
  type: "ReLU"
  bottom: "conv1"
  top: "conv1"
}
layer {
  name: "pool1"
  type: "Pooling"
  bottom: "conv1"
  top: "pool1"
  pooling_param {
    pool: MAX
    kernel_size: 3
    stride: 2
  }
}
layer {
  name: "norm1"
  type: "LRN"
  bottom: "pool1"
  top: "norm1"
  lrn_param {
    local_size: 5
    alpha: 0.0001
    beta: 0.75
  }
}
layer {
  name: "conv2"
  type: "Convolution"
  bottom: "norm1"
  top: "conv2"
  param {
    lr_mult: 0.01
    decay_mult: 0.01
  }
  param {
    lr_mult: 0.02
    decay_mult: 0
  }
  convolution_param {
    num_output: 256
    pad: 2
    kernel_size: 5
    group: 2
    weight_filler {
      type: "gaussian"
      std: 0.01
    }
    bias_filler {
      type: "constant"
      value: 1
    }
  }
}
layer {
  name: "relu2"
  type: "ReLU"
  bottom: "conv2"
  top: "conv2"
}
layer {
  name: "pool2"
  type: "Pooling"
  bottom: "conv2"
  top: "pool2"
  pooling_param {
    pool: MAX
    kernel_size: 3
    stride: 2
  }
}
layer {
  name: "norm2"
  type: "LRN"
  bottom: "pool2"
  top: "norm2"
  lrn_param {
    local_size: 5
    alpha: 0.0001
    beta: 0.75
  }
}
layer {
  name: "conv3"
  type: "Convolution"
  bottom: "norm2"
  top: "conv3"
  param {
    lr_mult: 0.01
    decay_mult: 0.01
  }
  param {
    lr_mult: 0.02
    decay_mult: 0
  }
  convolution_param {
    num_output: 384
    pad: 1
    kernel_size: 3
    weight_filler {
      type: "gaussian"
      std: 0.01
    }
    bias_filler {
      type: "constant"
      value: 0
    }
  }
}
layer {
  name: "relu3"
  type: "ReLU"
  bottom: "conv3"
  top: "conv3"
}
layer {
  name: "conv4"
  type: "Convolution"
  bottom: "conv3"
  top: "conv4"
  param {
    lr_mult: 0.01
    decay_mult: 0.01
  }
  param {
    lr_mult: 0.02
    decay_mult: 0
  }
  convolution_param {
    num_output: 384
    pad: 1
    kernel_size: 3
    group: 2
    weight_filler {
      type: "gaussian"
      std: 0.01
    }
    bias_filler {
      type: "constant"
      value: 1
    }
  }
}
layer {
  name: "relu4"
  type: "ReLU"
  bottom: "conv4"
  top: "conv4"
}
layer {
  name: "conv5"
  type: "Convolution"
  bottom: "conv4"
  top: "conv5"
  param {
    lr_mult: 0.01
    decay_mult: 0.01
  }
  param {
    lr_mult: 0.02
    decay_mult: 0
  }
  convolution_param {
    num_output: 256
    pad: 1
    kernel_size: 3
    group: 2
    weight_filler {
      type: "gaussian"
      std: 0.01
    }
    bias_filler {
      type: "constant"
      value: 1
    }
  }
}
layer {
  name: "relu5"
  type: "ReLU"
  bottom: "conv5"
  top: "conv5"
}
layer {
  name: "pool5"
  type: "Pooling"
  bottom: "conv5"
  top: "pool5"
  pooling_param {
    pool: MAX
    kernel_size: 3
    stride: 2
  }
}
layer {
  name: "fc6_msc"
  type: "InnerProduct"
  bottom: "pool5"
  top: "fc6_msc"
  param {
    lr_mult: 1
    decay_mult: 1
  }
  param {
    lr_mult: 2
    decay_mult: 0
  }
  inner_product_param {
    num_output: 4096
    weight_filler {
      type: "gaussian"
      std: 0.005
    }
    bias_filler {
      type: "constant"
      value: 1
    }
  }
}
layer {
  name: "relu6"
  type: "ReLU"
  bottom: "fc6_msc"
  top: "fc6_msc"
}
layer {
  name: "drop6"
  type: "Dropout"
  bottom: "fc6_msc"
  top: "fc6_msc"
  dropout_param {
    dropout_ratio: 0.5
  }
}
layer {
  name: "fc7_msc"
  type: "InnerProduct"
  bottom: "fc6_msc"
  top: "fc7_msc"
  param {
    lr_mult: 1
    decay_mult: 1
  }
  param {
    lr_mult: 2
    decay_mult: 0
  }
  inner_product_param {
    num_output: 4096
    weight_filler {
      type: "gaussian"
      std: 0.005
    }
    bias_filler {
      type: "constant"
      value: 1
    }
  }
}
layer {
  name: "relu7"
  type: "ReLU"
  bottom: "fc7_msc"
  top: "fc7_msc"
}
layer {
  name: "drop7"
  type: "Dropout"
  bottom: "fc7_msc"
  top: "fc7_msc"
  dropout_param {
    dropout_ratio: 0.5
  }
}
layer {
  name: "fc8_msc"
  type: "InnerProduct"
  bottom: "fc7_msc"
  top: "fc8_msc"
  param {
    lr_mult: 1
    decay_mult: 1
  }
  param {
    lr_mult: 2
    decay_mult: 0
  }
  inner_product_param {
    num_output: 2
    weight_filler {
      type: "gaussian"
      std: 0.01
    }
    bias_filler {
      type: "constant"
      value: 0
    }
  }
}
layer {
  name: "loss_msc"
  type: "SoftmaxWithLoss"
  bottom: "fc8_msc"
  bottom: "label_msc"
  top: "loss"
}
I0324 20:37:45.080498 31042 layer_factory.hpp:77] Creating layer data_msc
I0324 20:37:45.080564 31042 net.cpp:86] Creating Layer data_msc
I0324 20:37:45.080581 31042 net.cpp:382] data_msc -> data_msc
I0324 20:37:45.080627 31042 net.cpp:382] data_msc -> label_msc
I0324 20:37:45.080665 31042 image_data_layer.cpp:38] Opening file /media/p307k07/ssd/opt/msc/data/train/list_caffe.txt
I0324 20:37:45.351778 31042 image_data_layer.cpp:63] A total of 513382 images.
I0324 20:37:45.354092 31042 image_data_layer.cpp:90] output data size: 50,3,159,240
I0324 20:37:45.384006 31042 net.cpp:124] Setting up data_msc
I0324 20:37:45.384030 31042 net.cpp:131] Top shape: 50 3 159 240 (5724000)
I0324 20:37:45.384034 31042 net.cpp:131] Top shape: 50 (50)
I0324 20:37:45.384037 31042 net.cpp:139] Memory required for data: 22896200
I0324 20:37:45.384042 31042 layer_factory.hpp:77] Creating layer conv1
I0324 20:37:45.384058 31042 net.cpp:86] Creating Layer conv1
I0324 20:37:45.384063 31042 net.cpp:408] conv1 <- data_msc
I0324 20:37:45.384073 31042 net.cpp:382] conv1 -> conv1
I0324 20:37:47.371037 31042 net.cpp:124] Setting up conv1
I0324 20:37:47.371064 31042 net.cpp:131] Top shape: 50 96 38 58 (10579200)
I0324 20:37:47.371068 31042 net.cpp:139] Memory required for data: 65213000
I0324 20:37:47.371088 31042 layer_factory.hpp:77] Creating layer relu1
I0324 20:37:47.371096 31042 net.cpp:86] Creating Layer relu1
I0324 20:37:47.371099 31042 net.cpp:408] relu1 <- conv1
I0324 20:37:47.371104 31042 net.cpp:369] relu1 -> conv1 (in-place)
I0324 20:37:47.371366 31042 net.cpp:124] Setting up relu1
I0324 20:37:47.371374 31042 net.cpp:131] Top shape: 50 96 38 58 (10579200)
I0324 20:37:47.371376 31042 net.cpp:139] Memory required for data: 107529800
I0324 20:37:47.371379 31042 layer_factory.hpp:77] Creating layer pool1
I0324 20:37:47.371384 31042 net.cpp:86] Creating Layer pool1
I0324 20:37:47.371387 31042 net.cpp:408] pool1 <- conv1
I0324 20:37:47.371390 31042 net.cpp:382] pool1 -> pool1
I0324 20:37:47.371423 31042 net.cpp:124] Setting up pool1
I0324 20:37:47.371426 31042 net.cpp:131] Top shape: 50 96 19 29 (2644800)
I0324 20:37:47.371433 31042 net.cpp:139] Memory required for data: 118109000
I0324 20:37:47.371448 31042 layer_factory.hpp:77] Creating layer norm1
I0324 20:37:47.371455 31042 net.cpp:86] Creating Layer norm1
I0324 20:37:47.371457 31042 net.cpp:408] norm1 <- pool1
I0324 20:37:47.371461 31042 net.cpp:382] norm1 -> norm1
I0324 20:37:47.371587 31042 net.cpp:124] Setting up norm1
I0324 20:37:47.371592 31042 net.cpp:131] Top shape: 50 96 19 29 (2644800)
I0324 20:37:47.371594 31042 net.cpp:139] Memory required for data: 128688200
I0324 20:37:47.371597 31042 layer_factory.hpp:77] Creating layer conv2
I0324 20:37:47.371604 31042 net.cpp:86] Creating Layer conv2
I0324 20:37:47.371608 31042 net.cpp:408] conv2 <- norm1
I0324 20:37:47.371610 31042 net.cpp:382] conv2 -> conv2
I0324 20:37:47.375658 31042 net.cpp:124] Setting up conv2
I0324 20:37:47.375668 31042 net.cpp:131] Top shape: 50 256 19 29 (7052800)
I0324 20:37:47.375670 31042 net.cpp:139] Memory required for data: 156899400
I0324 20:37:47.375676 31042 layer_factory.hpp:77] Creating layer relu2
I0324 20:37:47.375680 31042 net.cpp:86] Creating Layer relu2
I0324 20:37:47.375684 31042 net.cpp:408] relu2 <- conv2
I0324 20:37:47.375686 31042 net.cpp:369] relu2 -> conv2 (in-place)
I0324 20:37:47.375797 31042 net.cpp:124] Setting up relu2
I0324 20:37:47.375802 31042 net.cpp:131] Top shape: 50 256 19 29 (7052800)
I0324 20:37:47.375804 31042 net.cpp:139] Memory required for data: 185110600
I0324 20:37:47.375808 31042 layer_factory.hpp:77] Creating layer pool2
I0324 20:37:47.375810 31042 net.cpp:86] Creating Layer pool2
I0324 20:37:47.375813 31042 net.cpp:408] pool2 <- conv2
I0324 20:37:47.375816 31042 net.cpp:382] pool2 -> pool2
I0324 20:37:47.375840 31042 net.cpp:124] Setting up pool2
I0324 20:37:47.375844 31042 net.cpp:131] Top shape: 50 256 9 14 (1612800)
I0324 20:37:47.375846 31042 net.cpp:139] Memory required for data: 191561800
I0324 20:37:47.375849 31042 layer_factory.hpp:77] Creating layer norm2
I0324 20:37:47.375854 31042 net.cpp:86] Creating Layer norm2
I0324 20:37:47.375855 31042 net.cpp:408] norm2 <- pool2
I0324 20:37:47.375859 31042 net.cpp:382] norm2 -> norm2
I0324 20:37:47.376128 31042 net.cpp:124] Setting up norm2
I0324 20:37:47.376137 31042 net.cpp:131] Top shape: 50 256 9 14 (1612800)
I0324 20:37:47.376138 31042 net.cpp:139] Memory required for data: 198013000
I0324 20:37:47.376142 31042 layer_factory.hpp:77] Creating layer conv3
I0324 20:37:47.376147 31042 net.cpp:86] Creating Layer conv3
I0324 20:37:47.376150 31042 net.cpp:408] conv3 <- norm2
I0324 20:37:47.376154 31042 net.cpp:382] conv3 -> conv3
I0324 20:37:47.383868 31042 net.cpp:124] Setting up conv3
I0324 20:37:47.383880 31042 net.cpp:131] Top shape: 50 384 9 14 (2419200)
I0324 20:37:47.383883 31042 net.cpp:139] Memory required for data: 207689800
I0324 20:37:47.383890 31042 layer_factory.hpp:77] Creating layer relu3
I0324 20:37:47.383894 31042 net.cpp:86] Creating Layer relu3
I0324 20:37:47.383898 31042 net.cpp:408] relu3 <- conv3
I0324 20:37:47.383903 31042 net.cpp:369] relu3 -> conv3 (in-place)
I0324 20:37:47.384026 31042 net.cpp:124] Setting up relu3
I0324 20:37:47.384032 31042 net.cpp:131] Top shape: 50 384 9 14 (2419200)
I0324 20:37:47.384034 31042 net.cpp:139] Memory required for data: 217366600
I0324 20:37:47.384037 31042 layer_factory.hpp:77] Creating layer conv4
I0324 20:37:47.384043 31042 net.cpp:86] Creating Layer conv4
I0324 20:37:47.384045 31042 net.cpp:408] conv4 <- conv3
I0324 20:37:47.384050 31042 net.cpp:382] conv4 -> conv4
I0324 20:37:47.390704 31042 net.cpp:124] Setting up conv4
I0324 20:37:47.390718 31042 net.cpp:131] Top shape: 50 384 9 14 (2419200)
I0324 20:37:47.390722 31042 net.cpp:139] Memory required for data: 227043400
I0324 20:37:47.390727 31042 layer_factory.hpp:77] Creating layer relu4
I0324 20:37:47.390732 31042 net.cpp:86] Creating Layer relu4
I0324 20:37:47.390734 31042 net.cpp:408] relu4 <- conv4
I0324 20:37:47.390738 31042 net.cpp:369] relu4 -> conv4 (in-place)
I0324 20:37:47.390852 31042 net.cpp:124] Setting up relu4
I0324 20:37:47.390858 31042 net.cpp:131] Top shape: 50 384 9 14 (2419200)
I0324 20:37:47.390866 31042 net.cpp:139] Memory required for data: 236720200
I0324 20:37:47.390877 31042 layer_factory.hpp:77] Creating layer conv5
I0324 20:37:47.390885 31042 net.cpp:86] Creating Layer conv5
I0324 20:37:47.390887 31042 net.cpp:408] conv5 <- conv4
I0324 20:37:47.390892 31042 net.cpp:382] conv5 -> conv5
I0324 20:37:47.395979 31042 net.cpp:124] Setting up conv5
I0324 20:37:47.395989 31042 net.cpp:131] Top shape: 50 256 9 14 (1612800)
I0324 20:37:47.395992 31042 net.cpp:139] Memory required for data: 243171400
I0324 20:37:47.396000 31042 layer_factory.hpp:77] Creating layer relu5
I0324 20:37:47.396004 31042 net.cpp:86] Creating Layer relu5
I0324 20:37:47.396008 31042 net.cpp:408] relu5 <- conv5
I0324 20:37:47.396010 31042 net.cpp:369] relu5 -> conv5 (in-place)
I0324 20:37:47.396122 31042 net.cpp:124] Setting up relu5
I0324 20:37:47.396129 31042 net.cpp:131] Top shape: 50 256 9 14 (1612800)
I0324 20:37:47.396131 31042 net.cpp:139] Memory required for data: 249622600
I0324 20:37:47.396133 31042 layer_factory.hpp:77] Creating layer pool5
I0324 20:37:47.396138 31042 net.cpp:86] Creating Layer pool5
I0324 20:37:47.396140 31042 net.cpp:408] pool5 <- conv5
I0324 20:37:47.396144 31042 net.cpp:382] pool5 -> pool5
I0324 20:37:47.396173 31042 net.cpp:124] Setting up pool5
I0324 20:37:47.396176 31042 net.cpp:131] Top shape: 50 256 4 7 (358400)
I0324 20:37:47.396178 31042 net.cpp:139] Memory required for data: 251056200
I0324 20:37:47.396180 31042 layer_factory.hpp:77] Creating layer fc6_msc
I0324 20:37:47.396188 31042 net.cpp:86] Creating Layer fc6_msc
I0324 20:37:47.396190 31042 net.cpp:408] fc6_msc <- pool5
I0324 20:37:47.396194 31042 net.cpp:382] fc6_msc -> fc6_msc
I0324 20:37:47.624090 31042 net.cpp:124] Setting up fc6_msc
I0324 20:37:47.624116 31042 net.cpp:131] Top shape: 50 4096 (204800)
I0324 20:37:47.624119 31042 net.cpp:139] Memory required for data: 251875400
I0324 20:37:47.624126 31042 layer_factory.hpp:77] Creating layer relu6
I0324 20:37:47.624135 31042 net.cpp:86] Creating Layer relu6
I0324 20:37:47.624138 31042 net.cpp:408] relu6 <- fc6_msc
I0324 20:37:47.624143 31042 net.cpp:369] relu6 -> fc6_msc (in-place)
I0324 20:37:47.624516 31042 net.cpp:124] Setting up relu6
I0324 20:37:47.624523 31042 net.cpp:131] Top shape: 50 4096 (204800)
I0324 20:37:47.624526 31042 net.cpp:139] Memory required for data: 252694600
I0324 20:37:47.624528 31042 layer_factory.hpp:77] Creating layer drop6
I0324 20:37:47.624534 31042 net.cpp:86] Creating Layer drop6
I0324 20:37:47.624536 31042 net.cpp:408] drop6 <- fc6_msc
I0324 20:37:47.624541 31042 net.cpp:369] drop6 -> fc6_msc (in-place)
I0324 20:37:47.624562 31042 net.cpp:124] Setting up drop6
I0324 20:37:47.624567 31042 net.cpp:131] Top shape: 50 4096 (204800)
I0324 20:37:47.624569 31042 net.cpp:139] Memory required for data: 253513800
I0324 20:37:47.624572 31042 layer_factory.hpp:77] Creating layer fc7_msc
I0324 20:37:47.624577 31042 net.cpp:86] Creating Layer fc7_msc
I0324 20:37:47.624583 31042 net.cpp:408] fc7_msc <- fc6_msc
I0324 20:37:47.624586 31042 net.cpp:382] fc7_msc -> fc7_msc
I0324 20:37:47.754930 31042 net.cpp:124] Setting up fc7_msc
I0324 20:37:47.754954 31042 net.cpp:131] Top shape: 50 4096 (204800)
I0324 20:37:47.754957 31042 net.cpp:139] Memory required for data: 254333000
I0324 20:37:47.754964 31042 layer_factory.hpp:77] Creating layer relu7
I0324 20:37:47.754972 31042 net.cpp:86] Creating Layer relu7
I0324 20:37:47.754976 31042 net.cpp:408] relu7 <- fc7_msc
I0324 20:37:47.754981 31042 net.cpp:369] relu7 -> fc7_msc (in-place)
I0324 20:37:47.755342 31042 net.cpp:124] Setting up relu7
I0324 20:37:47.755350 31042 net.cpp:131] Top shape: 50 4096 (204800)
I0324 20:37:47.755352 31042 net.cpp:139] Memory required for data: 255152200
I0324 20:37:47.755355 31042 layer_factory.hpp:77] Creating layer drop7
I0324 20:37:47.755360 31042 net.cpp:86] Creating Layer drop7
I0324 20:37:47.755362 31042 net.cpp:408] drop7 <- fc7_msc
I0324 20:37:47.755367 31042 net.cpp:369] drop7 -> fc7_msc (in-place)
I0324 20:37:47.755388 31042 net.cpp:124] Setting up drop7
I0324 20:37:47.755398 31042 net.cpp:131] Top shape: 50 4096 (204800)
I0324 20:37:47.755409 31042 net.cpp:139] Memory required for data: 255971400
I0324 20:37:47.755412 31042 layer_factory.hpp:77] Creating layer fc8_msc
I0324 20:37:47.755419 31042 net.cpp:86] Creating Layer fc8_msc
I0324 20:37:47.755421 31042 net.cpp:408] fc8_msc <- fc7_msc
I0324 20:37:47.755426 31042 net.cpp:382] fc8_msc -> fc8_msc
I0324 20:37:47.755847 31042 net.cpp:124] Setting up fc8_msc
I0324 20:37:47.755854 31042 net.cpp:131] Top shape: 50 2 (100)
I0324 20:37:47.755856 31042 net.cpp:139] Memory required for data: 255971800
I0324 20:37:47.755861 31042 layer_factory.hpp:77] Creating layer loss_msc
I0324 20:37:47.755867 31042 net.cpp:86] Creating Layer loss_msc
I0324 20:37:47.755868 31042 net.cpp:408] loss_msc <- fc8_msc
I0324 20:37:47.755872 31042 net.cpp:408] loss_msc <- label_msc
I0324 20:37:47.755877 31042 net.cpp:382] loss_msc -> loss
…
I0324 20:37:47.756397 31042 net.cpp:296] The NetState phase (1) differed from the phase (0) specified by a rule in layer data_msc
I0324 20:37:47.756515 31042 net.cpp:53] Initializing net from parameters: 
name: "MCaffeNet"
state {
  phase: TEST
}
layer {
  name: "data_msc"
  type: "ImageData"
  top: "data_msc"
  top: "label_msc"
  include {
    phase: TEST
  }
  transform_param {
    mean_value: 296
    mean_value: 103
    mean_value: 108
  }
  image_data_param {
    source: "/media/p307k07/ssd/opt/msc/data/test/list_caffe.txt"
    batch_size: 50
    new_height: 159
    new_width: 240
  }
}
layer {
  name: "conv1"
  type: "Convolution"
  bottom: "data_msc"
  top: "conv1"
  param {
    lr_mult: 0.01
    decay_mult: 0.01
  }
  param {
    lr_mult: 0.02
    decay_mult: 0
  }
  convolution_param {
    num_output: 96
    kernel_size: 11
    stride: 4
    weight_filler {
      type: "gaussian"
      std: 0.01
    }
    bias_filler {
      type: "constant"
      value: 0
    }
  }
}
layer {
  name: "relu1"
  type: "ReLU"
  bottom: "conv1"
  top: "conv1"
}
layer {
  name: "pool1"
  type: "Pooling"
  bottom: "conv1"
  top: "pool1"
  pooling_param {
    pool: MAX
    kernel_size: 3
    stride: 2
  }
}
layer {
  name: "norm1"
  type: "LRN"
  bottom: "pool1"
  top: "norm1"
  lrn_param {
    local_size: 5
    alpha: 0.0001
    beta: 0.75
  }
}
layer {
  name: "conv2"
  type: "Convolution"
  bottom: "norm1"
  top: "conv2"
  param {
    lr_mult: 0.01
    decay_mult: 0.01
  }
  param {
    lr_mult: 0.02
    decay_mult: 0
  }
  convolution_param {
    num_output: 256
    pad: 2
    kernel_size: 5
    group: 2
    weight_filler {
      type: "gaussian"
      std: 0.01
    }
    bias_filler {
      type: "constant"
      value: 1
    }
  }
}
layer {
  name: "relu2"
  type: "ReLU"
  bottom: "conv2"
  top: "conv2"
}
layer {
  name: "pool2"
  type: "Pooling"
  bottom: "conv2"
  top: "pool2"
  pooling_param {
    pool: MAX
    kernel_size: 3
    stride: 2
  }
}
layer {
  name: "norm2"
  type: "LRN"
  bottom: "pool2"
  top: "norm2"
  lrn_param {
    local_size: 5
    alpha: 0.0001
    beta: 0.75
  }
}
layer {
  name: "conv3"
  type: "Convolution"
  bottom: "norm2"
  top: "conv3"
  param {
    lr_mult: 0.01
    decay_mult: 0.01
  }
  param {
    lr_mult: 0.02
    decay_mult: 0
  }
  convolution_param {
    num_output: 384
    pad: 1
    kernel_size: 3
    weight_filler {
      type: "gaussian"
      std: 0.01
    }
    bias_filler {
      type: "constant"
      value: 0
    }
  }
}
layer {
  name: "relu3"
  type: "ReLU"
  bottom: "conv3"
  top: "conv3"
}
layer {
  name: "conv4"
  type: "Convolution"
  bottom: "conv3"
  top: "conv4"
  param {
    lr_mult: 0.01
    decay_mult: 0.01
  }
  param {
    lr_mult: 0.02
    decay_mult: 0
  }
  convolution_param {
    num_output: 384
    pad: 1
    kernel_size: 3
    group: 2
    weight_filler {
      type: "gaussian"
      std: 0.01
    }
    bias_filler {
      type: "constant"
      value: 1
    }
  }
}
layer {
  name: "relu4"
  type: "ReLU"
  bottom: "conv4"
  top: "conv4"
}
layer {
  name: "conv5"
  type: "Convolution"
  bottom: "conv4"
  top: "conv5"
  param {
    lr_mult: 0.01
    decay_mult: 0.01
  }
  param {
    lr_mult: 0.02
    decay_mult: 0
  }
  convolution_param {
    num_output: 256
    pad: 1
    kernel_size: 3
    group: 2
    weight_filler {
      type: "gaussian"
      std: 0.01
    }
    bias_filler {
      type: "constant"
      value: 1
    }
  }
}
layer {
  name: "relu5"
  type: "ReLU"
  bottom: "conv5"
  top: "conv5"
}
layer {
  name: "pool5"
  type: "Pooling"
  bottom: "conv5"
  top: "pool5"
  pooling_param {
    pool: MAX
    kernel_size: 3
    stride: 2
  }
}
layer {
  name: "fc6_msc"
  type: "InnerProduct"
  bottom: "pool5"
  top: "fc6_msc"
  param {
    lr_mult: 1
    decay_mult: 1
  }
  param {
    lr_mult: 2
    decay_mult: 0
  }
  inner_product_param {
    num_output: 4096
    weight_filler {
      type: "gaussian"
      std: 0.005
    }
    bias_filler {
      type: "constant"
      value: 1
    }
  }
}
layer {
  name: "relu6"
  type: "ReLU"
  bottom: "fc6_msc"
  top: "fc6_msc"
}
layer {
  name: "drop6"
  type: "Dropout"
  bottom: "fc6_msc"
  top: "fc6_msc"
  dropout_param {
    dropout_ratio: 0.5
  }
}
layer {
  name: "fc7_msc"
  type: "InnerProduct"
  bottom: "fc6_msc"
  top: "fc7_msc"
  param {
    lr_mult: 1
    decay_mult: 1
  }
  param {
    lr_mult: 2
    decay_mult: 0
  }
  inner_product_param {
    num_output: 4096
    weight_filler {
      type: "gaussian"
      std: 0.005
    }
    bias_filler {
      type: "constant"
      value: 1
    }
  }
}
layer {
  name: "relu7"
  type: "ReLU"
  bottom: "fc7_msc"
  top: "fc7_msc"
}
layer {
  name: "drop7"
  type: "Dropout"
  bottom: "fc7_msc"
  top: "fc7_msc"
  dropout_param {
    dropout_ratio: 0.5
  }
}
layer {
  name: "fc8_msc"
  type: "InnerProduct"
  bottom: "fc7_msc"
  top: "fc8_msc"
  param {
    lr_mult: 1
    decay_mult: 1
  }
  param {
    lr_mult: 2
    decay_mult: 0
  }
  inner_product_param {
    num_output: 2
    weight_filler {
      type: "gaussian"
      std: 0.01
    }
    bias_filler {
      type: "constant"
      value: 0
    }
  }
}
layer {
  name: "accuracy"
  type: "Accuracy"
  bottom: "fc8_msc"
  bottom: "label_msc"
  top: "accuracy"
  include {
    phase: TEST
  }
}
layer {
  name: "loss_msc"
  type: "SoftmaxWithLoss"
  bottom: "fc8_msc"
  bottom: "label_msc"
  top: "loss"
}
I0324 20:37:47.756598 31042 layer_factory.hpp:77] Creating layer data_msc
I0324 20:37:47.756609 31042 net.cpp:86] Creating Layer data_msc
I0324 20:37:47.756613 31042 net.cpp:382] data_msc -> data_msc
I0324 20:37:47.756619 31042 net.cpp:382] data_msc -> label_msc
I0324 20:37:47.756625 31042 image_data_layer.cpp:38] Opening file /media/p307k07/ssd/opt/msc/data/test/list_caffe.txt
I0324 20:37:47.790413 31042 image_data_layer.cpp:63] A total of 85562 images.
I0324 20:37:47.791111 31042 image_data_layer.cpp:90] output data size: 50,3,159,240
I0324 20:37:47.818938 31042 net.cpp:124] Setting up data_msc
I0324 20:37:47.818965 31042 net.cpp:131] Top shape: 50 3 159 240 (5724000)
I0324 20:37:47.818970 31042 net.cpp:131] Top shape: 50 (50)
I0324 20:37:47.818972 31042 net.cpp:139] Memory required for data: 22896200
I0324 20:37:47.818979 31042 layer_factory.hpp:77] Creating layer label_msc_data_msc_1_split
I0324 20:37:47.818987 31042 net.cpp:86] Creating Layer label_msc_data_msc_1_split
I0324 20:37:47.818991 31042 net.cpp:408] label_msc_data_msc_1_split <- label_msc
I0324 20:37:47.818996 31042 net.cpp:382] label_msc_data_msc_1_split -> label_msc_data_msc_1_split_0
I0324 20:37:47.819005 31042 net.cpp:382] label_msc_data_msc_1_split -> label_msc_data_msc_1_split_1
I0324 20:37:47.819056 31042 net.cpp:124] Setting up label_msc_data_msc_1_split
I0324 20:37:47.819061 31042 net.cpp:131] Top shape: 50 (50)
I0324 20:37:47.819064 31042 net.cpp:131] Top shape: 50 (50)
I0324 20:37:47.819067 31042 net.cpp:139] Memory required for data: 22896600
I0324 20:37:47.819068 31042 layer_factory.hpp:77] Creating layer conv1
I0324 20:37:47.819078 31042 net.cpp:86] Creating Layer conv1
I0324 20:37:47.819080 31042 net.cpp:408] conv1 <- data_msc
I0324 20:37:47.819085 31042 net.cpp:382] conv1 -> conv1
I0324 20:37:47.820294 31042 net.cpp:124] Setting up conv1
I0324 20:37:47.820305 31042 net.cpp:131] Top shape: 50 96 38 58 (10579200)
I0324 20:37:47.820308 31042 net.cpp:139] Memory required for data: 65213400
I0324 20:37:47.820317 31042 layer_factory.hpp:77] Creating layer relu1
I0324 20:37:47.820322 31042 net.cpp:86] Creating Layer relu1
I0324 20:37:47.820324 31042 net.cpp:408] relu1 <- conv1
I0324 20:37:47.820328 31042 net.cpp:369] relu1 -> conv1 (in-place)
I0324 20:37:47.820439 31042 net.cpp:124] Setting up relu1
I0324 20:37:47.820446 31042 net.cpp:131] Top shape: 50 96 38 58 (10579200)
I0324 20:37:47.820447 31042 net.cpp:139] Memory required for data: 107530200
I0324 20:37:47.820451 31042 layer_factory.hpp:77] Creating layer pool1
I0324 20:37:47.820456 31042 net.cpp:86] Creating Layer pool1
I0324 20:37:47.820458 31042 net.cpp:408] pool1 <- conv1
I0324 20:37:47.820461 31042 net.cpp:382] pool1 -> pool1
I0324 20:37:47.820492 31042 net.cpp:124] Setting up pool1
I0324 20:37:47.820495 31042 net.cpp:131] Top shape: 50 96 19 29 (2644800)
I0324 20:37:47.820497 31042 net.cpp:139] Memory required for data: 118109400
I0324 20:37:47.820500 31042 layer_factory.hpp:77] Creating layer norm1
I0324 20:37:47.820504 31042 net.cpp:86] Creating Layer norm1
I0324 20:37:47.820508 31042 net.cpp:408] norm1 <- pool1
I0324 20:37:47.820510 31042 net.cpp:382] norm1 -> norm1
I0324 20:37:47.822639 31042 net.cpp:124] Setting up norm1
I0324 20:37:47.822649 31042 net.cpp:131] Top shape: 50 96 19 29 (2644800)
I0324 20:37:47.822652 31042 net.cpp:139] Memory required for data: 128688600
I0324 20:37:47.822655 31042 layer_factory.hpp:77] Creating layer conv2
I0324 20:37:47.822662 31042 net.cpp:86] Creating Layer conv2
I0324 20:37:47.822665 31042 net.cpp:408] conv2 <- norm1
I0324 20:37:47.822675 31042 net.cpp:382] conv2 -> conv2
I0324 20:37:47.826580 31042 net.cpp:124] Setting up conv2
I0324 20:37:47.826589 31042 net.cpp:131] Top shape: 50 256 19 29 (7052800)
I0324 20:37:47.826591 31042 net.cpp:139] Memory required for data: 156899800
I0324 20:37:47.826599 31042 layer_factory.hpp:77] Creating layer relu2
I0324 20:37:47.826603 31042 net.cpp:86] Creating Layer relu2
I0324 20:37:47.826606 31042 net.cpp:408] relu2 <- conv2
I0324 20:37:47.826609 31042 net.cpp:369] relu2 -> conv2 (in-place)
I0324 20:37:47.826720 31042 net.cpp:124] Setting up relu2
I0324 20:37:47.826726 31042 net.cpp:131] Top shape: 50 256 19 29 (7052800)
I0324 20:37:47.826728 31042 net.cpp:139] Memory required for data: 185111000
I0324 20:37:47.826731 31042 layer_factory.hpp:77] Creating layer pool2
I0324 20:37:47.826736 31042 net.cpp:86] Creating Layer pool2
I0324 20:37:47.826738 31042 net.cpp:408] pool2 <- conv2
I0324 20:37:47.826742 31042 net.cpp:382] pool2 -> pool2
I0324 20:37:47.826772 31042 net.cpp:124] Setting up pool2
I0324 20:37:47.826776 31042 net.cpp:131] Top shape: 50 256 9 14 (1612800)
I0324 20:37:47.826778 31042 net.cpp:139] Memory required for data: 191562200
I0324 20:37:47.826781 31042 layer_factory.hpp:77] Creating layer norm2
I0324 20:37:47.826786 31042 net.cpp:86] Creating Layer norm2
I0324 20:37:47.826787 31042 net.cpp:408] norm2 <- pool2
I0324 20:37:47.826791 31042 net.cpp:382] norm2 -> norm2
I0324 20:37:47.827066 31042 net.cpp:124] Setting up norm2
I0324 20:37:47.827074 31042 net.cpp:131] Top shape: 50 256 9 14 (1612800)
I0324 20:37:47.827076 31042 net.cpp:139] Memory required for data: 198013400
I0324 20:37:47.827078 31042 layer_factory.hpp:77] Creating layer conv3
I0324 20:37:47.827085 31042 net.cpp:86] Creating Layer conv3
I0324 20:37:47.827088 31042 net.cpp:408] conv3 <- norm2
I0324 20:37:47.827092 31042 net.cpp:382] conv3 -> conv3
I0324 20:37:47.834856 31042 net.cpp:124] Setting up conv3
I0324 20:37:47.834867 31042 net.cpp:131] Top shape: 50 384 9 14 (2419200)
I0324 20:37:47.834869 31042 net.cpp:139] Memory required for data: 207690200
I0324 20:37:47.834877 31042 layer_factory.hpp:77] Creating layer relu3
I0324 20:37:47.834882 31042 net.cpp:86] Creating Layer relu3
I0324 20:37:47.834885 31042 net.cpp:408] relu3 <- conv3
I0324 20:37:47.834889 31042 net.cpp:369] relu3 -> conv3 (in-place)
I0324 20:37:47.835150 31042 net.cpp:124] Setting up relu3
I0324 20:37:47.835157 31042 net.cpp:131] Top shape: 50 384 9 14 (2419200)
I0324 20:37:47.835160 31042 net.cpp:139] Memory required for data: 217367000
I0324 20:37:47.835162 31042 layer_factory.hpp:77] Creating layer conv4
I0324 20:37:47.835170 31042 net.cpp:86] Creating Layer conv4
I0324 20:37:47.835172 31042 net.cpp:408] conv4 <- conv3
I0324 20:37:47.835176 31042 net.cpp:382] conv4 -> conv4
I0324 20:37:47.842037 31042 net.cpp:124] Setting up conv4
I0324 20:37:47.842048 31042 net.cpp:131] Top shape: 50 384 9 14 (2419200)
I0324 20:37:47.842051 31042 net.cpp:139] Memory required for data: 227043800
I0324 20:37:47.842056 31042 layer_factory.hpp:77] Creating layer relu4
I0324 20:37:47.842061 31042 net.cpp:86] Creating Layer relu4
I0324 20:37:47.842063 31042 net.cpp:408] relu4 <- conv4
I0324 20:37:47.842067 31042 net.cpp:369] relu4 -> conv4 (in-place)
I0324 20:37:47.842186 31042 net.cpp:124] Setting up relu4
I0324 20:37:47.842192 31042 net.cpp:131] Top shape: 50 384 9 14 (2419200)
I0324 20:37:47.842195 31042 net.cpp:139] Memory required for data: 236720600
I0324 20:37:47.842197 31042 layer_factory.hpp:77] Creating layer conv5
I0324 20:37:47.842203 31042 net.cpp:86] Creating Layer conv5
I0324 20:37:47.842206 31042 net.cpp:408] conv5 <- conv4
I0324 20:37:47.842211 31042 net.cpp:382] conv5 -> conv5
I0324 20:37:47.847172 31042 net.cpp:124] Setting up conv5
I0324 20:37:47.847182 31042 net.cpp:131] Top shape: 50 256 9 14 (1612800)
I0324 20:37:47.847184 31042 net.cpp:139] Memory required for data: 243171800
I0324 20:37:47.847192 31042 layer_factory.hpp:77] Creating layer relu5
I0324 20:37:47.847196 31042 net.cpp:86] Creating Layer relu5
I0324 20:37:47.847205 31042 net.cpp:408] relu5 <- conv5
I0324 20:37:47.847216 31042 net.cpp:369] relu5 -> conv5 (in-place)
I0324 20:37:47.847328 31042 net.cpp:124] Setting up relu5
I0324 20:37:47.847334 31042 net.cpp:131] Top shape: 50 256 9 14 (1612800)
I0324 20:37:47.847337 31042 net.cpp:139] Memory required for data: 249623000
I0324 20:37:47.847339 31042 layer_factory.hpp:77] Creating layer pool5
I0324 20:37:47.847345 31042 net.cpp:86] Creating Layer pool5
I0324 20:37:47.847347 31042 net.cpp:408] pool5 <- conv5
I0324 20:37:47.847352 31042 net.cpp:382] pool5 -> pool5
I0324 20:37:47.847381 31042 net.cpp:124] Setting up pool5
I0324 20:37:47.847385 31042 net.cpp:131] Top shape: 50 256 4 7 (358400)
I0324 20:37:47.847388 31042 net.cpp:139] Memory required for data: 251056600
I0324 20:37:47.847389 31042 layer_factory.hpp:77] Creating layer fc6_msc
I0324 20:37:47.847394 31042 net.cpp:86] Creating Layer fc6_msc
I0324 20:37:47.847398 31042 net.cpp:408] fc6_msc <- pool5
I0324 20:37:47.847400 31042 net.cpp:382] fc6_msc -> fc6_msc
I0324 20:37:48.079010 31042 net.cpp:124] Setting up fc6_msc
I0324 20:37:48.079037 31042 net.cpp:131] Top shape: 50 4096 (204800)
I0324 20:37:48.079041 31042 net.cpp:139] Memory required for data: 251875800
I0324 20:37:48.079048 31042 layer_factory.hpp:77] Creating layer relu6
I0324 20:37:48.079056 31042 net.cpp:86] Creating Layer relu6
I0324 20:37:48.079059 31042 net.cpp:408] relu6 <- fc6_msc
I0324 20:37:48.079066 31042 net.cpp:369] relu6 -> fc6_msc (in-place)
I0324 20:37:48.079470 31042 net.cpp:124] Setting up relu6
I0324 20:37:48.079481 31042 net.cpp:131] Top shape: 50 4096 (204800)
I0324 20:37:48.079484 31042 net.cpp:139] Memory required for data: 252695000
I0324 20:37:48.079488 31042 layer_factory.hpp:77] Creating layer drop6
I0324 20:37:48.079493 31042 net.cpp:86] Creating Layer drop6
I0324 20:37:48.079495 31042 net.cpp:408] drop6 <- fc6_msc
I0324 20:37:48.079500 31042 net.cpp:369] drop6 -> fc6_msc (in-place)
I0324 20:37:48.079527 31042 net.cpp:124] Setting up drop6
I0324 20:37:48.079532 31042 net.cpp:131] Top shape: 50 4096 (204800)
I0324 20:37:48.079535 31042 net.cpp:139] Memory required for data: 253514200
I0324 20:37:48.079536 31042 layer_factory.hpp:77] Creating layer fc7_msc
I0324 20:37:48.079542 31042 net.cpp:86] Creating Layer fc7_msc
I0324 20:37:48.079545 31042 net.cpp:408] fc7_msc <- fc6_msc
I0324 20:37:48.079548 31042 net.cpp:382] fc7_msc -> fc7_msc
I0324 20:37:48.210065 31042 net.cpp:124] Setting up fc7_msc
I0324 20:37:48.210091 31042 net.cpp:131] Top shape: 50 4096 (204800)
I0324 20:37:48.210095 31042 net.cpp:139] Memory required for data: 254333400
I0324 20:37:48.210103 31042 layer_factory.hpp:77] Creating layer relu7
I0324 20:37:48.210110 31042 net.cpp:86] Creating Layer relu7
I0324 20:37:48.210114 31042 net.cpp:408] relu7 <- fc7_msc
I0324 20:37:48.210119 31042 net.cpp:369] relu7 -> fc7_msc (in-place)
I0324 20:37:48.210299 31042 net.cpp:124] Setting up relu7
I0324 20:37:48.210306 31042 net.cpp:131] Top shape: 50 4096 (204800)
I0324 20:37:48.210309 31042 net.cpp:139] Memory required for data: 255152600
I0324 20:37:48.210310 31042 layer_factory.hpp:77] Creating layer drop7
I0324 20:37:48.210315 31042 net.cpp:86] Creating Layer drop7
I0324 20:37:48.210319 31042 net.cpp:408] drop7 <- fc7_msc
I0324 20:37:48.210321 31042 net.cpp:369] drop7 -> fc7_msc (in-place)
I0324 20:37:48.210347 31042 net.cpp:124] Setting up drop7
I0324 20:37:48.210352 31042 net.cpp:131] Top shape: 50 4096 (204800)
I0324 20:37:48.210355 31042 net.cpp:139] Memory required for data: 255971800
I0324 20:37:48.210356 31042 layer_factory.hpp:77] Creating layer fc8_msc
I0324 20:37:48.210362 31042 net.cpp:86] Creating Layer fc8_msc
I0324 20:37:48.210364 31042 net.cpp:408] fc8_msc <- fc7_msc
I0324 20:37:48.210368 31042 net.cpp:382] fc8_msc -> fc8_msc
I0324 20:37:48.210510 31042 net.cpp:124] Setting up fc8_msc
I0324 20:37:48.210515 31042 net.cpp:131] Top shape: 50 2 (100)
I0324 20:37:48.210517 31042 net.cpp:139] Memory required for data: 255972200
I0324 20:37:48.210522 31042 layer_factory.hpp:77] Creating layer fc8_msc_fc8_msc_0_split
I0324 20:37:48.210535 31042 net.cpp:86] Creating Layer fc8_msc_fc8_msc_0_split
I0324 20:37:48.210548 31042 net.cpp:408] fc8_msc_fc8_msc_0_split <- fc8_msc
I0324 20:37:48.210553 31042 net.cpp:382] fc8_msc_fc8_msc_0_split -> fc8_msc_fc8_msc_0_split_0
I0324 20:37:48.210557 31042 net.cpp:382] fc8_msc_fc8_msc_0_split -> fc8_msc_fc8_msc_0_split_1
I0324 20:37:48.210587 31042 net.cpp:124] Setting up fc8_msc_fc8_msc_0_split
I0324 20:37:48.210590 31042 net.cpp:131] Top shape: 50 2 (100)
I0324 20:37:48.210592 31042 net.cpp:131] Top shape: 50 2 (100)
I0324 20:37:48.210594 31042 net.cpp:139] Memory required for data: 255973000
I0324 20:37:48.210597 31042 layer_factory.hpp:77] Creating layer accuracy
I0324 20:37:48.210602 31042 net.cpp:86] Creating Layer accuracy
I0324 20:37:48.210604 31042 net.cpp:408] accuracy <- fc8_msc_fc8_msc_0_split_0
I0324 20:37:48.210608 31042 net.cpp:408] accuracy <- label_msc_data_msc_1_split_0
I0324 20:37:48.210611 31042 net.cpp:382] accuracy -> accuracy
…
