…
I0328 01:33:04.158792   337 net.cpp:296] The NetState phase (0) differed from the phase (1) specified by a rule in layer accuracy
I0328 01:33:04.159268   337 net.cpp:53] Initializing net from parameters: 
name: "MCaffeNet"
state {
  phase: TRAIN
  level: 0
  stage: ""
}
layer {
  name: "data_msc"
  type: "ImageData"
  top: "data_msc"
  top: "label_msc"
  include {
    phase: TRAIN
  }
  transform_param {
    mean_value: 296
    mean_value: 103
    mean_value: 108
  }
  image_data_param {
    source: "/media/p307k07/ssd/opt/msc/data/train/list_caffe.txt"
    batch_size: 50
    new_height: 159
    new_width: 240
  }
}
layer {
  name: "conv1"
  type: "Convolution"
  bottom: "data_msc"
  top: "conv1"
  param {
    lr_mult: 0.1
    decay_mult: 0.1
  }
  param {
    lr_mult: 0.2
    decay_mult: 0
  }
  convolution_param {
    num_output: 96
    kernel_size: 11
    stride: 4
    weight_filler {
      type: "gaussian"
      std: 0.01
    }
    bias_filler {
      type: "constant"
      value: 0
    }
  }
}
layer {
  name: "relu1"
  type: "ReLU"
  bottom: "conv1"
  top: "conv1"
}
layer {
  name: "pool1"
  type: "Pooling"
  bottom: "conv1"
  top: "pool1"
  pooling_param {
    pool: MAX
    kernel_size: 3
    stride: 2
  }
}
layer {
  name: "norm1"
  type: "LRN"
  bottom: "pool1"
  top: "norm1"
  lrn_param {
    local_size: 5
    alpha: 0.0001
    beta: 0.75
  }
}
layer {
  name: "conv2"
  type: "Convolution"
  bottom: "norm1"
  top: "conv2"
  param {
    lr_mult: 0.1
    decay_mult: 0.1
  }
  param {
    lr_mult: 0.2
    decay_mult: 0
  }
  convolution_param {
    num_output: 256
    pad: 2
    kernel_size: 5
    group: 2
    weight_filler {
      type: "gaussian"
      std: 0.01
    }
    bias_filler {
      type: "constant"
      value: 1
    }
  }
}
layer {
  name: "relu2"
  type: "ReLU"
  bottom: "conv2"
  top: "conv2"
}
layer {
  name: "pool2"
  type: "Pooling"
  bottom: "conv2"
  top: "pool2"
  pooling_param {
    pool: MAX
    kernel_size: 3
    stride: 2
  }
}
layer {
  name: "norm2"
  type: "LRN"
  bottom: "pool2"
  top: "norm2"
  lrn_param {
    local_size: 5
    alpha: 0.0001
    beta: 0.75
  }
}
layer {
  name: "conv3"
  type: "Convolution"
  bottom: "norm2"
  top: "conv3"
  param {
    lr_mult: 0.1
    decay_mult: 0.1
  }
  param {
    lr_mult: 0.2
    decay_mult: 0
  }
  convolution_param {
    num_output: 384
    pad: 1
    kernel_size: 3
    weight_filler {
      type: "gaussian"
      std: 0.01
    }
    bias_filler {
      type: "constant"
      value: 0
    }
  }
}
layer {
  name: "relu3"
  type: "ReLU"
  bottom: "conv3"
  top: "conv3"
}
layer {
  name: "conv4"
  type: "Convolution"
  bottom: "conv3"
  top: "conv4"
  param {
    lr_mult: 0.1
    decay_mult: 0.1
  }
  param {
    lr_mult: 0.2
    decay_mult: 0
  }
  convolution_param {
    num_output: 384
    pad: 1
    kernel_size: 3
    group: 2
    weight_filler {
      type: "gaussian"
      std: 0.01
    }
    bias_filler {
      type: "constant"
      value: 1
    }
  }
}
layer {
  name: "relu4"
  type: "ReLU"
  bottom: "conv4"
  top: "conv4"
}
layer {
  name: "conv5"
  type: "Convolution"
  bottom: "conv4"
  top: "conv5"
  param {
    lr_mult: 0.1
    decay_mult: 0.1
  }
  param {
    lr_mult: 0.2
    decay_mult: 0
  }
  convolution_param {
    num_output: 256
    pad: 1
    kernel_size: 3
    group: 2
    weight_filler {
      type: "gaussian"
      std: 0.01
    }
    bias_filler {
      type: "constant"
      value: 1
    }
  }
}
layer {
  name: "relu5"
  type: "ReLU"
  bottom: "conv5"
  top: "conv5"
}
layer {
  name: "pool5"
  type: "Pooling"
  bottom: "conv5"
  top: "pool5"
  pooling_param {
    pool: MAX
    kernel_size: 3
    stride: 2
  }
}
layer {
  name: "fc6_msc"
  type: "InnerProduct"
  bottom: "pool5"
  top: "fc6_msc"
  param {
    lr_mult: 1
    decay_mult: 1
  }
  param {
    lr_mult: 2
    decay_mult: 0
  }
  inner_product_param {
    num_output: 4096
    weight_filler {
      type: "gaussian"
      std: 0.005
    }
    bias_filler {
      type: "constant"
      value: 1
    }
  }
}
layer {
  name: "relu6"
  type: "ReLU"
  bottom: "fc6_msc"
  top: "fc6_msc"
}
layer {
  name: "drop6"
  type: "Dropout"
  bottom: "fc6_msc"
  top: "fc6_msc"
  dropout_param {
    dropout_ratio: 0.7
  }
}
layer {
  name: "fc7_msc"
  type: "InnerProduct"
  bottom: "fc6_msc"
  top: "fc7_msc"
  param {
    lr_mult: 1
    decay_mult: 1
  }
  param {
    lr_mult: 2
    decay_mult: 0
  }
  inner_product_param {
    num_output: 4096
    weight_filler {
      type: "gaussian"
      std: 0.005
    }
    bias_filler {
      type: "constant"
      value: 1
    }
  }
}
layer {
  name: "relu7"
  type: "ReLU"
  bottom: "fc7_msc"
  top: "fc7_msc"
}
layer {
  name: "drop7"
  type: "Dropout"
  bottom: "fc7_msc"
  top: "fc7_msc"
  dropout_param {
    dropout_ratio: 0.7
  }
}
layer {
  name: "fc8_msc"
  type: "InnerProduct"
  bottom: "fc7_msc"
  top: "fc8_msc"
  param {
    lr_mult: 1
    decay_mult: 1
  }
  param {
    lr_mult: 2
    decay_mult: 0
  }
  inner_product_param {
    num_output: 2
    weight_filler {
      type: "gaussian"
      std: 0.01
    }
    bias_filler {
      type: "constant"
      value: 0
    }
  }
}
layer {
  name: "loss_msc"
  type: "SoftmaxWithLoss"
  bottom: "fc8_msc"
  bottom: "label_msc"
  top: "loss"
}
I0328 01:33:04.159543   337 layer_factory.hpp:77] Creating layer data_msc
I0328 01:33:04.159620   337 net.cpp:86] Creating Layer data_msc
I0328 01:33:04.159641   337 net.cpp:382] data_msc -> data_msc
I0328 01:33:04.159694   337 net.cpp:382] data_msc -> label_msc
I0328 01:33:04.159739   337 image_data_layer.cpp:38] Opening file /media/p307k07/ssd/opt/msc/data/train/list_caffe.txt
I0328 01:33:04.481184   337 image_data_layer.cpp:63] A total of 513382 images.
I0328 01:33:04.483605   337 image_data_layer.cpp:90] output data size: 50,3,159,240
I0328 01:33:04.514097   337 net.cpp:124] Setting up data_msc
I0328 01:33:04.514124   337 net.cpp:131] Top shape: 50 3 159 240 (5724000)
I0328 01:33:04.514129   337 net.cpp:131] Top shape: 50 (50)
I0328 01:33:04.514132   337 net.cpp:139] Memory required for data: 22896200
I0328 01:33:04.514138   337 layer_factory.hpp:77] Creating layer conv1
I0328 01:33:04.514156   337 net.cpp:86] Creating Layer conv1
I0328 01:33:04.514161   337 net.cpp:408] conv1 <- data_msc
I0328 01:33:04.514173   337 net.cpp:382] conv1 -> conv1
I0328 01:33:08.265509   337 net.cpp:124] Setting up conv1
I0328 01:33:08.265544   337 net.cpp:131] Top shape: 50 96 38 58 (10579200)
I0328 01:33:08.265549   337 net.cpp:139] Memory required for data: 65213000
I0328 01:33:08.265569   337 layer_factory.hpp:77] Creating layer relu1
I0328 01:33:08.265580   337 net.cpp:86] Creating Layer relu1
I0328 01:33:08.265583   337 net.cpp:408] relu1 <- conv1
I0328 01:33:08.265588   337 net.cpp:369] relu1 -> conv1 (in-place)
I0328 01:33:08.265861   337 net.cpp:124] Setting up relu1
I0328 01:33:08.265871   337 net.cpp:131] Top shape: 50 96 38 58 (10579200)
I0328 01:33:08.265873   337 net.cpp:139] Memory required for data: 107529800
I0328 01:33:08.265877   337 layer_factory.hpp:77] Creating layer pool1
I0328 01:33:08.265882   337 net.cpp:86] Creating Layer pool1
I0328 01:33:08.265884   337 net.cpp:408] pool1 <- conv1
I0328 01:33:08.265888   337 net.cpp:382] pool1 -> pool1
I0328 01:33:08.265923   337 net.cpp:124] Setting up pool1
I0328 01:33:08.265929   337 net.cpp:131] Top shape: 50 96 19 29 (2644800)
I0328 01:33:08.265931   337 net.cpp:139] Memory required for data: 118109000
I0328 01:33:08.265938   337 layer_factory.hpp:77] Creating layer norm1
I0328 01:33:08.265955   337 net.cpp:86] Creating Layer norm1
I0328 01:33:08.265959   337 net.cpp:408] norm1 <- pool1
I0328 01:33:08.265964   337 net.cpp:382] norm1 -> norm1
I0328 01:33:08.266094   337 net.cpp:124] Setting up norm1
I0328 01:33:08.266101   337 net.cpp:131] Top shape: 50 96 19 29 (2644800)
I0328 01:33:08.266104   337 net.cpp:139] Memory required for data: 128688200
I0328 01:33:08.266108   337 layer_factory.hpp:77] Creating layer conv2
I0328 01:33:08.266118   337 net.cpp:86] Creating Layer conv2
I0328 01:33:08.266120   337 net.cpp:408] conv2 <- norm1
I0328 01:33:08.266125   337 net.cpp:382] conv2 -> conv2
I0328 01:33:08.270232   337 net.cpp:124] Setting up conv2
I0328 01:33:08.270243   337 net.cpp:131] Top shape: 50 256 19 29 (7052800)
I0328 01:33:08.270246   337 net.cpp:139] Memory required for data: 156899400
I0328 01:33:08.270253   337 layer_factory.hpp:77] Creating layer relu2
I0328 01:33:08.270258   337 net.cpp:86] Creating Layer relu2
I0328 01:33:08.270262   337 net.cpp:408] relu2 <- conv2
I0328 01:33:08.270264   337 net.cpp:369] relu2 -> conv2 (in-place)
I0328 01:33:08.270385   337 net.cpp:124] Setting up relu2
I0328 01:33:08.270391   337 net.cpp:131] Top shape: 50 256 19 29 (7052800)
I0328 01:33:08.270395   337 net.cpp:139] Memory required for data: 185110600
I0328 01:33:08.270397   337 layer_factory.hpp:77] Creating layer pool2
I0328 01:33:08.270401   337 net.cpp:86] Creating Layer pool2
I0328 01:33:08.270403   337 net.cpp:408] pool2 <- conv2
I0328 01:33:08.270407   337 net.cpp:382] pool2 -> pool2
I0328 01:33:08.270436   337 net.cpp:124] Setting up pool2
I0328 01:33:08.270440   337 net.cpp:131] Top shape: 50 256 9 14 (1612800)
I0328 01:33:08.270442   337 net.cpp:139] Memory required for data: 191561800
I0328 01:33:08.270444   337 layer_factory.hpp:77] Creating layer norm2
I0328 01:33:08.270450   337 net.cpp:86] Creating Layer norm2
I0328 01:33:08.270452   337 net.cpp:408] norm2 <- pool2
I0328 01:33:08.270457   337 net.cpp:382] norm2 -> norm2
I0328 01:33:08.270730   337 net.cpp:124] Setting up norm2
I0328 01:33:08.270738   337 net.cpp:131] Top shape: 50 256 9 14 (1612800)
I0328 01:33:08.270740   337 net.cpp:139] Memory required for data: 198013000
I0328 01:33:08.270743   337 layer_factory.hpp:77] Creating layer conv3
I0328 01:33:08.270751   337 net.cpp:86] Creating Layer conv3
I0328 01:33:08.270754   337 net.cpp:408] conv3 <- norm2
I0328 01:33:08.270758   337 net.cpp:382] conv3 -> conv3
I0328 01:33:08.278484   337 net.cpp:124] Setting up conv3
I0328 01:33:08.278496   337 net.cpp:131] Top shape: 50 384 9 14 (2419200)
I0328 01:33:08.278499   337 net.cpp:139] Memory required for data: 207689800
I0328 01:33:08.278506   337 layer_factory.hpp:77] Creating layer relu3
I0328 01:33:08.278512   337 net.cpp:86] Creating Layer relu3
I0328 01:33:08.278515   337 net.cpp:408] relu3 <- conv3
I0328 01:33:08.278519   337 net.cpp:369] relu3 -> conv3 (in-place)
I0328 01:33:08.278633   337 net.cpp:124] Setting up relu3
I0328 01:33:08.278640   337 net.cpp:131] Top shape: 50 384 9 14 (2419200)
I0328 01:33:08.278642   337 net.cpp:139] Memory required for data: 217366600
I0328 01:33:08.278645   337 layer_factory.hpp:77] Creating layer conv4
I0328 01:33:08.278651   337 net.cpp:86] Creating Layer conv4
I0328 01:33:08.278654   337 net.cpp:408] conv4 <- conv3
I0328 01:33:08.278659   337 net.cpp:382] conv4 -> conv4
I0328 01:33:08.285300   337 net.cpp:124] Setting up conv4
I0328 01:33:08.285313   337 net.cpp:131] Top shape: 50 384 9 14 (2419200)
I0328 01:33:08.285316   337 net.cpp:139] Memory required for data: 227043400
I0328 01:33:08.285322   337 layer_factory.hpp:77] Creating layer relu4
I0328 01:33:08.285327   337 net.cpp:86] Creating Layer relu4
I0328 01:33:08.285331   337 net.cpp:408] relu4 <- conv4
I0328 01:33:08.285337   337 net.cpp:369] relu4 -> conv4 (in-place)
I0328 01:33:08.285452   337 net.cpp:124] Setting up relu4
I0328 01:33:08.285459   337 net.cpp:131] Top shape: 50 384 9 14 (2419200)
I0328 01:33:08.285461   337 net.cpp:139] Memory required for data: 236720200
I0328 01:33:08.285478   337 layer_factory.hpp:77] Creating layer conv5
I0328 01:33:08.285486   337 net.cpp:86] Creating Layer conv5
I0328 01:33:08.285490   337 net.cpp:408] conv5 <- conv4
I0328 01:33:08.285495   337 net.cpp:382] conv5 -> conv5
I0328 01:33:08.290566   337 net.cpp:124] Setting up conv5
I0328 01:33:08.290578   337 net.cpp:131] Top shape: 50 256 9 14 (1612800)
I0328 01:33:08.290580   337 net.cpp:139] Memory required for data: 243171400
I0328 01:33:08.290590   337 layer_factory.hpp:77] Creating layer relu5
I0328 01:33:08.290594   337 net.cpp:86] Creating Layer relu5
I0328 01:33:08.290596   337 net.cpp:408] relu5 <- conv5
I0328 01:33:08.290601   337 net.cpp:369] relu5 -> conv5 (in-place)
I0328 01:33:08.290714   337 net.cpp:124] Setting up relu5
I0328 01:33:08.290720   337 net.cpp:131] Top shape: 50 256 9 14 (1612800)
I0328 01:33:08.290722   337 net.cpp:139] Memory required for data: 249622600
I0328 01:33:08.290725   337 layer_factory.hpp:77] Creating layer pool5
I0328 01:33:08.290729   337 net.cpp:86] Creating Layer pool5
I0328 01:33:08.290732   337 net.cpp:408] pool5 <- conv5
I0328 01:33:08.290736   337 net.cpp:382] pool5 -> pool5
I0328 01:33:08.290765   337 net.cpp:124] Setting up pool5
I0328 01:33:08.290771   337 net.cpp:131] Top shape: 50 256 4 7 (358400)
I0328 01:33:08.290772   337 net.cpp:139] Memory required for data: 251056200
I0328 01:33:08.290774   337 layer_factory.hpp:77] Creating layer fc6_msc
I0328 01:33:08.290781   337 net.cpp:86] Creating Layer fc6_msc
I0328 01:33:08.290784   337 net.cpp:408] fc6_msc <- pool5
I0328 01:33:08.290788   337 net.cpp:382] fc6_msc -> fc6_msc
I0328 01:33:08.519318   337 net.cpp:124] Setting up fc6_msc
I0328 01:33:08.519351   337 net.cpp:131] Top shape: 50 4096 (204800)
I0328 01:33:08.519356   337 net.cpp:139] Memory required for data: 251875400
I0328 01:33:08.519366   337 layer_factory.hpp:77] Creating layer relu6
I0328 01:33:08.519374   337 net.cpp:86] Creating Layer relu6
I0328 01:33:08.519377   337 net.cpp:408] relu6 <- fc6_msc
I0328 01:33:08.519383   337 net.cpp:369] relu6 -> fc6_msc (in-place)
I0328 01:33:08.519755   337 net.cpp:124] Setting up relu6
I0328 01:33:08.519763   337 net.cpp:131] Top shape: 50 4096 (204800)
I0328 01:33:08.519767   337 net.cpp:139] Memory required for data: 252694600
I0328 01:33:08.519769   337 layer_factory.hpp:77] Creating layer drop6
I0328 01:33:08.519775   337 net.cpp:86] Creating Layer drop6
I0328 01:33:08.519778   337 net.cpp:408] drop6 <- fc6_msc
I0328 01:33:08.519783   337 net.cpp:369] drop6 -> fc6_msc (in-place)
I0328 01:33:08.519805   337 net.cpp:124] Setting up drop6
I0328 01:33:08.519810   337 net.cpp:131] Top shape: 50 4096 (204800)
I0328 01:33:08.519812   337 net.cpp:139] Memory required for data: 253513800
I0328 01:33:08.519814   337 layer_factory.hpp:77] Creating layer fc7_msc
I0328 01:33:08.519821   337 net.cpp:86] Creating Layer fc7_msc
I0328 01:33:08.519824   337 net.cpp:408] fc7_msc <- fc6_msc
I0328 01:33:08.519827   337 net.cpp:382] fc7_msc -> fc7_msc
I0328 01:33:08.650657   337 net.cpp:124] Setting up fc7_msc
I0328 01:33:08.650691   337 net.cpp:131] Top shape: 50 4096 (204800)
I0328 01:33:08.650696   337 net.cpp:139] Memory required for data: 254333000
I0328 01:33:08.650705   337 layer_factory.hpp:77] Creating layer relu7
I0328 01:33:08.650714   337 net.cpp:86] Creating Layer relu7
I0328 01:33:08.650717   337 net.cpp:408] relu7 <- fc7_msc
I0328 01:33:08.650723   337 net.cpp:369] relu7 -> fc7_msc (in-place)
I0328 01:33:08.651085   337 net.cpp:124] Setting up relu7
I0328 01:33:08.651094   337 net.cpp:131] Top shape: 50 4096 (204800)
I0328 01:33:08.651098   337 net.cpp:139] Memory required for data: 255152200
I0328 01:33:08.651099   337 layer_factory.hpp:77] Creating layer drop7
I0328 01:33:08.651108   337 net.cpp:86] Creating Layer drop7
I0328 01:33:08.651110   337 net.cpp:408] drop7 <- fc7_msc
I0328 01:33:08.651114   337 net.cpp:369] drop7 -> fc7_msc (in-place)
I0328 01:33:08.651136   337 net.cpp:124] Setting up drop7
I0328 01:33:08.651140   337 net.cpp:131] Top shape: 50 4096 (204800)
I0328 01:33:08.651149   337 net.cpp:139] Memory required for data: 255971400
I0328 01:33:08.651160   337 layer_factory.hpp:77] Creating layer fc8_msc
I0328 01:33:08.651165   337 net.cpp:86] Creating Layer fc8_msc
I0328 01:33:08.651168   337 net.cpp:408] fc8_msc <- fc7_msc
I0328 01:33:08.651173   337 net.cpp:382] fc8_msc -> fc8_msc
I0328 01:33:08.651602   337 net.cpp:124] Setting up fc8_msc
I0328 01:33:08.651609   337 net.cpp:131] Top shape: 50 2 (100)
I0328 01:33:08.651612   337 net.cpp:139] Memory required for data: 255971800
I0328 01:33:08.651617   337 layer_factory.hpp:77] Creating layer loss_msc
I0328 01:33:08.651621   337 net.cpp:86] Creating Layer loss_msc
I0328 01:33:08.651623   337 net.cpp:408] loss_msc <- fc8_msc
I0328 01:33:08.651628   337 net.cpp:408] loss_msc <- label_msc
I0328 01:33:08.651633   337 net.cpp:382] loss_msc -> loss
…
I0328 01:33:08.652159   337 net.cpp:296] The NetState phase (1) differed from the phase (0) specified by a rule in layer data_msc
I0328 01:33:08.652277   337 net.cpp:53] Initializing net from parameters: 
name: "MCaffeNet"
state {
  phase: TEST
}
layer {
  name: "data_msc"
  type: "ImageData"
  top: "data_msc"
  top: "label_msc"
  include {
    phase: TEST
  }
  transform_param {
    mean_value: 296
    mean_value: 103
    mean_value: 108
  }
  image_data_param {
    source: "/media/p307k07/ssd/opt/msc/data/test/list_caffe.txt"
    batch_size: 50
    new_height: 159
    new_width: 240
  }
}
layer {
  name: "conv1"
  type: "Convolution"
  bottom: "data_msc"
  top: "conv1"
  param {
    lr_mult: 0.1
    decay_mult: 0.1
  }
  param {
    lr_mult: 0.2
    decay_mult: 0
  }
  convolution_param {
    num_output: 96
    kernel_size: 11
    stride: 4
    weight_filler {
      type: "gaussian"
      std: 0.01
    }
    bias_filler {
      type: "constant"
      value: 0
    }
  }
}
layer {
  name: "relu1"
  type: "ReLU"
  bottom: "conv1"
  top: "conv1"
}
layer {
  name: "pool1"
  type: "Pooling"
  bottom: "conv1"
  top: "pool1"
  pooling_param {
    pool: MAX
    kernel_size: 3
    stride: 2
  }
}
layer {
  name: "norm1"
  type: "LRN"
  bottom: "pool1"
  top: "norm1"
  lrn_param {
    local_size: 5
    alpha: 0.0001
    beta: 0.75
  }
}
layer {
  name: "conv2"
  type: "Convolution"
  bottom: "norm1"
  top: "conv2"
  param {
    lr_mult: 0.1
    decay_mult: 0.1
  }
  param {
    lr_mult: 0.2
    decay_mult: 0
  }
  convolution_param {
    num_output: 256
    pad: 2
    kernel_size: 5
    group: 2
    weight_filler {
      type: "gaussian"
      std: 0.01
    }
    bias_filler {
      type: "constant"
      value: 1
    }
  }
}
layer {
  name: "relu2"
  type: "ReLU"
  bottom: "conv2"
  top: "conv2"
}
layer {
  name: "pool2"
  type: "Pooling"
  bottom: "conv2"
  top: "pool2"
  pooling_param {
    pool: MAX
    kernel_size: 3
    stride: 2
  }
}
layer {
  name: "norm2"
  type: "LRN"
  bottom: "pool2"
  top: "norm2"
  lrn_param {
    local_size: 5
    alpha: 0.0001
    beta: 0.75
  }
}
layer {
  name: "conv3"
  type: "Convolution"
  bottom: "norm2"
  top: "conv3"
  param {
    lr_mult: 0.1
    decay_mult: 0.1
  }
  param {
    lr_mult: 0.2
    decay_mult: 0
  }
  convolution_param {
    num_output: 384
    pad: 1
    kernel_size: 3
    weight_filler {
      type: "gaussian"
      std: 0.01
    }
    bias_filler {
      type: "constant"
      value: 0
    }
  }
}
layer {
  name: "relu3"
  type: "ReLU"
  bottom: "conv3"
  top: "conv3"
}
layer {
  name: "conv4"
  type: "Convolution"
  bottom: "conv3"
  top: "conv4"
  param {
    lr_mult: 0.1
    decay_mult: 0.1
  }
  param {
    lr_mult: 0.2
    decay_mult: 0
  }
  convolution_param {
    num_output: 384
    pad: 1
    kernel_size: 3
    group: 2
    weight_filler {
      type: "gaussian"
      std: 0.01
    }
    bias_filler {
      type: "constant"
      value: 1
    }
  }
}
layer {
  name: "relu4"
  type: "ReLU"
  bottom: "conv4"
  top: "conv4"
}
layer {
  name: "conv5"
  type: "Convolution"
  bottom: "conv4"
  top: "conv5"
  param {
    lr_mult: 0.1
    decay_mult: 0.1
  }
  param {
    lr_mult: 0.2
    decay_mult: 0
  }
  convolution_param {
    num_output: 256
    pad: 1
    kernel_size: 3
    group: 2
    weight_filler {
      type: "gaussian"
      std: 0.01
    }
    bias_filler {
      type: "constant"
      value: 1
    }
  }
}
layer {
  name: "relu5"
  type: "ReLU"
  bottom: "conv5"
  top: "conv5"
}
layer {
  name: "pool5"
  type: "Pooling"
  bottom: "conv5"
  top: "pool5"
  pooling_param {
    pool: MAX
    kernel_size: 3
    stride: 2
  }
}
layer {
  name: "fc6_msc"
  type: "InnerProduct"
  bottom: "pool5"
  top: "fc6_msc"
  param {
    lr_mult: 1
    decay_mult: 1
  }
  param {
    lr_mult: 2
    decay_mult: 0
  }
  inner_product_param {
    num_output: 4096
    weight_filler {
      type: "gaussian"
      std: 0.005
    }
    bias_filler {
      type: "constant"
      value: 1
    }
  }
}
layer {
  name: "relu6"
  type: "ReLU"
  bottom: "fc6_msc"
  top: "fc6_msc"
}
layer {
  name: "drop6"
  type: "Dropout"
  bottom: "fc6_msc"
  top: "fc6_msc"
  dropout_param {
    dropout_ratio: 0.7
  }
}
layer {
  name: "fc7_msc"
  type: "InnerProduct"
  bottom: "fc6_msc"
  top: "fc7_msc"
  param {
    lr_mult: 1
    decay_mult: 1
  }
  param {
    lr_mult: 2
    decay_mult: 0
  }
  inner_product_param {
    num_output: 4096
    weight_filler {
      type: "gaussian"
      std: 0.005
    }
    bias_filler {
      type: "constant"
      value: 1
    }
  }
}
layer {
  name: "relu7"
  type: "ReLU"
  bottom: "fc7_msc"
  top: "fc7_msc"
}
layer {
  name: "drop7"
  type: "Dropout"
  bottom: "fc7_msc"
  top: "fc7_msc"
  dropout_param {
    dropout_ratio: 0.7
  }
}
layer {
  name: "fc8_msc"
  type: "InnerProduct"
  bottom: "fc7_msc"
  top: "fc8_msc"
  param {
    lr_mult: 1
    decay_mult: 1
  }
  param {
    lr_mult: 2
    decay_mult: 0
  }
  inner_product_param {
    num_output: 2
    weight_filler {
      type: "gaussian"
      std: 0.01
    }
    bias_filler {
      type: "constant"
      value: 0
    }
  }
}
layer {
  name: "accuracy"
  type: "Accuracy"
  bottom: "fc8_msc"
  bottom: "label_msc"
  top: "accuracy"
  include {
    phase: TEST
  }
}
layer {
  name: "loss_msc"
  type: "SoftmaxWithLoss"
  bottom: "fc8_msc"
  bottom: "label_msc"
  top: "loss"
}
I0328 01:33:08.652359   337 layer_factory.hpp:77] Creating layer data_msc
I0328 01:33:08.652369   337 net.cpp:86] Creating Layer data_msc
I0328 01:33:08.652374   337 net.cpp:382] data_msc -> data_msc
I0328 01:33:08.652380   337 net.cpp:382] data_msc -> label_msc
I0328 01:33:08.652387   337 image_data_layer.cpp:38] Opening file /media/p307k07/ssd/opt/msc/data/test/list_caffe.txt
I0328 01:33:08.685426   337 image_data_layer.cpp:63] A total of 85562 images.
I0328 01:33:08.686095   337 image_data_layer.cpp:90] output data size: 50,3,159,240
I0328 01:33:08.714370   337 net.cpp:124] Setting up data_msc
I0328 01:33:08.714397   337 net.cpp:131] Top shape: 50 3 159 240 (5724000)
I0328 01:33:08.714402   337 net.cpp:131] Top shape: 50 (50)
I0328 01:33:08.714406   337 net.cpp:139] Memory required for data: 22896200
I0328 01:33:08.714411   337 layer_factory.hpp:77] Creating layer label_msc_data_msc_1_split
I0328 01:33:08.714422   337 net.cpp:86] Creating Layer label_msc_data_msc_1_split
I0328 01:33:08.714426   337 net.cpp:408] label_msc_data_msc_1_split <- label_msc
I0328 01:33:08.714432   337 net.cpp:382] label_msc_data_msc_1_split -> label_msc_data_msc_1_split_0
I0328 01:33:08.714442   337 net.cpp:382] label_msc_data_msc_1_split -> label_msc_data_msc_1_split_1
I0328 01:33:08.714494   337 net.cpp:124] Setting up label_msc_data_msc_1_split
I0328 01:33:08.714499   337 net.cpp:131] Top shape: 50 (50)
I0328 01:33:08.714503   337 net.cpp:131] Top shape: 50 (50)
I0328 01:33:08.714504   337 net.cpp:139] Memory required for data: 22896600
I0328 01:33:08.714507   337 layer_factory.hpp:77] Creating layer conv1
I0328 01:33:08.714517   337 net.cpp:86] Creating Layer conv1
I0328 01:33:08.714521   337 net.cpp:408] conv1 <- data_msc
I0328 01:33:08.714525   337 net.cpp:382] conv1 -> conv1
I0328 01:33:08.715725   337 net.cpp:124] Setting up conv1
I0328 01:33:08.715739   337 net.cpp:131] Top shape: 50 96 38 58 (10579200)
I0328 01:33:08.715741   337 net.cpp:139] Memory required for data: 65213400
I0328 01:33:08.715750   337 layer_factory.hpp:77] Creating layer relu1
I0328 01:33:08.715755   337 net.cpp:86] Creating Layer relu1
I0328 01:33:08.715759   337 net.cpp:408] relu1 <- conv1
I0328 01:33:08.715762   337 net.cpp:369] relu1 -> conv1 (in-place)
I0328 01:33:08.715875   337 net.cpp:124] Setting up relu1
I0328 01:33:08.715881   337 net.cpp:131] Top shape: 50 96 38 58 (10579200)
I0328 01:33:08.715884   337 net.cpp:139] Memory required for data: 107530200
I0328 01:33:08.715886   337 layer_factory.hpp:77] Creating layer pool1
I0328 01:33:08.715893   337 net.cpp:86] Creating Layer pool1
I0328 01:33:08.715895   337 net.cpp:408] pool1 <- conv1
I0328 01:33:08.715899   337 net.cpp:382] pool1 -> pool1
I0328 01:33:08.717720   337 net.cpp:124] Setting up pool1
I0328 01:33:08.717726   337 net.cpp:131] Top shape: 50 96 19 29 (2644800)
I0328 01:33:08.717728   337 net.cpp:139] Memory required for data: 118109400
I0328 01:33:08.717731   337 layer_factory.hpp:77] Creating layer norm1
I0328 01:33:08.717736   337 net.cpp:86] Creating Layer norm1
I0328 01:33:08.717739   337 net.cpp:408] norm1 <- pool1
I0328 01:33:08.717743   337 net.cpp:382] norm1 -> norm1
I0328 01:33:08.718025   337 net.cpp:124] Setting up norm1
I0328 01:33:08.718034   337 net.cpp:131] Top shape: 50 96 19 29 (2644800)
I0328 01:33:08.718036   337 net.cpp:139] Memory required for data: 128688600
I0328 01:33:08.718039   337 layer_factory.hpp:77] Creating layer conv2
I0328 01:33:08.718046   337 net.cpp:86] Creating Layer conv2
I0328 01:33:08.718050   337 net.cpp:408] conv2 <- norm1
I0328 01:33:08.718053   337 net.cpp:382] conv2 -> conv2
I0328 01:33:08.721932   337 net.cpp:124] Setting up conv2
I0328 01:33:08.721952   337 net.cpp:131] Top shape: 50 256 19 29 (7052800)
I0328 01:33:08.721956   337 net.cpp:139] Memory required for data: 156899800
I0328 01:33:08.721962   337 layer_factory.hpp:77] Creating layer relu2
I0328 01:33:08.721967   337 net.cpp:86] Creating Layer relu2
I0328 01:33:08.721971   337 net.cpp:408] relu2 <- conv2
I0328 01:33:08.721974   337 net.cpp:369] relu2 -> conv2 (in-place)
I0328 01:33:08.722086   337 net.cpp:124] Setting up relu2
I0328 01:33:08.722093   337 net.cpp:131] Top shape: 50 256 19 29 (7052800)
I0328 01:33:08.722095   337 net.cpp:139] Memory required for data: 185111000
I0328 01:33:08.722098   337 layer_factory.hpp:77] Creating layer pool2
I0328 01:33:08.722103   337 net.cpp:86] Creating Layer pool2
I0328 01:33:08.722106   337 net.cpp:408] pool2 <- conv2
I0328 01:33:08.722110   337 net.cpp:382] pool2 -> pool2
I0328 01:33:08.722141   337 net.cpp:124] Setting up pool2
I0328 01:33:08.722146   337 net.cpp:131] Top shape: 50 256 9 14 (1612800)
I0328 01:33:08.722148   337 net.cpp:139] Memory required for data: 191562200
I0328 01:33:08.722151   337 layer_factory.hpp:77] Creating layer norm2
I0328 01:33:08.722156   337 net.cpp:86] Creating Layer norm2
I0328 01:33:08.722158   337 net.cpp:408] norm2 <- pool2
I0328 01:33:08.722162   337 net.cpp:382] norm2 -> norm2
I0328 01:33:08.722440   337 net.cpp:124] Setting up norm2
I0328 01:33:08.722447   337 net.cpp:131] Top shape: 50 256 9 14 (1612800)
I0328 01:33:08.722450   337 net.cpp:139] Memory required for data: 198013400
I0328 01:33:08.722453   337 layer_factory.hpp:77] Creating layer conv3
I0328 01:33:08.722461   337 net.cpp:86] Creating Layer conv3
I0328 01:33:08.722465   337 net.cpp:408] conv3 <- norm2
I0328 01:33:08.722468   337 net.cpp:382] conv3 -> conv3
I0328 01:33:08.730270   337 net.cpp:124] Setting up conv3
I0328 01:33:08.730293   337 net.cpp:131] Top shape: 50 384 9 14 (2419200)
I0328 01:33:08.730295   337 net.cpp:139] Memory required for data: 207690200
I0328 01:33:08.730304   337 layer_factory.hpp:77] Creating layer relu3
I0328 01:33:08.730311   337 net.cpp:86] Creating Layer relu3
I0328 01:33:08.730314   337 net.cpp:408] relu3 <- conv3
I0328 01:33:08.730319   337 net.cpp:369] relu3 -> conv3 (in-place)
I0328 01:33:08.730574   337 net.cpp:124] Setting up relu3
I0328 01:33:08.730583   337 net.cpp:131] Top shape: 50 384 9 14 (2419200)
I0328 01:33:08.730587   337 net.cpp:139] Memory required for data: 217367000
I0328 01:33:08.730588   337 layer_factory.hpp:77] Creating layer conv4
I0328 01:33:08.730597   337 net.cpp:86] Creating Layer conv4
I0328 01:33:08.730599   337 net.cpp:408] conv4 <- conv3
I0328 01:33:08.730604   337 net.cpp:382] conv4 -> conv4
I0328 01:33:08.737499   337 net.cpp:124] Setting up conv4
I0328 01:33:08.737516   337 net.cpp:131] Top shape: 50 384 9 14 (2419200)
I0328 01:33:08.737519   337 net.cpp:139] Memory required for data: 227043800
I0328 01:33:08.737525   337 layer_factory.hpp:77] Creating layer relu4
I0328 01:33:08.737531   337 net.cpp:86] Creating Layer relu4
I0328 01:33:08.737534   337 net.cpp:408] relu4 <- conv4
I0328 01:33:08.737538   337 net.cpp:369] relu4 -> conv4 (in-place)
I0328 01:33:08.737658   337 net.cpp:124] Setting up relu4
I0328 01:33:08.737663   337 net.cpp:131] Top shape: 50 384 9 14 (2419200)
I0328 01:33:08.737666   337 net.cpp:139] Memory required for data: 236720600
I0328 01:33:08.737669   337 layer_factory.hpp:77] Creating layer conv5
I0328 01:33:08.737675   337 net.cpp:86] Creating Layer conv5
I0328 01:33:08.737679   337 net.cpp:408] conv5 <- conv4
I0328 01:33:08.737684   337 net.cpp:382] conv5 -> conv5
I0328 01:33:08.742604   337 net.cpp:124] Setting up conv5
I0328 01:33:08.742617   337 net.cpp:131] Top shape: 50 256 9 14 (1612800)
I0328 01:33:08.742620   337 net.cpp:139] Memory required for data: 243171800
I0328 01:33:08.742630   337 layer_factory.hpp:77] Creating layer relu5
I0328 01:33:08.742635   337 net.cpp:86] Creating Layer relu5
I0328 01:33:08.742637   337 net.cpp:408] relu5 <- conv5
I0328 01:33:08.742641   337 net.cpp:369] relu5 -> conv5 (in-place)
I0328 01:33:08.742761   337 net.cpp:124] Setting up relu5
I0328 01:33:08.742774   337 net.cpp:131] Top shape: 50 256 9 14 (1612800)
I0328 01:33:08.742777   337 net.cpp:139] Memory required for data: 249623000
I0328 01:33:08.742779   337 layer_factory.hpp:77] Creating layer pool5
I0328 01:33:08.742786   337 net.cpp:86] Creating Layer pool5
I0328 01:33:08.742789   337 net.cpp:408] pool5 <- conv5
I0328 01:33:08.742794   337 net.cpp:382] pool5 -> pool5
I0328 01:33:08.742823   337 net.cpp:124] Setting up pool5
I0328 01:33:08.742828   337 net.cpp:131] Top shape: 50 256 4 7 (358400)
I0328 01:33:08.742830   337 net.cpp:139] Memory required for data: 251056600
I0328 01:33:08.742833   337 layer_factory.hpp:77] Creating layer fc6_msc
I0328 01:33:08.742838   337 net.cpp:86] Creating Layer fc6_msc
I0328 01:33:08.742841   337 net.cpp:408] fc6_msc <- pool5
I0328 01:33:08.742844   337 net.cpp:382] fc6_msc -> fc6_msc
I0328 01:33:08.974692   337 net.cpp:124] Setting up fc6_msc
I0328 01:33:08.974725   337 net.cpp:131] Top shape: 50 4096 (204800)
I0328 01:33:08.974730   337 net.cpp:139] Memory required for data: 251875800
I0328 01:33:08.974740   337 layer_factory.hpp:77] Creating layer relu6
I0328 01:33:08.974750   337 net.cpp:86] Creating Layer relu6
I0328 01:33:08.974752   337 net.cpp:408] relu6 <- fc6_msc
I0328 01:33:08.974758   337 net.cpp:369] relu6 -> fc6_msc (in-place)
I0328 01:33:08.975129   337 net.cpp:124] Setting up relu6
I0328 01:33:08.975138   337 net.cpp:131] Top shape: 50 4096 (204800)
I0328 01:33:08.975141   337 net.cpp:139] Memory required for data: 252695000
I0328 01:33:08.975143   337 layer_factory.hpp:77] Creating layer drop6
I0328 01:33:08.975148   337 net.cpp:86] Creating Layer drop6
I0328 01:33:08.975152   337 net.cpp:408] drop6 <- fc6_msc
I0328 01:33:08.975155   337 net.cpp:369] drop6 -> fc6_msc (in-place)
I0328 01:33:08.975178   337 net.cpp:124] Setting up drop6
I0328 01:33:08.975183   337 net.cpp:131] Top shape: 50 4096 (204800)
I0328 01:33:08.975185   337 net.cpp:139] Memory required for data: 253514200
I0328 01:33:08.975188   337 layer_factory.hpp:77] Creating layer fc7_msc
I0328 01:33:08.975193   337 net.cpp:86] Creating Layer fc7_msc
I0328 01:33:08.975195   337 net.cpp:408] fc7_msc <- fc6_msc
I0328 01:33:08.975199   337 net.cpp:382] fc7_msc -> fc7_msc
I0328 01:33:09.106073   337 net.cpp:124] Setting up fc7_msc
I0328 01:33:09.106107   337 net.cpp:131] Top shape: 50 4096 (204800)
I0328 01:33:09.106114   337 net.cpp:139] Memory required for data: 254333400
I0328 01:33:09.106125   337 layer_factory.hpp:77] Creating layer relu7
I0328 01:33:09.106134   337 net.cpp:86] Creating Layer relu7
I0328 01:33:09.106138   337 net.cpp:408] relu7 <- fc7_msc
I0328 01:33:09.106144   337 net.cpp:369] relu7 -> fc7_msc (in-place)
I0328 01:33:09.106328   337 net.cpp:124] Setting up relu7
I0328 01:33:09.106336   337 net.cpp:131] Top shape: 50 4096 (204800)
I0328 01:33:09.106338   337 net.cpp:139] Memory required for data: 255152600
I0328 01:33:09.106341   337 layer_factory.hpp:77] Creating layer drop7
I0328 01:33:09.106346   337 net.cpp:86] Creating Layer drop7
I0328 01:33:09.106349   337 net.cpp:408] drop7 <- fc7_msc
I0328 01:33:09.106353   337 net.cpp:369] drop7 -> fc7_msc (in-place)
I0328 01:33:09.106379   337 net.cpp:124] Setting up drop7
I0328 01:33:09.106384   337 net.cpp:131] Top shape: 50 4096 (204800)
I0328 01:33:09.106386   337 net.cpp:139] Memory required for data: 255971800
I0328 01:33:09.106389   337 layer_factory.hpp:77] Creating layer fc8_msc
I0328 01:33:09.106395   337 net.cpp:86] Creating Layer fc8_msc
I0328 01:33:09.106396   337 net.cpp:408] fc8_msc <- fc7_msc
I0328 01:33:09.106401   337 net.cpp:382] fc8_msc -> fc8_msc
I0328 01:33:09.106544   337 net.cpp:124] Setting up fc8_msc
I0328 01:33:09.106549   337 net.cpp:131] Top shape: 50 2 (100)
I0328 01:33:09.106550   337 net.cpp:139] Memory required for data: 255972200
I0328 01:33:09.106555   337 layer_factory.hpp:77] Creating layer fc8_msc_fc8_msc_0_split
I0328 01:33:09.106560   337 net.cpp:86] Creating Layer fc8_msc_fc8_msc_0_split
I0328 01:33:09.106570   337 net.cpp:408] fc8_msc_fc8_msc_0_split <- fc8_msc
I0328 01:33:09.106585   337 net.cpp:382] fc8_msc_fc8_msc_0_split -> fc8_msc_fc8_msc_0_split_0
I0328 01:33:09.106590   337 net.cpp:382] fc8_msc_fc8_msc_0_split -> fc8_msc_fc8_msc_0_split_1
I0328 01:33:09.106617   337 net.cpp:124] Setting up fc8_msc_fc8_msc_0_split
I0328 01:33:09.106621   337 net.cpp:131] Top shape: 50 2 (100)
I0328 01:33:09.106624   337 net.cpp:131] Top shape: 50 2 (100)
I0328 01:33:09.106626   337 net.cpp:139] Memory required for data: 255973000
I0328 01:33:09.106628   337 layer_factory.hpp:77] Creating layer accuracy
I0328 01:33:09.106633   337 net.cpp:86] Creating Layer accuracy
I0328 01:33:09.106637   337 net.cpp:408] accuracy <- fc8_msc_fc8_msc_0_split_0
I0328 01:33:09.106639   337 net.cpp:408] accuracy <- label_msc_data_msc_1_split_0
I0328 01:33:09.106643   337 net.cpp:382] accuracy -> accuracy
…
