…
I0323 22:27:47.000643 25088 net.cpp:296] The NetState phase (0) differed from the phase (1) specified by a rule in layer accuracy
I0323 22:27:47.000826 25088 net.cpp:53] Initializing net from parameters: 
name: "MCaffeNet"
state {
  phase: TRAIN
  level: 0
  stage: ""
}
layer {
  name: "data_msc"
  type: "ImageData"
  top: "data_msc"
  top: "label_msc"
  include {
    phase: TRAIN
  }
  transform_param {
    mean_value: 296
    mean_value: 103
    mean_value: 108
  }
  image_data_param {
    source: "/media/p307k07/ssd/opt/msc/data/train/list_caffe.txt"
    batch_size: 50
    new_height: 159
    new_width: 240
  }
}
layer {
  name: "conv1"
  type: "Convolution"
  bottom: "data_msc"
  top: "conv1"
  param {
    lr_mult: 0.01
    decay_mult: 0.01
  }
  param {
    lr_mult: 0.02
    decay_mult: 0
  }
  convolution_param {
    num_output: 96
    kernel_size: 11
    stride: 4
    weight_filler {
      type: "gaussian"
      std: 0.01
    }
    bias_filler {
      type: "constant"
      value: 0
    }
  }
}
layer {
  name: "relu1"
  type: "ReLU"
  bottom: "conv1"
  top: "conv1"
}
layer {
  name: "pool1"
  type: "Pooling"
  bottom: "conv1"
  top: "pool1"
  pooling_param {
    pool: MAX
    kernel_size: 3
    stride: 2
  }
}
layer {
  name: "norm1"
  type: "LRN"
  bottom: "pool1"
  top: "norm1"
  lrn_param {
    local_size: 5
    alpha: 0.0001
    beta: 0.75
  }
}
layer {
  name: "conv2"
  type: "Convolution"
  bottom: "norm1"
  top: "conv2"
  param {
    lr_mult: 0.01
    decay_mult: 0.01
  }
  param {
    lr_mult: 0.02
    decay_mult: 0
  }
  convolution_param {
    num_output: 256
    pad: 2
    kernel_size: 5
    group: 2
    weight_filler {
      type: "gaussian"
      std: 0.01
    }
    bias_filler {
      type: "constant"
      value: 1
    }
  }
}
layer {
  name: "relu2"
  type: "ReLU"
  bottom: "conv2"
  top: "conv2"
}
layer {
  name: "pool2"
  type: "Pooling"
  bottom: "conv2"
  top: "pool2"
  pooling_param {
    pool: MAX
    kernel_size: 3
    stride: 2
  }
}
layer {
  name: "norm2"
  type: "LRN"
  bottom: "pool2"
  top: "norm2"
  lrn_param {
    local_size: 5
    alpha: 0.0001
    beta: 0.75
  }
}
layer {
  name: "conv3"
  type: "Convolution"
  bottom: "norm2"
  top: "conv3"
  param {
    lr_mult: 0.01
    decay_mult: 0.01
  }
  param {
    lr_mult: 0.02
    decay_mult: 0
  }
  convolution_param {
    num_output: 384
    pad: 1
    kernel_size: 3
    weight_filler {
      type: "gaussian"
      std: 0.01
    }
    bias_filler {
      type: "constant"
      value: 0
    }
  }
}
layer {
  name: "relu3"
  type: "ReLU"
  bottom: "conv3"
  top: "conv3"
}
layer {
  name: "conv4"
  type: "Convolution"
  bottom: "conv3"
  top: "conv4"
  param {
    lr_mult: 0.01
    decay_mult: 0.01
  }
  param {
    lr_mult: 0.02
    decay_mult: 0
  }
  convolution_param {
    num_output: 384
    pad: 1
    kernel_size: 3
    group: 2
    weight_filler {
      type: "gaussian"
      std: 0.01
    }
    bias_filler {
      type: "constant"
      value: 1
    }
  }
}
layer {
  name: "relu4"
  type: "ReLU"
  bottom: "conv4"
  top: "conv4"
}
layer {
  name: "conv5"
  type: "Convolution"
  bottom: "conv4"
  top: "conv5"
  param {
    lr_mult: 0.01
    decay_mult: 0.01
  }
  param {
    lr_mult: 0.02
    decay_mult: 0
  }
  convolution_param {
    num_output: 256
    pad: 1
    kernel_size: 3
    group: 2
    weight_filler {
      type: "gaussian"
      std: 0.01
    }
    bias_filler {
      type: "constant"
      value: 1
    }
  }
}
layer {
  name: "relu5"
  type: "ReLU"
  bottom: "conv5"
  top: "conv5"
}
layer {
  name: "pool5"
  type: "Pooling"
  bottom: "conv5"
  top: "pool5"
  pooling_param {
    pool: MAX
    kernel_size: 3
    stride: 2
  }
}
layer {
  name: "fc6_msc"
  type: "InnerProduct"
  bottom: "pool5"
  top: "fc6_msc"
  param {
    lr_mult: 1
    decay_mult: 1
  }
  param {
    lr_mult: 2
    decay_mult: 0
  }
  inner_product_param {
    num_output: 4096
    weight_filler {
      type: "gaussian"
      std: 0.005
    }
    bias_filler {
      type: "constant"
      value: 1
    }
  }
}
layer {
  name: "relu6"
  type: "ReLU"
  bottom: "fc6_msc"
  top: "fc6_msc"
}
layer {
  name: "drop6"
  type: "Dropout"
  bottom: "fc6_msc"
  top: "fc6_msc"
  dropout_param {
    dropout_ratio: 0.5
  }
}
layer {
  name: "fc7_msc"
  type: "InnerProduct"
  bottom: "fc6_msc"
  top: "fc7_msc"
  param {
    lr_mult: 1
    decay_mult: 1
  }
  param {
    lr_mult: 2
    decay_mult: 0
  }
  inner_product_param {
    num_output: 4096
    weight_filler {
      type: "gaussian"
      std: 0.005
    }
    bias_filler {
      type: "constant"
      value: 1
    }
  }
}
layer {
  name: "relu7"
  type: "ReLU"
  bottom: "fc7_msc"
  top: "fc7_msc"
}
layer {
  name: "drop7"
  type: "Dropout"
  bottom: "fc7_msc"
  top: "fc7_msc"
  dropout_param {
    dropout_ratio: 0.5
  }
}
layer {
  name: "fc8_msc"
  type: "InnerProduct"
  bottom: "fc7_msc"
  top: "fc8_msc"
  param {
    lr_mult: 1
    decay_mult: 1
  }
  param {
    lr_mult: 2
    decay_mult: 0
  }
  inner_product_param {
    num_output: 2
    weight_filler {
      type: "gaussian"
      std: 0.01
    }
    bias_filler {
      type: "constant"
      value: 0
    }
  }
}
layer {
  name: "loss_msc"
  type: "SoftmaxWithLoss"
  bottom: "fc8_msc"
  bottom: "label_msc"
  top: "loss"
}
I0323 22:27:47.000933 25088 layer_factory.hpp:77] Creating layer data_msc
I0323 22:27:47.000963 25088 net.cpp:86] Creating Layer data_msc
I0323 22:27:47.000972 25088 net.cpp:382] data_msc -> data_msc
I0323 22:27:47.000993 25088 net.cpp:382] data_msc -> label_msc
I0323 22:27:47.001010 25088 image_data_layer.cpp:38] Opening file /media/p307k07/ssd/opt/msc/data/train/list_caffe.txt
I0323 22:27:47.160416 25088 image_data_layer.cpp:63] A total of 513382 images.
I0323 22:27:47.162454 25088 image_data_layer.cpp:90] output data size: 50,3,159,240
I0323 22:27:47.190992 25088 net.cpp:124] Setting up data_msc
I0323 22:27:47.191020 25088 net.cpp:131] Top shape: 50 3 159 240 (5724000)
I0323 22:27:47.191025 25088 net.cpp:131] Top shape: 50 (50)
I0323 22:27:47.191027 25088 net.cpp:139] Memory required for data: 22896200
I0323 22:27:47.191035 25088 layer_factory.hpp:77] Creating layer conv1
I0323 22:27:47.191051 25088 net.cpp:86] Creating Layer conv1
I0323 22:27:47.191057 25088 net.cpp:408] conv1 <- data_msc
I0323 22:27:47.191068 25088 net.cpp:382] conv1 -> conv1
I0323 22:27:49.235142 25088 net.cpp:124] Setting up conv1
I0323 22:27:49.235172 25088 net.cpp:131] Top shape: 50 96 38 58 (10579200)
I0323 22:27:49.235174 25088 net.cpp:139] Memory required for data: 65213000
I0323 22:27:49.235199 25088 layer_factory.hpp:77] Creating layer relu1
I0323 22:27:49.235209 25088 net.cpp:86] Creating Layer relu1
I0323 22:27:49.235213 25088 net.cpp:408] relu1 <- conv1
I0323 22:27:49.235216 25088 net.cpp:369] relu1 -> conv1 (in-place)
I0323 22:27:49.235482 25088 net.cpp:124] Setting up relu1
I0323 22:27:49.235491 25088 net.cpp:131] Top shape: 50 96 38 58 (10579200)
I0323 22:27:49.235493 25088 net.cpp:139] Memory required for data: 107529800
I0323 22:27:49.235496 25088 layer_factory.hpp:77] Creating layer pool1
I0323 22:27:49.235501 25088 net.cpp:86] Creating Layer pool1
I0323 22:27:49.235503 25088 net.cpp:408] pool1 <- conv1
I0323 22:27:49.235507 25088 net.cpp:382] pool1 -> pool1
I0323 22:27:49.235539 25088 net.cpp:124] Setting up pool1
I0323 22:27:49.235544 25088 net.cpp:131] Top shape: 50 96 19 29 (2644800)
I0323 22:27:49.235550 25088 net.cpp:139] Memory required for data: 118109000
I0323 22:27:49.235952 25088 layer_factory.hpp:77] Creating layer norm1
I0323 22:27:49.235966 25088 net.cpp:86] Creating Layer norm1
I0323 22:27:49.235971 25088 net.cpp:408] norm1 <- pool1
I0323 22:27:49.235977 25088 net.cpp:382] norm1 -> norm1
I0323 22:27:49.236117 25088 net.cpp:124] Setting up norm1
I0323 22:27:49.236124 25088 net.cpp:131] Top shape: 50 96 19 29 (2644800)
I0323 22:27:49.236126 25088 net.cpp:139] Memory required for data: 128688200
I0323 22:27:49.236129 25088 layer_factory.hpp:77] Creating layer conv2
I0323 22:27:49.236137 25088 net.cpp:86] Creating Layer conv2
I0323 22:27:49.236140 25088 net.cpp:408] conv2 <- norm1
I0323 22:27:49.236143 25088 net.cpp:382] conv2 -> conv2
I0323 22:27:49.240203 25088 net.cpp:124] Setting up conv2
I0323 22:27:49.240213 25088 net.cpp:131] Top shape: 50 256 19 29 (7052800)
I0323 22:27:49.240216 25088 net.cpp:139] Memory required for data: 156899400
I0323 22:27:49.240222 25088 layer_factory.hpp:77] Creating layer relu2
I0323 22:27:49.240226 25088 net.cpp:86] Creating Layer relu2
I0323 22:27:49.240229 25088 net.cpp:408] relu2 <- conv2
I0323 22:27:49.240232 25088 net.cpp:369] relu2 -> conv2 (in-place)
I0323 22:27:49.240344 25088 net.cpp:124] Setting up relu2
I0323 22:27:49.240350 25088 net.cpp:131] Top shape: 50 256 19 29 (7052800)
I0323 22:27:49.240351 25088 net.cpp:139] Memory required for data: 185110600
I0323 22:27:49.240355 25088 layer_factory.hpp:77] Creating layer pool2
I0323 22:27:49.240358 25088 net.cpp:86] Creating Layer pool2
I0323 22:27:49.240360 25088 net.cpp:408] pool2 <- conv2
I0323 22:27:49.240363 25088 net.cpp:382] pool2 -> pool2
I0323 22:27:49.240388 25088 net.cpp:124] Setting up pool2
I0323 22:27:49.240392 25088 net.cpp:131] Top shape: 50 256 9 14 (1612800)
I0323 22:27:49.240394 25088 net.cpp:139] Memory required for data: 191561800
I0323 22:27:49.240396 25088 layer_factory.hpp:77] Creating layer norm2
I0323 22:27:49.240401 25088 net.cpp:86] Creating Layer norm2
I0323 22:27:49.240403 25088 net.cpp:408] norm2 <- pool2
I0323 22:27:49.240406 25088 net.cpp:382] norm2 -> norm2
I0323 22:27:49.240674 25088 net.cpp:124] Setting up norm2
I0323 22:27:49.240682 25088 net.cpp:131] Top shape: 50 256 9 14 (1612800)
I0323 22:27:49.240684 25088 net.cpp:139] Memory required for data: 198013000
I0323 22:27:49.240687 25088 layer_factory.hpp:77] Creating layer conv3
I0323 22:27:49.240694 25088 net.cpp:86] Creating Layer conv3
I0323 22:27:49.240696 25088 net.cpp:408] conv3 <- norm2
I0323 22:27:49.240700 25088 net.cpp:382] conv3 -> conv3
I0323 22:27:49.248426 25088 net.cpp:124] Setting up conv3
I0323 22:27:49.248437 25088 net.cpp:131] Top shape: 50 384 9 14 (2419200)
I0323 22:27:49.248440 25088 net.cpp:139] Memory required for data: 207689800
I0323 22:27:49.248447 25088 layer_factory.hpp:77] Creating layer relu3
I0323 22:27:49.248452 25088 net.cpp:86] Creating Layer relu3
I0323 22:27:49.248455 25088 net.cpp:408] relu3 <- conv3
I0323 22:27:49.248459 25088 net.cpp:369] relu3 -> conv3 (in-place)
I0323 22:27:49.248576 25088 net.cpp:124] Setting up relu3
I0323 22:27:49.248581 25088 net.cpp:131] Top shape: 50 384 9 14 (2419200)
I0323 22:27:49.248584 25088 net.cpp:139] Memory required for data: 217366600
I0323 22:27:49.248586 25088 layer_factory.hpp:77] Creating layer conv4
I0323 22:27:49.248594 25088 net.cpp:86] Creating Layer conv4
I0323 22:27:49.248596 25088 net.cpp:408] conv4 <- conv3
I0323 22:27:49.248600 25088 net.cpp:382] conv4 -> conv4
I0323 22:27:49.255239 25088 net.cpp:124] Setting up conv4
I0323 22:27:49.255251 25088 net.cpp:131] Top shape: 50 384 9 14 (2419200)
I0323 22:27:49.255254 25088 net.cpp:139] Memory required for data: 227043400
I0323 22:27:49.255259 25088 layer_factory.hpp:77] Creating layer relu4
I0323 22:27:49.255264 25088 net.cpp:86] Creating Layer relu4
I0323 22:27:49.255265 25088 net.cpp:408] relu4 <- conv4
I0323 22:27:49.255270 25088 net.cpp:369] relu4 -> conv4 (in-place)
I0323 22:27:49.255388 25088 net.cpp:124] Setting up relu4
I0323 22:27:49.255393 25088 net.cpp:131] Top shape: 50 384 9 14 (2419200)
I0323 22:27:49.255417 25088 net.cpp:139] Memory required for data: 236720200
I0323 22:27:49.255431 25088 layer_factory.hpp:77] Creating layer conv5
I0323 22:27:49.255441 25088 net.cpp:86] Creating Layer conv5
I0323 22:27:49.255445 25088 net.cpp:408] conv5 <- conv4
I0323 22:27:49.255452 25088 net.cpp:382] conv5 -> conv5
I0323 22:27:49.260571 25088 net.cpp:124] Setting up conv5
I0323 22:27:49.260579 25088 net.cpp:131] Top shape: 50 256 9 14 (1612800)
I0323 22:27:49.260582 25088 net.cpp:139] Memory required for data: 243171400
I0323 22:27:49.260591 25088 layer_factory.hpp:77] Creating layer relu5
I0323 22:27:49.260596 25088 net.cpp:86] Creating Layer relu5
I0323 22:27:49.260597 25088 net.cpp:408] relu5 <- conv5
I0323 22:27:49.260601 25088 net.cpp:369] relu5 -> conv5 (in-place)
I0323 22:27:49.260717 25088 net.cpp:124] Setting up relu5
I0323 22:27:49.260723 25088 net.cpp:131] Top shape: 50 256 9 14 (1612800)
I0323 22:27:49.260726 25088 net.cpp:139] Memory required for data: 249622600
I0323 22:27:49.260728 25088 layer_factory.hpp:77] Creating layer pool5
I0323 22:27:49.260733 25088 net.cpp:86] Creating Layer pool5
I0323 22:27:49.260735 25088 net.cpp:408] pool5 <- conv5
I0323 22:27:49.260738 25088 net.cpp:382] pool5 -> pool5
I0323 22:27:49.260768 25088 net.cpp:124] Setting up pool5
I0323 22:27:49.260772 25088 net.cpp:131] Top shape: 50 256 4 7 (358400)
I0323 22:27:49.260774 25088 net.cpp:139] Memory required for data: 251056200
I0323 22:27:49.260776 25088 layer_factory.hpp:77] Creating layer fc6_msc
I0323 22:27:49.260784 25088 net.cpp:86] Creating Layer fc6_msc
I0323 22:27:49.260787 25088 net.cpp:408] fc6_msc <- pool5
I0323 22:27:49.260790 25088 net.cpp:382] fc6_msc -> fc6_msc
I0323 22:27:49.488787 25088 net.cpp:124] Setting up fc6_msc
I0323 22:27:49.488813 25088 net.cpp:131] Top shape: 50 4096 (204800)
I0323 22:27:49.488816 25088 net.cpp:139] Memory required for data: 251875400
I0323 22:27:49.488824 25088 layer_factory.hpp:77] Creating layer relu6
I0323 22:27:49.488832 25088 net.cpp:86] Creating Layer relu6
I0323 22:27:49.488836 25088 net.cpp:408] relu6 <- fc6_msc
I0323 22:27:49.488840 25088 net.cpp:369] relu6 -> fc6_msc (in-place)
I0323 22:27:49.489208 25088 net.cpp:124] Setting up relu6
I0323 22:27:49.489217 25088 net.cpp:131] Top shape: 50 4096 (204800)
I0323 22:27:49.489219 25088 net.cpp:139] Memory required for data: 252694600
I0323 22:27:49.489223 25088 layer_factory.hpp:77] Creating layer drop6
I0323 22:27:49.489228 25088 net.cpp:86] Creating Layer drop6
I0323 22:27:49.489229 25088 net.cpp:408] drop6 <- fc6_msc
I0323 22:27:49.489233 25088 net.cpp:369] drop6 -> fc6_msc (in-place)
I0323 22:27:49.489255 25088 net.cpp:124] Setting up drop6
I0323 22:27:49.489259 25088 net.cpp:131] Top shape: 50 4096 (204800)
I0323 22:27:49.489261 25088 net.cpp:139] Memory required for data: 253513800
I0323 22:27:49.489264 25088 layer_factory.hpp:77] Creating layer fc7_msc
I0323 22:27:49.489269 25088 net.cpp:86] Creating Layer fc7_msc
I0323 22:27:49.489271 25088 net.cpp:408] fc7_msc <- fc6_msc
I0323 22:27:49.489274 25088 net.cpp:382] fc7_msc -> fc7_msc
I0323 22:27:49.619698 25088 net.cpp:124] Setting up fc7_msc
I0323 22:27:49.619724 25088 net.cpp:131] Top shape: 50 4096 (204800)
I0323 22:27:49.619726 25088 net.cpp:139] Memory required for data: 254333000
I0323 22:27:49.619735 25088 layer_factory.hpp:77] Creating layer relu7
I0323 22:27:49.619742 25088 net.cpp:86] Creating Layer relu7
I0323 22:27:49.619745 25088 net.cpp:408] relu7 <- fc7_msc
I0323 22:27:49.619750 25088 net.cpp:369] relu7 -> fc7_msc (in-place)
I0323 22:27:49.620169 25088 net.cpp:124] Setting up relu7
I0323 22:27:49.620178 25088 net.cpp:131] Top shape: 50 4096 (204800)
I0323 22:27:49.620180 25088 net.cpp:139] Memory required for data: 255152200
I0323 22:27:49.620183 25088 layer_factory.hpp:77] Creating layer drop7
I0323 22:27:49.620189 25088 net.cpp:86] Creating Layer drop7
I0323 22:27:49.620192 25088 net.cpp:408] drop7 <- fc7_msc
I0323 22:27:49.620195 25088 net.cpp:369] drop7 -> fc7_msc (in-place)
I0323 22:27:49.620215 25088 net.cpp:124] Setting up drop7
I0323 22:27:49.620224 25088 net.cpp:131] Top shape: 50 4096 (204800)
I0323 22:27:49.620237 25088 net.cpp:139] Memory required for data: 255971400
I0323 22:27:49.620240 25088 layer_factory.hpp:77] Creating layer fc8_msc
I0323 22:27:49.620249 25088 net.cpp:86] Creating Layer fc8_msc
I0323 22:27:49.620252 25088 net.cpp:408] fc8_msc <- fc7_msc
I0323 22:27:49.620259 25088 net.cpp:382] fc8_msc -> fc8_msc
I0323 22:27:49.620681 25088 net.cpp:124] Setting up fc8_msc
I0323 22:27:49.620687 25088 net.cpp:131] Top shape: 50 2 (100)
I0323 22:27:49.620689 25088 net.cpp:139] Memory required for data: 255971800
I0323 22:27:49.620694 25088 layer_factory.hpp:77] Creating layer loss_msc
I0323 22:27:49.620699 25088 net.cpp:86] Creating Layer loss_msc
I0323 22:27:49.620702 25088 net.cpp:408] loss_msc <- fc8_msc
I0323 22:27:49.620704 25088 net.cpp:408] loss_msc <- label_msc
I0323 22:27:49.620709 25088 net.cpp:382] loss_msc -> loss
…
I0323 22:27:49.621223 25088 net.cpp:296] The NetState phase (1) differed from the phase (0) specified by a rule in layer data_msc
I0323 22:27:49.621343 25088 net.cpp:53] Initializing net from parameters: 
name: "MCaffeNet"
state {
  phase: TEST
}
layer {
  name: "data_msc"
  type: "ImageData"
  top: "data_msc"
  top: "label_msc"
  include {
    phase: TEST
  }
  transform_param {
    mean_value: 296
    mean_value: 103
    mean_value: 108
  }
  image_data_param {
    source: "/media/p307k07/ssd/opt/msc/data/test/list_caffe.txt"
    batch_size: 50
    new_height: 159
    new_width: 240
  }
}
layer {
  name: "conv1"
  type: "Convolution"
  bottom: "data_msc"
  top: "conv1"
  param {
    lr_mult: 0.01
    decay_mult: 0.01
  }
  param {
    lr_mult: 0.02
    decay_mult: 0
  }
  convolution_param {
    num_output: 96
    kernel_size: 11
    stride: 4
    weight_filler {
      type: "gaussian"
      std: 0.01
    }
    bias_filler {
      type: "constant"
      value: 0
    }
  }
}
layer {
  name: "relu1"
  type: "ReLU"
  bottom: "conv1"
  top: "conv1"
}
layer {
  name: "pool1"
  type: "Pooling"
  bottom: "conv1"
  top: "pool1"
  pooling_param {
    pool: MAX
    kernel_size: 3
    stride: 2
  }
}
layer {
  name: "norm1"
  type: "LRN"
  bottom: "pool1"
  top: "norm1"
  lrn_param {
    local_size: 5
    alpha: 0.0001
    beta: 0.75
  }
}
layer {
  name: "conv2"
  type: "Convolution"
  bottom: "norm1"
  top: "conv2"
  param {
    lr_mult: 0.01
    decay_mult: 0.01
  }
  param {
    lr_mult: 0.02
    decay_mult: 0
  }
  convolution_param {
    num_output: 256
    pad: 2
    kernel_size: 5
    group: 2
    weight_filler {
      type: "gaussian"
      std: 0.01
    }
    bias_filler {
      type: "constant"
      value: 1
    }
  }
}
layer {
  name: "relu2"
  type: "ReLU"
  bottom: "conv2"
  top: "conv2"
}
layer {
  name: "pool2"
  type: "Pooling"
  bottom: "conv2"
  top: "pool2"
  pooling_param {
    pool: MAX
    kernel_size: 3
    stride: 2
  }
}
layer {
  name: "norm2"
  type: "LRN"
  bottom: "pool2"
  top: "norm2"
  lrn_param {
    local_size: 5
    alpha: 0.0001
    beta: 0.75
  }
}
layer {
  name: "conv3"
  type: "Convolution"
  bottom: "norm2"
  top: "conv3"
  param {
    lr_mult: 0.01
    decay_mult: 0.01
  }
  param {
    lr_mult: 0.02
    decay_mult: 0
  }
  convolution_param {
    num_output: 384
    pad: 1
    kernel_size: 3
    weight_filler {
      type: "gaussian"
      std: 0.01
    }
    bias_filler {
      type: "constant"
      value: 0
    }
  }
}
layer {
  name: "relu3"
  type: "ReLU"
  bottom: "conv3"
  top: "conv3"
}
layer {
  name: "conv4"
  type: "Convolution"
  bottom: "conv3"
  top: "conv4"
  param {
    lr_mult: 0.01
    decay_mult: 0.01
  }
  param {
    lr_mult: 0.02
    decay_mult: 0
  }
  convolution_param {
    num_output: 384
    pad: 1
    kernel_size: 3
    group: 2
    weight_filler {
      type: "gaussian"
      std: 0.01
    }
    bias_filler {
      type: "constant"
      value: 1
    }
  }
}
layer {
  name: "relu4"
  type: "ReLU"
  bottom: "conv4"
  top: "conv4"
}
layer {
  name: "conv5"
  type: "Convolution"
  bottom: "conv4"
  top: "conv5"
  param {
    lr_mult: 0.01
    decay_mult: 0.01
  }
  param {
    lr_mult: 0.02
    decay_mult: 0
  }
  convolution_param {
    num_output: 256
    pad: 1
    kernel_size: 3
    group: 2
    weight_filler {
      type: "gaussian"
      std: 0.01
    }
    bias_filler {
      type: "constant"
      value: 1
    }
  }
}
layer {
  name: "relu5"
  type: "ReLU"
  bottom: "conv5"
  top: "conv5"
}
layer {
  name: "pool5"
  type: "Pooling"
  bottom: "conv5"
  top: "pool5"
  pooling_param {
    pool: MAX
    kernel_size: 3
    stride: 2
  }
}
layer {
  name: "fc6_msc"
  type: "InnerProduct"
  bottom: "pool5"
  top: "fc6_msc"
  param {
    lr_mult: 1
    decay_mult: 1
  }
  param {
    lr_mult: 2
    decay_mult: 0
  }
  inner_product_param {
    num_output: 4096
    weight_filler {
      type: "gaussian"
      std: 0.005
    }
    bias_filler {
      type: "constant"
      value: 1
    }
  }
}
layer {
  name: "relu6"
  type: "ReLU"
  bottom: "fc6_msc"
  top: "fc6_msc"
}
layer {
  name: "drop6"
  type: "Dropout"
  bottom: "fc6_msc"
  top: "fc6_msc"
  dropout_param {
    dropout_ratio: 0.5
  }
}
layer {
  name: "fc7_msc"
  type: "InnerProduct"
  bottom: "fc6_msc"
  top: "fc7_msc"
  param {
    lr_mult: 1
    decay_mult: 1
  }
  param {
    lr_mult: 2
    decay_mult: 0
  }
  inner_product_param {
    num_output: 4096
    weight_filler {
      type: "gaussian"
      std: 0.005
    }
    bias_filler {
      type: "constant"
      value: 1
    }
  }
}
layer {
  name: "relu7"
  type: "ReLU"
  bottom: "fc7_msc"
  top: "fc7_msc"
}
layer {
  name: "drop7"
  type: "Dropout"
  bottom: "fc7_msc"
  top: "fc7_msc"
  dropout_param {
    dropout_ratio: 0.5
  }
}
layer {
  name: "fc8_msc"
  type: "InnerProduct"
  bottom: "fc7_msc"
  top: "fc8_msc"
  param {
    lr_mult: 1
    decay_mult: 1
  }
  param {
    lr_mult: 2
    decay_mult: 0
  }
  inner_product_param {
    num_output: 2
    weight_filler {
      type: "gaussian"
      std: 0.01
    }
    bias_filler {
      type: "constant"
      value: 0
    }
  }
}
layer {
  name: "accuracy"
  type: "Accuracy"
  bottom: "fc8_msc"
  bottom: "label_msc"
  top: "accuracy"
  include {
    phase: TEST
  }
}
layer {
  name: "loss_msc"
  type: "SoftmaxWithLoss"
  bottom: "fc8_msc"
  bottom: "label_msc"
  top: "loss"
}
I0323 22:27:49.621429 25088 layer_factory.hpp:77] Creating layer data_msc
I0323 22:27:49.621440 25088 net.cpp:86] Creating Layer data_msc
I0323 22:27:49.621444 25088 net.cpp:382] data_msc -> data_msc
I0323 22:27:49.621450 25088 net.cpp:382] data_msc -> label_msc
I0323 22:27:49.621456 25088 image_data_layer.cpp:38] Opening file /media/p307k07/ssd/opt/msc/data/test/list_caffe.txt
I0323 22:27:49.654443 25088 image_data_layer.cpp:63] A total of 85562 images.
I0323 22:27:49.655133 25088 image_data_layer.cpp:90] output data size: 50,3,159,240
I0323 22:27:49.683145 25088 net.cpp:124] Setting up data_msc
I0323 22:27:49.683171 25088 net.cpp:131] Top shape: 50 3 159 240 (5724000)
I0323 22:27:49.683176 25088 net.cpp:131] Top shape: 50 (50)
I0323 22:27:49.683178 25088 net.cpp:139] Memory required for data: 22896200
I0323 22:27:49.683183 25088 layer_factory.hpp:77] Creating layer label_msc_data_msc_1_split
I0323 22:27:49.683193 25088 net.cpp:86] Creating Layer label_msc_data_msc_1_split
I0323 22:27:49.683197 25088 net.cpp:408] label_msc_data_msc_1_split <- label_msc
I0323 22:27:49.683202 25088 net.cpp:382] label_msc_data_msc_1_split -> label_msc_data_msc_1_split_0
I0323 22:27:49.683210 25088 net.cpp:382] label_msc_data_msc_1_split -> label_msc_data_msc_1_split_1
I0323 22:27:49.683267 25088 net.cpp:124] Setting up label_msc_data_msc_1_split
I0323 22:27:49.683272 25088 net.cpp:131] Top shape: 50 (50)
I0323 22:27:49.683275 25088 net.cpp:131] Top shape: 50 (50)
I0323 22:27:49.683277 25088 net.cpp:139] Memory required for data: 22896600
I0323 22:27:49.683279 25088 layer_factory.hpp:77] Creating layer conv1
I0323 22:27:49.683290 25088 net.cpp:86] Creating Layer conv1
I0323 22:27:49.683292 25088 net.cpp:408] conv1 <- data_msc
I0323 22:27:49.683297 25088 net.cpp:382] conv1 -> conv1
I0323 22:27:49.684500 25088 net.cpp:124] Setting up conv1
I0323 22:27:49.684511 25088 net.cpp:131] Top shape: 50 96 38 58 (10579200)
I0323 22:27:49.684514 25088 net.cpp:139] Memory required for data: 65213400
I0323 22:27:49.684521 25088 layer_factory.hpp:77] Creating layer relu1
I0323 22:27:49.684526 25088 net.cpp:86] Creating Layer relu1
I0323 22:27:49.684530 25088 net.cpp:408] relu1 <- conv1
I0323 22:27:49.684532 25088 net.cpp:369] relu1 -> conv1 (in-place)
I0323 22:27:49.684643 25088 net.cpp:124] Setting up relu1
I0323 22:27:49.684649 25088 net.cpp:131] Top shape: 50 96 38 58 (10579200)
I0323 22:27:49.684651 25088 net.cpp:139] Memory required for data: 107530200
I0323 22:27:49.684654 25088 layer_factory.hpp:77] Creating layer pool1
I0323 22:27:49.684659 25088 net.cpp:86] Creating Layer pool1
I0323 22:27:49.684661 25088 net.cpp:408] pool1 <- conv1
I0323 22:27:49.684665 25088 net.cpp:382] pool1 -> pool1
I0323 22:27:49.684697 25088 net.cpp:124] Setting up pool1
I0323 22:27:49.684701 25088 net.cpp:131] Top shape: 50 96 19 29 (2644800)
I0323 22:27:49.684703 25088 net.cpp:139] Memory required for data: 118109400
I0323 22:27:49.684705 25088 layer_factory.hpp:77] Creating layer norm1
I0323 22:27:49.684710 25088 net.cpp:86] Creating Layer norm1
I0323 22:27:49.684712 25088 net.cpp:408] norm1 <- pool1
I0323 22:27:49.684716 25088 net.cpp:382] norm1 -> norm1
I0323 22:27:49.686805 25088 net.cpp:124] Setting up norm1
I0323 22:27:49.686815 25088 net.cpp:131] Top shape: 50 96 19 29 (2644800)
I0323 22:27:49.686816 25088 net.cpp:139] Memory required for data: 128688600
I0323 22:27:49.686820 25088 layer_factory.hpp:77] Creating layer conv2
I0323 22:27:49.686826 25088 net.cpp:86] Creating Layer conv2
I0323 22:27:49.686828 25088 net.cpp:408] conv2 <- norm1
I0323 22:27:49.686837 25088 net.cpp:382] conv2 -> conv2
I0323 22:27:49.690762 25088 net.cpp:124] Setting up conv2
I0323 22:27:49.690773 25088 net.cpp:131] Top shape: 50 256 19 29 (7052800)
I0323 22:27:49.690775 25088 net.cpp:139] Memory required for data: 156899800
I0323 22:27:49.690781 25088 layer_factory.hpp:77] Creating layer relu2
I0323 22:27:49.690786 25088 net.cpp:86] Creating Layer relu2
I0323 22:27:49.690789 25088 net.cpp:408] relu2 <- conv2
I0323 22:27:49.690793 25088 net.cpp:369] relu2 -> conv2 (in-place)
I0323 22:27:49.690906 25088 net.cpp:124] Setting up relu2
I0323 22:27:49.690910 25088 net.cpp:131] Top shape: 50 256 19 29 (7052800)
I0323 22:27:49.690913 25088 net.cpp:139] Memory required for data: 185111000
I0323 22:27:49.690915 25088 layer_factory.hpp:77] Creating layer pool2
I0323 22:27:49.690920 25088 net.cpp:86] Creating Layer pool2
I0323 22:27:49.690923 25088 net.cpp:408] pool2 <- conv2
I0323 22:27:49.690927 25088 net.cpp:382] pool2 -> pool2
I0323 22:27:49.690956 25088 net.cpp:124] Setting up pool2
I0323 22:27:49.690961 25088 net.cpp:131] Top shape: 50 256 9 14 (1612800)
I0323 22:27:49.690963 25088 net.cpp:139] Memory required for data: 191562200
I0323 22:27:49.690965 25088 layer_factory.hpp:77] Creating layer norm2
I0323 22:27:49.690969 25088 net.cpp:86] Creating Layer norm2
I0323 22:27:49.690971 25088 net.cpp:408] norm2 <- pool2
I0323 22:27:49.690975 25088 net.cpp:382] norm2 -> norm2
I0323 22:27:49.691256 25088 net.cpp:124] Setting up norm2
I0323 22:27:49.691263 25088 net.cpp:131] Top shape: 50 256 9 14 (1612800)
I0323 22:27:49.691265 25088 net.cpp:139] Memory required for data: 198013400
I0323 22:27:49.691268 25088 layer_factory.hpp:77] Creating layer conv3
I0323 22:27:49.691275 25088 net.cpp:86] Creating Layer conv3
I0323 22:27:49.691277 25088 net.cpp:408] conv3 <- norm2
I0323 22:27:49.691282 25088 net.cpp:382] conv3 -> conv3
I0323 22:27:49.699028 25088 net.cpp:124] Setting up conv3
I0323 22:27:49.699043 25088 net.cpp:131] Top shape: 50 384 9 14 (2419200)
I0323 22:27:49.699045 25088 net.cpp:139] Memory required for data: 207690200
I0323 22:27:49.699054 25088 layer_factory.hpp:77] Creating layer relu3
I0323 22:27:49.699059 25088 net.cpp:86] Creating Layer relu3
I0323 22:27:49.699062 25088 net.cpp:408] relu3 <- conv3
I0323 22:27:49.699066 25088 net.cpp:369] relu3 -> conv3 (in-place)
I0323 22:27:49.699326 25088 net.cpp:124] Setting up relu3
I0323 22:27:49.699332 25088 net.cpp:131] Top shape: 50 384 9 14 (2419200)
I0323 22:27:49.699335 25088 net.cpp:139] Memory required for data: 217367000
I0323 22:27:49.699337 25088 layer_factory.hpp:77] Creating layer conv4
I0323 22:27:49.699344 25088 net.cpp:86] Creating Layer conv4
I0323 22:27:49.699347 25088 net.cpp:408] conv4 <- conv3
I0323 22:27:49.699352 25088 net.cpp:382] conv4 -> conv4
I0323 22:27:49.706219 25088 net.cpp:124] Setting up conv4
I0323 22:27:49.706233 25088 net.cpp:131] Top shape: 50 384 9 14 (2419200)
I0323 22:27:49.706236 25088 net.cpp:139] Memory required for data: 227043800
I0323 22:27:49.706243 25088 layer_factory.hpp:77] Creating layer relu4
I0323 22:27:49.706248 25088 net.cpp:86] Creating Layer relu4
I0323 22:27:49.706250 25088 net.cpp:408] relu4 <- conv4
I0323 22:27:49.706254 25088 net.cpp:369] relu4 -> conv4 (in-place)
I0323 22:27:49.706387 25088 net.cpp:124] Setting up relu4
I0323 22:27:49.706393 25088 net.cpp:131] Top shape: 50 384 9 14 (2419200)
I0323 22:27:49.706395 25088 net.cpp:139] Memory required for data: 236720600
I0323 22:27:49.706398 25088 layer_factory.hpp:77] Creating layer conv5
I0323 22:27:49.706404 25088 net.cpp:86] Creating Layer conv5
I0323 22:27:49.706408 25088 net.cpp:408] conv5 <- conv4
I0323 22:27:49.706411 25088 net.cpp:382] conv5 -> conv5
I0323 22:27:49.711442 25088 net.cpp:124] Setting up conv5
I0323 22:27:49.711457 25088 net.cpp:131] Top shape: 50 256 9 14 (1612800)
I0323 22:27:49.711459 25088 net.cpp:139] Memory required for data: 243171800
I0323 22:27:49.711467 25088 layer_factory.hpp:77] Creating layer relu5
I0323 22:27:49.711473 25088 net.cpp:86] Creating Layer relu5
I0323 22:27:49.711477 25088 net.cpp:408] relu5 <- conv5
I0323 22:27:49.711486 25088 net.cpp:369] relu5 -> conv5 (in-place)
I0323 22:27:49.711606 25088 net.cpp:124] Setting up relu5
I0323 22:27:49.711612 25088 net.cpp:131] Top shape: 50 256 9 14 (1612800)
I0323 22:27:49.711614 25088 net.cpp:139] Memory required for data: 249623000
I0323 22:27:49.711616 25088 layer_factory.hpp:77] Creating layer pool5
I0323 22:27:49.711623 25088 net.cpp:86] Creating Layer pool5
I0323 22:27:49.711625 25088 net.cpp:408] pool5 <- conv5
I0323 22:27:49.711629 25088 net.cpp:382] pool5 -> pool5
I0323 22:27:49.711658 25088 net.cpp:124] Setting up pool5
I0323 22:27:49.711663 25088 net.cpp:131] Top shape: 50 256 4 7 (358400)
I0323 22:27:49.711664 25088 net.cpp:139] Memory required for data: 251056600
I0323 22:27:49.711668 25088 layer_factory.hpp:77] Creating layer fc6_msc
I0323 22:27:49.711671 25088 net.cpp:86] Creating Layer fc6_msc
I0323 22:27:49.711674 25088 net.cpp:408] fc6_msc <- pool5
I0323 22:27:49.711678 25088 net.cpp:382] fc6_msc -> fc6_msc
I0323 22:27:49.943300 25088 net.cpp:124] Setting up fc6_msc
I0323 22:27:49.943328 25088 net.cpp:131] Top shape: 50 4096 (204800)
I0323 22:27:49.943332 25088 net.cpp:139] Memory required for data: 251875800
I0323 22:27:49.943341 25088 layer_factory.hpp:77] Creating layer relu6
I0323 22:27:49.943348 25088 net.cpp:86] Creating Layer relu6
I0323 22:27:49.943352 25088 net.cpp:408] relu6 <- fc6_msc
I0323 22:27:49.943357 25088 net.cpp:369] relu6 -> fc6_msc (in-place)
I0323 22:27:49.943763 25088 net.cpp:124] Setting up relu6
I0323 22:27:49.943773 25088 net.cpp:131] Top shape: 50 4096 (204800)
I0323 22:27:49.943776 25088 net.cpp:139] Memory required for data: 252695000
I0323 22:27:49.943779 25088 layer_factory.hpp:77] Creating layer drop6
I0323 22:27:49.943785 25088 net.cpp:86] Creating Layer drop6
I0323 22:27:49.943789 25088 net.cpp:408] drop6 <- fc6_msc
I0323 22:27:49.943792 25088 net.cpp:369] drop6 -> fc6_msc (in-place)
I0323 22:27:49.943820 25088 net.cpp:124] Setting up drop6
I0323 22:27:49.943825 25088 net.cpp:131] Top shape: 50 4096 (204800)
I0323 22:27:49.943826 25088 net.cpp:139] Memory required for data: 253514200
I0323 22:27:49.943828 25088 layer_factory.hpp:77] Creating layer fc7_msc
I0323 22:27:49.943833 25088 net.cpp:86] Creating Layer fc7_msc
I0323 22:27:49.943836 25088 net.cpp:408] fc7_msc <- fc6_msc
I0323 22:27:49.943840 25088 net.cpp:382] fc7_msc -> fc7_msc
I0323 22:27:50.074455 25088 net.cpp:124] Setting up fc7_msc
I0323 22:27:50.074481 25088 net.cpp:131] Top shape: 50 4096 (204800)
I0323 22:27:50.074486 25088 net.cpp:139] Memory required for data: 254333400
I0323 22:27:50.074493 25088 layer_factory.hpp:77] Creating layer relu7
I0323 22:27:50.074501 25088 net.cpp:86] Creating Layer relu7
I0323 22:27:50.074504 25088 net.cpp:408] relu7 <- fc7_msc
I0323 22:27:50.074509 25088 net.cpp:369] relu7 -> fc7_msc (in-place)
I0323 22:27:50.074687 25088 net.cpp:124] Setting up relu7
I0323 22:27:50.074694 25088 net.cpp:131] Top shape: 50 4096 (204800)
I0323 22:27:50.074697 25088 net.cpp:139] Memory required for data: 255152600
I0323 22:27:50.074699 25088 layer_factory.hpp:77] Creating layer drop7
I0323 22:27:50.074704 25088 net.cpp:86] Creating Layer drop7
I0323 22:27:50.074707 25088 net.cpp:408] drop7 <- fc7_msc
I0323 22:27:50.074712 25088 net.cpp:369] drop7 -> fc7_msc (in-place)
I0323 22:27:50.074735 25088 net.cpp:124] Setting up drop7
I0323 22:27:50.074739 25088 net.cpp:131] Top shape: 50 4096 (204800)
I0323 22:27:50.074741 25088 net.cpp:139] Memory required for data: 255971800
I0323 22:27:50.074743 25088 layer_factory.hpp:77] Creating layer fc8_msc
I0323 22:27:50.074749 25088 net.cpp:86] Creating Layer fc8_msc
I0323 22:27:50.074751 25088 net.cpp:408] fc8_msc <- fc7_msc
I0323 22:27:50.074755 25088 net.cpp:382] fc8_msc -> fc8_msc
I0323 22:27:50.074892 25088 net.cpp:124] Setting up fc8_msc
I0323 22:27:50.074895 25088 net.cpp:131] Top shape: 50 2 (100)
I0323 22:27:50.074898 25088 net.cpp:139] Memory required for data: 255972200
I0323 22:27:50.074901 25088 layer_factory.hpp:77] Creating layer fc8_msc_fc8_msc_0_split
I0323 22:27:50.074913 25088 net.cpp:86] Creating Layer fc8_msc_fc8_msc_0_split
I0323 22:27:50.074928 25088 net.cpp:408] fc8_msc_fc8_msc_0_split <- fc8_msc
I0323 22:27:50.074934 25088 net.cpp:382] fc8_msc_fc8_msc_0_split -> fc8_msc_fc8_msc_0_split_0
I0323 22:27:50.074940 25088 net.cpp:382] fc8_msc_fc8_msc_0_split -> fc8_msc_fc8_msc_0_split_1
I0323 22:27:50.074975 25088 net.cpp:124] Setting up fc8_msc_fc8_msc_0_split
I0323 22:27:50.074980 25088 net.cpp:131] Top shape: 50 2 (100)
I0323 22:27:50.074981 25088 net.cpp:131] Top shape: 50 2 (100)
I0323 22:27:50.074983 25088 net.cpp:139] Memory required for data: 255973000
I0323 22:27:50.074985 25088 layer_factory.hpp:77] Creating layer accuracy
I0323 22:27:50.074991 25088 net.cpp:86] Creating Layer accuracy
I0323 22:27:50.074993 25088 net.cpp:408] accuracy <- fc8_msc_fc8_msc_0_split_0
I0323 22:27:50.074996 25088 net.cpp:408] accuracy <- label_msc_data_msc_1_split_0
I0323 22:27:50.075001 25088 net.cpp:382] accuracy -> accuracy
…
