…
I0324 05:57:57.256021 26554 net.cpp:296] The NetState phase (0) differed from the phase (1) specified by a rule in layer accuracy
I0324 05:57:57.256144 26554 net.cpp:53] Initializing net from parameters: 
name: "MCaffeNet"
state {
  phase: TRAIN
  level: 0
  stage: ""
}
layer {
  name: "data_msc"
  type: "ImageData"
  top: "data_msc"
  top: "label_msc"
  include {
    phase: TRAIN
  }
  transform_param {
    mean_value: 296
    mean_value: 103
    mean_value: 108
  }
  image_data_param {
    source: "/media/p307k07/ssd/opt/msc/data/train/list_caffe.txt"
    batch_size: 50
    new_height: 159
    new_width: 240
  }
}
layer {
  name: "conv1"
  type: "Convolution"
  bottom: "data_msc"
  top: "conv1"
  param {
    lr_mult: 0.01
    decay_mult: 0.01
  }
  param {
    lr_mult: 0.02
    decay_mult: 0
  }
  convolution_param {
    num_output: 96
    kernel_size: 11
    stride: 4
    weight_filler {
      type: "gaussian"
      std: 0.01
    }
    bias_filler {
      type: "constant"
      value: 0
    }
  }
}
layer {
  name: "relu1"
  type: "ReLU"
  bottom: "conv1"
  top: "conv1"
}
layer {
  name: "pool1"
  type: "Pooling"
  bottom: "conv1"
  top: "pool1"
  pooling_param {
    pool: MAX
    kernel_size: 3
    stride: 2
  }
}
layer {
  name: "norm1"
  type: "LRN"
  bottom: "pool1"
  top: "norm1"
  lrn_param {
    local_size: 5
    alpha: 0.0001
    beta: 0.75
  }
}
layer {
  name: "conv2"
  type: "Convolution"
  bottom: "norm1"
  top: "conv2"
  param {
    lr_mult: 0.01
    decay_mult: 0.01
  }
  param {
    lr_mult: 0.02
    decay_mult: 0
  }
  convolution_param {
    num_output: 256
    pad: 2
    kernel_size: 5
    group: 2
    weight_filler {
      type: "gaussian"
      std: 0.01
    }
    bias_filler {
      type: "constant"
      value: 1
    }
  }
}
layer {
  name: "relu2"
  type: "ReLU"
  bottom: "conv2"
  top: "conv2"
}
layer {
  name: "pool2"
  type: "Pooling"
  bottom: "conv2"
  top: "pool2"
  pooling_param {
    pool: MAX
    kernel_size: 3
    stride: 2
  }
}
layer {
  name: "norm2"
  type: "LRN"
  bottom: "pool2"
  top: "norm2"
  lrn_param {
    local_size: 5
    alpha: 0.0001
    beta: 0.75
  }
}
layer {
  name: "conv3"
  type: "Convolution"
  bottom: "norm2"
  top: "conv3"
  param {
    lr_mult: 0.01
    decay_mult: 0.01
  }
  param {
    lr_mult: 0.02
    decay_mult: 0
  }
  convolution_param {
    num_output: 384
    pad: 1
    kernel_size: 3
    weight_filler {
      type: "gaussian"
      std: 0.01
    }
    bias_filler {
      type: "constant"
      value: 0
    }
  }
}
layer {
  name: "relu3"
  type: "ReLU"
  bottom: "conv3"
  top: "conv3"
}
layer {
  name: "conv4"
  type: "Convolution"
  bottom: "conv3"
  top: "conv4"
  param {
    lr_mult: 0.01
    decay_mult: 0.01
  }
  param {
    lr_mult: 0.02
    decay_mult: 0
  }
  convolution_param {
    num_output: 384
    pad: 1
    kernel_size: 3
    group: 2
    weight_filler {
      type: "gaussian"
      std: 0.01
    }
    bias_filler {
      type: "constant"
      value: 1
    }
  }
}
layer {
  name: "relu4"
  type: "ReLU"
  bottom: "conv4"
  top: "conv4"
}
layer {
  name: "conv5"
  type: "Convolution"
  bottom: "conv4"
  top: "conv5"
  param {
    lr_mult: 0.01
    decay_mult: 0.01
  }
  param {
    lr_mult: 0.02
    decay_mult: 0
  }
  convolution_param {
    num_output: 256
    pad: 1
    kernel_size: 3
    group: 2
    weight_filler {
      type: "gaussian"
      std: 0.01
    }
    bias_filler {
      type: "constant"
      value: 1
    }
  }
}
layer {
  name: "relu5"
  type: "ReLU"
  bottom: "conv5"
  top: "conv5"
}
layer {
  name: "pool5"
  type: "Pooling"
  bottom: "conv5"
  top: "pool5"
  pooling_param {
    pool: MAX
    kernel_size: 3
    stride: 2
  }
}
layer {
  name: "fc6_msc"
  type: "InnerProduct"
  bottom: "pool5"
  top: "fc6_msc"
  param {
    lr_mult: 1
    decay_mult: 1
  }
  param {
    lr_mult: 2
    decay_mult: 0
  }
  inner_product_param {
    num_output: 4096
    weight_filler {
      type: "gaussian"
      std: 0.005
    }
    bias_filler {
      type: "constant"
      value: 1
    }
  }
}
layer {
  name: "relu6"
  type: "ReLU"
  bottom: "fc6_msc"
  top: "fc6_msc"
}
layer {
  name: "drop6"
  type: "Dropout"
  bottom: "fc6_msc"
  top: "fc6_msc"
  dropout_param {
    dropout_ratio: 0.5
  }
}
layer {
  name: "fc7_msc"
  type: "InnerProduct"
  bottom: "fc6_msc"
  top: "fc7_msc"
  param {
    lr_mult: 1
    decay_mult: 1
  }
  param {
    lr_mult: 2
    decay_mult: 0
  }
  inner_product_param {
    num_output: 4096
    weight_filler {
      type: "gaussian"
      std: 0.005
    }
    bias_filler {
      type: "constant"
      value: 1
    }
  }
}
layer {
  name: "relu7"
  type: "ReLU"
  bottom: "fc7_msc"
  top: "fc7_msc"
}
layer {
  name: "drop7"
  type: "Dropout"
  bottom: "fc7_msc"
  top: "fc7_msc"
  dropout_param {
    dropout_ratio: 0.5
  }
}
layer {
  name: "fc8_msc"
  type: "InnerProduct"
  bottom: "fc7_msc"
  top: "fc8_msc"
  param {
    lr_mult: 1
    decay_mult: 1
  }
  param {
    lr_mult: 2
    decay_mult: 0
  }
  inner_product_param {
    num_output: 2
    weight_filler {
      type: "gaussian"
      std: 0.01
    }
    bias_filler {
      type: "constant"
      value: 0
    }
  }
}
layer {
  name: "loss_msc"
  type: "SoftmaxWithLoss"
  bottom: "fc8_msc"
  bottom: "label_msc"
  top: "loss"
}
I0324 05:57:57.256222 26554 layer_factory.hpp:77] Creating layer data_msc
I0324 05:57:57.256244 26554 net.cpp:86] Creating Layer data_msc
I0324 05:57:57.256249 26554 net.cpp:382] data_msc -> data_msc
I0324 05:57:57.256266 26554 net.cpp:382] data_msc -> label_msc
I0324 05:57:57.256278 26554 image_data_layer.cpp:38] Opening file /media/p307k07/ssd/opt/msc/data/train/list_caffe.txt
I0324 05:57:57.411097 26554 image_data_layer.cpp:63] A total of 513382 images.
I0324 05:57:57.413159 26554 image_data_layer.cpp:90] output data size: 50,3,159,240
I0324 05:57:57.441665 26554 net.cpp:124] Setting up data_msc
I0324 05:57:57.441691 26554 net.cpp:131] Top shape: 50 3 159 240 (5724000)
I0324 05:57:57.441697 26554 net.cpp:131] Top shape: 50 (50)
I0324 05:57:57.441699 26554 net.cpp:139] Memory required for data: 22896200
I0324 05:57:57.441706 26554 layer_factory.hpp:77] Creating layer conv1
I0324 05:57:57.441723 26554 net.cpp:86] Creating Layer conv1
I0324 05:57:57.441728 26554 net.cpp:408] conv1 <- data_msc
I0324 05:57:57.441740 26554 net.cpp:382] conv1 -> conv1
I0324 05:57:59.327668 26554 net.cpp:124] Setting up conv1
I0324 05:57:59.327699 26554 net.cpp:131] Top shape: 50 96 38 58 (10579200)
I0324 05:57:59.327702 26554 net.cpp:139] Memory required for data: 65213000
I0324 05:57:59.327730 26554 layer_factory.hpp:77] Creating layer relu1
I0324 05:57:59.327744 26554 net.cpp:86] Creating Layer relu1
I0324 05:57:59.327747 26554 net.cpp:408] relu1 <- conv1
I0324 05:57:59.327751 26554 net.cpp:369] relu1 -> conv1 (in-place)
I0324 05:57:59.328121 26554 net.cpp:124] Setting up relu1
I0324 05:57:59.328136 26554 net.cpp:131] Top shape: 50 96 38 58 (10579200)
I0324 05:57:59.328141 26554 net.cpp:139] Memory required for data: 107529800
I0324 05:57:59.328145 26554 layer_factory.hpp:77] Creating layer pool1
I0324 05:57:59.328155 26554 net.cpp:86] Creating Layer pool1
I0324 05:57:59.328160 26554 net.cpp:408] pool1 <- conv1
I0324 05:57:59.328166 26554 net.cpp:382] pool1 -> pool1
I0324 05:57:59.328223 26554 net.cpp:124] Setting up pool1
I0324 05:57:59.328230 26554 net.cpp:131] Top shape: 50 96 19 29 (2644800)
I0324 05:57:59.328240 26554 net.cpp:139] Memory required for data: 118109000
I0324 05:57:59.328868 26554 layer_factory.hpp:77] Creating layer norm1
I0324 05:57:59.328887 26554 net.cpp:86] Creating Layer norm1
I0324 05:57:59.328893 26554 net.cpp:408] norm1 <- pool1
I0324 05:57:59.328902 26554 net.cpp:382] norm1 -> norm1
I0324 05:57:59.329152 26554 net.cpp:124] Setting up norm1
I0324 05:57:59.329165 26554 net.cpp:131] Top shape: 50 96 19 29 (2644800)
I0324 05:57:59.329170 26554 net.cpp:139] Memory required for data: 128688200
I0324 05:57:59.329174 26554 layer_factory.hpp:77] Creating layer conv2
I0324 05:57:59.329187 26554 net.cpp:86] Creating Layer conv2
I0324 05:57:59.329191 26554 net.cpp:408] conv2 <- norm1
I0324 05:57:59.329198 26554 net.cpp:382] conv2 -> conv2
I0324 05:57:59.336238 26554 net.cpp:124] Setting up conv2
I0324 05:57:59.336256 26554 net.cpp:131] Top shape: 50 256 19 29 (7052800)
I0324 05:57:59.336259 26554 net.cpp:139] Memory required for data: 156899400
I0324 05:57:59.336271 26554 layer_factory.hpp:77] Creating layer relu2
I0324 05:57:59.336277 26554 net.cpp:86] Creating Layer relu2
I0324 05:57:59.336282 26554 net.cpp:408] relu2 <- conv2
I0324 05:57:59.336287 26554 net.cpp:369] relu2 -> conv2 (in-place)
I0324 05:57:59.336495 26554 net.cpp:124] Setting up relu2
I0324 05:57:59.336506 26554 net.cpp:131] Top shape: 50 256 19 29 (7052800)
I0324 05:57:59.336510 26554 net.cpp:139] Memory required for data: 185110600
I0324 05:57:59.336514 26554 layer_factory.hpp:77] Creating layer pool2
I0324 05:57:59.336520 26554 net.cpp:86] Creating Layer pool2
I0324 05:57:59.336524 26554 net.cpp:408] pool2 <- conv2
I0324 05:57:59.336532 26554 net.cpp:382] pool2 -> pool2
I0324 05:57:59.336578 26554 net.cpp:124] Setting up pool2
I0324 05:57:59.336585 26554 net.cpp:131] Top shape: 50 256 9 14 (1612800)
I0324 05:57:59.336588 26554 net.cpp:139] Memory required for data: 191561800
I0324 05:57:59.336592 26554 layer_factory.hpp:77] Creating layer norm2
I0324 05:57:59.336602 26554 net.cpp:86] Creating Layer norm2
I0324 05:57:59.336606 26554 net.cpp:408] norm2 <- pool2
I0324 05:57:59.336611 26554 net.cpp:382] norm2 -> norm2
I0324 05:57:59.337066 26554 net.cpp:124] Setting up norm2
I0324 05:57:59.337080 26554 net.cpp:131] Top shape: 50 256 9 14 (1612800)
I0324 05:57:59.337085 26554 net.cpp:139] Memory required for data: 198013000
I0324 05:57:59.337088 26554 layer_factory.hpp:77] Creating layer conv3
I0324 05:57:59.337100 26554 net.cpp:86] Creating Layer conv3
I0324 05:57:59.337105 26554 net.cpp:408] conv3 <- norm2
I0324 05:57:59.337113 26554 net.cpp:382] conv3 -> conv3
I0324 05:57:59.350215 26554 net.cpp:124] Setting up conv3
I0324 05:57:59.350234 26554 net.cpp:131] Top shape: 50 384 9 14 (2419200)
I0324 05:57:59.350239 26554 net.cpp:139] Memory required for data: 207689800
I0324 05:57:59.350250 26554 layer_factory.hpp:77] Creating layer relu3
I0324 05:57:59.350257 26554 net.cpp:86] Creating Layer relu3
I0324 05:57:59.350261 26554 net.cpp:408] relu3 <- conv3
I0324 05:57:59.350267 26554 net.cpp:369] relu3 -> conv3 (in-place)
I0324 05:57:59.350464 26554 net.cpp:124] Setting up relu3
I0324 05:57:59.350474 26554 net.cpp:131] Top shape: 50 384 9 14 (2419200)
I0324 05:57:59.350478 26554 net.cpp:139] Memory required for data: 217366600
I0324 05:57:59.350482 26554 layer_factory.hpp:77] Creating layer conv4
I0324 05:57:59.350492 26554 net.cpp:86] Creating Layer conv4
I0324 05:57:59.350497 26554 net.cpp:408] conv4 <- conv3
I0324 05:57:59.350504 26554 net.cpp:382] conv4 -> conv4
I0324 05:57:59.361147 26554 net.cpp:124] Setting up conv4
I0324 05:57:59.361165 26554 net.cpp:131] Top shape: 50 384 9 14 (2419200)
I0324 05:57:59.361168 26554 net.cpp:139] Memory required for data: 227043400
I0324 05:57:59.361176 26554 layer_factory.hpp:77] Creating layer relu4
I0324 05:57:59.361186 26554 net.cpp:86] Creating Layer relu4
I0324 05:57:59.361189 26554 net.cpp:408] relu4 <- conv4
I0324 05:57:59.361196 26554 net.cpp:369] relu4 -> conv4 (in-place)
I0324 05:57:59.361378 26554 net.cpp:124] Setting up relu4
I0324 05:57:59.361388 26554 net.cpp:131] Top shape: 50 384 9 14 (2419200)
I0324 05:57:59.361397 26554 net.cpp:139] Memory required for data: 236720200
I0324 05:57:59.361413 26554 layer_factory.hpp:77] Creating layer conv5
I0324 05:57:59.361425 26554 net.cpp:86] Creating Layer conv5
I0324 05:57:59.361430 26554 net.cpp:408] conv5 <- conv4
I0324 05:57:59.361436 26554 net.cpp:382] conv5 -> conv5
I0324 05:57:59.369331 26554 net.cpp:124] Setting up conv5
I0324 05:57:59.369346 26554 net.cpp:131] Top shape: 50 256 9 14 (1612800)
I0324 05:57:59.369350 26554 net.cpp:139] Memory required for data: 243171400
I0324 05:57:59.369361 26554 layer_factory.hpp:77] Creating layer relu5
I0324 05:57:59.369369 26554 net.cpp:86] Creating Layer relu5
I0324 05:57:59.369372 26554 net.cpp:408] relu5 <- conv5
I0324 05:57:59.369379 26554 net.cpp:369] relu5 -> conv5 (in-place)
I0324 05:57:59.369549 26554 net.cpp:124] Setting up relu5
I0324 05:57:59.369559 26554 net.cpp:131] Top shape: 50 256 9 14 (1612800)
I0324 05:57:59.369562 26554 net.cpp:139] Memory required for data: 249622600
I0324 05:57:59.369565 26554 layer_factory.hpp:77] Creating layer pool5
I0324 05:57:59.369575 26554 net.cpp:86] Creating Layer pool5
I0324 05:57:59.369577 26554 net.cpp:408] pool5 <- conv5
I0324 05:57:59.369583 26554 net.cpp:382] pool5 -> pool5
I0324 05:57:59.369626 26554 net.cpp:124] Setting up pool5
I0324 05:57:59.369632 26554 net.cpp:131] Top shape: 50 256 4 7 (358400)
I0324 05:57:59.369637 26554 net.cpp:139] Memory required for data: 251056200
I0324 05:57:59.369639 26554 layer_factory.hpp:77] Creating layer fc6_msc
I0324 05:57:59.369649 26554 net.cpp:86] Creating Layer fc6_msc
I0324 05:57:59.369652 26554 net.cpp:408] fc6_msc <- pool5
I0324 05:57:59.369659 26554 net.cpp:382] fc6_msc -> fc6_msc
I0324 05:57:59.626101 26554 net.cpp:124] Setting up fc6_msc
I0324 05:57:59.626129 26554 net.cpp:131] Top shape: 50 4096 (204800)
I0324 05:57:59.626132 26554 net.cpp:139] Memory required for data: 251875400
I0324 05:57:59.626140 26554 layer_factory.hpp:77] Creating layer relu6
I0324 05:57:59.626147 26554 net.cpp:86] Creating Layer relu6
I0324 05:57:59.626150 26554 net.cpp:408] relu6 <- fc6_msc
I0324 05:57:59.626155 26554 net.cpp:369] relu6 -> fc6_msc (in-place)
I0324 05:57:59.626528 26554 net.cpp:124] Setting up relu6
I0324 05:57:59.626534 26554 net.cpp:131] Top shape: 50 4096 (204800)
I0324 05:57:59.626538 26554 net.cpp:139] Memory required for data: 252694600
I0324 05:57:59.626539 26554 layer_factory.hpp:77] Creating layer drop6
I0324 05:57:59.626545 26554 net.cpp:86] Creating Layer drop6
I0324 05:57:59.626547 26554 net.cpp:408] drop6 <- fc6_msc
I0324 05:57:59.626551 26554 net.cpp:369] drop6 -> fc6_msc (in-place)
I0324 05:57:59.626574 26554 net.cpp:124] Setting up drop6
I0324 05:57:59.626576 26554 net.cpp:131] Top shape: 50 4096 (204800)
I0324 05:57:59.626579 26554 net.cpp:139] Memory required for data: 253513800
I0324 05:57:59.626580 26554 layer_factory.hpp:77] Creating layer fc7_msc
I0324 05:57:59.626587 26554 net.cpp:86] Creating Layer fc7_msc
I0324 05:57:59.626590 26554 net.cpp:408] fc7_msc <- fc6_msc
I0324 05:57:59.626593 26554 net.cpp:382] fc7_msc -> fc7_msc
I0324 05:57:59.756916 26554 net.cpp:124] Setting up fc7_msc
I0324 05:57:59.756942 26554 net.cpp:131] Top shape: 50 4096 (204800)
I0324 05:57:59.756944 26554 net.cpp:139] Memory required for data: 254333000
I0324 05:57:59.756952 26554 layer_factory.hpp:77] Creating layer relu7
I0324 05:57:59.756958 26554 net.cpp:86] Creating Layer relu7
I0324 05:57:59.756961 26554 net.cpp:408] relu7 <- fc7_msc
I0324 05:57:59.756968 26554 net.cpp:369] relu7 -> fc7_msc (in-place)
I0324 05:57:59.757339 26554 net.cpp:124] Setting up relu7
I0324 05:57:59.757346 26554 net.cpp:131] Top shape: 50 4096 (204800)
I0324 05:57:59.757349 26554 net.cpp:139] Memory required for data: 255152200
I0324 05:57:59.757350 26554 layer_factory.hpp:77] Creating layer drop7
I0324 05:57:59.757355 26554 net.cpp:86] Creating Layer drop7
I0324 05:57:59.757357 26554 net.cpp:408] drop7 <- fc7_msc
I0324 05:57:59.757362 26554 net.cpp:369] drop7 -> fc7_msc (in-place)
I0324 05:57:59.757382 26554 net.cpp:124] Setting up drop7
I0324 05:57:59.757391 26554 net.cpp:131] Top shape: 50 4096 (204800)
I0324 05:57:59.757405 26554 net.cpp:139] Memory required for data: 255971400
I0324 05:57:59.757407 26554 layer_factory.hpp:77] Creating layer fc8_msc
I0324 05:57:59.757413 26554 net.cpp:86] Creating Layer fc8_msc
I0324 05:57:59.757416 26554 net.cpp:408] fc8_msc <- fc7_msc
I0324 05:57:59.757419 26554 net.cpp:382] fc8_msc -> fc8_msc
I0324 05:57:59.757838 26554 net.cpp:124] Setting up fc8_msc
I0324 05:57:59.757845 26554 net.cpp:131] Top shape: 50 2 (100)
I0324 05:57:59.757848 26554 net.cpp:139] Memory required for data: 255971800
I0324 05:57:59.757853 26554 layer_factory.hpp:77] Creating layer loss_msc
I0324 05:57:59.757856 26554 net.cpp:86] Creating Layer loss_msc
I0324 05:57:59.757858 26554 net.cpp:408] loss_msc <- fc8_msc
I0324 05:57:59.757861 26554 net.cpp:408] loss_msc <- label_msc
I0324 05:57:59.757868 26554 net.cpp:382] loss_msc -> loss
…
I0324 05:57:59.758379 26554 net.cpp:296] The NetState phase (1) differed from the phase (0) specified by a rule in layer data_msc
I0324 05:57:59.758497 26554 net.cpp:53] Initializing net from parameters: 
name: "MCaffeNet"
state {
  phase: TEST
}
layer {
  name: "data_msc"
  type: "ImageData"
  top: "data_msc"
  top: "label_msc"
  include {
    phase: TEST
  }
  transform_param {
    mean_value: 296
    mean_value: 103
    mean_value: 108
  }
  image_data_param {
    source: "/media/p307k07/ssd/opt/msc/data/test/list_caffe.txt"
    batch_size: 50
    new_height: 159
    new_width: 240
  }
}
layer {
  name: "conv1"
  type: "Convolution"
  bottom: "data_msc"
  top: "conv1"
  param {
    lr_mult: 0.01
    decay_mult: 0.01
  }
  param {
    lr_mult: 0.02
    decay_mult: 0
  }
  convolution_param {
    num_output: 96
    kernel_size: 11
    stride: 4
    weight_filler {
      type: "gaussian"
      std: 0.01
    }
    bias_filler {
      type: "constant"
      value: 0
    }
  }
}
layer {
  name: "relu1"
  type: "ReLU"
  bottom: "conv1"
  top: "conv1"
}
layer {
  name: "pool1"
  type: "Pooling"
  bottom: "conv1"
  top: "pool1"
  pooling_param {
    pool: MAX
    kernel_size: 3
    stride: 2
  }
}
layer {
  name: "norm1"
  type: "LRN"
  bottom: "pool1"
  top: "norm1"
  lrn_param {
    local_size: 5
    alpha: 0.0001
    beta: 0.75
  }
}
layer {
  name: "conv2"
  type: "Convolution"
  bottom: "norm1"
  top: "conv2"
  param {
    lr_mult: 0.01
    decay_mult: 0.01
  }
  param {
    lr_mult: 0.02
    decay_mult: 0
  }
  convolution_param {
    num_output: 256
    pad: 2
    kernel_size: 5
    group: 2
    weight_filler {
      type: "gaussian"
      std: 0.01
    }
    bias_filler {
      type: "constant"
      value: 1
    }
  }
}
layer {
  name: "relu2"
  type: "ReLU"
  bottom: "conv2"
  top: "conv2"
}
layer {
  name: "pool2"
  type: "Pooling"
  bottom: "conv2"
  top: "pool2"
  pooling_param {
    pool: MAX
    kernel_size: 3
    stride: 2
  }
}
layer {
  name: "norm2"
  type: "LRN"
  bottom: "pool2"
  top: "norm2"
  lrn_param {
    local_size: 5
    alpha: 0.0001
    beta: 0.75
  }
}
layer {
  name: "conv3"
  type: "Convolution"
  bottom: "norm2"
  top: "conv3"
  param {
    lr_mult: 0.01
    decay_mult: 0.01
  }
  param {
    lr_mult: 0.02
    decay_mult: 0
  }
  convolution_param {
    num_output: 384
    pad: 1
    kernel_size: 3
    weight_filler {
      type: "gaussian"
      std: 0.01
    }
    bias_filler {
      type: "constant"
      value: 0
    }
  }
}
layer {
  name: "relu3"
  type: "ReLU"
  bottom: "conv3"
  top: "conv3"
}
layer {
  name: "conv4"
  type: "Convolution"
  bottom: "conv3"
  top: "conv4"
  param {
    lr_mult: 0.01
    decay_mult: 0.01
  }
  param {
    lr_mult: 0.02
    decay_mult: 0
  }
  convolution_param {
    num_output: 384
    pad: 1
    kernel_size: 3
    group: 2
    weight_filler {
      type: "gaussian"
      std: 0.01
    }
    bias_filler {
      type: "constant"
      value: 1
    }
  }
}
layer {
  name: "relu4"
  type: "ReLU"
  bottom: "conv4"
  top: "conv4"
}
layer {
  name: "conv5"
  type: "Convolution"
  bottom: "conv4"
  top: "conv5"
  param {
    lr_mult: 0.01
    decay_mult: 0.01
  }
  param {
    lr_mult: 0.02
    decay_mult: 0
  }
  convolution_param {
    num_output: 256
    pad: 1
    kernel_size: 3
    group: 2
    weight_filler {
      type: "gaussian"
      std: 0.01
    }
    bias_filler {
      type: "constant"
      value: 1
    }
  }
}
layer {
  name: "relu5"
  type: "ReLU"
  bottom: "conv5"
  top: "conv5"
}
layer {
  name: "pool5"
  type: "Pooling"
  bottom: "conv5"
  top: "pool5"
  pooling_param {
    pool: MAX
    kernel_size: 3
    stride: 2
  }
}
layer {
  name: "fc6_msc"
  type: "InnerProduct"
  bottom: "pool5"
  top: "fc6_msc"
  param {
    lr_mult: 1
    decay_mult: 1
  }
  param {
    lr_mult: 2
    decay_mult: 0
  }
  inner_product_param {
    num_output: 4096
    weight_filler {
      type: "gaussian"
      std: 0.005
    }
    bias_filler {
      type: "constant"
      value: 1
    }
  }
}
layer {
  name: "relu6"
  type: "ReLU"
  bottom: "fc6_msc"
  top: "fc6_msc"
}
layer {
  name: "drop6"
  type: "Dropout"
  bottom: "fc6_msc"
  top: "fc6_msc"
  dropout_param {
    dropout_ratio: 0.5
  }
}
layer {
  name: "fc7_msc"
  type: "InnerProduct"
  bottom: "fc6_msc"
  top: "fc7_msc"
  param {
    lr_mult: 1
    decay_mult: 1
  }
  param {
    lr_mult: 2
    decay_mult: 0
  }
  inner_product_param {
    num_output: 4096
    weight_filler {
      type: "gaussian"
      std: 0.005
    }
    bias_filler {
      type: "constant"
      value: 1
    }
  }
}
layer {
  name: "relu7"
  type: "ReLU"
  bottom: "fc7_msc"
  top: "fc7_msc"
}
layer {
  name: "drop7"
  type: "Dropout"
  bottom: "fc7_msc"
  top: "fc7_msc"
  dropout_param {
    dropout_ratio: 0.5
  }
}
layer {
  name: "fc8_msc"
  type: "InnerProduct"
  bottom: "fc7_msc"
  top: "fc8_msc"
  param {
    lr_mult: 1
    decay_mult: 1
  }
  param {
    lr_mult: 2
    decay_mult: 0
  }
  inner_product_param {
    num_output: 2
    weight_filler {
      type: "gaussian"
      std: 0.01
    }
    bias_filler {
      type: "constant"
      value: 0
    }
  }
}
layer {
  name: "accuracy"
  type: "Accuracy"
  bottom: "fc8_msc"
  bottom: "label_msc"
  top: "accuracy"
  include {
    phase: TEST
  }
}
layer {
  name: "loss_msc"
  type: "SoftmaxWithLoss"
  bottom: "fc8_msc"
  bottom: "label_msc"
  top: "loss"
}
I0324 05:57:59.758581 26554 layer_factory.hpp:77] Creating layer data_msc
I0324 05:57:59.758594 26554 net.cpp:86] Creating Layer data_msc
I0324 05:57:59.758596 26554 net.cpp:382] data_msc -> data_msc
I0324 05:57:59.758602 26554 net.cpp:382] data_msc -> label_msc
I0324 05:57:59.758610 26554 image_data_layer.cpp:38] Opening file /media/p307k07/ssd/opt/msc/data/test/list_caffe.txt
I0324 05:57:59.791659 26554 image_data_layer.cpp:63] A total of 85562 images.
I0324 05:57:59.792333 26554 image_data_layer.cpp:90] output data size: 50,3,159,240
I0324 05:57:59.820755 26554 net.cpp:124] Setting up data_msc
I0324 05:57:59.820780 26554 net.cpp:131] Top shape: 50 3 159 240 (5724000)
I0324 05:57:59.820785 26554 net.cpp:131] Top shape: 50 (50)
I0324 05:57:59.820788 26554 net.cpp:139] Memory required for data: 22896200
I0324 05:57:59.820793 26554 layer_factory.hpp:77] Creating layer label_msc_data_msc_1_split
I0324 05:57:59.820802 26554 net.cpp:86] Creating Layer label_msc_data_msc_1_split
I0324 05:57:59.820806 26554 net.cpp:408] label_msc_data_msc_1_split <- label_msc
I0324 05:57:59.820811 26554 net.cpp:382] label_msc_data_msc_1_split -> label_msc_data_msc_1_split_0
I0324 05:57:59.820821 26554 net.cpp:382] label_msc_data_msc_1_split -> label_msc_data_msc_1_split_1
I0324 05:57:59.820861 26554 net.cpp:124] Setting up label_msc_data_msc_1_split
I0324 05:57:59.820866 26554 net.cpp:131] Top shape: 50 (50)
I0324 05:57:59.820869 26554 net.cpp:131] Top shape: 50 (50)
I0324 05:57:59.820870 26554 net.cpp:139] Memory required for data: 22896600
I0324 05:57:59.820873 26554 layer_factory.hpp:77] Creating layer conv1
I0324 05:57:59.820883 26554 net.cpp:86] Creating Layer conv1
I0324 05:57:59.820886 26554 net.cpp:408] conv1 <- data_msc
I0324 05:57:59.820890 26554 net.cpp:382] conv1 -> conv1
I0324 05:57:59.822073 26554 net.cpp:124] Setting up conv1
I0324 05:57:59.822084 26554 net.cpp:131] Top shape: 50 96 38 58 (10579200)
I0324 05:57:59.822088 26554 net.cpp:139] Memory required for data: 65213400
I0324 05:57:59.822095 26554 layer_factory.hpp:77] Creating layer relu1
I0324 05:57:59.822100 26554 net.cpp:86] Creating Layer relu1
I0324 05:57:59.822103 26554 net.cpp:408] relu1 <- conv1
I0324 05:57:59.822106 26554 net.cpp:369] relu1 -> conv1 (in-place)
I0324 05:57:59.822218 26554 net.cpp:124] Setting up relu1
I0324 05:57:59.822224 26554 net.cpp:131] Top shape: 50 96 38 58 (10579200)
I0324 05:57:59.822227 26554 net.cpp:139] Memory required for data: 107530200
I0324 05:57:59.822229 26554 layer_factory.hpp:77] Creating layer pool1
I0324 05:57:59.822234 26554 net.cpp:86] Creating Layer pool1
I0324 05:57:59.822237 26554 net.cpp:408] pool1 <- conv1
I0324 05:57:59.822240 26554 net.cpp:382] pool1 -> pool1
I0324 05:57:59.824118 26554 net.cpp:124] Setting up pool1
I0324 05:57:59.824123 26554 net.cpp:131] Top shape: 50 96 19 29 (2644800)
I0324 05:57:59.824126 26554 net.cpp:139] Memory required for data: 118109400
I0324 05:57:59.824128 26554 layer_factory.hpp:77] Creating layer norm1
I0324 05:57:59.824133 26554 net.cpp:86] Creating Layer norm1
I0324 05:57:59.824136 26554 net.cpp:408] norm1 <- pool1
I0324 05:57:59.824139 26554 net.cpp:382] norm1 -> norm1
I0324 05:57:59.824425 26554 net.cpp:124] Setting up norm1
I0324 05:57:59.824432 26554 net.cpp:131] Top shape: 50 96 19 29 (2644800)
I0324 05:57:59.824435 26554 net.cpp:139] Memory required for data: 128688600
I0324 05:57:59.824437 26554 layer_factory.hpp:77] Creating layer conv2
I0324 05:57:59.824443 26554 net.cpp:86] Creating Layer conv2
I0324 05:57:59.824446 26554 net.cpp:408] conv2 <- norm1
I0324 05:57:59.824458 26554 net.cpp:382] conv2 -> conv2
I0324 05:57:59.828403 26554 net.cpp:124] Setting up conv2
I0324 05:57:59.828413 26554 net.cpp:131] Top shape: 50 256 19 29 (7052800)
I0324 05:57:59.828416 26554 net.cpp:139] Memory required for data: 156899800
I0324 05:57:59.828423 26554 layer_factory.hpp:77] Creating layer relu2
I0324 05:57:59.828428 26554 net.cpp:86] Creating Layer relu2
I0324 05:57:59.828429 26554 net.cpp:408] relu2 <- conv2
I0324 05:57:59.828433 26554 net.cpp:369] relu2 -> conv2 (in-place)
I0324 05:57:59.828544 26554 net.cpp:124] Setting up relu2
I0324 05:57:59.828550 26554 net.cpp:131] Top shape: 50 256 19 29 (7052800)
I0324 05:57:59.828552 26554 net.cpp:139] Memory required for data: 185111000
I0324 05:57:59.828554 26554 layer_factory.hpp:77] Creating layer pool2
I0324 05:57:59.828560 26554 net.cpp:86] Creating Layer pool2
I0324 05:57:59.828562 26554 net.cpp:408] pool2 <- conv2
I0324 05:57:59.828565 26554 net.cpp:382] pool2 -> pool2
I0324 05:57:59.828594 26554 net.cpp:124] Setting up pool2
I0324 05:57:59.828599 26554 net.cpp:131] Top shape: 50 256 9 14 (1612800)
I0324 05:57:59.828601 26554 net.cpp:139] Memory required for data: 191562200
I0324 05:57:59.828603 26554 layer_factory.hpp:77] Creating layer norm2
I0324 05:57:59.828608 26554 net.cpp:86] Creating Layer norm2
I0324 05:57:59.828609 26554 net.cpp:408] norm2 <- pool2
I0324 05:57:59.828613 26554 net.cpp:382] norm2 -> norm2
I0324 05:57:59.828889 26554 net.cpp:124] Setting up norm2
I0324 05:57:59.828897 26554 net.cpp:131] Top shape: 50 256 9 14 (1612800)
I0324 05:57:59.828899 26554 net.cpp:139] Memory required for data: 198013400
I0324 05:57:59.828902 26554 layer_factory.hpp:77] Creating layer conv3
I0324 05:57:59.828908 26554 net.cpp:86] Creating Layer conv3
I0324 05:57:59.828912 26554 net.cpp:408] conv3 <- norm2
I0324 05:57:59.828915 26554 net.cpp:382] conv3 -> conv3
I0324 05:57:59.836650 26554 net.cpp:124] Setting up conv3
I0324 05:57:59.836663 26554 net.cpp:131] Top shape: 50 384 9 14 (2419200)
I0324 05:57:59.836665 26554 net.cpp:139] Memory required for data: 207690200
I0324 05:57:59.836673 26554 layer_factory.hpp:77] Creating layer relu3
I0324 05:57:59.836678 26554 net.cpp:86] Creating Layer relu3
I0324 05:57:59.836680 26554 net.cpp:408] relu3 <- conv3
I0324 05:57:59.836684 26554 net.cpp:369] relu3 -> conv3 (in-place)
I0324 05:57:59.836942 26554 net.cpp:124] Setting up relu3
I0324 05:57:59.836951 26554 net.cpp:131] Top shape: 50 384 9 14 (2419200)
I0324 05:57:59.836952 26554 net.cpp:139] Memory required for data: 217367000
I0324 05:57:59.836956 26554 layer_factory.hpp:77] Creating layer conv4
I0324 05:57:59.836961 26554 net.cpp:86] Creating Layer conv4
I0324 05:57:59.836964 26554 net.cpp:408] conv4 <- conv3
I0324 05:57:59.836967 26554 net.cpp:382] conv4 -> conv4
I0324 05:57:59.843843 26554 net.cpp:124] Setting up conv4
I0324 05:57:59.843857 26554 net.cpp:131] Top shape: 50 384 9 14 (2419200)
I0324 05:57:59.843858 26554 net.cpp:139] Memory required for data: 227043800
I0324 05:57:59.843863 26554 layer_factory.hpp:77] Creating layer relu4
I0324 05:57:59.843868 26554 net.cpp:86] Creating Layer relu4
I0324 05:57:59.843871 26554 net.cpp:408] relu4 <- conv4
I0324 05:57:59.843875 26554 net.cpp:369] relu4 -> conv4 (in-place)
I0324 05:57:59.844017 26554 net.cpp:124] Setting up relu4
I0324 05:57:59.844023 26554 net.cpp:131] Top shape: 50 384 9 14 (2419200)
I0324 05:57:59.844027 26554 net.cpp:139] Memory required for data: 236720600
I0324 05:57:59.844028 26554 layer_factory.hpp:77] Creating layer conv5
I0324 05:57:59.844034 26554 net.cpp:86] Creating Layer conv5
I0324 05:57:59.844036 26554 net.cpp:408] conv5 <- conv4
I0324 05:57:59.844040 26554 net.cpp:382] conv5 -> conv5
I0324 05:57:59.848978 26554 net.cpp:124] Setting up conv5
I0324 05:57:59.848989 26554 net.cpp:131] Top shape: 50 256 9 14 (1612800)
I0324 05:57:59.848992 26554 net.cpp:139] Memory required for data: 243171800
I0324 05:57:59.849000 26554 layer_factory.hpp:77] Creating layer relu5
I0324 05:57:59.849005 26554 net.cpp:86] Creating Layer relu5
I0324 05:57:59.849015 26554 net.cpp:408] relu5 <- conv5
I0324 05:57:59.849027 26554 net.cpp:369] relu5 -> conv5 (in-place)
I0324 05:57:59.849139 26554 net.cpp:124] Setting up relu5
I0324 05:57:59.849144 26554 net.cpp:131] Top shape: 50 256 9 14 (1612800)
I0324 05:57:59.849148 26554 net.cpp:139] Memory required for data: 249623000
I0324 05:57:59.849149 26554 layer_factory.hpp:77] Creating layer pool5
I0324 05:57:59.849156 26554 net.cpp:86] Creating Layer pool5
I0324 05:57:59.849159 26554 net.cpp:408] pool5 <- conv5
I0324 05:57:59.849162 26554 net.cpp:382] pool5 -> pool5
I0324 05:57:59.849191 26554 net.cpp:124] Setting up pool5
I0324 05:57:59.849195 26554 net.cpp:131] Top shape: 50 256 4 7 (358400)
I0324 05:57:59.849197 26554 net.cpp:139] Memory required for data: 251056600
I0324 05:57:59.849200 26554 layer_factory.hpp:77] Creating layer fc6_msc
I0324 05:57:59.849205 26554 net.cpp:86] Creating Layer fc6_msc
I0324 05:57:59.849206 26554 net.cpp:408] fc6_msc <- pool5
I0324 05:57:59.849210 26554 net.cpp:382] fc6_msc -> fc6_msc
I0324 05:58:00.082026 26554 net.cpp:124] Setting up fc6_msc
I0324 05:58:00.082053 26554 net.cpp:131] Top shape: 50 4096 (204800)
I0324 05:58:00.082056 26554 net.cpp:139] Memory required for data: 251875800
I0324 05:58:00.082065 26554 layer_factory.hpp:77] Creating layer relu6
I0324 05:58:00.082072 26554 net.cpp:86] Creating Layer relu6
I0324 05:58:00.082075 26554 net.cpp:408] relu6 <- fc6_msc
I0324 05:58:00.082082 26554 net.cpp:369] relu6 -> fc6_msc (in-place)
I0324 05:58:00.082473 26554 net.cpp:124] Setting up relu6
I0324 05:58:00.082482 26554 net.cpp:131] Top shape: 50 4096 (204800)
I0324 05:58:00.082485 26554 net.cpp:139] Memory required for data: 252695000
I0324 05:58:00.082489 26554 layer_factory.hpp:77] Creating layer drop6
I0324 05:58:00.082495 26554 net.cpp:86] Creating Layer drop6
I0324 05:58:00.082499 26554 net.cpp:408] drop6 <- fc6_msc
I0324 05:58:00.082502 26554 net.cpp:369] drop6 -> fc6_msc (in-place)
I0324 05:58:00.082530 26554 net.cpp:124] Setting up drop6
I0324 05:58:00.082535 26554 net.cpp:131] Top shape: 50 4096 (204800)
I0324 05:58:00.082536 26554 net.cpp:139] Memory required for data: 253514200
I0324 05:58:00.082538 26554 layer_factory.hpp:77] Creating layer fc7_msc
I0324 05:58:00.082545 26554 net.cpp:86] Creating Layer fc7_msc
I0324 05:58:00.082546 26554 net.cpp:408] fc7_msc <- fc6_msc
I0324 05:58:00.082551 26554 net.cpp:382] fc7_msc -> fc7_msc
I0324 05:58:00.213147 26554 net.cpp:124] Setting up fc7_msc
I0324 05:58:00.213174 26554 net.cpp:131] Top shape: 50 4096 (204800)
I0324 05:58:00.213177 26554 net.cpp:139] Memory required for data: 254333400
I0324 05:58:00.213186 26554 layer_factory.hpp:77] Creating layer relu7
I0324 05:58:00.213192 26554 net.cpp:86] Creating Layer relu7
I0324 05:58:00.213196 26554 net.cpp:408] relu7 <- fc7_msc
I0324 05:58:00.213201 26554 net.cpp:369] relu7 -> fc7_msc (in-place)
I0324 05:58:00.213363 26554 net.cpp:124] Setting up relu7
I0324 05:58:00.213368 26554 net.cpp:131] Top shape: 50 4096 (204800)
I0324 05:58:00.213371 26554 net.cpp:139] Memory required for data: 255152600
I0324 05:58:00.213373 26554 layer_factory.hpp:77] Creating layer drop7
I0324 05:58:00.213377 26554 net.cpp:86] Creating Layer drop7
I0324 05:58:00.213380 26554 net.cpp:408] drop7 <- fc7_msc
I0324 05:58:00.213383 26554 net.cpp:369] drop7 -> fc7_msc (in-place)
I0324 05:58:00.213403 26554 net.cpp:124] Setting up drop7
I0324 05:58:00.213407 26554 net.cpp:131] Top shape: 50 4096 (204800)
I0324 05:58:00.213409 26554 net.cpp:139] Memory required for data: 255971800
I0324 05:58:00.213412 26554 layer_factory.hpp:77] Creating layer fc8_msc
I0324 05:58:00.213415 26554 net.cpp:86] Creating Layer fc8_msc
I0324 05:58:00.213418 26554 net.cpp:408] fc8_msc <- fc7_msc
I0324 05:58:00.213421 26554 net.cpp:382] fc8_msc -> fc8_msc
I0324 05:58:00.213553 26554 net.cpp:124] Setting up fc8_msc
I0324 05:58:00.213558 26554 net.cpp:131] Top shape: 50 2 (100)
I0324 05:58:00.213560 26554 net.cpp:139] Memory required for data: 255972200
I0324 05:58:00.213564 26554 layer_factory.hpp:77] Creating layer fc8_msc_fc8_msc_0_split
I0324 05:58:00.213575 26554 net.cpp:86] Creating Layer fc8_msc_fc8_msc_0_split
I0324 05:58:00.213589 26554 net.cpp:408] fc8_msc_fc8_msc_0_split <- fc8_msc
I0324 05:58:00.213593 26554 net.cpp:382] fc8_msc_fc8_msc_0_split -> fc8_msc_fc8_msc_0_split_0
I0324 05:58:00.213598 26554 net.cpp:382] fc8_msc_fc8_msc_0_split -> fc8_msc_fc8_msc_0_split_1
I0324 05:58:00.213624 26554 net.cpp:124] Setting up fc8_msc_fc8_msc_0_split
I0324 05:58:00.213626 26554 net.cpp:131] Top shape: 50 2 (100)
I0324 05:58:00.213629 26554 net.cpp:131] Top shape: 50 2 (100)
I0324 05:58:00.213630 26554 net.cpp:139] Memory required for data: 255973000
I0324 05:58:00.213632 26554 layer_factory.hpp:77] Creating layer accuracy
I0324 05:58:00.213637 26554 net.cpp:86] Creating Layer accuracy
I0324 05:58:00.213639 26554 net.cpp:408] accuracy <- fc8_msc_fc8_msc_0_split_0
I0324 05:58:00.213642 26554 net.cpp:408] accuracy <- label_msc_data_msc_1_split_0
I0324 05:58:00.213646 26554 net.cpp:382] accuracy -> accuracy
…
