…
I0325 11:29:47.142204  2450 net.cpp:296] The NetState phase (0) differed from the phase (1) specified by a rule in layer accuracy
I0325 11:29:47.142326  2450 net.cpp:53] Initializing net from parameters: 
name: "MCaffeNet"
state {
  phase: TRAIN
  level: 0
  stage: ""
}
layer {
  name: "data_msc"
  type: "ImageData"
  top: "data_msc"
  top: "label_msc"
  include {
    phase: TRAIN
  }
  transform_param {
    mean_value: 296
    mean_value: 103
    mean_value: 108
  }
  image_data_param {
    source: "/media/p307k07/ssd/opt/msc/data/train/list_caffe.txt"
    batch_size: 50
    new_height: 159
    new_width: 240
  }
}
layer {
  name: "conv1"
  type: "Convolution"
  bottom: "data_msc"
  top: "conv1"
  param {
    lr_mult: 0.01
    decay_mult: 0.01
  }
  param {
    lr_mult: 0.02
    decay_mult: 0
  }
  convolution_param {
    num_output: 96
    kernel_size: 11
    stride: 4
    weight_filler {
      type: "gaussian"
      std: 0.01
    }
    bias_filler {
      type: "constant"
      value: 0
    }
  }
}
layer {
  name: "relu1"
  type: "ReLU"
  bottom: "conv1"
  top: "conv1"
}
layer {
  name: "pool1"
  type: "Pooling"
  bottom: "conv1"
  top: "pool1"
  pooling_param {
    pool: MAX
    kernel_size: 3
    stride: 2
  }
}
layer {
  name: "norm1"
  type: "LRN"
  bottom: "pool1"
  top: "norm1"
  lrn_param {
    local_size: 5
    alpha: 0.0001
    beta: 0.75
  }
}
layer {
  name: "conv2"
  type: "Convolution"
  bottom: "norm1"
  top: "conv2"
  param {
    lr_mult: 0.01
    decay_mult: 0.01
  }
  param {
    lr_mult: 0.02
    decay_mult: 0
  }
  convolution_param {
    num_output: 256
    pad: 2
    kernel_size: 5
    group: 2
    weight_filler {
      type: "gaussian"
      std: 0.01
    }
    bias_filler {
      type: "constant"
      value: 1
    }
  }
}
layer {
  name: "relu2"
  type: "ReLU"
  bottom: "conv2"
  top: "conv2"
}
layer {
  name: "pool2"
  type: "Pooling"
  bottom: "conv2"
  top: "pool2"
  pooling_param {
    pool: MAX
    kernel_size: 3
    stride: 2
  }
}
layer {
  name: "norm2"
  type: "LRN"
  bottom: "pool2"
  top: "norm2"
  lrn_param {
    local_size: 5
    alpha: 0.0001
    beta: 0.75
  }
}
layer {
  name: "conv3"
  type: "Convolution"
  bottom: "norm2"
  top: "conv3"
  param {
    lr_mult: 0.01
    decay_mult: 0.01
  }
  param {
    lr_mult: 0.02
    decay_mult: 0
  }
  convolution_param {
    num_output: 384
    pad: 1
    kernel_size: 3
    weight_filler {
      type: "gaussian"
      std: 0.01
    }
    bias_filler {
      type: "constant"
      value: 0
    }
  }
}
layer {
  name: "relu3"
  type: "ReLU"
  bottom: "conv3"
  top: "conv3"
}
layer {
  name: "conv4"
  type: "Convolution"
  bottom: "conv3"
  top: "conv4"
  param {
    lr_mult: 0.01
    decay_mult: 0.01
  }
  param {
    lr_mult: 0.02
    decay_mult: 0
  }
  convolution_param {
    num_output: 384
    pad: 1
    kernel_size: 3
    group: 2
    weight_filler {
      type: "gaussian"
      std: 0.01
    }
    bias_filler {
      type: "constant"
      value: 1
    }
  }
}
layer {
  name: "relu4"
  type: "ReLU"
  bottom: "conv4"
  top: "conv4"
}
layer {
  name: "conv5"
  type: "Convolution"
  bottom: "conv4"
  top: "conv5"
  param {
    lr_mult: 0.01
    decay_mult: 0.01
  }
  param {
    lr_mult: 0.02
    decay_mult: 0
  }
  convolution_param {
    num_output: 256
    pad: 1
    kernel_size: 3
    group: 2
    weight_filler {
      type: "gaussian"
      std: 0.01
    }
    bias_filler {
      type: "constant"
      value: 1
    }
  }
}
layer {
  name: "relu5"
  type: "ReLU"
  bottom: "conv5"
  top: "conv5"
}
layer {
  name: "pool5"
  type: "Pooling"
  bottom: "conv5"
  top: "pool5"
  pooling_param {
    pool: MAX
    kernel_size: 3
    stride: 2
  }
}
layer {
  name: "fc6_msc"
  type: "InnerProduct"
  bottom: "pool5"
  top: "fc6_msc"
  param {
    lr_mult: 1
    decay_mult: 1
  }
  param {
    lr_mult: 2
    decay_mult: 0
  }
  inner_product_param {
    num_output: 4096
    weight_filler {
      type: "gaussian"
      std: 0.005
    }
    bias_filler {
      type: "constant"
      value: 1
    }
  }
}
layer {
  name: "relu6"
  type: "ReLU"
  bottom: "fc6_msc"
  top: "fc6_msc"
}
layer {
  name: "drop6"
  type: "Dropout"
  bottom: "fc6_msc"
  top: "fc6_msc"
  dropout_param {
    dropout_ratio: 0.6
  }
}
layer {
  name: "fc7_msc"
  type: "InnerProduct"
  bottom: "fc6_msc"
  top: "fc7_msc"
  param {
    lr_mult: 1
    decay_mult: 1
  }
  param {
    lr_mult: 2
    decay_mult: 0
  }
  inner_product_param {
    num_output: 4096
    weight_filler {
      type: "gaussian"
      std: 0.005
    }
    bias_filler {
      type: "constant"
      value: 1
    }
  }
}
layer {
  name: "relu7"
  type: "ReLU"
  bottom: "fc7_msc"
  top: "fc7_msc"
}
layer {
  name: "drop7"
  type: "Dropout"
  bottom: "fc7_msc"
  top: "fc7_msc"
  dropout_param {
    dropout_ratio: 0.5
  }
}
layer {
  name: "fc8_msc"
  type: "InnerProduct"
  bottom: "fc7_msc"
  top: "fc8_msc"
  param {
    lr_mult: 1
    decay_mult: 1
  }
  param {
    lr_mult: 2
    decay_mult: 0
  }
  inner_product_param {
    num_output: 2
    weight_filler {
      type: "gaussian"
      std: 0.01
    }
    bias_filler {
      type: "constant"
      value: 0
    }
  }
}
layer {
  name: "loss_msc"
  type: "SoftmaxWithLoss"
  bottom: "fc8_msc"
  bottom: "label_msc"
  top: "loss"
}
I0325 11:29:47.142401  2450 layer_factory.hpp:77] Creating layer data_msc
I0325 11:29:47.142424  2450 net.cpp:86] Creating Layer data_msc
I0325 11:29:47.142429  2450 net.cpp:382] data_msc -> data_msc
I0325 11:29:47.142446  2450 net.cpp:382] data_msc -> label_msc
I0325 11:29:47.142458  2450 image_data_layer.cpp:38] Opening file /media/p307k07/ssd/opt/msc/data/train/list_caffe.txt
I0325 11:29:47.298339  2450 image_data_layer.cpp:63] A total of 513382 images.
I0325 11:29:47.300384  2450 image_data_layer.cpp:90] output data size: 50,3,159,240
I0325 11:29:47.328935  2450 net.cpp:124] Setting up data_msc
I0325 11:29:47.328959  2450 net.cpp:131] Top shape: 50 3 159 240 (5724000)
I0325 11:29:47.328963  2450 net.cpp:131] Top shape: 50 (50)
I0325 11:29:47.328966  2450 net.cpp:139] Memory required for data: 22896200
I0325 11:29:47.328971  2450 layer_factory.hpp:77] Creating layer conv1
I0325 11:29:47.328987  2450 net.cpp:86] Creating Layer conv1
I0325 11:29:47.328992  2450 net.cpp:408] conv1 <- data_msc
I0325 11:29:47.329001  2450 net.cpp:382] conv1 -> conv1
I0325 11:29:49.213294  2450 net.cpp:124] Setting up conv1
I0325 11:29:49.213323  2450 net.cpp:131] Top shape: 50 96 38 58 (10579200)
I0325 11:29:49.213326  2450 net.cpp:139] Memory required for data: 65213000
I0325 11:29:49.213348  2450 layer_factory.hpp:77] Creating layer relu1
I0325 11:29:49.213357  2450 net.cpp:86] Creating Layer relu1
I0325 11:29:49.213361  2450 net.cpp:408] relu1 <- conv1
I0325 11:29:49.213364  2450 net.cpp:369] relu1 -> conv1 (in-place)
I0325 11:29:49.213625  2450 net.cpp:124] Setting up relu1
I0325 11:29:49.213634  2450 net.cpp:131] Top shape: 50 96 38 58 (10579200)
I0325 11:29:49.213636  2450 net.cpp:139] Memory required for data: 107529800
I0325 11:29:49.213639  2450 layer_factory.hpp:77] Creating layer pool1
I0325 11:29:49.213644  2450 net.cpp:86] Creating Layer pool1
I0325 11:29:49.213646  2450 net.cpp:408] pool1 <- conv1
I0325 11:29:49.213650  2450 net.cpp:382] pool1 -> pool1
I0325 11:29:49.213687  2450 net.cpp:124] Setting up pool1
I0325 11:29:49.213691  2450 net.cpp:131] Top shape: 50 96 19 29 (2644800)
I0325 11:29:49.213698  2450 net.cpp:139] Memory required for data: 118109000
I0325 11:29:49.213711  2450 layer_factory.hpp:77] Creating layer norm1
I0325 11:29:49.213719  2450 net.cpp:86] Creating Layer norm1
I0325 11:29:49.213721  2450 net.cpp:408] norm1 <- pool1
I0325 11:29:49.213724  2450 net.cpp:382] norm1 -> norm1
I0325 11:29:49.213848  2450 net.cpp:124] Setting up norm1
I0325 11:29:49.213855  2450 net.cpp:131] Top shape: 50 96 19 29 (2644800)
I0325 11:29:49.213857  2450 net.cpp:139] Memory required for data: 128688200
I0325 11:29:49.213860  2450 layer_factory.hpp:77] Creating layer conv2
I0325 11:29:49.213867  2450 net.cpp:86] Creating Layer conv2
I0325 11:29:49.213870  2450 net.cpp:408] conv2 <- norm1
I0325 11:29:49.213873  2450 net.cpp:382] conv2 -> conv2
I0325 11:29:49.217937  2450 net.cpp:124] Setting up conv2
I0325 11:29:49.217947  2450 net.cpp:131] Top shape: 50 256 19 29 (7052800)
I0325 11:29:49.217950  2450 net.cpp:139] Memory required for data: 156899400
I0325 11:29:49.217957  2450 layer_factory.hpp:77] Creating layer relu2
I0325 11:29:49.217962  2450 net.cpp:86] Creating Layer relu2
I0325 11:29:49.217963  2450 net.cpp:408] relu2 <- conv2
I0325 11:29:49.217967  2450 net.cpp:369] relu2 -> conv2 (in-place)
I0325 11:29:49.218086  2450 net.cpp:124] Setting up relu2
I0325 11:29:49.218093  2450 net.cpp:131] Top shape: 50 256 19 29 (7052800)
I0325 11:29:49.218096  2450 net.cpp:139] Memory required for data: 185110600
I0325 11:29:49.218097  2450 layer_factory.hpp:77] Creating layer pool2
I0325 11:29:49.218102  2450 net.cpp:86] Creating Layer pool2
I0325 11:29:49.218104  2450 net.cpp:408] pool2 <- conv2
I0325 11:29:49.218108  2450 net.cpp:382] pool2 -> pool2
I0325 11:29:49.218135  2450 net.cpp:124] Setting up pool2
I0325 11:29:49.218139  2450 net.cpp:131] Top shape: 50 256 9 14 (1612800)
I0325 11:29:49.218142  2450 net.cpp:139] Memory required for data: 191561800
I0325 11:29:49.218143  2450 layer_factory.hpp:77] Creating layer norm2
I0325 11:29:49.218148  2450 net.cpp:86] Creating Layer norm2
I0325 11:29:49.218150  2450 net.cpp:408] norm2 <- pool2
I0325 11:29:49.218153  2450 net.cpp:382] norm2 -> norm2
I0325 11:29:49.218430  2450 net.cpp:124] Setting up norm2
I0325 11:29:49.218437  2450 net.cpp:131] Top shape: 50 256 9 14 (1612800)
I0325 11:29:49.218441  2450 net.cpp:139] Memory required for data: 198013000
I0325 11:29:49.218442  2450 layer_factory.hpp:77] Creating layer conv3
I0325 11:29:49.218451  2450 net.cpp:86] Creating Layer conv3
I0325 11:29:49.218453  2450 net.cpp:408] conv3 <- norm2
I0325 11:29:49.218457  2450 net.cpp:382] conv3 -> conv3
I0325 11:29:49.226177  2450 net.cpp:124] Setting up conv3
I0325 11:29:49.226188  2450 net.cpp:131] Top shape: 50 384 9 14 (2419200)
I0325 11:29:49.226191  2450 net.cpp:139] Memory required for data: 207689800
I0325 11:29:49.226198  2450 layer_factory.hpp:77] Creating layer relu3
I0325 11:29:49.226203  2450 net.cpp:86] Creating Layer relu3
I0325 11:29:49.226205  2450 net.cpp:408] relu3 <- conv3
I0325 11:29:49.226210  2450 net.cpp:369] relu3 -> conv3 (in-place)
I0325 11:29:49.226325  2450 net.cpp:124] Setting up relu3
I0325 11:29:49.226330  2450 net.cpp:131] Top shape: 50 384 9 14 (2419200)
I0325 11:29:49.226333  2450 net.cpp:139] Memory required for data: 217366600
I0325 11:29:49.226336  2450 layer_factory.hpp:77] Creating layer conv4
I0325 11:29:49.226342  2450 net.cpp:86] Creating Layer conv4
I0325 11:29:49.226344  2450 net.cpp:408] conv4 <- conv3
I0325 11:29:49.226349  2450 net.cpp:382] conv4 -> conv4
I0325 11:29:49.232975  2450 net.cpp:124] Setting up conv4
I0325 11:29:49.232987  2450 net.cpp:131] Top shape: 50 384 9 14 (2419200)
I0325 11:29:49.232990  2450 net.cpp:139] Memory required for data: 227043400
I0325 11:29:49.232995  2450 layer_factory.hpp:77] Creating layer relu4
I0325 11:29:49.233000  2450 net.cpp:86] Creating Layer relu4
I0325 11:29:49.233002  2450 net.cpp:408] relu4 <- conv4
I0325 11:29:49.233006  2450 net.cpp:369] relu4 -> conv4 (in-place)
I0325 11:29:49.233122  2450 net.cpp:124] Setting up relu4
I0325 11:29:49.233129  2450 net.cpp:131] Top shape: 50 384 9 14 (2419200)
I0325 11:29:49.233136  2450 net.cpp:139] Memory required for data: 236720200
I0325 11:29:49.233149  2450 layer_factory.hpp:77] Creating layer conv5
I0325 11:29:49.233155  2450 net.cpp:86] Creating Layer conv5
I0325 11:29:49.233157  2450 net.cpp:408] conv5 <- conv4
I0325 11:29:49.233162  2450 net.cpp:382] conv5 -> conv5
I0325 11:29:49.238240  2450 net.cpp:124] Setting up conv5
I0325 11:29:49.238250  2450 net.cpp:131] Top shape: 50 256 9 14 (1612800)
I0325 11:29:49.238251  2450 net.cpp:139] Memory required for data: 243171400
I0325 11:29:49.238260  2450 layer_factory.hpp:77] Creating layer relu5
I0325 11:29:49.238265  2450 net.cpp:86] Creating Layer relu5
I0325 11:29:49.238266  2450 net.cpp:408] relu5 <- conv5
I0325 11:29:49.238270  2450 net.cpp:369] relu5 -> conv5 (in-place)
I0325 11:29:49.238380  2450 net.cpp:124] Setting up relu5
I0325 11:29:49.238386  2450 net.cpp:131] Top shape: 50 256 9 14 (1612800)
I0325 11:29:49.238389  2450 net.cpp:139] Memory required for data: 249622600
I0325 11:29:49.238391  2450 layer_factory.hpp:77] Creating layer pool5
I0325 11:29:49.238396  2450 net.cpp:86] Creating Layer pool5
I0325 11:29:49.238399  2450 net.cpp:408] pool5 <- conv5
I0325 11:29:49.238401  2450 net.cpp:382] pool5 -> pool5
I0325 11:29:49.238431  2450 net.cpp:124] Setting up pool5
I0325 11:29:49.238435  2450 net.cpp:131] Top shape: 50 256 4 7 (358400)
I0325 11:29:49.238437  2450 net.cpp:139] Memory required for data: 251056200
I0325 11:29:49.238440  2450 layer_factory.hpp:77] Creating layer fc6_msc
I0325 11:29:49.238448  2450 net.cpp:86] Creating Layer fc6_msc
I0325 11:29:49.238451  2450 net.cpp:408] fc6_msc <- pool5
I0325 11:29:49.238454  2450 net.cpp:382] fc6_msc -> fc6_msc
I0325 11:29:49.466747  2450 net.cpp:124] Setting up fc6_msc
I0325 11:29:49.466773  2450 net.cpp:131] Top shape: 50 4096 (204800)
I0325 11:29:49.466775  2450 net.cpp:139] Memory required for data: 251875400
I0325 11:29:49.466784  2450 layer_factory.hpp:77] Creating layer relu6
I0325 11:29:49.466791  2450 net.cpp:86] Creating Layer relu6
I0325 11:29:49.466795  2450 net.cpp:408] relu6 <- fc6_msc
I0325 11:29:49.466800  2450 net.cpp:369] relu6 -> fc6_msc (in-place)
I0325 11:29:49.467165  2450 net.cpp:124] Setting up relu6
I0325 11:29:49.467175  2450 net.cpp:131] Top shape: 50 4096 (204800)
I0325 11:29:49.467176  2450 net.cpp:139] Memory required for data: 252694600
I0325 11:29:49.467180  2450 layer_factory.hpp:77] Creating layer drop6
I0325 11:29:49.467185  2450 net.cpp:86] Creating Layer drop6
I0325 11:29:49.467186  2450 net.cpp:408] drop6 <- fc6_msc
I0325 11:29:49.467190  2450 net.cpp:369] drop6 -> fc6_msc (in-place)
I0325 11:29:49.467212  2450 net.cpp:124] Setting up drop6
I0325 11:29:49.467216  2450 net.cpp:131] Top shape: 50 4096 (204800)
I0325 11:29:49.467219  2450 net.cpp:139] Memory required for data: 253513800
I0325 11:29:49.467221  2450 layer_factory.hpp:77] Creating layer fc7_msc
I0325 11:29:49.467227  2450 net.cpp:86] Creating Layer fc7_msc
I0325 11:29:49.467229  2450 net.cpp:408] fc7_msc <- fc6_msc
I0325 11:29:49.467233  2450 net.cpp:382] fc7_msc -> fc7_msc
I0325 11:29:49.597750  2450 net.cpp:124] Setting up fc7_msc
I0325 11:29:49.597776  2450 net.cpp:131] Top shape: 50 4096 (204800)
I0325 11:29:49.597779  2450 net.cpp:139] Memory required for data: 254333000
I0325 11:29:49.597786  2450 layer_factory.hpp:77] Creating layer relu7
I0325 11:29:49.597795  2450 net.cpp:86] Creating Layer relu7
I0325 11:29:49.597798  2450 net.cpp:408] relu7 <- fc7_msc
I0325 11:29:49.597803  2450 net.cpp:369] relu7 -> fc7_msc (in-place)
I0325 11:29:49.598175  2450 net.cpp:124] Setting up relu7
I0325 11:29:49.598182  2450 net.cpp:131] Top shape: 50 4096 (204800)
I0325 11:29:49.598184  2450 net.cpp:139] Memory required for data: 255152200
I0325 11:29:49.598187  2450 layer_factory.hpp:77] Creating layer drop7
I0325 11:29:49.598193  2450 net.cpp:86] Creating Layer drop7
I0325 11:29:49.598196  2450 net.cpp:408] drop7 <- fc7_msc
I0325 11:29:49.598199  2450 net.cpp:369] drop7 -> fc7_msc (in-place)
I0325 11:29:49.598222  2450 net.cpp:124] Setting up drop7
I0325 11:29:49.598230  2450 net.cpp:131] Top shape: 50 4096 (204800)
I0325 11:29:49.598243  2450 net.cpp:139] Memory required for data: 255971400
I0325 11:29:49.598245  2450 layer_factory.hpp:77] Creating layer fc8_msc
I0325 11:29:49.598251  2450 net.cpp:86] Creating Layer fc8_msc
I0325 11:29:49.598253  2450 net.cpp:408] fc8_msc <- fc7_msc
I0325 11:29:49.598258  2450 net.cpp:382] fc8_msc -> fc8_msc
I0325 11:29:49.598675  2450 net.cpp:124] Setting up fc8_msc
I0325 11:29:49.598680  2450 net.cpp:131] Top shape: 50 2 (100)
I0325 11:29:49.598683  2450 net.cpp:139] Memory required for data: 255971800
I0325 11:29:49.598687  2450 layer_factory.hpp:77] Creating layer loss_msc
I0325 11:29:49.598693  2450 net.cpp:86] Creating Layer loss_msc
I0325 11:29:49.598695  2450 net.cpp:408] loss_msc <- fc8_msc
I0325 11:29:49.598698  2450 net.cpp:408] loss_msc <- label_msc
I0325 11:29:49.598703  2450 net.cpp:382] loss_msc -> loss
…
I0325 11:29:49.599213  2450 net.cpp:296] The NetState phase (1) differed from the phase (0) specified by a rule in layer data_msc
I0325 11:29:49.599334  2450 net.cpp:53] Initializing net from parameters: 
name: "MCaffeNet"
state {
  phase: TEST
}
layer {
  name: "data_msc"
  type: "ImageData"
  top: "data_msc"
  top: "label_msc"
  include {
    phase: TEST
  }
  transform_param {
    mean_value: 296
    mean_value: 103
    mean_value: 108
  }
  image_data_param {
    source: "/media/p307k07/ssd/opt/msc/data/test/list_caffe.txt"
    batch_size: 50
    new_height: 159
    new_width: 240
  }
}
layer {
  name: "conv1"
  type: "Convolution"
  bottom: "data_msc"
  top: "conv1"
  param {
    lr_mult: 0.01
    decay_mult: 0.01
  }
  param {
    lr_mult: 0.02
    decay_mult: 0
  }
  convolution_param {
    num_output: 96
    kernel_size: 11
    stride: 4
    weight_filler {
      type: "gaussian"
      std: 0.01
    }
    bias_filler {
      type: "constant"
      value: 0
    }
  }
}
layer {
  name: "relu1"
  type: "ReLU"
  bottom: "conv1"
  top: "conv1"
}
layer {
  name: "pool1"
  type: "Pooling"
  bottom: "conv1"
  top: "pool1"
  pooling_param {
    pool: MAX
    kernel_size: 3
    stride: 2
  }
}
layer {
  name: "norm1"
  type: "LRN"
  bottom: "pool1"
  top: "norm1"
  lrn_param {
    local_size: 5
    alpha: 0.0001
    beta: 0.75
  }
}
layer {
  name: "conv2"
  type: "Convolution"
  bottom: "norm1"
  top: "conv2"
  param {
    lr_mult: 0.01
    decay_mult: 0.01
  }
  param {
    lr_mult: 0.02
    decay_mult: 0
  }
  convolution_param {
    num_output: 256
    pad: 2
    kernel_size: 5
    group: 2
    weight_filler {
      type: "gaussian"
      std: 0.01
    }
    bias_filler {
      type: "constant"
      value: 1
    }
  }
}
layer {
  name: "relu2"
  type: "ReLU"
  bottom: "conv2"
  top: "conv2"
}
layer {
  name: "pool2"
  type: "Pooling"
  bottom: "conv2"
  top: "pool2"
  pooling_param {
    pool: MAX
    kernel_size: 3
    stride: 2
  }
}
layer {
  name: "norm2"
  type: "LRN"
  bottom: "pool2"
  top: "norm2"
  lrn_param {
    local_size: 5
    alpha: 0.0001
    beta: 0.75
  }
}
layer {
  name: "conv3"
  type: "Convolution"
  bottom: "norm2"
  top: "conv3"
  param {
    lr_mult: 0.01
    decay_mult: 0.01
  }
  param {
    lr_mult: 0.02
    decay_mult: 0
  }
  convolution_param {
    num_output: 384
    pad: 1
    kernel_size: 3
    weight_filler {
      type: "gaussian"
      std: 0.01
    }
    bias_filler {
      type: "constant"
      value: 0
    }
  }
}
layer {
  name: "relu3"
  type: "ReLU"
  bottom: "conv3"
  top: "conv3"
}
layer {
  name: "conv4"
  type: "Convolution"
  bottom: "conv3"
  top: "conv4"
  param {
    lr_mult: 0.01
    decay_mult: 0.01
  }
  param {
    lr_mult: 0.02
    decay_mult: 0
  }
  convolution_param {
    num_output: 384
    pad: 1
    kernel_size: 3
    group: 2
    weight_filler {
      type: "gaussian"
      std: 0.01
    }
    bias_filler {
      type: "constant"
      value: 1
    }
  }
}
layer {
  name: "relu4"
  type: "ReLU"
  bottom: "conv4"
  top: "conv4"
}
layer {
  name: "conv5"
  type: "Convolution"
  bottom: "conv4"
  top: "conv5"
  param {
    lr_mult: 0.01
    decay_mult: 0.01
  }
  param {
    lr_mult: 0.02
    decay_mult: 0
  }
  convolution_param {
    num_output: 256
    pad: 1
    kernel_size: 3
    group: 2
    weight_filler {
      type: "gaussian"
      std: 0.01
    }
    bias_filler {
      type: "constant"
      value: 1
    }
  }
}
layer {
  name: "relu5"
  type: "ReLU"
  bottom: "conv5"
  top: "conv5"
}
layer {
  name: "pool5"
  type: "Pooling"
  bottom: "conv5"
  top: "pool5"
  pooling_param {
    pool: MAX
    kernel_size: 3
    stride: 2
  }
}
layer {
  name: "fc6_msc"
  type: "InnerProduct"
  bottom: "pool5"
  top: "fc6_msc"
  param {
    lr_mult: 1
    decay_mult: 1
  }
  param {
    lr_mult: 2
    decay_mult: 0
  }
  inner_product_param {
    num_output: 4096
    weight_filler {
      type: "gaussian"
      std: 0.005
    }
    bias_filler {
      type: "constant"
      value: 1
    }
  }
}
layer {
  name: "relu6"
  type: "ReLU"
  bottom: "fc6_msc"
  top: "fc6_msc"
}
layer {
  name: "drop6"
  type: "Dropout"
  bottom: "fc6_msc"
  top: "fc6_msc"
  dropout_param {
    dropout_ratio: 0.6
  }
}
layer {
  name: "fc7_msc"
  type: "InnerProduct"
  bottom: "fc6_msc"
  top: "fc7_msc"
  param {
    lr_mult: 1
    decay_mult: 1
  }
  param {
    lr_mult: 2
    decay_mult: 0
  }
  inner_product_param {
    num_output: 4096
    weight_filler {
      type: "gaussian"
      std: 0.005
    }
    bias_filler {
      type: "constant"
      value: 1
    }
  }
}
layer {
  name: "relu7"
  type: "ReLU"
  bottom: "fc7_msc"
  top: "fc7_msc"
}
layer {
  name: "drop7"
  type: "Dropout"
  bottom: "fc7_msc"
  top: "fc7_msc"
  dropout_param {
    dropout_ratio: 0.5
  }
}
layer {
  name: "fc8_msc"
  type: "InnerProduct"
  bottom: "fc7_msc"
  top: "fc8_msc"
  param {
    lr_mult: 1
    decay_mult: 1
  }
  param {
    lr_mult: 2
    decay_mult: 0
  }
  inner_product_param {
    num_output: 2
    weight_filler {
      type: "gaussian"
      std: 0.01
    }
    bias_filler {
      type: "constant"
      value: 0
    }
  }
}
layer {
  name: "accuracy"
  type: "Accuracy"
  bottom: "fc8_msc"
  bottom: "label_msc"
  top: "accuracy"
  include {
    phase: TEST
  }
}
layer {
  name: "loss_msc"
  type: "SoftmaxWithLoss"
  bottom: "fc8_msc"
  bottom: "label_msc"
  top: "loss"
}
I0325 11:29:49.599413  2450 layer_factory.hpp:77] Creating layer data_msc
I0325 11:29:49.599424  2450 net.cpp:86] Creating Layer data_msc
I0325 11:29:49.599428  2450 net.cpp:382] data_msc -> data_msc
I0325 11:29:49.599434  2450 net.cpp:382] data_msc -> label_msc
I0325 11:29:49.599441  2450 image_data_layer.cpp:38] Opening file /media/p307k07/ssd/opt/msc/data/test/list_caffe.txt
I0325 11:29:49.632731  2450 image_data_layer.cpp:63] A total of 85562 images.
I0325 11:29:49.633399  2450 image_data_layer.cpp:90] output data size: 50,3,159,240
I0325 11:29:49.661849  2450 net.cpp:124] Setting up data_msc
I0325 11:29:49.661876  2450 net.cpp:131] Top shape: 50 3 159 240 (5724000)
I0325 11:29:49.661881  2450 net.cpp:131] Top shape: 50 (50)
I0325 11:29:49.661885  2450 net.cpp:139] Memory required for data: 22896200
I0325 11:29:49.661890  2450 layer_factory.hpp:77] Creating layer label_msc_data_msc_1_split
I0325 11:29:49.661900  2450 net.cpp:86] Creating Layer label_msc_data_msc_1_split
I0325 11:29:49.661903  2450 net.cpp:408] label_msc_data_msc_1_split <- label_msc
I0325 11:29:49.661909  2450 net.cpp:382] label_msc_data_msc_1_split -> label_msc_data_msc_1_split_0
I0325 11:29:49.661917  2450 net.cpp:382] label_msc_data_msc_1_split -> label_msc_data_msc_1_split_1
I0325 11:29:49.661975  2450 net.cpp:124] Setting up label_msc_data_msc_1_split
I0325 11:29:49.661980  2450 net.cpp:131] Top shape: 50 (50)
I0325 11:29:49.661983  2450 net.cpp:131] Top shape: 50 (50)
I0325 11:29:49.661985  2450 net.cpp:139] Memory required for data: 22896600
I0325 11:29:49.661988  2450 layer_factory.hpp:77] Creating layer conv1
I0325 11:29:49.661998  2450 net.cpp:86] Creating Layer conv1
I0325 11:29:49.662000  2450 net.cpp:408] conv1 <- data_msc
I0325 11:29:49.662004  2450 net.cpp:382] conv1 -> conv1
I0325 11:29:49.663169  2450 net.cpp:124] Setting up conv1
I0325 11:29:49.663180  2450 net.cpp:131] Top shape: 50 96 38 58 (10579200)
I0325 11:29:49.663183  2450 net.cpp:139] Memory required for data: 65213400
I0325 11:29:49.663192  2450 layer_factory.hpp:77] Creating layer relu1
I0325 11:29:49.663197  2450 net.cpp:86] Creating Layer relu1
I0325 11:29:49.663199  2450 net.cpp:408] relu1 <- conv1
I0325 11:29:49.663203  2450 net.cpp:369] relu1 -> conv1 (in-place)
I0325 11:29:49.663313  2450 net.cpp:124] Setting up relu1
I0325 11:29:49.663319  2450 net.cpp:131] Top shape: 50 96 38 58 (10579200)
I0325 11:29:49.663321  2450 net.cpp:139] Memory required for data: 107530200
I0325 11:29:49.663324  2450 layer_factory.hpp:77] Creating layer pool1
I0325 11:29:49.663331  2450 net.cpp:86] Creating Layer pool1
I0325 11:29:49.663332  2450 net.cpp:408] pool1 <- conv1
I0325 11:29:49.663336  2450 net.cpp:382] pool1 -> pool1
I0325 11:29:49.663367  2450 net.cpp:124] Setting up pool1
I0325 11:29:49.663370  2450 net.cpp:131] Top shape: 50 96 19 29 (2644800)
I0325 11:29:49.663372  2450 net.cpp:139] Memory required for data: 118109400
I0325 11:29:49.663374  2450 layer_factory.hpp:77] Creating layer norm1
I0325 11:29:49.663379  2450 net.cpp:86] Creating Layer norm1
I0325 11:29:49.663381  2450 net.cpp:408] norm1 <- pool1
I0325 11:29:49.663384  2450 net.cpp:382] norm1 -> norm1
I0325 11:29:49.665505  2450 net.cpp:124] Setting up norm1
I0325 11:29:49.665514  2450 net.cpp:131] Top shape: 50 96 19 29 (2644800)
I0325 11:29:49.665516  2450 net.cpp:139] Memory required for data: 128688600
I0325 11:29:49.665519  2450 layer_factory.hpp:77] Creating layer conv2
I0325 11:29:49.665525  2450 net.cpp:86] Creating Layer conv2
I0325 11:29:49.665529  2450 net.cpp:408] conv2 <- norm1
I0325 11:29:49.665537  2450 net.cpp:382] conv2 -> conv2
I0325 11:29:49.669422  2450 net.cpp:124] Setting up conv2
I0325 11:29:49.669432  2450 net.cpp:131] Top shape: 50 256 19 29 (7052800)
I0325 11:29:49.669435  2450 net.cpp:139] Memory required for data: 156899800
I0325 11:29:49.669442  2450 layer_factory.hpp:77] Creating layer relu2
I0325 11:29:49.669447  2450 net.cpp:86] Creating Layer relu2
I0325 11:29:49.669450  2450 net.cpp:408] relu2 <- conv2
I0325 11:29:49.669453  2450 net.cpp:369] relu2 -> conv2 (in-place)
I0325 11:29:49.669564  2450 net.cpp:124] Setting up relu2
I0325 11:29:49.669570  2450 net.cpp:131] Top shape: 50 256 19 29 (7052800)
I0325 11:29:49.669574  2450 net.cpp:139] Memory required for data: 185111000
I0325 11:29:49.669575  2450 layer_factory.hpp:77] Creating layer pool2
I0325 11:29:49.669580  2450 net.cpp:86] Creating Layer pool2
I0325 11:29:49.669584  2450 net.cpp:408] pool2 <- conv2
I0325 11:29:49.669586  2450 net.cpp:382] pool2 -> pool2
I0325 11:29:49.669615  2450 net.cpp:124] Setting up pool2
I0325 11:29:49.669620  2450 net.cpp:131] Top shape: 50 256 9 14 (1612800)
I0325 11:29:49.669622  2450 net.cpp:139] Memory required for data: 191562200
I0325 11:29:49.669625  2450 layer_factory.hpp:77] Creating layer norm2
I0325 11:29:49.669630  2450 net.cpp:86] Creating Layer norm2
I0325 11:29:49.669631  2450 net.cpp:408] norm2 <- pool2
I0325 11:29:49.669634  2450 net.cpp:382] norm2 -> norm2
I0325 11:29:49.669909  2450 net.cpp:124] Setting up norm2
I0325 11:29:49.669916  2450 net.cpp:131] Top shape: 50 256 9 14 (1612800)
I0325 11:29:49.669919  2450 net.cpp:139] Memory required for data: 198013400
I0325 11:29:49.669921  2450 layer_factory.hpp:77] Creating layer conv3
I0325 11:29:49.669929  2450 net.cpp:86] Creating Layer conv3
I0325 11:29:49.669930  2450 net.cpp:408] conv3 <- norm2
I0325 11:29:49.669934  2450 net.cpp:382] conv3 -> conv3
I0325 11:29:49.677682  2450 net.cpp:124] Setting up conv3
I0325 11:29:49.677697  2450 net.cpp:131] Top shape: 50 384 9 14 (2419200)
I0325 11:29:49.677700  2450 net.cpp:139] Memory required for data: 207690200
I0325 11:29:49.677708  2450 layer_factory.hpp:77] Creating layer relu3
I0325 11:29:49.677714  2450 net.cpp:86] Creating Layer relu3
I0325 11:29:49.677716  2450 net.cpp:408] relu3 <- conv3
I0325 11:29:49.677721  2450 net.cpp:369] relu3 -> conv3 (in-place)
I0325 11:29:49.677978  2450 net.cpp:124] Setting up relu3
I0325 11:29:49.677985  2450 net.cpp:131] Top shape: 50 384 9 14 (2419200)
I0325 11:29:49.677987  2450 net.cpp:139] Memory required for data: 217367000
I0325 11:29:49.677990  2450 layer_factory.hpp:77] Creating layer conv4
I0325 11:29:49.677997  2450 net.cpp:86] Creating Layer conv4
I0325 11:29:49.677999  2450 net.cpp:408] conv4 <- conv3
I0325 11:29:49.678004  2450 net.cpp:382] conv4 -> conv4
I0325 11:29:49.684830  2450 net.cpp:124] Setting up conv4
I0325 11:29:49.684846  2450 net.cpp:131] Top shape: 50 384 9 14 (2419200)
I0325 11:29:49.684849  2450 net.cpp:139] Memory required for data: 227043800
I0325 11:29:49.684855  2450 layer_factory.hpp:77] Creating layer relu4
I0325 11:29:49.684860  2450 net.cpp:86] Creating Layer relu4
I0325 11:29:49.684864  2450 net.cpp:408] relu4 <- conv4
I0325 11:29:49.684867  2450 net.cpp:369] relu4 -> conv4 (in-place)
I0325 11:29:49.684984  2450 net.cpp:124] Setting up relu4
I0325 11:29:49.684990  2450 net.cpp:131] Top shape: 50 384 9 14 (2419200)
I0325 11:29:49.684993  2450 net.cpp:139] Memory required for data: 236720600
I0325 11:29:49.684995  2450 layer_factory.hpp:77] Creating layer conv5
I0325 11:29:49.685003  2450 net.cpp:86] Creating Layer conv5
I0325 11:29:49.685005  2450 net.cpp:408] conv5 <- conv4
I0325 11:29:49.685009  2450 net.cpp:382] conv5 -> conv5
I0325 11:29:49.689987  2450 net.cpp:124] Setting up conv5
I0325 11:29:49.690001  2450 net.cpp:131] Top shape: 50 256 9 14 (1612800)
I0325 11:29:49.690002  2450 net.cpp:139] Memory required for data: 243171800
I0325 11:29:49.690011  2450 layer_factory.hpp:77] Creating layer relu5
I0325 11:29:49.690017  2450 net.cpp:86] Creating Layer relu5
I0325 11:29:49.690019  2450 net.cpp:408] relu5 <- conv5
I0325 11:29:49.690029  2450 net.cpp:369] relu5 -> conv5 (in-place)
I0325 11:29:49.690147  2450 net.cpp:124] Setting up relu5
I0325 11:29:49.690153  2450 net.cpp:131] Top shape: 50 256 9 14 (1612800)
I0325 11:29:49.690156  2450 net.cpp:139] Memory required for data: 249623000
I0325 11:29:49.690158  2450 layer_factory.hpp:77] Creating layer pool5
I0325 11:29:49.690165  2450 net.cpp:86] Creating Layer pool5
I0325 11:29:49.690168  2450 net.cpp:408] pool5 <- conv5
I0325 11:29:49.690171  2450 net.cpp:382] pool5 -> pool5
I0325 11:29:49.690201  2450 net.cpp:124] Setting up pool5
I0325 11:29:49.690207  2450 net.cpp:131] Top shape: 50 256 4 7 (358400)
I0325 11:29:49.690208  2450 net.cpp:139] Memory required for data: 251056600
I0325 11:29:49.690210  2450 layer_factory.hpp:77] Creating layer fc6_msc
I0325 11:29:49.690215  2450 net.cpp:86] Creating Layer fc6_msc
I0325 11:29:49.690218  2450 net.cpp:408] fc6_msc <- pool5
I0325 11:29:49.690222  2450 net.cpp:382] fc6_msc -> fc6_msc
I0325 11:29:49.921351  2450 net.cpp:124] Setting up fc6_msc
I0325 11:29:49.921378  2450 net.cpp:131] Top shape: 50 4096 (204800)
I0325 11:29:49.921380  2450 net.cpp:139] Memory required for data: 251875800
I0325 11:29:49.921389  2450 layer_factory.hpp:77] Creating layer relu6
I0325 11:29:49.921396  2450 net.cpp:86] Creating Layer relu6
I0325 11:29:49.921399  2450 net.cpp:408] relu6 <- fc6_msc
I0325 11:29:49.921404  2450 net.cpp:369] relu6 -> fc6_msc (in-place)
I0325 11:29:49.921778  2450 net.cpp:124] Setting up relu6
I0325 11:29:49.921787  2450 net.cpp:131] Top shape: 50 4096 (204800)
I0325 11:29:49.921788  2450 net.cpp:139] Memory required for data: 252695000
I0325 11:29:49.921792  2450 layer_factory.hpp:77] Creating layer drop6
I0325 11:29:49.921797  2450 net.cpp:86] Creating Layer drop6
I0325 11:29:49.921798  2450 net.cpp:408] drop6 <- fc6_msc
I0325 11:29:49.921802  2450 net.cpp:369] drop6 -> fc6_msc (in-place)
I0325 11:29:49.921823  2450 net.cpp:124] Setting up drop6
I0325 11:29:49.921828  2450 net.cpp:131] Top shape: 50 4096 (204800)
I0325 11:29:49.921829  2450 net.cpp:139] Memory required for data: 253514200
I0325 11:29:49.921831  2450 layer_factory.hpp:77] Creating layer fc7_msc
I0325 11:29:49.921838  2450 net.cpp:86] Creating Layer fc7_msc
I0325 11:29:49.921839  2450 net.cpp:408] fc7_msc <- fc6_msc
I0325 11:29:49.921844  2450 net.cpp:382] fc7_msc -> fc7_msc
I0325 11:29:50.052409  2450 net.cpp:124] Setting up fc7_msc
I0325 11:29:50.052435  2450 net.cpp:131] Top shape: 50 4096 (204800)
I0325 11:29:50.052438  2450 net.cpp:139] Memory required for data: 254333400
I0325 11:29:50.052446  2450 layer_factory.hpp:77] Creating layer relu7
I0325 11:29:50.052454  2450 net.cpp:86] Creating Layer relu7
I0325 11:29:50.052458  2450 net.cpp:408] relu7 <- fc7_msc
I0325 11:29:50.052462  2450 net.cpp:369] relu7 -> fc7_msc (in-place)
I0325 11:29:50.052623  2450 net.cpp:124] Setting up relu7
I0325 11:29:50.052630  2450 net.cpp:131] Top shape: 50 4096 (204800)
I0325 11:29:50.052633  2450 net.cpp:139] Memory required for data: 255152600
I0325 11:29:50.052634  2450 layer_factory.hpp:77] Creating layer drop7
I0325 11:29:50.052639  2450 net.cpp:86] Creating Layer drop7
I0325 11:29:50.052642  2450 net.cpp:408] drop7 <- fc7_msc
I0325 11:29:50.052645  2450 net.cpp:369] drop7 -> fc7_msc (in-place)
I0325 11:29:50.052666  2450 net.cpp:124] Setting up drop7
I0325 11:29:50.052670  2450 net.cpp:131] Top shape: 50 4096 (204800)
I0325 11:29:50.052672  2450 net.cpp:139] Memory required for data: 255971800
I0325 11:29:50.052675  2450 layer_factory.hpp:77] Creating layer fc8_msc
I0325 11:29:50.052680  2450 net.cpp:86] Creating Layer fc8_msc
I0325 11:29:50.052681  2450 net.cpp:408] fc8_msc <- fc7_msc
I0325 11:29:50.052685  2450 net.cpp:382] fc8_msc -> fc8_msc
I0325 11:29:50.052819  2450 net.cpp:124] Setting up fc8_msc
I0325 11:29:50.052824  2450 net.cpp:131] Top shape: 50 2 (100)
I0325 11:29:50.052825  2450 net.cpp:139] Memory required for data: 255972200
I0325 11:29:50.052830  2450 layer_factory.hpp:77] Creating layer fc8_msc_fc8_msc_0_split
I0325 11:29:50.052841  2450 net.cpp:86] Creating Layer fc8_msc_fc8_msc_0_split
I0325 11:29:50.052855  2450 net.cpp:408] fc8_msc_fc8_msc_0_split <- fc8_msc
I0325 11:29:50.052858  2450 net.cpp:382] fc8_msc_fc8_msc_0_split -> fc8_msc_fc8_msc_0_split_0
I0325 11:29:50.052863  2450 net.cpp:382] fc8_msc_fc8_msc_0_split -> fc8_msc_fc8_msc_0_split_1
I0325 11:29:50.052889  2450 net.cpp:124] Setting up fc8_msc_fc8_msc_0_split
I0325 11:29:50.052892  2450 net.cpp:131] Top shape: 50 2 (100)
I0325 11:29:50.052896  2450 net.cpp:131] Top shape: 50 2 (100)
I0325 11:29:50.052897  2450 net.cpp:139] Memory required for data: 255973000
I0325 11:29:50.052899  2450 layer_factory.hpp:77] Creating layer accuracy
I0325 11:29:50.052904  2450 net.cpp:86] Creating Layer accuracy
I0325 11:29:50.052906  2450 net.cpp:408] accuracy <- fc8_msc_fc8_msc_0_split_0
I0325 11:29:50.052909  2450 net.cpp:408] accuracy <- label_msc_data_msc_1_split_0
I0325 11:29:50.052913  2450 net.cpp:382] accuracy -> accuracy
…
