…
I0323 00:14:43.328814 17412 net.cpp:296] The NetState phase (0) differed from the phase (1) specified by a rule in layer accuracy
I0323 00:14:43.329015 17412 net.cpp:53] Initializing net from parameters: 
name: "MCaffeNet"
state {
  phase: TRAIN
  level: 0
  stage: ""
}
layer {
  name: "data_msc"
  type: "ImageData"
  top: "data_msc"
  top: "label_msc"
  include {
    phase: TRAIN
  }
  transform_param {
    mean_value: 296
    mean_value: 103
    mean_value: 108
  }
  image_data_param {
    source: "/media/p307k07/ssd/opt/msc/data/train/list_caffe.txt"
    batch_size: 50
    new_height: 159
    new_width: 240
  }
}
layer {
  name: "conv1"
  type: "Convolution"
  bottom: "data_msc"
  top: "conv1"
  param {
    lr_mult: 0.01
    decay_mult: 0.01
  }
  param {
    lr_mult: 0.02
    decay_mult: 0
  }
  convolution_param {
    num_output: 96
    kernel_size: 11
    stride: 4
    weight_filler {
      type: "gaussian"
      std: 0.01
    }
    bias_filler {
      type: "constant"
      value: 0
    }
  }
}
layer {
  name: "relu1"
  type: "ReLU"
  bottom: "conv1"
  top: "conv1"
}
layer {
  name: "pool1"
  type: "Pooling"
  bottom: "conv1"
  top: "pool1"
  pooling_param {
    pool: MAX
    kernel_size: 3
    stride: 2
  }
}
layer {
  name: "norm1"
  type: "LRN"
  bottom: "pool1"
  top: "norm1"
  lrn_param {
    local_size: 5
    alpha: 0.0001
    beta: 0.75
  }
}
layer {
  name: "conv2"
  type: "Convolution"
  bottom: "norm1"
  top: "conv2"
  param {
    lr_mult: 0.01
    decay_mult: 0.01
  }
  param {
    lr_mult: 0.02
    decay_mult: 0
  }
  convolution_param {
    num_output: 256
    pad: 2
    kernel_size: 5
    group: 2
    weight_filler {
      type: "gaussian"
      std: 0.01
    }
    bias_filler {
      type: "constant"
      value: 1
    }
  }
}
layer {
  name: "relu2"
  type: "ReLU"
  bottom: "conv2"
  top: "conv2"
}
layer {
  name: "pool2"
  type: "Pooling"
  bottom: "conv2"
  top: "pool2"
  pooling_param {
    pool: MAX
    kernel_size: 3
    stride: 2
  }
}
layer {
  name: "norm2"
  type: "LRN"
  bottom: "pool2"
  top: "norm2"
  lrn_param {
    local_size: 5
    alpha: 0.0001
    beta: 0.75
  }
}
layer {
  name: "conv3"
  type: "Convolution"
  bottom: "norm2"
  top: "conv3"
  param {
    lr_mult: 0.01
    decay_mult: 0.01
  }
  param {
    lr_mult: 0.02
    decay_mult: 0
  }
  convolution_param {
    num_output: 384
    pad: 1
    kernel_size: 3
    weight_filler {
      type: "gaussian"
      std: 0.01
    }
    bias_filler {
      type: "constant"
      value: 0
    }
  }
}
layer {
  name: "relu3"
  type: "ReLU"
  bottom: "conv3"
  top: "conv3"
}
layer {
  name: "conv4"
  type: "Convolution"
  bottom: "conv3"
  top: "conv4"
  param {
    lr_mult: 0.01
    decay_mult: 0.01
  }
  param {
    lr_mult: 0.02
    decay_mult: 0
  }
  convolution_param {
    num_output: 384
    pad: 1
    kernel_size: 3
    group: 2
    weight_filler {
      type: "gaussian"
      std: 0.01
    }
    bias_filler {
      type: "constant"
      value: 1
    }
  }
}
layer {
  name: "relu4"
  type: "ReLU"
  bottom: "conv4"
  top: "conv4"
}
layer {
  name: "conv5"
  type: "Convolution"
  bottom: "conv4"
  top: "conv5"
  param {
    lr_mult: 0.01
    decay_mult: 0.01
  }
  param {
    lr_mult: 0.02
    decay_mult: 0
  }
  convolution_param {
    num_output: 256
    pad: 1
    kernel_size: 3
    group: 2
    weight_filler {
      type: "gaussian"
      std: 0.01
    }
    bias_filler {
      type: "constant"
      value: 1
    }
  }
}
layer {
  name: "relu5"
  type: "ReLU"
  bottom: "conv5"
  top: "conv5"
}
layer {
  name: "pool5"
  type: "Pooling"
  bottom: "conv5"
  top: "pool5"
  pooling_param {
    pool: MAX
    kernel_size: 3
    stride: 2
  }
}
layer {
  name: "fc6_msc"
  type: "InnerProduct"
  bottom: "pool5"
  top: "fc6_msc"
  param {
    lr_mult: 1
    decay_mult: 1
  }
  param {
    lr_mult: 2
    decay_mult: 0
  }
  inner_product_param {
    num_output: 4096
    weight_filler {
      type: "gaussian"
      std: 0.005
    }
    bias_filler {
      type: "constant"
      value: 1
    }
  }
}
layer {
  name: "relu6"
  type: "ReLU"
  bottom: "fc6_msc"
  top: "fc6_msc"
}
layer {
  name: "drop6"
  type: "Dropout"
  bottom: "fc6_msc"
  top: "fc6_msc"
  dropout_param {
    dropout_ratio: 0.5
  }
}
layer {
  name: "fc7_msc"
  type: "InnerProduct"
  bottom: "fc6_msc"
  top: "fc7_msc"
  param {
    lr_mult: 1
    decay_mult: 1
  }
  param {
    lr_mult: 2
    decay_mult: 0
  }
  inner_product_param {
    num_output: 4096
    weight_filler {
      type: "gaussian"
      std: 0.005
    }
    bias_filler {
      type: "constant"
      value: 1
    }
  }
}
layer {
  name: "relu7"
  type: "ReLU"
  bottom: "fc7_msc"
  top: "fc7_msc"
}
layer {
  name: "drop7"
  type: "Dropout"
  bottom: "fc7_msc"
  top: "fc7_msc"
  dropout_param {
    dropout_ratio: 0.5
  }
}
layer {
  name: "fc8_msc"
  type: "InnerProduct"
  bottom: "fc7_msc"
  top: "fc8_msc"
  param {
    lr_mult: 1
    decay_mult: 1
  }
  param {
    lr_mult: 2
    decay_mult: 0
  }
  inner_product_param {
    num_output: 2
    weight_filler {
      type: "gaussian"
      std: 0.01
    }
    bias_filler {
      type: "constant"
      value: 0
    }
  }
}
layer {
  name: "loss_msc"
  type: "SoftmaxWithLoss"
  bottom: "fc8_msc"
  bottom: "label_msc"
  top: "loss"
}
I0323 00:14:43.329126 17412 layer_factory.hpp:77] Creating layer data_msc
I0323 00:14:43.329159 17412 net.cpp:86] Creating Layer data_msc
I0323 00:14:43.329166 17412 net.cpp:382] data_msc -> data_msc
I0323 00:14:43.329190 17412 net.cpp:382] data_msc -> label_msc
I0323 00:14:43.329205 17412 image_data_layer.cpp:38] Opening file /media/p307k07/ssd/opt/msc/data/train/list_caffe.txt
I0323 00:14:43.521080 17412 image_data_layer.cpp:63] A total of 513382 images.
I0323 00:14:43.523130 17412 image_data_layer.cpp:90] output data size: 50,3,159,240
I0323 00:14:43.551548 17412 net.cpp:124] Setting up data_msc
I0323 00:14:43.551574 17412 net.cpp:131] Top shape: 50 3 159 240 (5724000)
I0323 00:14:43.551579 17412 net.cpp:131] Top shape: 50 (50)
I0323 00:14:43.551581 17412 net.cpp:139] Memory required for data: 22896200
I0323 00:14:43.551589 17412 layer_factory.hpp:77] Creating layer conv1
I0323 00:14:43.551605 17412 net.cpp:86] Creating Layer conv1
I0323 00:14:43.551610 17412 net.cpp:408] conv1 <- data_msc
I0323 00:14:43.551621 17412 net.cpp:382] conv1 -> conv1
I0323 00:14:45.634088 17412 net.cpp:124] Setting up conv1
I0323 00:14:45.634127 17412 net.cpp:131] Top shape: 50 96 38 58 (10579200)
I0323 00:14:45.634132 17412 net.cpp:139] Memory required for data: 65213000
I0323 00:14:45.634160 17412 layer_factory.hpp:77] Creating layer relu1
I0323 00:14:45.634172 17412 net.cpp:86] Creating Layer relu1
I0323 00:14:45.634177 17412 net.cpp:408] relu1 <- conv1
I0323 00:14:45.634183 17412 net.cpp:369] relu1 -> conv1 (in-place)
I0323 00:14:45.634621 17412 net.cpp:124] Setting up relu1
I0323 00:14:45.634634 17412 net.cpp:131] Top shape: 50 96 38 58 (10579200)
I0323 00:14:45.634639 17412 net.cpp:139] Memory required for data: 107529800
I0323 00:14:45.634642 17412 layer_factory.hpp:77] Creating layer pool1
I0323 00:14:45.634650 17412 net.cpp:86] Creating Layer pool1
I0323 00:14:45.634654 17412 net.cpp:408] pool1 <- conv1
I0323 00:14:45.634662 17412 net.cpp:382] pool1 -> pool1
I0323 00:14:45.634717 17412 net.cpp:124] Setting up pool1
I0323 00:14:45.634724 17412 net.cpp:131] Top shape: 50 96 19 29 (2644800)
I0323 00:14:45.634733 17412 net.cpp:139] Memory required for data: 118109000
I0323 00:14:45.634752 17412 layer_factory.hpp:77] Creating layer norm1
I0323 00:14:45.634765 17412 net.cpp:86] Creating Layer norm1
I0323 00:14:45.634769 17412 net.cpp:408] norm1 <- pool1
I0323 00:14:45.634776 17412 net.cpp:382] norm1 -> norm1
I0323 00:14:45.635001 17412 net.cpp:124] Setting up norm1
I0323 00:14:45.635012 17412 net.cpp:131] Top shape: 50 96 19 29 (2644800)
I0323 00:14:45.635015 17412 net.cpp:139] Memory required for data: 128688200
I0323 00:14:45.635020 17412 layer_factory.hpp:77] Creating layer conv2
I0323 00:14:45.635031 17412 net.cpp:86] Creating Layer conv2
I0323 00:14:45.635036 17412 net.cpp:408] conv2 <- norm1
I0323 00:14:45.635043 17412 net.cpp:382] conv2 -> conv2
I0323 00:14:45.641872 17412 net.cpp:124] Setting up conv2
I0323 00:14:45.641888 17412 net.cpp:131] Top shape: 50 256 19 29 (7052800)
I0323 00:14:45.641893 17412 net.cpp:139] Memory required for data: 156899400
I0323 00:14:45.641906 17412 layer_factory.hpp:77] Creating layer relu2
I0323 00:14:45.641912 17412 net.cpp:86] Creating Layer relu2
I0323 00:14:45.641916 17412 net.cpp:408] relu2 <- conv2
I0323 00:14:45.641922 17412 net.cpp:369] relu2 -> conv2 (in-place)
I0323 00:14:45.642127 17412 net.cpp:124] Setting up relu2
I0323 00:14:45.642138 17412 net.cpp:131] Top shape: 50 256 19 29 (7052800)
I0323 00:14:45.642141 17412 net.cpp:139] Memory required for data: 185110600
I0323 00:14:45.642145 17412 layer_factory.hpp:77] Creating layer pool2
I0323 00:14:45.642151 17412 net.cpp:86] Creating Layer pool2
I0323 00:14:45.642155 17412 net.cpp:408] pool2 <- conv2
I0323 00:14:45.642161 17412 net.cpp:382] pool2 -> pool2
I0323 00:14:45.642206 17412 net.cpp:124] Setting up pool2
I0323 00:14:45.642212 17412 net.cpp:131] Top shape: 50 256 9 14 (1612800)
I0323 00:14:45.642216 17412 net.cpp:139] Memory required for data: 191561800
I0323 00:14:45.642220 17412 layer_factory.hpp:77] Creating layer norm2
I0323 00:14:45.642227 17412 net.cpp:86] Creating Layer norm2
I0323 00:14:45.642231 17412 net.cpp:408] norm2 <- pool2
I0323 00:14:45.642238 17412 net.cpp:382] norm2 -> norm2
I0323 00:14:45.642679 17412 net.cpp:124] Setting up norm2
I0323 00:14:45.642693 17412 net.cpp:131] Top shape: 50 256 9 14 (1612800)
I0323 00:14:45.642698 17412 net.cpp:139] Memory required for data: 198013000
I0323 00:14:45.642701 17412 layer_factory.hpp:77] Creating layer conv3
I0323 00:14:45.642714 17412 net.cpp:86] Creating Layer conv3
I0323 00:14:45.642717 17412 net.cpp:408] conv3 <- norm2
I0323 00:14:45.642724 17412 net.cpp:382] conv3 -> conv3
I0323 00:14:45.655210 17412 net.cpp:124] Setting up conv3
I0323 00:14:45.655228 17412 net.cpp:131] Top shape: 50 384 9 14 (2419200)
I0323 00:14:45.655232 17412 net.cpp:139] Memory required for data: 207689800
I0323 00:14:45.655242 17412 layer_factory.hpp:77] Creating layer relu3
I0323 00:14:45.655251 17412 net.cpp:86] Creating Layer relu3
I0323 00:14:45.655254 17412 net.cpp:408] relu3 <- conv3
I0323 00:14:45.655261 17412 net.cpp:369] relu3 -> conv3 (in-place)
I0323 00:14:45.655448 17412 net.cpp:124] Setting up relu3
I0323 00:14:45.655457 17412 net.cpp:131] Top shape: 50 384 9 14 (2419200)
I0323 00:14:45.655462 17412 net.cpp:139] Memory required for data: 217366600
I0323 00:14:45.655465 17412 layer_factory.hpp:77] Creating layer conv4
I0323 00:14:45.655475 17412 net.cpp:86] Creating Layer conv4
I0323 00:14:45.655479 17412 net.cpp:408] conv4 <- conv3
I0323 00:14:45.655486 17412 net.cpp:382] conv4 -> conv4
I0323 00:14:45.665715 17412 net.cpp:124] Setting up conv4
I0323 00:14:45.665731 17412 net.cpp:131] Top shape: 50 384 9 14 (2419200)
I0323 00:14:45.665735 17412 net.cpp:139] Memory required for data: 227043400
I0323 00:14:45.665742 17412 layer_factory.hpp:77] Creating layer relu4
I0323 00:14:45.665750 17412 net.cpp:86] Creating Layer relu4
I0323 00:14:45.665753 17412 net.cpp:408] relu4 <- conv4
I0323 00:14:45.665760 17412 net.cpp:369] relu4 -> conv4 (in-place)
I0323 00:14:45.665938 17412 net.cpp:124] Setting up relu4
I0323 00:14:45.665947 17412 net.cpp:131] Top shape: 50 384 9 14 (2419200)
I0323 00:14:45.665957 17412 net.cpp:139] Memory required for data: 236720200
I0323 00:14:45.665974 17412 layer_factory.hpp:77] Creating layer conv5
I0323 00:14:45.665984 17412 net.cpp:86] Creating Layer conv5
I0323 00:14:45.665988 17412 net.cpp:408] conv5 <- conv4
I0323 00:14:45.665995 17412 net.cpp:382] conv5 -> conv5
I0323 00:14:45.673588 17412 net.cpp:124] Setting up conv5
I0323 00:14:45.673601 17412 net.cpp:131] Top shape: 50 256 9 14 (1612800)
I0323 00:14:45.673605 17412 net.cpp:139] Memory required for data: 243171400
I0323 00:14:45.673616 17412 layer_factory.hpp:77] Creating layer relu5
I0323 00:14:45.673624 17412 net.cpp:86] Creating Layer relu5
I0323 00:14:45.673626 17412 net.cpp:408] relu5 <- conv5
I0323 00:14:45.673632 17412 net.cpp:369] relu5 -> conv5 (in-place)
I0323 00:14:45.673805 17412 net.cpp:124] Setting up relu5
I0323 00:14:45.673815 17412 net.cpp:131] Top shape: 50 256 9 14 (1612800)
I0323 00:14:45.673817 17412 net.cpp:139] Memory required for data: 249622600
I0323 00:14:45.673820 17412 layer_factory.hpp:77] Creating layer pool5
I0323 00:14:45.673826 17412 net.cpp:86] Creating Layer pool5
I0323 00:14:45.673830 17412 net.cpp:408] pool5 <- conv5
I0323 00:14:45.673835 17412 net.cpp:382] pool5 -> pool5
I0323 00:14:45.673877 17412 net.cpp:124] Setting up pool5
I0323 00:14:45.673882 17412 net.cpp:131] Top shape: 50 256 4 7 (358400)
I0323 00:14:45.673885 17412 net.cpp:139] Memory required for data: 251056200
I0323 00:14:45.673888 17412 layer_factory.hpp:77] Creating layer fc6_msc
I0323 00:14:45.673898 17412 net.cpp:86] Creating Layer fc6_msc
I0323 00:14:45.673902 17412 net.cpp:408] fc6_msc <- pool5
I0323 00:14:45.673907 17412 net.cpp:382] fc6_msc -> fc6_msc
I0323 00:14:45.926085 17412 net.cpp:124] Setting up fc6_msc
I0323 00:14:45.926110 17412 net.cpp:131] Top shape: 50 4096 (204800)
I0323 00:14:45.926112 17412 net.cpp:139] Memory required for data: 251875400
I0323 00:14:45.926120 17412 layer_factory.hpp:77] Creating layer relu6
I0323 00:14:45.926127 17412 net.cpp:86] Creating Layer relu6
I0323 00:14:45.926131 17412 net.cpp:408] relu6 <- fc6_msc
I0323 00:14:45.926136 17412 net.cpp:369] relu6 -> fc6_msc (in-place)
I0323 00:14:45.926511 17412 net.cpp:124] Setting up relu6
I0323 00:14:45.926518 17412 net.cpp:131] Top shape: 50 4096 (204800)
I0323 00:14:45.926522 17412 net.cpp:139] Memory required for data: 252694600
I0323 00:14:45.926523 17412 layer_factory.hpp:77] Creating layer drop6
I0323 00:14:45.926529 17412 net.cpp:86] Creating Layer drop6
I0323 00:14:45.926532 17412 net.cpp:408] drop6 <- fc6_msc
I0323 00:14:45.926535 17412 net.cpp:369] drop6 -> fc6_msc (in-place)
I0323 00:14:45.926558 17412 net.cpp:124] Setting up drop6
I0323 00:14:45.926561 17412 net.cpp:131] Top shape: 50 4096 (204800)
I0323 00:14:45.926563 17412 net.cpp:139] Memory required for data: 253513800
I0323 00:14:45.926565 17412 layer_factory.hpp:77] Creating layer fc7_msc
I0323 00:14:45.926571 17412 net.cpp:86] Creating Layer fc7_msc
I0323 00:14:45.926574 17412 net.cpp:408] fc7_msc <- fc6_msc
I0323 00:14:45.926578 17412 net.cpp:382] fc7_msc -> fc7_msc
I0323 00:14:46.057018 17412 net.cpp:124] Setting up fc7_msc
I0323 00:14:46.057045 17412 net.cpp:131] Top shape: 50 4096 (204800)
I0323 00:14:46.057049 17412 net.cpp:139] Memory required for data: 254333000
I0323 00:14:46.057057 17412 layer_factory.hpp:77] Creating layer relu7
I0323 00:14:46.057065 17412 net.cpp:86] Creating Layer relu7
I0323 00:14:46.057068 17412 net.cpp:408] relu7 <- fc7_msc
I0323 00:14:46.057073 17412 net.cpp:369] relu7 -> fc7_msc (in-place)
I0323 00:14:46.057457 17412 net.cpp:124] Setting up relu7
I0323 00:14:46.057467 17412 net.cpp:131] Top shape: 50 4096 (204800)
I0323 00:14:46.057471 17412 net.cpp:139] Memory required for data: 255152200
I0323 00:14:46.057473 17412 layer_factory.hpp:77] Creating layer drop7
I0323 00:14:46.057481 17412 net.cpp:86] Creating Layer drop7
I0323 00:14:46.057483 17412 net.cpp:408] drop7 <- fc7_msc
I0323 00:14:46.057488 17412 net.cpp:369] drop7 -> fc7_msc (in-place)
I0323 00:14:46.057514 17412 net.cpp:124] Setting up drop7
I0323 00:14:46.057524 17412 net.cpp:131] Top shape: 50 4096 (204800)
I0323 00:14:46.057538 17412 net.cpp:139] Memory required for data: 255971400
I0323 00:14:46.057539 17412 layer_factory.hpp:77] Creating layer fc8_msc
I0323 00:14:46.057545 17412 net.cpp:86] Creating Layer fc8_msc
I0323 00:14:46.057548 17412 net.cpp:408] fc8_msc <- fc7_msc
I0323 00:14:46.057552 17412 net.cpp:382] fc8_msc -> fc8_msc
I0323 00:14:46.057996 17412 net.cpp:124] Setting up fc8_msc
I0323 00:14:46.058004 17412 net.cpp:131] Top shape: 50 2 (100)
I0323 00:14:46.058007 17412 net.cpp:139] Memory required for data: 255971800
I0323 00:14:46.058012 17412 layer_factory.hpp:77] Creating layer loss_msc
I0323 00:14:46.058017 17412 net.cpp:86] Creating Layer loss_msc
I0323 00:14:46.058019 17412 net.cpp:408] loss_msc <- fc8_msc
I0323 00:14:46.058022 17412 net.cpp:408] loss_msc <- label_msc
I0323 00:14:46.058027 17412 net.cpp:382] loss_msc -> loss
…
I0323 00:14:46.058575 17412 net.cpp:296] The NetState phase (1) differed from the phase (0) specified by a rule in layer data_msc
I0323 00:14:46.058693 17412 net.cpp:53] Initializing net from parameters: 
name: "MCaffeNet"
state {
  phase: TEST
}
layer {
  name: "data_msc"
  type: "ImageData"
  top: "data_msc"
  top: "label_msc"
  include {
    phase: TEST
  }
  transform_param {
    mean_value: 296
    mean_value: 103
    mean_value: 108
  }
  image_data_param {
    source: "/media/p307k07/ssd/opt/msc/data/test/list_caffe.txt"
    batch_size: 50
    new_height: 159
    new_width: 240
  }
}
layer {
  name: "conv1"
  type: "Convolution"
  bottom: "data_msc"
  top: "conv1"
  param {
    lr_mult: 0.01
    decay_mult: 0.01
  }
  param {
    lr_mult: 0.02
    decay_mult: 0
  }
  convolution_param {
    num_output: 96
    kernel_size: 11
    stride: 4
    weight_filler {
      type: "gaussian"
      std: 0.01
    }
    bias_filler {
      type: "constant"
      value: 0
    }
  }
}
layer {
  name: "relu1"
  type: "ReLU"
  bottom: "conv1"
  top: "conv1"
}
layer {
  name: "pool1"
  type: "Pooling"
  bottom: "conv1"
  top: "pool1"
  pooling_param {
    pool: MAX
    kernel_size: 3
    stride: 2
  }
}
layer {
  name: "norm1"
  type: "LRN"
  bottom: "pool1"
  top: "norm1"
  lrn_param {
    local_size: 5
    alpha: 0.0001
    beta: 0.75
  }
}
layer {
  name: "conv2"
  type: "Convolution"
  bottom: "norm1"
  top: "conv2"
  param {
    lr_mult: 0.01
    decay_mult: 0.01
  }
  param {
    lr_mult: 0.02
    decay_mult: 0
  }
  convolution_param {
    num_output: 256
    pad: 2
    kernel_size: 5
    group: 2
    weight_filler {
      type: "gaussian"
      std: 0.01
    }
    bias_filler {
      type: "constant"
      value: 1
    }
  }
}
layer {
  name: "relu2"
  type: "ReLU"
  bottom: "conv2"
  top: "conv2"
}
layer {
  name: "pool2"
  type: "Pooling"
  bottom: "conv2"
  top: "pool2"
  pooling_param {
    pool: MAX
    kernel_size: 3
    stride: 2
  }
}
layer {
  name: "norm2"
  type: "LRN"
  bottom: "pool2"
  top: "norm2"
  lrn_param {
    local_size: 5
    alpha: 0.0001
    beta: 0.75
  }
}
layer {
  name: "conv3"
  type: "Convolution"
  bottom: "norm2"
  top: "conv3"
  param {
    lr_mult: 0.01
    decay_mult: 0.01
  }
  param {
    lr_mult: 0.02
    decay_mult: 0
  }
  convolution_param {
    num_output: 384
    pad: 1
    kernel_size: 3
    weight_filler {
      type: "gaussian"
      std: 0.01
    }
    bias_filler {
      type: "constant"
      value: 0
    }
  }
}
layer {
  name: "relu3"
  type: "ReLU"
  bottom: "conv3"
  top: "conv3"
}
layer {
  name: "conv4"
  type: "Convolution"
  bottom: "conv3"
  top: "conv4"
  param {
    lr_mult: 0.01
    decay_mult: 0.01
  }
  param {
    lr_mult: 0.02
    decay_mult: 0
  }
  convolution_param {
    num_output: 384
    pad: 1
    kernel_size: 3
    group: 2
    weight_filler {
      type: "gaussian"
      std: 0.01
    }
    bias_filler {
      type: "constant"
      value: 1
    }
  }
}
layer {
  name: "relu4"
  type: "ReLU"
  bottom: "conv4"
  top: "conv4"
}
layer {
  name: "conv5"
  type: "Convolution"
  bottom: "conv4"
  top: "conv5"
  param {
    lr_mult: 0.01
    decay_mult: 0.01
  }
  param {
    lr_mult: 0.02
    decay_mult: 0
  }
  convolution_param {
    num_output: 256
    pad: 1
    kernel_size: 3
    group: 2
    weight_filler {
      type: "gaussian"
      std: 0.01
    }
    bias_filler {
      type: "constant"
      value: 1
    }
  }
}
layer {
  name: "relu5"
  type: "ReLU"
  bottom: "conv5"
  top: "conv5"
}
layer {
  name: "pool5"
  type: "Pooling"
  bottom: "conv5"
  top: "pool5"
  pooling_param {
    pool: MAX
    kernel_size: 3
    stride: 2
  }
}
layer {
  name: "fc6_msc"
  type: "InnerProduct"
  bottom: "pool5"
  top: "fc6_msc"
  param {
    lr_mult: 1
    decay_mult: 1
  }
  param {
    lr_mult: 2
    decay_mult: 0
  }
  inner_product_param {
    num_output: 4096
    weight_filler {
      type: "gaussian"
      std: 0.005
    }
    bias_filler {
      type: "constant"
      value: 1
    }
  }
}
layer {
  name: "relu6"
  type: "ReLU"
  bottom: "fc6_msc"
  top: "fc6_msc"
}
layer {
  name: "drop6"
  type: "Dropout"
  bottom: "fc6_msc"
  top: "fc6_msc"
  dropout_param {
    dropout_ratio: 0.5
  }
}
layer {
  name: "fc7_msc"
  type: "InnerProduct"
  bottom: "fc6_msc"
  top: "fc7_msc"
  param {
    lr_mult: 1
    decay_mult: 1
  }
  param {
    lr_mult: 2
    decay_mult: 0
  }
  inner_product_param {
    num_output: 4096
    weight_filler {
      type: "gaussian"
      std: 0.005
    }
    bias_filler {
      type: "constant"
      value: 1
    }
  }
}
layer {
  name: "relu7"
  type: "ReLU"
  bottom: "fc7_msc"
  top: "fc7_msc"
}
layer {
  name: "drop7"
  type: "Dropout"
  bottom: "fc7_msc"
  top: "fc7_msc"
  dropout_param {
    dropout_ratio: 0.5
  }
}
layer {
  name: "fc8_msc"
  type: "InnerProduct"
  bottom: "fc7_msc"
  top: "fc8_msc"
  param {
    lr_mult: 1
    decay_mult: 1
  }
  param {
    lr_mult: 2
    decay_mult: 0
  }
  inner_product_param {
    num_output: 2
    weight_filler {
      type: "gaussian"
      std: 0.01
    }
    bias_filler {
      type: "constant"
      value: 0
    }
  }
}
layer {
  name: "accuracy"
  type: "Accuracy"
  bottom: "fc8_msc"
  bottom: "label_msc"
  top: "accuracy"
  include {
    phase: TEST
  }
}
layer {
  name: "loss_msc"
  type: "SoftmaxWithLoss"
  bottom: "fc8_msc"
  bottom: "label_msc"
  top: "loss"
}
I0323 00:14:46.058778 17412 layer_factory.hpp:77] Creating layer data_msc
I0323 00:14:46.058789 17412 net.cpp:86] Creating Layer data_msc
I0323 00:14:46.058794 17412 net.cpp:382] data_msc -> data_msc
I0323 00:14:46.058799 17412 net.cpp:382] data_msc -> label_msc
I0323 00:14:46.058804 17412 image_data_layer.cpp:38] Opening file /media/p307k07/ssd/opt/msc/data/test/list_caffe.txt
I0323 00:14:46.092581 17412 image_data_layer.cpp:63] A total of 85562 images.
I0323 00:14:46.093276 17412 image_data_layer.cpp:90] output data size: 50,3,159,240
I0323 00:14:46.121173 17412 net.cpp:124] Setting up data_msc
I0323 00:14:46.121199 17412 net.cpp:131] Top shape: 50 3 159 240 (5724000)
I0323 00:14:46.121203 17412 net.cpp:131] Top shape: 50 (50)
I0323 00:14:46.121206 17412 net.cpp:139] Memory required for data: 22896200
I0323 00:14:46.121210 17412 layer_factory.hpp:77] Creating layer label_msc_data_msc_1_split
I0323 00:14:46.121219 17412 net.cpp:86] Creating Layer label_msc_data_msc_1_split
I0323 00:14:46.121222 17412 net.cpp:408] label_msc_data_msc_1_split <- label_msc
I0323 00:14:46.121227 17412 net.cpp:382] label_msc_data_msc_1_split -> label_msc_data_msc_1_split_0
I0323 00:14:46.121234 17412 net.cpp:382] label_msc_data_msc_1_split -> label_msc_data_msc_1_split_1
I0323 00:14:46.121304 17412 net.cpp:124] Setting up label_msc_data_msc_1_split
I0323 00:14:46.121309 17412 net.cpp:131] Top shape: 50 (50)
I0323 00:14:46.121310 17412 net.cpp:131] Top shape: 50 (50)
I0323 00:14:46.121312 17412 net.cpp:139] Memory required for data: 22896600
I0323 00:14:46.121315 17412 layer_factory.hpp:77] Creating layer conv1
I0323 00:14:46.121325 17412 net.cpp:86] Creating Layer conv1
I0323 00:14:46.121327 17412 net.cpp:408] conv1 <- data_msc
I0323 00:14:46.121331 17412 net.cpp:382] conv1 -> conv1
I0323 00:14:46.122499 17412 net.cpp:124] Setting up conv1
I0323 00:14:46.122509 17412 net.cpp:131] Top shape: 50 96 38 58 (10579200)
I0323 00:14:46.122510 17412 net.cpp:139] Memory required for data: 65213400
I0323 00:14:46.122519 17412 layer_factory.hpp:77] Creating layer relu1
I0323 00:14:46.122522 17412 net.cpp:86] Creating Layer relu1
I0323 00:14:46.122525 17412 net.cpp:408] relu1 <- conv1
I0323 00:14:46.122529 17412 net.cpp:369] relu1 -> conv1 (in-place)
I0323 00:14:46.122638 17412 net.cpp:124] Setting up relu1
I0323 00:14:46.122644 17412 net.cpp:131] Top shape: 50 96 38 58 (10579200)
I0323 00:14:46.122647 17412 net.cpp:139] Memory required for data: 107530200
I0323 00:14:46.122648 17412 layer_factory.hpp:77] Creating layer pool1
I0323 00:14:46.122654 17412 net.cpp:86] Creating Layer pool1
I0323 00:14:46.122656 17412 net.cpp:408] pool1 <- conv1
I0323 00:14:46.122659 17412 net.cpp:382] pool1 -> pool1
I0323 00:14:46.122687 17412 net.cpp:124] Setting up pool1
I0323 00:14:46.122691 17412 net.cpp:131] Top shape: 50 96 19 29 (2644800)
I0323 00:14:46.122694 17412 net.cpp:139] Memory required for data: 118109400
I0323 00:14:46.122695 17412 layer_factory.hpp:77] Creating layer norm1
I0323 00:14:46.122700 17412 net.cpp:86] Creating Layer norm1
I0323 00:14:46.122702 17412 net.cpp:408] norm1 <- pool1
I0323 00:14:46.122705 17412 net.cpp:382] norm1 -> norm1
I0323 00:14:46.124804 17412 net.cpp:124] Setting up norm1
I0323 00:14:46.124811 17412 net.cpp:131] Top shape: 50 96 19 29 (2644800)
I0323 00:14:46.124814 17412 net.cpp:139] Memory required for data: 128688600
I0323 00:14:46.124816 17412 layer_factory.hpp:77] Creating layer conv2
I0323 00:14:46.124822 17412 net.cpp:86] Creating Layer conv2
I0323 00:14:46.124825 17412 net.cpp:408] conv2 <- norm1
I0323 00:14:46.124835 17412 net.cpp:382] conv2 -> conv2
I0323 00:14:46.128716 17412 net.cpp:124] Setting up conv2
I0323 00:14:46.128726 17412 net.cpp:131] Top shape: 50 256 19 29 (7052800)
I0323 00:14:46.128729 17412 net.cpp:139] Memory required for data: 156899800
I0323 00:14:46.128736 17412 layer_factory.hpp:77] Creating layer relu2
I0323 00:14:46.128739 17412 net.cpp:86] Creating Layer relu2
I0323 00:14:46.128742 17412 net.cpp:408] relu2 <- conv2
I0323 00:14:46.128746 17412 net.cpp:369] relu2 -> conv2 (in-place)
I0323 00:14:46.128856 17412 net.cpp:124] Setting up relu2
I0323 00:14:46.128862 17412 net.cpp:131] Top shape: 50 256 19 29 (7052800)
I0323 00:14:46.128865 17412 net.cpp:139] Memory required for data: 185111000
I0323 00:14:46.128866 17412 layer_factory.hpp:77] Creating layer pool2
I0323 00:14:46.128871 17412 net.cpp:86] Creating Layer pool2
I0323 00:14:46.128873 17412 net.cpp:408] pool2 <- conv2
I0323 00:14:46.128877 17412 net.cpp:382] pool2 -> pool2
I0323 00:14:46.128906 17412 net.cpp:124] Setting up pool2
I0323 00:14:46.128911 17412 net.cpp:131] Top shape: 50 256 9 14 (1612800)
I0323 00:14:46.128912 17412 net.cpp:139] Memory required for data: 191562200
I0323 00:14:46.128914 17412 layer_factory.hpp:77] Creating layer norm2
I0323 00:14:46.128917 17412 net.cpp:86] Creating Layer norm2
I0323 00:14:46.128921 17412 net.cpp:408] norm2 <- pool2
I0323 00:14:46.128923 17412 net.cpp:382] norm2 -> norm2
I0323 00:14:46.129199 17412 net.cpp:124] Setting up norm2
I0323 00:14:46.129207 17412 net.cpp:131] Top shape: 50 256 9 14 (1612800)
I0323 00:14:46.129209 17412 net.cpp:139] Memory required for data: 198013400
I0323 00:14:46.129212 17412 layer_factory.hpp:77] Creating layer conv3
I0323 00:14:46.129218 17412 net.cpp:86] Creating Layer conv3
I0323 00:14:46.129220 17412 net.cpp:408] conv3 <- norm2
I0323 00:14:46.129225 17412 net.cpp:382] conv3 -> conv3
I0323 00:14:46.136906 17412 net.cpp:124] Setting up conv3
I0323 00:14:46.136925 17412 net.cpp:131] Top shape: 50 384 9 14 (2419200)
I0323 00:14:46.136927 17412 net.cpp:139] Memory required for data: 207690200
I0323 00:14:46.136936 17412 layer_factory.hpp:77] Creating layer relu3
I0323 00:14:46.136943 17412 net.cpp:86] Creating Layer relu3
I0323 00:14:46.136946 17412 net.cpp:408] relu3 <- conv3
I0323 00:14:46.136950 17412 net.cpp:369] relu3 -> conv3 (in-place)
I0323 00:14:46.137208 17412 net.cpp:124] Setting up relu3
I0323 00:14:46.137217 17412 net.cpp:131] Top shape: 50 384 9 14 (2419200)
I0323 00:14:46.137218 17412 net.cpp:139] Memory required for data: 217367000
I0323 00:14:46.137220 17412 layer_factory.hpp:77] Creating layer conv4
I0323 00:14:46.137228 17412 net.cpp:86] Creating Layer conv4
I0323 00:14:46.137230 17412 net.cpp:408] conv4 <- conv3
I0323 00:14:46.137234 17412 net.cpp:382] conv4 -> conv4
I0323 00:14:46.144093 17412 net.cpp:124] Setting up conv4
I0323 00:14:46.144109 17412 net.cpp:131] Top shape: 50 384 9 14 (2419200)
I0323 00:14:46.144111 17412 net.cpp:139] Memory required for data: 227043800
I0323 00:14:46.144117 17412 layer_factory.hpp:77] Creating layer relu4
I0323 00:14:46.144122 17412 net.cpp:86] Creating Layer relu4
I0323 00:14:46.144125 17412 net.cpp:408] relu4 <- conv4
I0323 00:14:46.144129 17412 net.cpp:369] relu4 -> conv4 (in-place)
I0323 00:14:46.144248 17412 net.cpp:124] Setting up relu4
I0323 00:14:46.144254 17412 net.cpp:131] Top shape: 50 384 9 14 (2419200)
I0323 00:14:46.144256 17412 net.cpp:139] Memory required for data: 236720600
I0323 00:14:46.144258 17412 layer_factory.hpp:77] Creating layer conv5
I0323 00:14:46.144264 17412 net.cpp:86] Creating Layer conv5
I0323 00:14:46.144268 17412 net.cpp:408] conv5 <- conv4
I0323 00:14:46.144271 17412 net.cpp:382] conv5 -> conv5
I0323 00:14:46.149221 17412 net.cpp:124] Setting up conv5
I0323 00:14:46.149233 17412 net.cpp:131] Top shape: 50 256 9 14 (1612800)
I0323 00:14:46.149235 17412 net.cpp:139] Memory required for data: 243171800
I0323 00:14:46.149243 17412 layer_factory.hpp:77] Creating layer relu5
I0323 00:14:46.149248 17412 net.cpp:86] Creating Layer relu5
I0323 00:14:46.149251 17412 net.cpp:408] relu5 <- conv5
I0323 00:14:46.149261 17412 net.cpp:369] relu5 -> conv5 (in-place)
I0323 00:14:46.149384 17412 net.cpp:124] Setting up relu5
I0323 00:14:46.149389 17412 net.cpp:131] Top shape: 50 256 9 14 (1612800)
I0323 00:14:46.149392 17412 net.cpp:139] Memory required for data: 249623000
I0323 00:14:46.149394 17412 layer_factory.hpp:77] Creating layer pool5
I0323 00:14:46.149401 17412 net.cpp:86] Creating Layer pool5
I0323 00:14:46.149404 17412 net.cpp:408] pool5 <- conv5
I0323 00:14:46.149406 17412 net.cpp:382] pool5 -> pool5
I0323 00:14:46.149437 17412 net.cpp:124] Setting up pool5
I0323 00:14:46.149441 17412 net.cpp:131] Top shape: 50 256 4 7 (358400)
I0323 00:14:46.149443 17412 net.cpp:139] Memory required for data: 251056600
I0323 00:14:46.149446 17412 layer_factory.hpp:77] Creating layer fc6_msc
I0323 00:14:46.149451 17412 net.cpp:86] Creating Layer fc6_msc
I0323 00:14:46.149452 17412 net.cpp:408] fc6_msc <- pool5
I0323 00:14:46.149456 17412 net.cpp:382] fc6_msc -> fc6_msc
I0323 00:14:46.379528 17412 net.cpp:124] Setting up fc6_msc
I0323 00:14:46.379554 17412 net.cpp:131] Top shape: 50 4096 (204800)
I0323 00:14:46.379557 17412 net.cpp:139] Memory required for data: 251875800
I0323 00:14:46.379565 17412 layer_factory.hpp:77] Creating layer relu6
I0323 00:14:46.379571 17412 net.cpp:86] Creating Layer relu6
I0323 00:14:46.379575 17412 net.cpp:408] relu6 <- fc6_msc
I0323 00:14:46.379580 17412 net.cpp:369] relu6 -> fc6_msc (in-place)
I0323 00:14:46.379969 17412 net.cpp:124] Setting up relu6
I0323 00:14:46.379977 17412 net.cpp:131] Top shape: 50 4096 (204800)
I0323 00:14:46.379979 17412 net.cpp:139] Memory required for data: 252695000
I0323 00:14:46.379982 17412 layer_factory.hpp:77] Creating layer drop6
I0323 00:14:46.379987 17412 net.cpp:86] Creating Layer drop6
I0323 00:14:46.379989 17412 net.cpp:408] drop6 <- fc6_msc
I0323 00:14:46.379993 17412 net.cpp:369] drop6 -> fc6_msc (in-place)
I0323 00:14:46.380014 17412 net.cpp:124] Setting up drop6
I0323 00:14:46.380018 17412 net.cpp:131] Top shape: 50 4096 (204800)
I0323 00:14:46.380020 17412 net.cpp:139] Memory required for data: 253514200
I0323 00:14:46.380023 17412 layer_factory.hpp:77] Creating layer fc7_msc
I0323 00:14:46.380028 17412 net.cpp:86] Creating Layer fc7_msc
I0323 00:14:46.380030 17412 net.cpp:408] fc7_msc <- fc6_msc
I0323 00:14:46.380034 17412 net.cpp:382] fc7_msc -> fc7_msc
I0323 00:14:46.510061 17412 net.cpp:124] Setting up fc7_msc
I0323 00:14:46.510087 17412 net.cpp:131] Top shape: 50 4096 (204800)
I0323 00:14:46.510090 17412 net.cpp:139] Memory required for data: 254333400
I0323 00:14:46.510098 17412 layer_factory.hpp:77] Creating layer relu7
I0323 00:14:46.510107 17412 net.cpp:86] Creating Layer relu7
I0323 00:14:46.510110 17412 net.cpp:408] relu7 <- fc7_msc
I0323 00:14:46.510116 17412 net.cpp:369] relu7 -> fc7_msc (in-place)
I0323 00:14:46.510301 17412 net.cpp:124] Setting up relu7
I0323 00:14:46.510309 17412 net.cpp:131] Top shape: 50 4096 (204800)
I0323 00:14:46.510313 17412 net.cpp:139] Memory required for data: 255152600
I0323 00:14:46.510314 17412 layer_factory.hpp:77] Creating layer drop7
I0323 00:14:46.510320 17412 net.cpp:86] Creating Layer drop7
I0323 00:14:46.510324 17412 net.cpp:408] drop7 <- fc7_msc
I0323 00:14:46.510326 17412 net.cpp:369] drop7 -> fc7_msc (in-place)
I0323 00:14:46.510354 17412 net.cpp:124] Setting up drop7
I0323 00:14:46.510357 17412 net.cpp:131] Top shape: 50 4096 (204800)
I0323 00:14:46.510360 17412 net.cpp:139] Memory required for data: 255971800
I0323 00:14:46.510361 17412 layer_factory.hpp:77] Creating layer fc8_msc
I0323 00:14:46.510367 17412 net.cpp:86] Creating Layer fc8_msc
I0323 00:14:46.510370 17412 net.cpp:408] fc8_msc <- fc7_msc
I0323 00:14:46.510372 17412 net.cpp:382] fc8_msc -> fc8_msc
I0323 00:14:46.510519 17412 net.cpp:124] Setting up fc8_msc
I0323 00:14:46.510524 17412 net.cpp:131] Top shape: 50 2 (100)
I0323 00:14:46.510526 17412 net.cpp:139] Memory required for data: 255972200
I0323 00:14:46.510530 17412 layer_factory.hpp:77] Creating layer fc8_msc_fc8_msc_0_split
I0323 00:14:46.510542 17412 net.cpp:86] Creating Layer fc8_msc_fc8_msc_0_split
I0323 00:14:46.510556 17412 net.cpp:408] fc8_msc_fc8_msc_0_split <- fc8_msc
I0323 00:14:46.510560 17412 net.cpp:382] fc8_msc_fc8_msc_0_split -> fc8_msc_fc8_msc_0_split_0
I0323 00:14:46.510565 17412 net.cpp:382] fc8_msc_fc8_msc_0_split -> fc8_msc_fc8_msc_0_split_1
I0323 00:14:46.510593 17412 net.cpp:124] Setting up fc8_msc_fc8_msc_0_split
I0323 00:14:46.510597 17412 net.cpp:131] Top shape: 50 2 (100)
I0323 00:14:46.510599 17412 net.cpp:131] Top shape: 50 2 (100)
I0323 00:14:46.510601 17412 net.cpp:139] Memory required for data: 255973000
I0323 00:14:46.510603 17412 layer_factory.hpp:77] Creating layer accuracy
I0323 00:14:46.510608 17412 net.cpp:86] Creating Layer accuracy
I0323 00:14:46.510610 17412 net.cpp:408] accuracy <- fc8_msc_fc8_msc_0_split_0
I0323 00:14:46.510613 17412 net.cpp:408] accuracy <- label_msc_data_msc_1_split_0
I0323 00:14:46.510617 17412 net.cpp:382] accuracy -> accuracy
…
