…
I0322 01:54:06.027799 12543 net.cpp:296] The NetState phase (0) differed from the phase (1) specified by a rule in layer accuracy
I0322 01:54:06.027967 12543 net.cpp:53] Initializing net from parameters: 
name: "MCaffeNet"
state {
  phase: TRAIN
  level: 0
  stage: ""
}
layer {
  name: "data_msc"
  type: "ImageData"
  top: "data_msc"
  top: "label_msc"
  include {
    phase: TRAIN
  }
  transform_param {
    mean_value: 296
    mean_value: 103
    mean_value: 108
  }
  image_data_param {
    source: "/media/p307k07/ssd/opt/msc/data/train/list_caffe.txt"
    batch_size: 50
    new_height: 159
    new_width: 240
  }
}
layer {
  name: "conv1"
  type: "Convolution"
  bottom: "data_msc"
  top: "conv1"
  param {
    lr_mult: 0.01
    decay_mult: 0.01
  }
  param {
    lr_mult: 0.02
    decay_mult: 0
  }
  convolution_param {
    num_output: 96
    kernel_size: 11
    stride: 4
    weight_filler {
      type: "gaussian"
      std: 0.01
    }
    bias_filler {
      type: "constant"
      value: 0
    }
  }
}
layer {
  name: "relu1"
  type: "ReLU"
  bottom: "conv1"
  top: "conv1"
}
layer {
  name: "pool1"
  type: "Pooling"
  bottom: "conv1"
  top: "pool1"
  pooling_param {
    pool: MAX
    kernel_size: 3
    stride: 2
  }
}
layer {
  name: "norm1"
  type: "LRN"
  bottom: "pool1"
  top: "norm1"
  lrn_param {
    local_size: 5
    alpha: 0.0001
    beta: 0.75
  }
}
layer {
  name: "conv2"
  type: "Convolution"
  bottom: "norm1"
  top: "conv2"
  param {
    lr_mult: 0.01
    decay_mult: 0.01
  }
  param {
    lr_mult: 0.02
    decay_mult: 0
  }
  convolution_param {
    num_output: 256
    pad: 2
    kernel_size: 5
    group: 2
    weight_filler {
      type: "gaussian"
      std: 0.01
    }
    bias_filler {
      type: "constant"
      value: 1
    }
  }
}
layer {
  name: "relu2"
  type: "ReLU"
  bottom: "conv2"
  top: "conv2"
}
layer {
  name: "pool2"
  type: "Pooling"
  bottom: "conv2"
  top: "pool2"
  pooling_param {
    pool: MAX
    kernel_size: 3
    stride: 2
  }
}
layer {
  name: "norm2"
  type: "LRN"
  bottom: "pool2"
  top: "norm2"
  lrn_param {
    local_size: 5
    alpha: 0.0001
    beta: 0.75
  }
}
layer {
  name: "conv3"
  type: "Convolution"
  bottom: "norm2"
  top: "conv3"
  param {
    lr_mult: 0.01
    decay_mult: 0.01
  }
  param {
    lr_mult: 0.02
    decay_mult: 0
  }
  convolution_param {
    num_output: 384
    pad: 1
    kernel_size: 3
    weight_filler {
      type: "gaussian"
      std: 0.01
    }
    bias_filler {
      type: "constant"
      value: 0
    }
  }
}
layer {
  name: "relu3"
  type: "ReLU"
  bottom: "conv3"
  top: "conv3"
}
layer {
  name: "conv4"
  type: "Convolution"
  bottom: "conv3"
  top: "conv4"
  param {
    lr_mult: 0.01
    decay_mult: 0.01
  }
  param {
    lr_mult: 0.02
    decay_mult: 0
  }
  convolution_param {
    num_output: 384
    pad: 1
    kernel_size: 3
    group: 2
    weight_filler {
      type: "gaussian"
      std: 0.01
    }
    bias_filler {
      type: "constant"
      value: 1
    }
  }
}
layer {
  name: "relu4"
  type: "ReLU"
  bottom: "conv4"
  top: "conv4"
}
layer {
  name: "conv5"
  type: "Convolution"
  bottom: "conv4"
  top: "conv5"
  param {
    lr_mult: 0.01
    decay_mult: 0.01
  }
  param {
    lr_mult: 0.02
    decay_mult: 0
  }
  convolution_param {
    num_output: 256
    pad: 1
    kernel_size: 3
    group: 2
    weight_filler {
      type: "gaussian"
      std: 0.01
    }
    bias_filler {
      type: "constant"
      value: 1
    }
  }
}
layer {
  name: "relu5"
  type: "ReLU"
  bottom: "conv5"
  top: "conv5"
}
layer {
  name: "pool5"
  type: "Pooling"
  bottom: "conv5"
  top: "pool5"
  pooling_param {
    pool: MAX
    kernel_size: 3
    stride: 2
  }
}
layer {
  name: "fc6_msc"
  type: "InnerProduct"
  bottom: "pool5"
  top: "fc6_msc"
  param {
    lr_mult: 1
    decay_mult: 1
  }
  param {
    lr_mult: 2
    decay_mult: 0
  }
  inner_product_param {
    num_output: 4096
    weight_filler {
      type: "gaussian"
      std: 0.005
    }
    bias_filler {
      type: "constant"
      value: 1
    }
  }
}
layer {
  name: "relu6"
  type: "ReLU"
  bottom: "fc6_msc"
  top: "fc6_msc"
}
layer {
  name: "drop6"
  type: "Dropout"
  bottom: "fc6_msc"
  top: "fc6_msc"
  dropout_param {
    dropout_ratio: 0.5
  }
}
layer {
  name: "fc7_msc"
  type: "InnerProduct"
  bottom: "fc6_msc"
  top: "fc7_msc"
  param {
    lr_mult: 1
    decay_mult: 1
  }
  param {
    lr_mult: 2
    decay_mult: 0
  }
  inner_product_param {
    num_output: 4096
    weight_filler {
      type: "gaussian"
      std: 0.005
    }
    bias_filler {
      type: "constant"
      value: 1
    }
  }
}
layer {
  name: "relu7"
  type: "ReLU"
  bottom: "fc7_msc"
  top: "fc7_msc"
}
layer {
  name: "drop7"
  type: "Dropout"
  bottom: "fc7_msc"
  top: "fc7_msc"
  dropout_param {
    dropout_ratio: 0.5
  }
}
layer {
  name: "fc8_msc"
  type: "InnerProduct"
  bottom: "fc7_msc"
  top: "fc8_msc"
  param {
    lr_mult: 1
    decay_mult: 1
  }
  param {
    lr_mult: 2
    decay_mult: 0
  }
  inner_product_param {
    num_output: 2
    weight_filler {
      type: "gaussian"
      std: 0.01
    }
    bias_filler {
      type: "constant"
      value: 0
    }
  }
}
layer {
  name: "loss_msc"
  type: "SoftmaxWithLoss"
  bottom: "fc8_msc"
  bottom: "label_msc"
  top: "loss"
}
I0322 01:54:06.028069 12543 layer_factory.hpp:77] Creating layer data_msc
I0322 01:54:06.028096 12543 net.cpp:86] Creating Layer data_msc
I0322 01:54:06.028102 12543 net.cpp:382] data_msc -> data_msc
I0322 01:54:06.028121 12543 net.cpp:382] data_msc -> label_msc
I0322 01:54:06.028134 12543 image_data_layer.cpp:38] Opening file /media/p307k07/ssd/opt/msc/data/train/list_caffe.txt
I0322 01:54:06.197229 12543 image_data_layer.cpp:63] A total of 513382 images.
I0322 01:54:06.199241 12543 image_data_layer.cpp:90] output data size: 50,3,159,240
I0322 01:54:06.226398 12543 net.cpp:124] Setting up data_msc
I0322 01:54:06.226423 12543 net.cpp:131] Top shape: 50 3 159 240 (5724000)
I0322 01:54:06.226428 12543 net.cpp:131] Top shape: 50 (50)
I0322 01:54:06.226429 12543 net.cpp:139] Memory required for data: 22896200
I0322 01:54:06.226435 12543 layer_factory.hpp:77] Creating layer conv1
I0322 01:54:06.226451 12543 net.cpp:86] Creating Layer conv1
I0322 01:54:06.226455 12543 net.cpp:408] conv1 <- data_msc
I0322 01:54:06.226465 12543 net.cpp:382] conv1 -> conv1
I0322 01:54:08.323107 12543 net.cpp:124] Setting up conv1
I0322 01:54:08.323166 12543 net.cpp:131] Top shape: 50 96 38 58 (10579200)
I0322 01:54:08.323185 12543 net.cpp:139] Memory required for data: 65213000
I0322 01:54:08.323235 12543 layer_factory.hpp:77] Creating layer relu1
I0322 01:54:08.323256 12543 net.cpp:86] Creating Layer relu1
I0322 01:54:08.323266 12543 net.cpp:408] relu1 <- conv1
I0322 01:54:08.323277 12543 net.cpp:369] relu1 -> conv1 (in-place)
I0322 01:54:08.324086 12543 net.cpp:124] Setting up relu1
I0322 01:54:08.324115 12543 net.cpp:131] Top shape: 50 96 38 58 (10579200)
I0322 01:54:08.324123 12543 net.cpp:139] Memory required for data: 107529800
I0322 01:54:08.324131 12543 layer_factory.hpp:77] Creating layer pool1
I0322 01:54:08.324146 12543 net.cpp:86] Creating Layer pool1
I0322 01:54:08.324153 12543 net.cpp:408] pool1 <- conv1
I0322 01:54:08.324165 12543 net.cpp:382] pool1 -> pool1
I0322 01:54:08.324262 12543 net.cpp:124] Setting up pool1
I0322 01:54:08.324276 12543 net.cpp:131] Top shape: 50 96 19 29 (2644800)
I0322 01:54:08.324295 12543 net.cpp:139] Memory required for data: 118109000
I0322 01:54:08.324329 12543 layer_factory.hpp:77] Creating layer norm1
I0322 01:54:08.324357 12543 net.cpp:86] Creating Layer norm1
I0322 01:54:08.324370 12543 net.cpp:408] norm1 <- pool1
I0322 01:54:08.324388 12543 net.cpp:382] norm1 -> norm1
I0322 01:54:08.324802 12543 net.cpp:124] Setting up norm1
I0322 01:54:08.324822 12543 net.cpp:131] Top shape: 50 96 19 29 (2644800)
I0322 01:54:08.324829 12543 net.cpp:139] Memory required for data: 128688200
I0322 01:54:08.324837 12543 layer_factory.hpp:77] Creating layer conv2
I0322 01:54:08.324857 12543 net.cpp:86] Creating Layer conv2
I0322 01:54:08.324867 12543 net.cpp:408] conv2 <- norm1
I0322 01:54:08.324877 12543 net.cpp:382] conv2 -> conv2
I0322 01:54:08.337076 12543 net.cpp:124] Setting up conv2
I0322 01:54:08.337107 12543 net.cpp:131] Top shape: 50 256 19 29 (7052800)
I0322 01:54:08.337116 12543 net.cpp:139] Memory required for data: 156899400
I0322 01:54:08.337133 12543 layer_factory.hpp:77] Creating layer relu2
I0322 01:54:08.337146 12543 net.cpp:86] Creating Layer relu2
I0322 01:54:08.337153 12543 net.cpp:408] relu2 <- conv2
I0322 01:54:08.337163 12543 net.cpp:369] relu2 -> conv2 (in-place)
I0322 01:54:08.337510 12543 net.cpp:124] Setting up relu2
I0322 01:54:08.337528 12543 net.cpp:131] Top shape: 50 256 19 29 (7052800)
I0322 01:54:08.337534 12543 net.cpp:139] Memory required for data: 185110600
I0322 01:54:08.337541 12543 layer_factory.hpp:77] Creating layer pool2
I0322 01:54:08.337553 12543 net.cpp:86] Creating Layer pool2
I0322 01:54:08.337566 12543 net.cpp:408] pool2 <- conv2
I0322 01:54:08.337576 12543 net.cpp:382] pool2 -> pool2
I0322 01:54:08.337656 12543 net.cpp:124] Setting up pool2
I0322 01:54:08.337669 12543 net.cpp:131] Top shape: 50 256 9 14 (1612800)
I0322 01:54:08.337676 12543 net.cpp:139] Memory required for data: 191561800
I0322 01:54:08.337682 12543 layer_factory.hpp:77] Creating layer norm2
I0322 01:54:08.337695 12543 net.cpp:86] Creating Layer norm2
I0322 01:54:08.337702 12543 net.cpp:408] norm2 <- pool2
I0322 01:54:08.337713 12543 net.cpp:382] norm2 -> norm2
I0322 01:54:08.338466 12543 net.cpp:124] Setting up norm2
I0322 01:54:08.338488 12543 net.cpp:131] Top shape: 50 256 9 14 (1612800)
I0322 01:54:08.338495 12543 net.cpp:139] Memory required for data: 198013000
I0322 01:54:08.338502 12543 layer_factory.hpp:77] Creating layer conv3
I0322 01:54:08.338521 12543 net.cpp:86] Creating Layer conv3
I0322 01:54:08.338529 12543 net.cpp:408] conv3 <- norm2
I0322 01:54:08.338544 12543 net.cpp:382] conv3 -> conv3
I0322 01:54:08.359745 12543 net.cpp:124] Setting up conv3
I0322 01:54:08.359771 12543 net.cpp:131] Top shape: 50 384 9 14 (2419200)
I0322 01:54:08.359777 12543 net.cpp:139] Memory required for data: 207689800
I0322 01:54:08.359796 12543 layer_factory.hpp:77] Creating layer relu3
I0322 01:54:08.359807 12543 net.cpp:86] Creating Layer relu3
I0322 01:54:08.359813 12543 net.cpp:408] relu3 <- conv3
I0322 01:54:08.359822 12543 net.cpp:369] relu3 -> conv3 (in-place)
I0322 01:54:08.360121 12543 net.cpp:124] Setting up relu3
I0322 01:54:08.360138 12543 net.cpp:131] Top shape: 50 384 9 14 (2419200)
I0322 01:54:08.360144 12543 net.cpp:139] Memory required for data: 217366600
I0322 01:54:08.360150 12543 layer_factory.hpp:77] Creating layer conv4
I0322 01:54:08.360165 12543 net.cpp:86] Creating Layer conv4
I0322 01:54:08.360172 12543 net.cpp:408] conv4 <- conv3
I0322 01:54:08.360183 12543 net.cpp:382] conv4 -> conv4
I0322 01:54:08.376302 12543 net.cpp:124] Setting up conv4
I0322 01:54:08.376327 12543 net.cpp:131] Top shape: 50 384 9 14 (2419200)
I0322 01:54:08.376333 12543 net.cpp:139] Memory required for data: 227043400
I0322 01:54:08.376343 12543 layer_factory.hpp:77] Creating layer relu4
I0322 01:54:08.376356 12543 net.cpp:86] Creating Layer relu4
I0322 01:54:08.376363 12543 net.cpp:408] relu4 <- conv4
I0322 01:54:08.376370 12543 net.cpp:369] relu4 -> conv4 (in-place)
I0322 01:54:08.376642 12543 net.cpp:124] Setting up relu4
I0322 01:54:08.376658 12543 net.cpp:131] Top shape: 50 384 9 14 (2419200)
I0322 01:54:08.376672 12543 net.cpp:139] Memory required for data: 236720200
I0322 01:54:08.376696 12543 layer_factory.hpp:77] Creating layer conv5
I0322 01:54:08.376718 12543 net.cpp:86] Creating Layer conv5
I0322 01:54:08.376725 12543 net.cpp:408] conv5 <- conv4
I0322 01:54:08.376735 12543 net.cpp:382] conv5 -> conv5
I0322 01:54:08.388170 12543 net.cpp:124] Setting up conv5
I0322 01:54:08.388190 12543 net.cpp:131] Top shape: 50 256 9 14 (1612800)
I0322 01:54:08.388196 12543 net.cpp:139] Memory required for data: 243171400
I0322 01:54:08.388211 12543 layer_factory.hpp:77] Creating layer relu5
I0322 01:54:08.388221 12543 net.cpp:86] Creating Layer relu5
I0322 01:54:08.388226 12543 net.cpp:408] relu5 <- conv5
I0322 01:54:08.388236 12543 net.cpp:369] relu5 -> conv5 (in-place)
I0322 01:54:08.388487 12543 net.cpp:124] Setting up relu5
I0322 01:54:08.388500 12543 net.cpp:131] Top shape: 50 256 9 14 (1612800)
I0322 01:54:08.388505 12543 net.cpp:139] Memory required for data: 249622600
I0322 01:54:08.388510 12543 layer_factory.hpp:77] Creating layer pool5
I0322 01:54:08.388525 12543 net.cpp:86] Creating Layer pool5
I0322 01:54:08.388530 12543 net.cpp:408] pool5 <- conv5
I0322 01:54:08.388538 12543 net.cpp:382] pool5 -> pool5
I0322 01:54:08.388602 12543 net.cpp:124] Setting up pool5
I0322 01:54:08.388612 12543 net.cpp:131] Top shape: 50 256 4 7 (358400)
I0322 01:54:08.388617 12543 net.cpp:139] Memory required for data: 251056200
I0322 01:54:08.388620 12543 layer_factory.hpp:77] Creating layer fc6_msc
I0322 01:54:08.388634 12543 net.cpp:86] Creating Layer fc6_msc
I0322 01:54:08.388639 12543 net.cpp:408] fc6_msc <- pool5
I0322 01:54:08.388648 12543 net.cpp:382] fc6_msc -> fc6_msc
I0322 01:54:08.686419 12543 net.cpp:124] Setting up fc6_msc
I0322 01:54:08.686445 12543 net.cpp:131] Top shape: 50 4096 (204800)
I0322 01:54:08.686447 12543 net.cpp:139] Memory required for data: 251875400
I0322 01:54:08.686455 12543 layer_factory.hpp:77] Creating layer relu6
I0322 01:54:08.686463 12543 net.cpp:86] Creating Layer relu6
I0322 01:54:08.686466 12543 net.cpp:408] relu6 <- fc6_msc
I0322 01:54:08.686471 12543 net.cpp:369] relu6 -> fc6_msc (in-place)
I0322 01:54:08.686838 12543 net.cpp:124] Setting up relu6
I0322 01:54:08.686846 12543 net.cpp:131] Top shape: 50 4096 (204800)
I0322 01:54:08.686848 12543 net.cpp:139] Memory required for data: 252694600
I0322 01:54:08.686851 12543 layer_factory.hpp:77] Creating layer drop6
I0322 01:54:08.686856 12543 net.cpp:86] Creating Layer drop6
I0322 01:54:08.686857 12543 net.cpp:408] drop6 <- fc6_msc
I0322 01:54:08.686862 12543 net.cpp:369] drop6 -> fc6_msc (in-place)
I0322 01:54:08.686884 12543 net.cpp:124] Setting up drop6
I0322 01:54:08.686888 12543 net.cpp:131] Top shape: 50 4096 (204800)
I0322 01:54:08.686890 12543 net.cpp:139] Memory required for data: 253513800
I0322 01:54:08.686892 12543 layer_factory.hpp:77] Creating layer fc7_msc
I0322 01:54:08.686897 12543 net.cpp:86] Creating Layer fc7_msc
I0322 01:54:08.686900 12543 net.cpp:408] fc7_msc <- fc6_msc
I0322 01:54:08.686904 12543 net.cpp:382] fc7_msc -> fc7_msc
I0322 01:54:08.816339 12543 net.cpp:124] Setting up fc7_msc
I0322 01:54:08.816367 12543 net.cpp:131] Top shape: 50 4096 (204800)
I0322 01:54:08.816370 12543 net.cpp:139] Memory required for data: 254333000
I0322 01:54:08.816376 12543 layer_factory.hpp:77] Creating layer relu7
I0322 01:54:08.816385 12543 net.cpp:86] Creating Layer relu7
I0322 01:54:08.816387 12543 net.cpp:408] relu7 <- fc7_msc
I0322 01:54:08.816392 12543 net.cpp:369] relu7 -> fc7_msc (in-place)
I0322 01:54:08.816761 12543 net.cpp:124] Setting up relu7
I0322 01:54:08.816768 12543 net.cpp:131] Top shape: 50 4096 (204800)
I0322 01:54:08.816771 12543 net.cpp:139] Memory required for data: 255152200
I0322 01:54:08.816772 12543 layer_factory.hpp:77] Creating layer drop7
I0322 01:54:08.816777 12543 net.cpp:86] Creating Layer drop7
I0322 01:54:08.816781 12543 net.cpp:408] drop7 <- fc7_msc
I0322 01:54:08.816786 12543 net.cpp:369] drop7 -> fc7_msc (in-place)
I0322 01:54:08.816805 12543 net.cpp:124] Setting up drop7
I0322 01:54:08.816815 12543 net.cpp:131] Top shape: 50 4096 (204800)
I0322 01:54:08.816828 12543 net.cpp:139] Memory required for data: 255971400
I0322 01:54:08.816831 12543 layer_factory.hpp:77] Creating layer fc8_msc
I0322 01:54:08.816838 12543 net.cpp:86] Creating Layer fc8_msc
I0322 01:54:08.816843 12543 net.cpp:408] fc8_msc <- fc7_msc
I0322 01:54:08.816848 12543 net.cpp:382] fc8_msc -> fc8_msc
I0322 01:54:08.817252 12543 net.cpp:124] Setting up fc8_msc
I0322 01:54:08.817260 12543 net.cpp:131] Top shape: 50 2 (100)
I0322 01:54:08.817262 12543 net.cpp:139] Memory required for data: 255971800
I0322 01:54:08.817266 12543 layer_factory.hpp:77] Creating layer loss_msc
I0322 01:54:08.817270 12543 net.cpp:86] Creating Layer loss_msc
I0322 01:54:08.817273 12543 net.cpp:408] loss_msc <- fc8_msc
I0322 01:54:08.817276 12543 net.cpp:408] loss_msc <- label_msc
I0322 01:54:08.817282 12543 net.cpp:382] loss_msc -> loss
…
I0322 01:54:08.817785 12543 net.cpp:296] The NetState phase (1) differed from the phase (0) specified by a rule in layer data_msc
I0322 01:54:08.817903 12543 net.cpp:53] Initializing net from parameters: 
name: "MCaffeNet"
state {
  phase: TEST
}
layer {
  name: "data_msc"
  type: "ImageData"
  top: "data_msc"
  top: "label_msc"
  include {
    phase: TEST
  }
  transform_param {
    mean_value: 296
    mean_value: 103
    mean_value: 108
  }
  image_data_param {
    source: "/media/p307k07/ssd/opt/msc/data/test/list_caffe.txt"
    batch_size: 50
    new_height: 159
    new_width: 240
  }
}
layer {
  name: "conv1"
  type: "Convolution"
  bottom: "data_msc"
  top: "conv1"
  param {
    lr_mult: 0.01
    decay_mult: 0.01
  }
  param {
    lr_mult: 0.02
    decay_mult: 0
  }
  convolution_param {
    num_output: 96
    kernel_size: 11
    stride: 4
    weight_filler {
      type: "gaussian"
      std: 0.01
    }
    bias_filler {
      type: "constant"
      value: 0
    }
  }
}
layer {
  name: "relu1"
  type: "ReLU"
  bottom: "conv1"
  top: "conv1"
}
layer {
  name: "pool1"
  type: "Pooling"
  bottom: "conv1"
  top: "pool1"
  pooling_param {
    pool: MAX
    kernel_size: 3
    stride: 2
  }
}
layer {
  name: "norm1"
  type: "LRN"
  bottom: "pool1"
  top: "norm1"
  lrn_param {
    local_size: 5
    alpha: 0.0001
    beta: 0.75
  }
}
layer {
  name: "conv2"
  type: "Convolution"
  bottom: "norm1"
  top: "conv2"
  param {
    lr_mult: 0.01
    decay_mult: 0.01
  }
  param {
    lr_mult: 0.02
    decay_mult: 0
  }
  convolution_param {
    num_output: 256
    pad: 2
    kernel_size: 5
    group: 2
    weight_filler {
      type: "gaussian"
      std: 0.01
    }
    bias_filler {
      type: "constant"
      value: 1
    }
  }
}
layer {
  name: "relu2"
  type: "ReLU"
  bottom: "conv2"
  top: "conv2"
}
layer {
  name: "pool2"
  type: "Pooling"
  bottom: "conv2"
  top: "pool2"
  pooling_param {
    pool: MAX
    kernel_size: 3
    stride: 2
  }
}
layer {
  name: "norm2"
  type: "LRN"
  bottom: "pool2"
  top: "norm2"
  lrn_param {
    local_size: 5
    alpha: 0.0001
    beta: 0.75
  }
}
layer {
  name: "conv3"
  type: "Convolution"
  bottom: "norm2"
  top: "conv3"
  param {
    lr_mult: 0.01
    decay_mult: 0.01
  }
  param {
    lr_mult: 0.02
    decay_mult: 0
  }
  convolution_param {
    num_output: 384
    pad: 1
    kernel_size: 3
    weight_filler {
      type: "gaussian"
      std: 0.01
    }
    bias_filler {
      type: "constant"
      value: 0
    }
  }
}
layer {
  name: "relu3"
  type: "ReLU"
  bottom: "conv3"
  top: "conv3"
}
layer {
  name: "conv4"
  type: "Convolution"
  bottom: "conv3"
  top: "conv4"
  param {
    lr_mult: 0.01
    decay_mult: 0.01
  }
  param {
    lr_mult: 0.02
    decay_mult: 0
  }
  convolution_param {
    num_output: 384
    pad: 1
    kernel_size: 3
    group: 2
    weight_filler {
      type: "gaussian"
      std: 0.01
    }
    bias_filler {
      type: "constant"
      value: 1
    }
  }
}
layer {
  name: "relu4"
  type: "ReLU"
  bottom: "conv4"
  top: "conv4"
}
layer {
  name: "conv5"
  type: "Convolution"
  bottom: "conv4"
  top: "conv5"
  param {
    lr_mult: 0.01
    decay_mult: 0.01
  }
  param {
    lr_mult: 0.02
    decay_mult: 0
  }
  convolution_param {
    num_output: 256
    pad: 1
    kernel_size: 3
    group: 2
    weight_filler {
      type: "gaussian"
      std: 0.01
    }
    bias_filler {
      type: "constant"
      value: 1
    }
  }
}
layer {
  name: "relu5"
  type: "ReLU"
  bottom: "conv5"
  top: "conv5"
}
layer {
  name: "pool5"
  type: "Pooling"
  bottom: "conv5"
  top: "pool5"
  pooling_param {
    pool: MAX
    kernel_size: 3
    stride: 2
  }
}
layer {
  name: "fc6_msc"
  type: "InnerProduct"
  bottom: "pool5"
  top: "fc6_msc"
  param {
    lr_mult: 1
    decay_mult: 1
  }
  param {
    lr_mult: 2
    decay_mult: 0
  }
  inner_product_param {
    num_output: 4096
    weight_filler {
      type: "gaussian"
      std: 0.005
    }
    bias_filler {
      type: "constant"
      value: 1
    }
  }
}
layer {
  name: "relu6"
  type: "ReLU"
  bottom: "fc6_msc"
  top: "fc6_msc"
}
layer {
  name: "drop6"
  type: "Dropout"
  bottom: "fc6_msc"
  top: "fc6_msc"
  dropout_param {
    dropout_ratio: 0.5
  }
}
layer {
  name: "fc7_msc"
  type: "InnerProduct"
  bottom: "fc6_msc"
  top: "fc7_msc"
  param {
    lr_mult: 1
    decay_mult: 1
  }
  param {
    lr_mult: 2
    decay_mult: 0
  }
  inner_product_param {
    num_output: 4096
    weight_filler {
      type: "gaussian"
      std: 0.005
    }
    bias_filler {
      type: "constant"
      value: 1
    }
  }
}
layer {
  name: "relu7"
  type: "ReLU"
  bottom: "fc7_msc"
  top: "fc7_msc"
}
layer {
  name: "drop7"
  type: "Dropout"
  bottom: "fc7_msc"
  top: "fc7_msc"
  dropout_param {
    dropout_ratio: 0.5
  }
}
layer {
  name: "fc8_msc"
  type: "InnerProduct"
  bottom: "fc7_msc"
  top: "fc8_msc"
  param {
    lr_mult: 1
    decay_mult: 1
  }
  param {
    lr_mult: 2
    decay_mult: 0
  }
  inner_product_param {
    num_output: 2
    weight_filler {
      type: "gaussian"
      std: 0.01
    }
    bias_filler {
      type: "constant"
      value: 0
    }
  }
}
layer {
  name: "accuracy"
  type: "Accuracy"
  bottom: "fc8_msc"
  bottom: "label_msc"
  top: "accuracy"
  include {
    phase: TEST
  }
}
layer {
  name: "loss_msc"
  type: "SoftmaxWithLoss"
  bottom: "fc8_msc"
  bottom: "label_msc"
  top: "loss"
}
I0322 01:54:08.817983 12543 layer_factory.hpp:77] Creating layer data_msc
I0322 01:54:08.817994 12543 net.cpp:86] Creating Layer data_msc
I0322 01:54:08.817997 12543 net.cpp:382] data_msc -> data_msc
I0322 01:54:08.818003 12543 net.cpp:382] data_msc -> label_msc
I0322 01:54:08.818011 12543 image_data_layer.cpp:38] Opening file /media/p307k07/ssd/opt/msc/data/test/list_caffe.txt
I0322 01:54:08.850178 12543 image_data_layer.cpp:63] A total of 85562 images.
I0322 01:54:08.850847 12543 image_data_layer.cpp:90] output data size: 50,3,159,240
I0322 01:54:08.877377 12543 net.cpp:124] Setting up data_msc
I0322 01:54:08.877403 12543 net.cpp:131] Top shape: 50 3 159 240 (5724000)
I0322 01:54:08.877408 12543 net.cpp:131] Top shape: 50 (50)
I0322 01:54:08.877410 12543 net.cpp:139] Memory required for data: 22896200
I0322 01:54:08.877415 12543 layer_factory.hpp:77] Creating layer label_msc_data_msc_1_split
I0322 01:54:08.877424 12543 net.cpp:86] Creating Layer label_msc_data_msc_1_split
I0322 01:54:08.877429 12543 net.cpp:408] label_msc_data_msc_1_split <- label_msc
I0322 01:54:08.877434 12543 net.cpp:382] label_msc_data_msc_1_split -> label_msc_data_msc_1_split_0
I0322 01:54:08.877441 12543 net.cpp:382] label_msc_data_msc_1_split -> label_msc_data_msc_1_split_1
I0322 01:54:08.877496 12543 net.cpp:124] Setting up label_msc_data_msc_1_split
I0322 01:54:08.877501 12543 net.cpp:131] Top shape: 50 (50)
I0322 01:54:08.877503 12543 net.cpp:131] Top shape: 50 (50)
I0322 01:54:08.877506 12543 net.cpp:139] Memory required for data: 22896600
I0322 01:54:08.877507 12543 layer_factory.hpp:77] Creating layer conv1
I0322 01:54:08.877517 12543 net.cpp:86] Creating Layer conv1
I0322 01:54:08.877521 12543 net.cpp:408] conv1 <- data_msc
I0322 01:54:08.877524 12543 net.cpp:382] conv1 -> conv1
I0322 01:54:08.878690 12543 net.cpp:124] Setting up conv1
I0322 01:54:08.878700 12543 net.cpp:131] Top shape: 50 96 38 58 (10579200)
I0322 01:54:08.878703 12543 net.cpp:139] Memory required for data: 65213400
I0322 01:54:08.878711 12543 layer_factory.hpp:77] Creating layer relu1
I0322 01:54:08.878716 12543 net.cpp:86] Creating Layer relu1
I0322 01:54:08.878720 12543 net.cpp:408] relu1 <- conv1
I0322 01:54:08.878722 12543 net.cpp:369] relu1 -> conv1 (in-place)
I0322 01:54:08.878834 12543 net.cpp:124] Setting up relu1
I0322 01:54:08.878839 12543 net.cpp:131] Top shape: 50 96 38 58 (10579200)
I0322 01:54:08.878841 12543 net.cpp:139] Memory required for data: 107530200
I0322 01:54:08.878844 12543 layer_factory.hpp:77] Creating layer pool1
I0322 01:54:08.878849 12543 net.cpp:86] Creating Layer pool1
I0322 01:54:08.878851 12543 net.cpp:408] pool1 <- conv1
I0322 01:54:08.878855 12543 net.cpp:382] pool1 -> pool1
I0322 01:54:08.878887 12543 net.cpp:124] Setting up pool1
I0322 01:54:08.878891 12543 net.cpp:131] Top shape: 50 96 19 29 (2644800)
I0322 01:54:08.878893 12543 net.cpp:139] Memory required for data: 118109400
I0322 01:54:08.878895 12543 layer_factory.hpp:77] Creating layer norm1
I0322 01:54:08.878901 12543 net.cpp:86] Creating Layer norm1
I0322 01:54:08.878902 12543 net.cpp:408] norm1 <- pool1
I0322 01:54:08.878906 12543 net.cpp:382] norm1 -> norm1
I0322 01:54:08.881000 12543 net.cpp:124] Setting up norm1
I0322 01:54:08.881011 12543 net.cpp:131] Top shape: 50 96 19 29 (2644800)
I0322 01:54:08.881012 12543 net.cpp:139] Memory required for data: 128688600
I0322 01:54:08.881016 12543 layer_factory.hpp:77] Creating layer conv2
I0322 01:54:08.881022 12543 net.cpp:86] Creating Layer conv2
I0322 01:54:08.881026 12543 net.cpp:408] conv2 <- norm1
I0322 01:54:08.881036 12543 net.cpp:382] conv2 -> conv2
I0322 01:54:08.884927 12543 net.cpp:124] Setting up conv2
I0322 01:54:08.884938 12543 net.cpp:131] Top shape: 50 256 19 29 (7052800)
I0322 01:54:08.884940 12543 net.cpp:139] Memory required for data: 156899800
I0322 01:54:08.884948 12543 layer_factory.hpp:77] Creating layer relu2
I0322 01:54:08.884953 12543 net.cpp:86] Creating Layer relu2
I0322 01:54:08.884954 12543 net.cpp:408] relu2 <- conv2
I0322 01:54:08.884958 12543 net.cpp:369] relu2 -> conv2 (in-place)
I0322 01:54:08.885071 12543 net.cpp:124] Setting up relu2
I0322 01:54:08.885076 12543 net.cpp:131] Top shape: 50 256 19 29 (7052800)
I0322 01:54:08.885077 12543 net.cpp:139] Memory required for data: 185111000
I0322 01:54:08.885080 12543 layer_factory.hpp:77] Creating layer pool2
I0322 01:54:08.885085 12543 net.cpp:86] Creating Layer pool2
I0322 01:54:08.885088 12543 net.cpp:408] pool2 <- conv2
I0322 01:54:08.885092 12543 net.cpp:382] pool2 -> pool2
I0322 01:54:08.885121 12543 net.cpp:124] Setting up pool2
I0322 01:54:08.885125 12543 net.cpp:131] Top shape: 50 256 9 14 (1612800)
I0322 01:54:08.885128 12543 net.cpp:139] Memory required for data: 191562200
I0322 01:54:08.885129 12543 layer_factory.hpp:77] Creating layer norm2
I0322 01:54:08.885134 12543 net.cpp:86] Creating Layer norm2
I0322 01:54:08.885136 12543 net.cpp:408] norm2 <- pool2
I0322 01:54:08.885139 12543 net.cpp:382] norm2 -> norm2
I0322 01:54:08.885421 12543 net.cpp:124] Setting up norm2
I0322 01:54:08.885428 12543 net.cpp:131] Top shape: 50 256 9 14 (1612800)
I0322 01:54:08.885431 12543 net.cpp:139] Memory required for data: 198013400
I0322 01:54:08.885433 12543 layer_factory.hpp:77] Creating layer conv3
I0322 01:54:08.885439 12543 net.cpp:86] Creating Layer conv3
I0322 01:54:08.885442 12543 net.cpp:408] conv3 <- norm2
I0322 01:54:08.885447 12543 net.cpp:382] conv3 -> conv3
I0322 01:54:08.893121 12543 net.cpp:124] Setting up conv3
I0322 01:54:08.893136 12543 net.cpp:131] Top shape: 50 384 9 14 (2419200)
I0322 01:54:08.893138 12543 net.cpp:139] Memory required for data: 207690200
I0322 01:54:08.893146 12543 layer_factory.hpp:77] Creating layer relu3
I0322 01:54:08.893151 12543 net.cpp:86] Creating Layer relu3
I0322 01:54:08.893154 12543 net.cpp:408] relu3 <- conv3
I0322 01:54:08.893158 12543 net.cpp:369] relu3 -> conv3 (in-place)
I0322 01:54:08.893415 12543 net.cpp:124] Setting up relu3
I0322 01:54:08.893422 12543 net.cpp:131] Top shape: 50 384 9 14 (2419200)
I0322 01:54:08.893425 12543 net.cpp:139] Memory required for data: 217367000
I0322 01:54:08.893427 12543 layer_factory.hpp:77] Creating layer conv4
I0322 01:54:08.893435 12543 net.cpp:86] Creating Layer conv4
I0322 01:54:08.893437 12543 net.cpp:408] conv4 <- conv3
I0322 01:54:08.893441 12543 net.cpp:382] conv4 -> conv4
I0322 01:54:08.900221 12543 net.cpp:124] Setting up conv4
I0322 01:54:08.900238 12543 net.cpp:131] Top shape: 50 384 9 14 (2419200)
I0322 01:54:08.900239 12543 net.cpp:139] Memory required for data: 227043800
I0322 01:54:08.900245 12543 layer_factory.hpp:77] Creating layer relu4
I0322 01:54:08.900250 12543 net.cpp:86] Creating Layer relu4
I0322 01:54:08.900254 12543 net.cpp:408] relu4 <- conv4
I0322 01:54:08.900257 12543 net.cpp:369] relu4 -> conv4 (in-place)
I0322 01:54:08.900377 12543 net.cpp:124] Setting up relu4
I0322 01:54:08.900382 12543 net.cpp:131] Top shape: 50 384 9 14 (2419200)
I0322 01:54:08.900384 12543 net.cpp:139] Memory required for data: 236720600
I0322 01:54:08.900388 12543 layer_factory.hpp:77] Creating layer conv5
I0322 01:54:08.900393 12543 net.cpp:86] Creating Layer conv5
I0322 01:54:08.900396 12543 net.cpp:408] conv5 <- conv4
I0322 01:54:08.900400 12543 net.cpp:382] conv5 -> conv5
I0322 01:54:08.905277 12543 net.cpp:124] Setting up conv5
I0322 01:54:08.905287 12543 net.cpp:131] Top shape: 50 256 9 14 (1612800)
I0322 01:54:08.905290 12543 net.cpp:139] Memory required for data: 243171800
I0322 01:54:08.905298 12543 layer_factory.hpp:77] Creating layer relu5
I0322 01:54:08.905303 12543 net.cpp:86] Creating Layer relu5
I0322 01:54:08.905305 12543 net.cpp:408] relu5 <- conv5
I0322 01:54:08.905314 12543 net.cpp:369] relu5 -> conv5 (in-place)
I0322 01:54:08.905432 12543 net.cpp:124] Setting up relu5
I0322 01:54:08.905438 12543 net.cpp:131] Top shape: 50 256 9 14 (1612800)
I0322 01:54:08.905441 12543 net.cpp:139] Memory required for data: 249623000
I0322 01:54:08.905443 12543 layer_factory.hpp:77] Creating layer pool5
I0322 01:54:08.905449 12543 net.cpp:86] Creating Layer pool5
I0322 01:54:08.905452 12543 net.cpp:408] pool5 <- conv5
I0322 01:54:08.905455 12543 net.cpp:382] pool5 -> pool5
I0322 01:54:08.905485 12543 net.cpp:124] Setting up pool5
I0322 01:54:08.905489 12543 net.cpp:131] Top shape: 50 256 4 7 (358400)
I0322 01:54:08.905491 12543 net.cpp:139] Memory required for data: 251056600
I0322 01:54:08.905493 12543 layer_factory.hpp:77] Creating layer fc6_msc
I0322 01:54:08.905498 12543 net.cpp:86] Creating Layer fc6_msc
I0322 01:54:08.905500 12543 net.cpp:408] fc6_msc <- pool5
I0322 01:54:08.905504 12543 net.cpp:382] fc6_msc -> fc6_msc
I0322 01:54:09.134821 12543 net.cpp:124] Setting up fc6_msc
I0322 01:54:09.134850 12543 net.cpp:131] Top shape: 50 4096 (204800)
I0322 01:54:09.134852 12543 net.cpp:139] Memory required for data: 251875800
I0322 01:54:09.134860 12543 layer_factory.hpp:77] Creating layer relu6
I0322 01:54:09.134866 12543 net.cpp:86] Creating Layer relu6
I0322 01:54:09.134871 12543 net.cpp:408] relu6 <- fc6_msc
I0322 01:54:09.134876 12543 net.cpp:369] relu6 -> fc6_msc (in-place)
I0322 01:54:09.135249 12543 net.cpp:124] Setting up relu6
I0322 01:54:09.135257 12543 net.cpp:131] Top shape: 50 4096 (204800)
I0322 01:54:09.135259 12543 net.cpp:139] Memory required for data: 252695000
I0322 01:54:09.135262 12543 layer_factory.hpp:77] Creating layer drop6
I0322 01:54:09.135267 12543 net.cpp:86] Creating Layer drop6
I0322 01:54:09.135269 12543 net.cpp:408] drop6 <- fc6_msc
I0322 01:54:09.135272 12543 net.cpp:369] drop6 -> fc6_msc (in-place)
I0322 01:54:09.135294 12543 net.cpp:124] Setting up drop6
I0322 01:54:09.135298 12543 net.cpp:131] Top shape: 50 4096 (204800)
I0322 01:54:09.135300 12543 net.cpp:139] Memory required for data: 253514200
I0322 01:54:09.135303 12543 layer_factory.hpp:77] Creating layer fc7_msc
I0322 01:54:09.135308 12543 net.cpp:86] Creating Layer fc7_msc
I0322 01:54:09.135310 12543 net.cpp:408] fc7_msc <- fc6_msc
I0322 01:54:09.135313 12543 net.cpp:382] fc7_msc -> fc7_msc
I0322 01:54:09.264755 12543 net.cpp:124] Setting up fc7_msc
I0322 01:54:09.264783 12543 net.cpp:131] Top shape: 50 4096 (204800)
I0322 01:54:09.264786 12543 net.cpp:139] Memory required for data: 254333400
I0322 01:54:09.264793 12543 layer_factory.hpp:77] Creating layer relu7
I0322 01:54:09.264801 12543 net.cpp:86] Creating Layer relu7
I0322 01:54:09.264803 12543 net.cpp:408] relu7 <- fc7_msc
I0322 01:54:09.264808 12543 net.cpp:369] relu7 -> fc7_msc (in-place)
I0322 01:54:09.264973 12543 net.cpp:124] Setting up relu7
I0322 01:54:09.264979 12543 net.cpp:131] Top shape: 50 4096 (204800)
I0322 01:54:09.264981 12543 net.cpp:139] Memory required for data: 255152600
I0322 01:54:09.264983 12543 layer_factory.hpp:77] Creating layer drop7
I0322 01:54:09.264988 12543 net.cpp:86] Creating Layer drop7
I0322 01:54:09.264991 12543 net.cpp:408] drop7 <- fc7_msc
I0322 01:54:09.264994 12543 net.cpp:369] drop7 -> fc7_msc (in-place)
I0322 01:54:09.265013 12543 net.cpp:124] Setting up drop7
I0322 01:54:09.265017 12543 net.cpp:131] Top shape: 50 4096 (204800)
I0322 01:54:09.265019 12543 net.cpp:139] Memory required for data: 255971800
I0322 01:54:09.265022 12543 layer_factory.hpp:77] Creating layer fc8_msc
I0322 01:54:09.265027 12543 net.cpp:86] Creating Layer fc8_msc
I0322 01:54:09.265029 12543 net.cpp:408] fc8_msc <- fc7_msc
I0322 01:54:09.265033 12543 net.cpp:382] fc8_msc -> fc8_msc
I0322 01:54:09.265166 12543 net.cpp:124] Setting up fc8_msc
I0322 01:54:09.265171 12543 net.cpp:131] Top shape: 50 2 (100)
I0322 01:54:09.265172 12543 net.cpp:139] Memory required for data: 255972200
I0322 01:54:09.265177 12543 layer_factory.hpp:77] Creating layer fc8_msc_fc8_msc_0_split
I0322 01:54:09.265188 12543 net.cpp:86] Creating Layer fc8_msc_fc8_msc_0_split
I0322 01:54:09.265202 12543 net.cpp:408] fc8_msc_fc8_msc_0_split <- fc8_msc
I0322 01:54:09.265208 12543 net.cpp:382] fc8_msc_fc8_msc_0_split -> fc8_msc_fc8_msc_0_split_0
I0322 01:54:09.265213 12543 net.cpp:382] fc8_msc_fc8_msc_0_split -> fc8_msc_fc8_msc_0_split_1
I0322 01:54:09.265245 12543 net.cpp:124] Setting up fc8_msc_fc8_msc_0_split
I0322 01:54:09.265250 12543 net.cpp:131] Top shape: 50 2 (100)
I0322 01:54:09.265252 12543 net.cpp:131] Top shape: 50 2 (100)
I0322 01:54:09.265254 12543 net.cpp:139] Memory required for data: 255973000
I0322 01:54:09.265256 12543 layer_factory.hpp:77] Creating layer accuracy
I0322 01:54:09.265261 12543 net.cpp:86] Creating Layer accuracy
I0322 01:54:09.265264 12543 net.cpp:408] accuracy <- fc8_msc_fc8_msc_0_split_0
I0322 01:54:09.265267 12543 net.cpp:408] accuracy <- label_msc_data_msc_1_split_0
I0322 01:54:09.265270 12543 net.cpp:382] accuracy -> accuracy
…
